 'EXP_DIR': 'faster_rcnn_end2end',
          'NMS': 0.3,
           'BBOX_INSIDE_WEIGHTS': [1.0, 1.0, 1.0, 1.0],
           'FG_THRESH': 0.5,
           'RPN_NEGATIVE_OVERLAP': 0.3,
           'USE_PREFETCH': False},
Output will be saved to `/nfs/zhengmeisong/wkspace/caffe_wk/py-faster-rcnn/output/faster_rcnn_end2end/voc_2007_trainval`
 [0. 0. 0. 0.]
 [0.1 0.1 0.2 0.2]
lr_policy: "step"
I0610 23:47:34.710350 38627 net.cpp:49] Initializing net from parameters: 
  top: "gt_boxes"
  bottom: "data"
  convolution_param {
  top: "conv1_1"
  }
}
  bottom: "conv1_2"
  type: "Convolution"
  }
  bottom: "conv2_1"
    decay_mult: 0
  }
  type: "Pooling"
  name: "conv3_1"
  convolution_param {
  top: "conv3_1"
  param {
  name: "relu3_2"
  param {
  }
  type: "Pooling"
  name: "conv4_1"
  convolution_param {
  top: "conv4_1"
  param {
  name: "relu4_2"
  param {
  }
  type: "Pooling"
  name: "conv5_1"
  convolution_param {
  top: "conv5_1"
  param {
  name: "relu5_2"
  param {
  }
  type: "Convolution"
    num_output: 512
      value: 0
layer {
  }
    bias_filler {
  top: "rpn_bbox_pred"
    kernel_size: 1
  }
      dim: 2
  bottom: "gt_boxes"
    param_str: "\'feat_stride\': 16"
  propagate_down: true
  bottom: "rpn_bbox_pred"
layer {
  top: "rpn_cls_prob_reshape"
layer {
    param_str: "\'feat_stride\': 16"
  top: "bbox_targets"
  name: "roi_pool5"
}
    lr_mult: 2
  top: "fc6"
}
    lr_mult: 2
  top: "fc7"
}
    lr_mult: 2
      value: 0
    lr_mult: 1
    }
  bottom: "cls_score"
  bottom: "bbox_pred"
I0610 23:47:34.748191 38627 net.cpp:411] input-data -> im_info
I0610 23:47:35.270687 38627 net.cpp:454] data_input-data_0_split <- data
I0610 23:47:35.270884 38627 net.cpp:411] im_info_input-data_1_split -> im_info_input-data_1_split_0
I0610 23:47:35.271040 38627 net.cpp:411] gt_boxes_input-data_2_split -> gt_boxes_input-data_2_split_1
I0610 23:47:35.279269 38627 net.cpp:157] Top shape: 1 64 224 360 (5160960)
I0610 23:47:35.279407 38627 net.cpp:106] Creating Layer conv1_2
I0610 23:47:35.284104 38627 net.cpp:150] Setting up relu1_2
I0610 23:47:35.284288 38627 layer_factory.hpp:77] Creating layer conv2_1
I0610 23:47:35.284817 38627 net.cpp:397] relu2_1 -> conv2_1 (in-place)
I0610 23:47:35.285382 38627 net.cpp:165] Memory required for data: 121605204
I0610 23:47:35.285506 38627 net.cpp:454] pool2 <- conv2_2
I0610 23:47:35.293851 38627 net.cpp:157] Top shape: 1 256 56 90 (1290240)
I0610 23:47:35.293977 38627 net.cpp:106] Creating Layer conv3_2
I0610 23:47:35.299296 38627 net.cpp:150] Setting up relu3_2
I0610 23:47:35.304477 38627 layer_factory.hpp:77] Creating layer relu3_3
I0610 23:47:35.304594 38627 net.cpp:411] pool3 -> pool3
I0610 23:47:35.314502 38627 net.cpp:165] Memory required for data: 169344084
I0610 23:47:35.314673 38627 net.cpp:454] conv4_2 <- conv4_1
I0610 23:47:35.323643 38627 net.cpp:157] Top shape: 1 512 28 45 (645120)
I0610 23:47:35.339144 38627 net.cpp:106] Creating Layer relu4_3
I0610 23:47:35.339350 38627 net.cpp:150] Setting up pool4
I0610 23:47:35.348135 38627 layer_factory.hpp:77] Creating layer relu5_1
I0610 23:47:35.348299 38627 net.cpp:411] conv5_2 -> conv5_2
I0610 23:47:35.357170 38627 net.cpp:165] Memory required for data: 185543764
I0610 23:47:35.366847 38627 net.cpp:454] relu5_3 <- conv5_3
I0610 23:47:35.367041 38627 net.cpp:150] Setting up conv5_3_relu5_3_0_split
I0610 23:47:35.395782 38627 net.cpp:165] Memory required for data: 188841044
I0610 23:47:35.395913 38627 net.cpp:454] rpn/output_rpn_relu/3x3_0_split <- rpn/output
I0610 23:47:35.396104 38627 net.cpp:411] rpn_cls_score -> rpn_cls_score
I0610 23:47:35.396837 38627 net.cpp:157] Top shape: 1 18 14 23 (5796)
I0610 23:47:35.397531 38627 layer_factory.hpp:77] Creating layer rpn_bbox_pred_rpn_bbox_pred_0_split
I0610 23:47:35.397716 38627 net.cpp:106] Creating Layer rpn_cls_score_reshape
I0610 23:47:35.397874 38627 net.cpp:411] rpn_cls_score_reshape_rpn_cls_score_reshape_0_split -> rpn_cls_score_reshape_rpn_cls_score_reshape_0_split_1
I0610 23:47:35.419059 38627 net.cpp:454] rpn-data <- data_input-data_0_split_1
I0610 23:47:35.420342 38627 net.cpp:165] Memory required for data: 191248316
I0610 23:47:35.420752 38627 net.cpp:165] Memory required for data: 191248320
I0610 23:47:35.421174 38627 net.cpp:160]     with loss weight 1
I0610 23:47:35.421433 38627 net.cpp:106] Creating Layer rpn_cls_prob_reshape
I0610 23:47:35.436319 38627 net.cpp:454] proposal <- im_info_input-data_1_split_1
I0610 23:47:35.440727 38627 net.cpp:411] roi-data -> labels
I0610 23:47:35.457412 38627 net.cpp:165] Memory required for data: 191295120
I0610 23:47:35.457674 38627 layer_factory.hpp:77] Creating layer fc6
I0610 23:47:35.815591 38627 net.cpp:397] relu6 -> fc6 (in-place)
I0610 23:47:35.815840 38627 net.cpp:165] Memory required for data: 191444624
I0610 23:47:35.876461 38627 net.cpp:454] relu7 <- fc7
I0610 23:47:35.876674 38627 net.cpp:157] Top shape: 1 4096 (4096)
I0610 23:47:35.876863 38627 net.cpp:165] Memory required for data: 191526544
I0610 23:47:35.877511 38627 net.cpp:454] bbox_pred <- fc7_drop7_0_split_1
I0610 23:47:35.879146 38627 layer_factory.hpp:77] Creating layer loss_cls
I0610 23:47:35.879426 38627 net.cpp:454] loss_bbox <- bbox_outside_weights
I0610 23:47:35.879667 38627 net.cpp:226] fc7_drop7_0_split needs backward computation.
I0610 23:47:35.879832 38627 net.cpp:226] rpn_cls_prob_reshape needs backward computation.
…
I0611 05:15:43.906615 38627 solver.cpp:245]     Train net output #2: rpn_cls_loss = 2.44745e-05 (* 1 = 2.44745e-05 loss)
I0611 05:15:49.201001 38627 solver.cpp:245]     Train net output #0: loss_bbox = 0.274592 (* 1 = 0.274592 loss)
I0611 05:15:51.622267 38627 sgd_solver.cpp:106] Iteration 149980, lr = 1e-06
Called with args:
 'PIXEL_MEANS': array([[[102.9801, 115.9465, 122.7717]]]),
          'RPN_POST_NMS_TOP_N': 300,
           'BBOX_NORMALIZE_TARGETS_PRECOMPUTED': True,
           'PROPOSAL_METHOD': 'gt',
           'RPN_POST_NMS_TOP_N': 2000,
name: "VGG_ILSVRC_16_layers"
  dim: 224
  top: "conv1_1"
    num_output: 64
}
  param {
layer {
  top: "pool1"
  bottom: "pool1"
  convolution_param {
  top: "conv2_1"
  }
}
  bottom: "conv2_2"
  type: "Convolution"
  }
  bottom: "conv3_1"
    decay_mult: 1
  }
  type: "Convolution"
  }
  bottom: "conv3_3"
    kernel_size: 2
    lr_mult: 1
    kernel_size: 3
  name: "conv4_2"
    decay_mult: 0
  type: "ReLU"
    lr_mult: 1
    kernel_size: 3
  name: "pool4"
layer {
    lr_mult: 2
  name: "relu5_1"
  param {
    pad: 1
layer {
    lr_mult: 2
  name: "relu5_3"
  param {
    pad: 1
    }
  name: "rpn_cls_score"
    decay_mult: 0
    }
  bottom: "rpn/output"
  convolution_param {
      type: "constant"
  reshape_param {
  name: "rpn_cls_prob"
  reshape_param {
  name: "proposal"
  }
    pooled_w: 7
    lr_mult: 1
}
  bottom: "fc6"
  top: "fc7"
    num_output: 4096
  name: "drop7"
  type: "InnerProduct"
  }
    }
    decay_mult: 1
      std: 0.001
  type: "Softmax"
I0611 05:16:32.232605 41319 net.cpp:150] Setting up conv1_1
I0611 05:16:32.232764 41319 layer_factory.hpp:77] Creating layer conv1_2
I0611 05:16:32.233302 41319 net.cpp:397] relu1_2 -> conv1_2 (in-place)
I0611 05:16:32.233527 41319 net.cpp:165] Memory required for data: 54591488
I0611 05:16:32.241586 41319 net.cpp:454] relu2_1 <- conv2_1
I0611 05:16:32.242388 41319 net.cpp:157] Top shape: 1 128 112 112 (1605632)
I0611 05:16:32.242568 41319 net.cpp:106] Creating Layer pool2
I0611 05:16:32.243403 41319 net.cpp:150] Setting up conv3_1
I0611 05:16:32.243592 41319 layer_factory.hpp:77] Creating layer conv3_2
I0611 05:16:32.248095 41319 net.cpp:397] relu3_2 -> conv3_2 (in-place)
I0611 05:16:32.252477 41319 net.cpp:165] Memory required for data: 97943552
I0611 05:16:32.252697 41319 net.cpp:454] pool3 <- conv3_3
I0611 05:16:32.264427 41319 net.cpp:157] Top shape: 1 512 28 28 (401408)
I0611 05:16:32.264645 41319 net.cpp:106] Creating Layer conv4_2
I0611 05:16:32.274111 41319 net.cpp:150] Setting up relu4_2
I0611 05:16:32.285385 41319 layer_factory.hpp:77] Creating layer relu4_3
I0611 05:16:32.285537 41319 net.cpp:411] pool4 -> pool4
I0611 05:16:32.294486 41319 net.cpp:165] Memory required for data: 112394240
I0611 05:16:32.294598 41319 net.cpp:454] conv5_2 <- conv5_1
I0611 05:16:32.304399 41319 net.cpp:157] Top shape: 1 512 14 14 (100352)
I0611 05:16:32.316159 41319 net.cpp:106] Creating Layer relu5_3
I0611 05:16:32.316371 41319 net.cpp:411] conv5_3_relu5_3_0_split -> conv5_3_relu5_3_0_split_1
I0611 05:16:32.346470 41319 net.cpp:157] Top shape: 1 512 14 14 (100352)
I0611 05:16:32.346607 41319 net.cpp:106] Creating Layer rpn/output_rpn_relu/3x3_0_split
I0611 05:16:32.346837 41319 net.cpp:454] rpn_cls_score <- rpn/output_rpn_relu/3x3_0_split_0
I0611 05:16:32.348032 41319 net.cpp:157] Top shape: 1 36 14 14 (7056)
I0611 05:16:32.348201 41319 net.cpp:106] Creating Layer rpn_cls_prob
I0611 05:16:32.348453 41319 net.cpp:150] Setting up rpn_cls_prob_reshape
I0611 05:16:32.376397 41319 net.cpp:157] Top shape: 1 5 (5)
I0611 05:16:32.376643 41319 net.cpp:165] Memory required for data: 116994772
I0611 05:16:32.749198 41319 net.cpp:454] relu6 <- fc6
I0611 05:16:32.749377 41319 net.cpp:157] Top shape: 1 4096 (4096)
I0611 05:16:32.816395 41319 net.cpp:106] Creating Layer relu7
I0611 05:16:32.816601 41319 net.cpp:150] Setting up drop7
I0611 05:16:32.816814 41319 net.cpp:157] Top shape: 1 4096 (4096)
I0611 05:16:32.817474 41319 net.cpp:106] Creating Layer bbox_pred
I0611 05:16:32.823007 41319 net.cpp:150] Setting up cls_prob
I0611 05:16:32.823112 41319 net.cpp:228] drop6 does not need backward computation.
I0611 05:16:32.823279 41319 net.cpp:228] rpn/output_rpn_relu/3x3_0_split does not need backward computation.
I0611 05:16:32.823379 41319 net.cpp:228] pool4 does not need backward computation.
…
