…
snapshot_prefix: "vgg16_faster_rcnn"
average_loss: 100
iter_size: 2
I0610 12:35:49.991219 19351 solver.cpp:77] Creating training net from train_net file: models/pascal_voc/VGG16/faster_rcnn_end2end/train.prototxt
I0610 12:35:49.991685 19351 net.cpp:51] Initializing net from parameters: 
name: "VGG_ILSVRC_16_layers"
state {
  phase: TRAIN
}
layer {
  name: "input-data"
  type: "Python"
  top: "data"
  top: "im_info"
  top: "gt_boxes"
  top: "flags"
  python_param {
    module: "roi_data_layer.layer"
    layer: "RoIDataLayer"
    param_str: "\'num_classes\': 8"
  }
}
layer {
  name: "conv1_1"
  type: "Convolution"
  bottom: "data"
  top: "conv1_1"
  param {
    lr_mult: 0
    decay_mult: 0
  }
  param {
    lr_mult: 0
    decay_mult: 0
  }
  convolution_param {
    num_output: 64
    pad: 1
    kernel_size: 3
  }
}
layer {
  name: "relu1_1"
  type: "ReLU"
  bottom: "conv1_1"
  top: "conv1_1"
}
layer {
  name: "conv1_2"
  type: "Convolution"
  bottom: "conv1_1"
  top: "conv1_2"
  param {
    lr_mult: 0
    decay_mult: 0
  }
  param {
    lr_mult: 0
    decay_mult: 0
  }
  convolution_param {
    num_output: 64
    pad: 1
    kernel_size: 3
  }
}
layer {
  name: "relu1_2"
  type: "ReLU"
  bottom: "conv1_2"
  top: "conv1_2"
}
layer {
  name: "pool1"
  type: "Pooling"
  bottom: "conv1_2"
  top: "pool1"
  pooling_param {
    pool: MAX
    kernel_size: 2
    stride: 2
  }
}
layer {
  name: "conv2_1"
  type: "Convolution"
  bottom: "pool1"
  top: "conv2_1"
  param {
    lr_mult: 0
    decay_mult: 0
  }
  param {
    lr_mult: 0
    decay_mult: 0
  }
  convolution_param {
    num_output: 128
    pad: 1
    kernel_size: 3
  }
}
layer {
  name: "relu2_1"
  type: "ReLU"
  bottom: "conv2_1"
  top: "conv2_1"
}
layer {
  name: "conv2_2"
  type: "Convolution"
  bottom: "conv2_1"
  top: "conv2_2"
  param {
    lr_mult: 0
    decay_mult: 0
  }
  param {
    lr_mult: 0
    decay_mult: 0
  }
  convolution_param {
    num_output: 128
    pad: 1
    kernel_size: 3
  }
}
layer {
  name: "relu2_2"
  type: "ReLU"
  bottom: "conv2_2"
  top: "conv2_2"
}
layer {
  name: "pool2"
  type: "Pooling"
  bottom: "conv2_2"
  top: "pool2"
  pooling_param {
    pool: MAX
    kernel_size: 2
    stride: 2
  }
}
layer {
  name: "conv3_1"
  type: "Convolution"
  bottom: "pool2"
  top: "conv3_1"
  param {
    lr_mult: 1
  }
  param {
    lr_mult: 2
  }
  convolution_param {
    num_output: 256
    pad: 1
    kernel_size: 3
  }
}
layer {
  name: "relu3_1"
  type: "ReLU"
  bottom: "conv3_1"
  top: "conv3_1"
}
layer {
  name: "conv3_2"
  type: "Convolution"
  bottom: "conv3_1"
  top: "conv3_2"
  param {
    lr_mult: 1
  }
  param {
    lr_mult: 2
  }
  convolution_param {
    num_output: 256
    pad: 1
    kernel_size: 3
  }
}
layer {
  name: "relu3_2"
  type: "ReLU"
  bottom: "conv3_2"
  top: "conv3_2"
}
layer {
  name: "conv3_3"
  type: "Convolution"
  bottom: "conv3_2"
  top: "conv3_3"
  param {
    lr_mult: 1
  }
  param {
    lr_mult: 2
  }
  convolution_param {
    num_output: 256
    pad: 1
    kernel_size: 3
  }
}
layer {
  name: "relu3_3"
  type: "ReLU"
  bottom: "conv3_3"
  top: "conv3_3"
}
layer {
  name: "pool3"
  type: "Pooling"
  bottom: "conv3_3"
  top: "pool3"
  pooling_param {
    pool: MAX
    kernel_size: 2
    stride: 2
  }
}
layer {
  name: "conv4_1"
  type: "Convolution"
  bottom: "pool3"
  top: "conv4_1"
  param {
    lr_mult: 1
  }
  param {
    lr_mult: 2
  }
  convolution_param {
    num_output: 512
    pad: 1
    kernel_size: 3
  }
}
layer {
  name: "relu4_1"
  type: "ReLU"
  bottom: "conv4_1"
  top: "conv4_1"
}
layer {
  name: "conv4_2"
  type: "Convolution"
  bottom: "conv4_1"
  top: "conv4_2"
  param {
    lr_mult: 1
  }
  param {
    lr_mult: 2
  }
  convolution_param {
    num_output: 512
    pad: 1
    kernel_size: 3
  }
}
layer {
  name: "relu4_2"
  type: "ReLU"
  bottom: "conv4_2"
  top: "conv4_2"
}
layer {
  name: "conv4_3"
  type: "Convolution"
  bottom: "conv4_2"
  top: "conv4_3"
  param {
    lr_mult: 1
  }
  param {
    lr_mult: 2
  }
  convolution_param {
    num_output: 512
    pad: 1
    kernel_size: 3
  }
}
layer {
  name: "relu4_3"
  type: "ReLU"
  bottom: "conv4_3"
  top: "conv4_3"
}
layer {
  name: "pool4"
  type: "Pooling"
  bottom: "conv4_3"
  top: "pool4"
  pooling_param {
    pool: MAX
    kernel_size: 2
    stride: 2
  }
}
layer {
  name: "conv5_1"
  type: "Convolution"
  bottom: "pool4"
  top: "conv5_1"
  param {
    lr_mult: 1
  }
  param {
    lr_mult: 2
  }
  convolution_param {
    num_output: 512
    pad: 1
    kernel_size: 3
  }
}
layer {
  name: "relu5_1"
  type: "ReLU"
  bottom: "conv5_1"
  top: "conv5_1"
}
layer {
  name: "conv5_2"
  type: "Convolution"
  bottom: "conv5_1"
  top: "conv5_2"
  param {
    lr_mult: 1
  }
  param {
    lr_mult: 2
  }
  convolution_param {
    num_output: 512
    pad: 1
    kernel_size: 3
  }
}
layer {
  name: "relu5_2"
  type: "ReLU"
  bottom: "conv5_2"
  top: "conv5_2"
}
layer {
  name: "conv5_3"
  type: "Convolution"
  bottom: "conv5_2"
  top: "conv5_3"
  param {
    lr_mult: 1
  }
  param {
    lr_mult: 2
  }
  convolution_param {
    num_output: 512
    pad: 1
    kernel_size: 3
  }
}
layer {
  name: "relu5_3"
  type: "ReLU"
  bottom: "conv5_3"
  top: "conv5_3"
}
layer {
  name: "rpn_conv/3x3"
  type: "Convolution"
  bottom: "conv5_3"
  top: "rpn/output"
  param {
    lr_mult: 1
  }
  param {
    lr_mult: 2
  }
  convolution_param {
    num_output: 512
    pad: 1
    kernel_size: 3
    stride: 1
    weight_filler {
      type: "gaussian"
      std: 0.01
    }
    bias_filler {
      type: "constant"
      value: 0
    }
  }
}
layer {
  name: "rpn_relu/3x3"
  type: "ReLU"
  bottom: "rpn/output"
  top: "rpn/output"
}
layer {
  name: "rpn_cls_score"
  type: "Convolution"
  bottom: "rpn/output"
  top: "rpn_cls_score"
  param {
    lr_mult: 1
  }
  param {
    lr_mult: 2
  }
  convolution_param {
    num_output: 18
    pad: 0
    kernel_size: 1
    stride: 1
    weight_filler {
      type: "gaussian"
      std: 0.01
    }
    bias_filler {
      type: "constant"
      value: 0
    }
  }
}
layer {
  name: "rpn_bbox_pred"
  type: "Convolution"
  bottom: "rpn/output"
  top: "rpn_bbox_pred"
  param {
    lr_mult: 1
  }
  param {
    lr_mult: 2
  }
  convolution_param {
    num_output: 36
    pad: 0
    kernel_size: 1
    stride: 1
    weight_filler {
      type: "gaussian"
      std: 0.01
    }
    bias_filler {
      type: "constant"
      value: 0
    }
  }
}
layer {
  name: "rpn_cls_score_reshape"
  type: "Reshape"
  bottom: "rpn_cls_score"
  top: "rpn_cls_score_reshape"
  reshape_param {
    shape {
      dim: 0
      dim: 2
      dim: -1
      dim: 0
    }
  }
}
layer {
  name: "rpn-data"
  type: "Python"
  bottom: "rpn_cls_score"
  bottom: "gt_boxes"
  bottom: "im_info"
  bottom: "data"
  bottom: "flags"
  top: "rpn_labels"
  top: "rpn_bbox_targets"
  top: "rpn_bbox_inside_weights"
  top: "rpn_bbox_outside_weights"
  python_param {
    module: "rpn.anchor_target_layer"
    layer: "AnchorTargetLayer"
    param_str: "\'feat_stride\': 16"
  }
}
layer {
  name: "rpn_loss_cls"
  type: "SoftmaxWithLoss"
  bottom: "rpn_cls_score_reshape"
  bottom: "rpn_labels"
  top: "rpn_cls_loss"
  loss_weight: 1
  propagate_down: true
  propagate_down: false
  loss_param {
    ignore_label: -1
    normalize: true
  }
}
layer {
  name: "rpn_loss_bbox"
  type: "SmoothL1Loss"
  bottom: "rpn_bbox_pred"
  bottom: "rpn_bbox_targets"
  bottom: "rpn_bbox_inside_weights"
  bottom: "rpn_bbox_outside_weights"
  top: "rpn_loss_bbox"
  loss_weight: 1
  smooth_l1_loss_param {
    sigma: 3
  }
}
layer {
  name: "rpn_cls_prob"
  type: "Softmax"
  bottom: "rpn_cls_score_reshape"
  top: "rpn_cls_prob"
}
layer {
  name: "rpn_cls_prob_reshape"
  type: "Reshape"
  bottom: "rpn_cls_prob"
  top: "rpn_cls_prob_reshape"
  reshape_param {
    shape {
      dim: 0
      dim: 18
      dim: -1
      dim: 0
    }
  }
}
layer {
  name: "proposal"
  type: "Python"
  bottom: "rpn_cls_prob_reshape"
  bottom: "rpn_bbox_pred"
  bottom: "im_info"
  top: "rpn_rois"
  python_param {
    module: "rpn.proposal_layer"
    layer: "ProposalLayer"
    param_str: "\'feat_stride\': 16"
  }
}
layer {
  name: "roi-data"
  type: "Python"
  bottom: "rpn_rois"
  bottom: "gt_boxes"
  bottom: "flags"
  top: "rois"
  top: "labels"
  top: "bbox_targets"
  top: "bbox_inside_weights"
  top: "bbox_outside_weights"
  python_param {
    module: "rpn.proposal_target_layer"
    layer: "ProposalTargetLayer"
    param_str: "\'num_classes\': 8"
  }
}
layer {
  name: "roi_pool5"
  type: "ROIPooling"
  bottom: "conv5_3"
  bottom: "rois"
  top: "pool5"
  roi_pooling_param {
    pooled_h: 7
    pooled_w: 7
    spatial_scale: 0.0625
  }
}
layer {
  name: "fc6"
  type: "InnerProduct"
  bottom: "pool5"
  top: "fc6"
  param {
    lr_mult: 1
  }
  param {
    lr_mult: 2
  }
  inner_product_param {
    num_output: 4096
  }
}
layer {
  name: "relu6"
  type: "ReLU"
  bottom: "fc6"
  top: "fc6"
}
layer {
  name: "drop6"
  type: "Dropout"
  bottom: "fc6"
  top: "fc6"
  dropout_param {
    dropout_ratio: 0.5
  }
}
layer {
  name: "fc7"
  type: "InnerProduct"
  bottom: "fc6"
  top: "fc7"
  param {
    lr_mult: 1
  }
  param {
    lr_mult: 2
  }
  inner_product_param {
    num_output: 4096
  }
}
layer {
  name: "relu7"
  type: "ReLU"
  bottom: "fc7"
  top: "fc7"
}
layer {
  name: "drop7"
  type: "Dropout"
  bottom: "fc7"
  top: "fc7"
  dropout_param {
    dropout_ratio: 0.5
  }
}
layer {
  name: "cls_score"
  type: "InnerProduct"
  bottom: "fc7"
  top: "cls_score"
  param {
    lr_mult: 1
  }
  param {
    lr_mult: 2
  }
  inner_product_param {
    num_output: 8
    weight_filler {
      type: "gaussian"
      std: 0.01
    }
    bias_filler {
      type: "constant"
      value: 0
    }
  }
}
layer {
  name: "bbox_pred"
  type: "InnerProduct"
  bottom: "fc7"
  top: "bbox_pred"
  param {
    lr_mult: 1
  }
  param {
    lr_mult: 2
  }
  inner_product_param {
    num_output: 32
    weight_filler {
      type: "gaussian"
      std: 0.001
    }
    bias_filler {
      type: "constant"
      value: 0
    }
  }
}
layer {
  name: "loss_cls"
  type: "SoftmaxWithLoss"
  bottom: "cls_score"
  bottom: "labels"
  top: "loss_cls"
  loss_weight: 1
  propagate_down: true
  propagate_down: false
}
layer {
  name: "loss_bbox"
  type: "SmoothL1Loss"
  bottom: "bbox_pred"
  bottom: "bbox_targets"
  bottom: "bbox_inside_weights"
  bottom: "bbox_outside_weights"
  top: "loss_bbox"
  loss_weight: 1
}
I0610 12:35:49.991878 19351 layer_factory.hpp:77] Creating layer input-data
I0610 12:35:50.023885 19351 net.cpp:84] Creating Layer input-data
I0610 12:35:50.023917 19351 net.cpp:380] input-data -> data
I0610 12:35:50.023929 19351 net.cpp:380] input-data -> im_info
I0610 12:35:50.023937 19351 net.cpp:380] input-data -> gt_boxes
I0610 12:35:50.023943 19351 net.cpp:380] input-data -> flags
RoiDataLayer: name_to_top: {'flags': 3, 'gt_boxes': 2, 'data': 0, 'im_info': 1}
I0610 12:35:50.303516 19351 net.cpp:122] Setting up input-data
I0610 12:35:50.303534 19351 net.cpp:129] Top shape: 1 3 600 1000 (1800000)
I0610 12:35:50.303537 19351 net.cpp:129] Top shape: 1 3 (3)
I0610 12:35:50.303539 19351 net.cpp:129] Top shape: 1 4 (4)
I0610 12:35:50.303541 19351 net.cpp:129] Top shape: 1 1 (1)
I0610 12:35:50.303544 19351 net.cpp:137] Memory required for data: 7200032
I0610 12:35:50.303547 19351 layer_factory.hpp:77] Creating layer data_input-data_0_split
I0610 12:35:50.303558 19351 net.cpp:84] Creating Layer data_input-data_0_split
I0610 12:35:50.303565 19351 net.cpp:406] data_input-data_0_split <- data
I0610 12:35:50.303571 19351 net.cpp:380] data_input-data_0_split -> data_input-data_0_split_0
I0610 12:35:50.303580 19351 net.cpp:380] data_input-data_0_split -> data_input-data_0_split_1
I0610 12:35:50.303617 19351 net.cpp:122] Setting up data_input-data_0_split
I0610 12:35:50.303622 19351 net.cpp:129] Top shape: 1 3 600 1000 (1800000)
I0610 12:35:50.303624 19351 net.cpp:129] Top shape: 1 3 600 1000 (1800000)
I0610 12:35:50.303627 19351 net.cpp:137] Memory required for data: 21600032
I0610 12:35:50.303628 19351 layer_factory.hpp:77] Creating layer im_info_input-data_1_split
I0610 12:35:50.303633 19351 net.cpp:84] Creating Layer im_info_input-data_1_split
I0610 12:35:50.303635 19351 net.cpp:406] im_info_input-data_1_split <- im_info
I0610 12:35:50.303639 19351 net.cpp:380] im_info_input-data_1_split -> im_info_input-data_1_split_0
I0610 12:35:50.303643 19351 net.cpp:380] im_info_input-data_1_split -> im_info_input-data_1_split_1
I0610 12:35:50.303674 19351 net.cpp:122] Setting up im_info_input-data_1_split
I0610 12:35:50.303678 19351 net.cpp:129] Top shape: 1 3 (3)
I0610 12:35:50.303679 19351 net.cpp:129] Top shape: 1 3 (3)
I0610 12:35:50.303681 19351 net.cpp:137] Memory required for data: 21600056
I0610 12:35:50.303685 19351 layer_factory.hpp:77] Creating layer gt_boxes_input-data_2_split
I0610 12:35:50.303689 19351 net.cpp:84] Creating Layer gt_boxes_input-data_2_split
I0610 12:35:50.303690 19351 net.cpp:406] gt_boxes_input-data_2_split <- gt_boxes
I0610 12:35:50.303694 19351 net.cpp:380] gt_boxes_input-data_2_split -> gt_boxes_input-data_2_split_0
I0610 12:35:50.303699 19351 net.cpp:380] gt_boxes_input-data_2_split -> gt_boxes_input-data_2_split_1
I0610 12:35:50.303737 19351 net.cpp:122] Setting up gt_boxes_input-data_2_split
I0610 12:35:50.303752 19351 net.cpp:129] Top shape: 1 4 (4)
I0610 12:35:50.303755 19351 net.cpp:129] Top shape: 1 4 (4)
I0610 12:35:50.303756 19351 net.cpp:137] Memory required for data: 21600088
I0610 12:35:50.303758 19351 layer_factory.hpp:77] Creating layer flags_input-data_3_split
I0610 12:35:50.303763 19351 net.cpp:84] Creating Layer flags_input-data_3_split
I0610 12:35:50.303766 19351 net.cpp:406] flags_input-data_3_split <- flags
I0610 12:35:50.303769 19351 net.cpp:380] flags_input-data_3_split -> flags_input-data_3_split_0
I0610 12:35:50.303774 19351 net.cpp:380] flags_input-data_3_split -> flags_input-data_3_split_1
I0610 12:35:50.303804 19351 net.cpp:122] Setting up flags_input-data_3_split
I0610 12:35:50.303808 19351 net.cpp:129] Top shape: 1 1 (1)
I0610 12:35:50.303812 19351 net.cpp:129] Top shape: 1 1 (1)
I0610 12:35:50.303812 19351 net.cpp:137] Memory required for data: 21600096
I0610 12:35:50.303814 19351 layer_factory.hpp:77] Creating layer conv1_1
I0610 12:35:50.303822 19351 net.cpp:84] Creating Layer conv1_1
I0610 12:35:50.303825 19351 net.cpp:406] conv1_1 <- data_input-data_0_split_0
I0610 12:35:50.303829 19351 net.cpp:380] conv1_1 -> conv1_1
I0610 12:35:50.306085 19351 net.cpp:122] Setting up conv1_1
I0610 12:35:50.306097 19351 net.cpp:129] Top shape: 1 64 600 1000 (38400000)
I0610 12:35:50.306099 19351 net.cpp:137] Memory required for data: 175200096
I0610 12:35:50.306108 19351 layer_factory.hpp:77] Creating layer relu1_1
I0610 12:35:50.306115 19351 net.cpp:84] Creating Layer relu1_1
I0610 12:35:50.306118 19351 net.cpp:406] relu1_1 <- conv1_1
I0610 12:35:50.306121 19351 net.cpp:367] relu1_1 -> conv1_1 (in-place)
I0610 12:35:50.306126 19351 net.cpp:122] Setting up relu1_1
I0610 12:35:50.306129 19351 net.cpp:129] Top shape: 1 64 600 1000 (38400000)
I0610 12:35:50.306131 19351 net.cpp:137] Memory required for data: 328800096
I0610 12:35:50.306133 19351 layer_factory.hpp:77] Creating layer conv1_2
I0610 12:35:50.306139 19351 net.cpp:84] Creating Layer conv1_2
I0610 12:35:50.306143 19351 net.cpp:406] conv1_2 <- conv1_1
I0610 12:35:50.306145 19351 net.cpp:380] conv1_2 -> conv1_2
I0610 12:35:50.308404 19351 net.cpp:122] Setting up conv1_2
I0610 12:35:50.308416 19351 net.cpp:129] Top shape: 1 64 600 1000 (38400000)
I0610 12:35:50.308418 19351 net.cpp:137] Memory required for data: 482400096
I0610 12:35:50.308425 19351 layer_factory.hpp:77] Creating layer relu1_2
I0610 12:35:50.308434 19351 net.cpp:84] Creating Layer relu1_2
I0610 12:35:50.308436 19351 net.cpp:406] relu1_2 <- conv1_2
I0610 12:35:50.308440 19351 net.cpp:367] relu1_2 -> conv1_2 (in-place)
I0610 12:35:50.308444 19351 net.cpp:122] Setting up relu1_2
I0610 12:35:50.308449 19351 net.cpp:129] Top shape: 1 64 600 1000 (38400000)
I0610 12:35:50.308449 19351 net.cpp:137] Memory required for data: 636000096
I0610 12:35:50.308451 19351 layer_factory.hpp:77] Creating layer pool1
I0610 12:35:50.308456 19351 net.cpp:84] Creating Layer pool1
I0610 12:35:50.308459 19351 net.cpp:406] pool1 <- conv1_2
I0610 12:35:50.308462 19351 net.cpp:380] pool1 -> pool1
I0610 12:35:50.308509 19351 net.cpp:122] Setting up pool1
I0610 12:35:50.308514 19351 net.cpp:129] Top shape: 1 64 300 500 (9600000)
I0610 12:35:50.308516 19351 net.cpp:137] Memory required for data: 674400096
I0610 12:35:50.308518 19351 layer_factory.hpp:77] Creating layer conv2_1
I0610 12:35:50.308524 19351 net.cpp:84] Creating Layer conv2_1
I0610 12:35:50.308527 19351 net.cpp:406] conv2_1 <- pool1
I0610 12:35:50.308531 19351 net.cpp:380] conv2_1 -> conv2_1
I0610 12:35:50.310226 19351 net.cpp:122] Setting up conv2_1
I0610 12:35:50.310241 19351 net.cpp:129] Top shape: 1 128 300 500 (19200000)
I0610 12:35:50.310243 19351 net.cpp:137] Memory required for data: 751200096
I0610 12:35:50.310250 19351 layer_factory.hpp:77] Creating layer relu2_1
I0610 12:35:50.310256 19351 net.cpp:84] Creating Layer relu2_1
I0610 12:35:50.310257 19351 net.cpp:406] relu2_1 <- conv2_1
I0610 12:35:50.310262 19351 net.cpp:367] relu2_1 -> conv2_1 (in-place)
I0610 12:35:50.310267 19351 net.cpp:122] Setting up relu2_1
I0610 12:35:50.310271 19351 net.cpp:129] Top shape: 1 128 300 500 (19200000)
I0610 12:35:50.310273 19351 net.cpp:137] Memory required for data: 828000096
I0610 12:35:50.310276 19351 layer_factory.hpp:77] Creating layer conv2_2
I0610 12:35:50.310281 19351 net.cpp:84] Creating Layer conv2_2
I0610 12:35:50.310282 19351 net.cpp:406] conv2_2 <- conv2_1
I0610 12:35:50.310287 19351 net.cpp:380] conv2_2 -> conv2_2
I0610 12:35:50.310694 19351 net.cpp:122] Setting up conv2_2
I0610 12:35:50.310704 19351 net.cpp:129] Top shape: 1 128 300 500 (19200000)
I0610 12:35:50.310706 19351 net.cpp:137] Memory required for data: 904800096
I0610 12:35:50.310709 19351 layer_factory.hpp:77] Creating layer relu2_2
I0610 12:35:50.310714 19351 net.cpp:84] Creating Layer relu2_2
I0610 12:35:50.310715 19351 net.cpp:406] relu2_2 <- conv2_2
I0610 12:35:50.310719 19351 net.cpp:367] relu2_2 -> conv2_2 (in-place)
I0610 12:35:50.310722 19351 net.cpp:122] Setting up relu2_2
I0610 12:35:50.310725 19351 net.cpp:129] Top shape: 1 128 300 500 (19200000)
I0610 12:35:50.310727 19351 net.cpp:137] Memory required for data: 981600096
I0610 12:35:50.310729 19351 layer_factory.hpp:77] Creating layer pool2
I0610 12:35:50.310734 19351 net.cpp:84] Creating Layer pool2
I0610 12:35:50.310735 19351 net.cpp:406] pool2 <- conv2_2
I0610 12:35:50.310739 19351 net.cpp:380] pool2 -> pool2
I0610 12:35:50.310778 19351 net.cpp:122] Setting up pool2
I0610 12:35:50.310784 19351 net.cpp:129] Top shape: 1 128 150 250 (4800000)
I0610 12:35:50.310786 19351 net.cpp:137] Memory required for data: 1000800096
I0610 12:35:50.310788 19351 layer_factory.hpp:77] Creating layer conv3_1
I0610 12:35:50.310793 19351 net.cpp:84] Creating Layer conv3_1
I0610 12:35:50.310796 19351 net.cpp:406] conv3_1 <- pool2
I0610 12:35:50.310801 19351 net.cpp:380] conv3_1 -> conv3_1
I0610 12:35:50.312036 19351 net.cpp:122] Setting up conv3_1
I0610 12:35:50.312048 19351 net.cpp:129] Top shape: 1 256 150 250 (9600000)
I0610 12:35:50.312052 19351 net.cpp:137] Memory required for data: 1039200096
I0610 12:35:50.312057 19351 layer_factory.hpp:77] Creating layer relu3_1
I0610 12:35:50.312065 19351 net.cpp:84] Creating Layer relu3_1
I0610 12:35:50.312067 19351 net.cpp:406] relu3_1 <- conv3_1
I0610 12:35:50.312072 19351 net.cpp:367] relu3_1 -> conv3_1 (in-place)
I0610 12:35:50.312075 19351 net.cpp:122] Setting up relu3_1
I0610 12:35:50.312078 19351 net.cpp:129] Top shape: 1 256 150 250 (9600000)
I0610 12:35:50.312080 19351 net.cpp:137] Memory required for data: 1077600096
I0610 12:35:50.312083 19351 layer_factory.hpp:77] Creating layer conv3_2
I0610 12:35:50.312088 19351 net.cpp:84] Creating Layer conv3_2
I0610 12:35:50.312090 19351 net.cpp:406] conv3_2 <- conv3_1
I0610 12:35:50.312093 19351 net.cpp:380] conv3_2 -> conv3_2
I0610 12:35:50.313524 19351 net.cpp:122] Setting up conv3_2
I0610 12:35:50.313535 19351 net.cpp:129] Top shape: 1 256 150 250 (9600000)
I0610 12:35:50.313537 19351 net.cpp:137] Memory required for data: 1116000096
I0610 12:35:50.313542 19351 layer_factory.hpp:77] Creating layer relu3_2
I0610 12:35:50.313546 19351 net.cpp:84] Creating Layer relu3_2
I0610 12:35:50.313549 19351 net.cpp:406] relu3_2 <- conv3_2
I0610 12:35:50.313554 19351 net.cpp:367] relu3_2 -> conv3_2 (in-place)
I0610 12:35:50.313557 19351 net.cpp:122] Setting up relu3_2
I0610 12:35:50.313560 19351 net.cpp:129] Top shape: 1 256 150 250 (9600000)
I0610 12:35:50.313563 19351 net.cpp:137] Memory required for data: 1154400096
I0610 12:35:50.313565 19351 layer_factory.hpp:77] Creating layer conv3_3
I0610 12:35:50.313570 19351 net.cpp:84] Creating Layer conv3_3
I0610 12:35:50.313571 19351 net.cpp:406] conv3_3 <- conv3_2
I0610 12:35:50.313576 19351 net.cpp:380] conv3_3 -> conv3_3
I0610 12:35:50.315016 19351 net.cpp:122] Setting up conv3_3
I0610 12:35:50.315026 19351 net.cpp:129] Top shape: 1 256 150 250 (9600000)
I0610 12:35:50.315028 19351 net.cpp:137] Memory required for data: 1192800096
I0610 12:35:50.315032 19351 layer_factory.hpp:77] Creating layer relu3_3
I0610 12:35:50.315037 19351 net.cpp:84] Creating Layer relu3_3
I0610 12:35:50.315039 19351 net.cpp:406] relu3_3 <- conv3_3
I0610 12:35:50.315042 19351 net.cpp:367] relu3_3 -> conv3_3 (in-place)
I0610 12:35:50.315047 19351 net.cpp:122] Setting up relu3_3
I0610 12:35:50.315050 19351 net.cpp:129] Top shape: 1 256 150 250 (9600000)
I0610 12:35:50.315053 19351 net.cpp:137] Memory required for data: 1231200096
I0610 12:35:50.315054 19351 layer_factory.hpp:77] Creating layer pool3
I0610 12:35:50.315059 19351 net.cpp:84] Creating Layer pool3
I0610 12:35:50.315062 19351 net.cpp:406] pool3 <- conv3_3
I0610 12:35:50.315065 19351 net.cpp:380] pool3 -> pool3
I0610 12:35:50.315109 19351 net.cpp:122] Setting up pool3
I0610 12:35:50.315115 19351 net.cpp:129] Top shape: 1 256 75 125 (2400000)
I0610 12:35:50.315117 19351 net.cpp:137] Memory required for data: 1240800096
I0610 12:35:50.315119 19351 layer_factory.hpp:77] Creating layer conv4_1
I0610 12:35:50.315125 19351 net.cpp:84] Creating Layer conv4_1
I0610 12:35:50.315129 19351 net.cpp:406] conv4_1 <- pool3
I0610 12:35:50.315132 19351 net.cpp:380] conv4_1 -> conv4_1
I0610 12:35:50.318918 19351 net.cpp:122] Setting up conv4_1
I0610 12:35:50.318933 19351 net.cpp:129] Top shape: 1 512 75 125 (4800000)
I0610 12:35:50.318934 19351 net.cpp:137] Memory required for data: 1260000096
I0610 12:35:50.318940 19351 layer_factory.hpp:77] Creating layer relu4_1
I0610 12:35:50.318945 19351 net.cpp:84] Creating Layer relu4_1
I0610 12:35:50.318948 19351 net.cpp:406] relu4_1 <- conv4_1
I0610 12:35:50.318953 19351 net.cpp:367] relu4_1 -> conv4_1 (in-place)
I0610 12:35:50.318958 19351 net.cpp:122] Setting up relu4_1
I0610 12:35:50.318961 19351 net.cpp:129] Top shape: 1 512 75 125 (4800000)
I0610 12:35:50.318962 19351 net.cpp:137] Memory required for data: 1279200096
I0610 12:35:50.318964 19351 layer_factory.hpp:77] Creating layer conv4_2
I0610 12:35:50.318971 19351 net.cpp:84] Creating Layer conv4_2
I0610 12:35:50.318974 19351 net.cpp:406] conv4_2 <- conv4_1
I0610 12:35:50.318976 19351 net.cpp:380] conv4_2 -> conv4_2
I0610 12:35:50.322743 19351 net.cpp:122] Setting up conv4_2
I0610 12:35:50.322760 19351 net.cpp:129] Top shape: 1 512 75 125 (4800000)
I0610 12:35:50.322763 19351 net.cpp:137] Memory required for data: 1298400096
I0610 12:35:50.322774 19351 layer_factory.hpp:77] Creating layer relu4_2
I0610 12:35:50.322780 19351 net.cpp:84] Creating Layer relu4_2
I0610 12:35:50.322784 19351 net.cpp:406] relu4_2 <- conv4_2
I0610 12:35:50.322788 19351 net.cpp:367] relu4_2 -> conv4_2 (in-place)
I0610 12:35:50.322793 19351 net.cpp:122] Setting up relu4_2
I0610 12:35:50.322796 19351 net.cpp:129] Top shape: 1 512 75 125 (4800000)
I0610 12:35:50.322798 19351 net.cpp:137] Memory required for data: 1317600096
I0610 12:35:50.322799 19351 layer_factory.hpp:77] Creating layer conv4_3
I0610 12:35:50.322806 19351 net.cpp:84] Creating Layer conv4_3
I0610 12:35:50.322808 19351 net.cpp:406] conv4_3 <- conv4_2
I0610 12:35:50.322813 19351 net.cpp:380] conv4_3 -> conv4_3
I0610 12:35:50.326697 19351 net.cpp:122] Setting up conv4_3
I0610 12:35:50.326717 19351 net.cpp:129] Top shape: 1 512 75 125 (4800000)
I0610 12:35:50.326719 19351 net.cpp:137] Memory required for data: 1336800096
I0610 12:35:50.326726 19351 layer_factory.hpp:77] Creating layer relu4_3
I0610 12:35:50.326733 19351 net.cpp:84] Creating Layer relu4_3
I0610 12:35:50.326736 19351 net.cpp:406] relu4_3 <- conv4_3
I0610 12:35:50.326743 19351 net.cpp:367] relu4_3 -> conv4_3 (in-place)
I0610 12:35:50.326750 19351 net.cpp:122] Setting up relu4_3
I0610 12:35:50.326753 19351 net.cpp:129] Top shape: 1 512 75 125 (4800000)
I0610 12:35:50.326755 19351 net.cpp:137] Memory required for data: 1356000096
I0610 12:35:50.326756 19351 layer_factory.hpp:77] Creating layer pool4
I0610 12:35:50.326761 19351 net.cpp:84] Creating Layer pool4
I0610 12:35:50.326763 19351 net.cpp:406] pool4 <- conv4_3
I0610 12:35:50.326767 19351 net.cpp:380] pool4 -> pool4
I0610 12:35:50.326814 19351 net.cpp:122] Setting up pool4
I0610 12:35:50.326820 19351 net.cpp:129] Top shape: 1 512 38 63 (1225728)
I0610 12:35:50.326822 19351 net.cpp:137] Memory required for data: 1360903008
I0610 12:35:50.326823 19351 layer_factory.hpp:77] Creating layer conv5_1
I0610 12:35:50.326833 19351 net.cpp:84] Creating Layer conv5_1
I0610 12:35:50.326835 19351 net.cpp:406] conv5_1 <- pool4
I0610 12:35:50.326839 19351 net.cpp:380] conv5_1 -> conv5_1
I0610 12:35:50.331689 19351 net.cpp:122] Setting up conv5_1
I0610 12:35:50.331712 19351 net.cpp:129] Top shape: 1 512 38 63 (1225728)
I0610 12:35:50.331727 19351 net.cpp:137] Memory required for data: 1365805920
I0610 12:35:50.331733 19351 layer_factory.hpp:77] Creating layer relu5_1
I0610 12:35:50.331748 19351 net.cpp:84] Creating Layer relu5_1
I0610 12:35:50.331751 19351 net.cpp:406] relu5_1 <- conv5_1
I0610 12:35:50.331756 19351 net.cpp:367] relu5_1 -> conv5_1 (in-place)
I0610 12:35:50.331763 19351 net.cpp:122] Setting up relu5_1
I0610 12:35:50.331765 19351 net.cpp:129] Top shape: 1 512 38 63 (1225728)
I0610 12:35:50.331768 19351 net.cpp:137] Memory required for data: 1370708832
I0610 12:35:50.331770 19351 layer_factory.hpp:77] Creating layer conv5_2
I0610 12:35:50.331779 19351 net.cpp:84] Creating Layer conv5_2
I0610 12:35:50.331780 19351 net.cpp:406] conv5_2 <- conv5_1
I0610 12:35:50.331784 19351 net.cpp:380] conv5_2 -> conv5_2
I0610 12:35:50.335724 19351 net.cpp:122] Setting up conv5_2
I0610 12:35:50.335746 19351 net.cpp:129] Top shape: 1 512 38 63 (1225728)
I0610 12:35:50.335747 19351 net.cpp:137] Memory required for data: 1375611744
I0610 12:35:50.335754 19351 layer_factory.hpp:77] Creating layer relu5_2
I0610 12:35:50.335767 19351 net.cpp:84] Creating Layer relu5_2
I0610 12:35:50.335770 19351 net.cpp:406] relu5_2 <- conv5_2
I0610 12:35:50.335775 19351 net.cpp:367] relu5_2 -> conv5_2 (in-place)
I0610 12:35:50.335781 19351 net.cpp:122] Setting up relu5_2
I0610 12:35:50.335784 19351 net.cpp:129] Top shape: 1 512 38 63 (1225728)
I0610 12:35:50.335786 19351 net.cpp:137] Memory required for data: 1380514656
I0610 12:35:50.335788 19351 layer_factory.hpp:77] Creating layer conv5_3
I0610 12:35:50.335794 19351 net.cpp:84] Creating Layer conv5_3
I0610 12:35:50.335798 19351 net.cpp:406] conv5_3 <- conv5_2
I0610 12:35:50.335801 19351 net.cpp:380] conv5_3 -> conv5_3
I0610 12:35:50.339773 19351 net.cpp:122] Setting up conv5_3
I0610 12:35:50.339792 19351 net.cpp:129] Top shape: 1 512 38 63 (1225728)
I0610 12:35:50.339795 19351 net.cpp:137] Memory required for data: 1385417568
I0610 12:35:50.339802 19351 layer_factory.hpp:77] Creating layer relu5_3
I0610 12:35:50.339808 19351 net.cpp:84] Creating Layer relu5_3
I0610 12:35:50.339812 19351 net.cpp:406] relu5_3 <- conv5_3
I0610 12:35:50.339818 19351 net.cpp:367] relu5_3 -> conv5_3 (in-place)
I0610 12:35:50.339824 19351 net.cpp:122] Setting up relu5_3
I0610 12:35:50.339828 19351 net.cpp:129] Top shape: 1 512 38 63 (1225728)
I0610 12:35:50.339828 19351 net.cpp:137] Memory required for data: 1390320480
I0610 12:35:50.339830 19351 layer_factory.hpp:77] Creating layer conv5_3_relu5_3_0_split
I0610 12:35:50.339835 19351 net.cpp:84] Creating Layer conv5_3_relu5_3_0_split
I0610 12:35:50.339836 19351 net.cpp:406] conv5_3_relu5_3_0_split <- conv5_3
I0610 12:35:50.339841 19351 net.cpp:380] conv5_3_relu5_3_0_split -> conv5_3_relu5_3_0_split_0
I0610 12:35:50.339846 19351 net.cpp:380] conv5_3_relu5_3_0_split -> conv5_3_relu5_3_0_split_1
I0610 12:35:50.339890 19351 net.cpp:122] Setting up conv5_3_relu5_3_0_split
I0610 12:35:50.339895 19351 net.cpp:129] Top shape: 1 512 38 63 (1225728)
I0610 12:35:50.339897 19351 net.cpp:129] Top shape: 1 512 38 63 (1225728)
I0610 12:35:50.339900 19351 net.cpp:137] Memory required for data: 1400126304
I0610 12:35:50.339900 19351 layer_factory.hpp:77] Creating layer rpn_conv/3x3
I0610 12:35:50.339911 19351 net.cpp:84] Creating Layer rpn_conv/3x3
I0610 12:35:50.339913 19351 net.cpp:406] rpn_conv/3x3 <- conv5_3_relu5_3_0_split_0
I0610 12:35:50.339924 19351 net.cpp:380] rpn_conv/3x3 -> rpn/output
I0610 12:35:50.360199 19351 net.cpp:122] Setting up rpn_conv/3x3
I0610 12:35:50.360221 19351 net.cpp:129] Top shape: 1 512 38 63 (1225728)
I0610 12:35:50.360224 19351 net.cpp:137] Memory required for data: 1405029216
I0610 12:35:50.360231 19351 layer_factory.hpp:77] Creating layer rpn_relu/3x3
I0610 12:35:50.360239 19351 net.cpp:84] Creating Layer rpn_relu/3x3
I0610 12:35:50.360242 19351 net.cpp:406] rpn_relu/3x3 <- rpn/output
I0610 12:35:50.360249 19351 net.cpp:367] rpn_relu/3x3 -> rpn/output (in-place)
I0610 12:35:50.360257 19351 net.cpp:122] Setting up rpn_relu/3x3
I0610 12:35:50.360260 19351 net.cpp:129] Top shape: 1 512 38 63 (1225728)
I0610 12:35:50.360261 19351 net.cpp:137] Memory required for data: 1409932128
I0610 12:35:50.360263 19351 layer_factory.hpp:77] Creating layer rpn/output_rpn_relu/3x3_0_split
I0610 12:35:50.360267 19351 net.cpp:84] Creating Layer rpn/output_rpn_relu/3x3_0_split
I0610 12:35:50.360270 19351 net.cpp:406] rpn/output_rpn_relu/3x3_0_split <- rpn/output
I0610 12:35:50.360275 19351 net.cpp:380] rpn/output_rpn_relu/3x3_0_split -> rpn/output_rpn_relu/3x3_0_split_0
I0610 12:35:50.360285 19351 net.cpp:380] rpn/output_rpn_relu/3x3_0_split -> rpn/output_rpn_relu/3x3_0_split_1
I0610 12:35:50.360328 19351 net.cpp:122] Setting up rpn/output_rpn_relu/3x3_0_split
I0610 12:35:50.360335 19351 net.cpp:129] Top shape: 1 512 38 63 (1225728)
I0610 12:35:50.360338 19351 net.cpp:129] Top shape: 1 512 38 63 (1225728)
I0610 12:35:50.360340 19351 net.cpp:137] Memory required for data: 1419737952
I0610 12:35:50.360342 19351 layer_factory.hpp:77] Creating layer rpn_cls_score
I0610 12:35:50.360352 19351 net.cpp:84] Creating Layer rpn_cls_score
I0610 12:35:50.360354 19351 net.cpp:406] rpn_cls_score <- rpn/output_rpn_relu/3x3_0_split_0
I0610 12:35:50.360358 19351 net.cpp:380] rpn_cls_score -> rpn_cls_score
I0610 12:35:50.360724 19351 net.cpp:122] Setting up rpn_cls_score
I0610 12:35:50.360731 19351 net.cpp:129] Top shape: 1 18 38 63 (43092)
I0610 12:35:50.360733 19351 net.cpp:137] Memory required for data: 1419910320
I0610 12:35:50.360738 19351 layer_factory.hpp:77] Creating layer rpn_cls_score_rpn_cls_score_0_split
I0610 12:35:50.360741 19351 net.cpp:84] Creating Layer rpn_cls_score_rpn_cls_score_0_split
I0610 12:35:50.360744 19351 net.cpp:406] rpn_cls_score_rpn_cls_score_0_split <- rpn_cls_score
I0610 12:35:50.360749 19351 net.cpp:380] rpn_cls_score_rpn_cls_score_0_split -> rpn_cls_score_rpn_cls_score_0_split_0
I0610 12:35:50.360754 19351 net.cpp:380] rpn_cls_score_rpn_cls_score_0_split -> rpn_cls_score_rpn_cls_score_0_split_1
I0610 12:35:50.360793 19351 net.cpp:122] Setting up rpn_cls_score_rpn_cls_score_0_split
I0610 12:35:50.360800 19351 net.cpp:129] Top shape: 1 18 38 63 (43092)
I0610 12:35:50.360802 19351 net.cpp:129] Top shape: 1 18 38 63 (43092)
I0610 12:35:50.360805 19351 net.cpp:137] Memory required for data: 1420255056
I0610 12:35:50.360806 19351 layer_factory.hpp:77] Creating layer rpn_bbox_pred
I0610 12:35:50.360818 19351 net.cpp:84] Creating Layer rpn_bbox_pred
I0610 12:35:50.360821 19351 net.cpp:406] rpn_bbox_pred <- rpn/output_rpn_relu/3x3_0_split_1
I0610 12:35:50.360826 19351 net.cpp:380] rpn_bbox_pred -> rpn_bbox_pred
I0610 12:35:50.361256 19351 net.cpp:122] Setting up rpn_bbox_pred
I0610 12:35:50.361263 19351 net.cpp:129] Top shape: 1 36 38 63 (86184)
I0610 12:35:50.361265 19351 net.cpp:137] Memory required for data: 1420599792
I0610 12:35:50.361269 19351 layer_factory.hpp:77] Creating layer rpn_bbox_pred_rpn_bbox_pred_0_split
I0610 12:35:50.361274 19351 net.cpp:84] Creating Layer rpn_bbox_pred_rpn_bbox_pred_0_split
I0610 12:35:50.361275 19351 net.cpp:406] rpn_bbox_pred_rpn_bbox_pred_0_split <- rpn_bbox_pred
I0610 12:35:50.361279 19351 net.cpp:380] rpn_bbox_pred_rpn_bbox_pred_0_split -> rpn_bbox_pred_rpn_bbox_pred_0_split_0
I0610 12:35:50.361284 19351 net.cpp:380] rpn_bbox_pred_rpn_bbox_pred_0_split -> rpn_bbox_pred_rpn_bbox_pred_0_split_1
I0610 12:35:50.361325 19351 net.cpp:122] Setting up rpn_bbox_pred_rpn_bbox_pred_0_split
I0610 12:35:50.361330 19351 net.cpp:129] Top shape: 1 36 38 63 (86184)
I0610 12:35:50.361333 19351 net.cpp:129] Top shape: 1 36 38 63 (86184)
I0610 12:35:50.361335 19351 net.cpp:137] Memory required for data: 1421289264
I0610 12:35:50.361336 19351 layer_factory.hpp:77] Creating layer rpn_cls_score_reshape
I0610 12:35:50.361343 19351 net.cpp:84] Creating Layer rpn_cls_score_reshape
I0610 12:35:50.361346 19351 net.cpp:406] rpn_cls_score_reshape <- rpn_cls_score_rpn_cls_score_0_split_0
I0610 12:35:50.361351 19351 net.cpp:380] rpn_cls_score_reshape -> rpn_cls_score_reshape
I0610 12:35:50.361377 19351 net.cpp:122] Setting up rpn_cls_score_reshape
I0610 12:35:50.361382 19351 net.cpp:129] Top shape: 1 2 342 63 (43092)
I0610 12:35:50.361383 19351 net.cpp:137] Memory required for data: 1421461632
I0610 12:35:50.361385 19351 layer_factory.hpp:77] Creating layer rpn_cls_score_reshape_rpn_cls_score_reshape_0_split
I0610 12:35:50.361389 19351 net.cpp:84] Creating Layer rpn_cls_score_reshape_rpn_cls_score_reshape_0_split
I0610 12:35:50.361392 19351 net.cpp:406] rpn_cls_score_reshape_rpn_cls_score_reshape_0_split <- rpn_cls_score_reshape
I0610 12:35:50.361395 19351 net.cpp:380] rpn_cls_score_reshape_rpn_cls_score_reshape_0_split -> rpn_cls_score_reshape_rpn_cls_score_reshape_0_split_0
I0610 12:35:50.361400 19351 net.cpp:380] rpn_cls_score_reshape_rpn_cls_score_reshape_0_split -> rpn_cls_score_reshape_rpn_cls_score_reshape_0_split_1
I0610 12:35:50.361436 19351 net.cpp:122] Setting up rpn_cls_score_reshape_rpn_cls_score_reshape_0_split
I0610 12:35:50.361441 19351 net.cpp:129] Top shape: 1 2 342 63 (43092)
I0610 12:35:50.361444 19351 net.cpp:129] Top shape: 1 2 342 63 (43092)
I0610 12:35:50.361446 19351 net.cpp:137] Memory required for data: 1421806368
I0610 12:35:50.361449 19351 layer_factory.hpp:77] Creating layer rpn-data
I0610 12:35:50.363833 19351 net.cpp:84] Creating Layer rpn-data
I0610 12:35:50.363844 19351 net.cpp:406] rpn-data <- rpn_cls_score_rpn_cls_score_0_split_1
I0610 12:35:50.363848 19351 net.cpp:406] rpn-data <- gt_boxes_input-data_2_split_0
I0610 12:35:50.363852 19351 net.cpp:406] rpn-data <- im_info_input-data_1_split_0
I0610 12:35:50.363854 19351 net.cpp:406] rpn-data <- data_input-data_0_split_1
I0610 12:35:50.363857 19351 net.cpp:406] rpn-data <- flags_input-data_3_split_0
I0610 12:35:50.363863 19351 net.cpp:380] rpn-data -> rpn_labels
I0610 12:35:50.363869 19351 net.cpp:380] rpn-data -> rpn_bbox_targets
I0610 12:35:50.363875 19351 net.cpp:380] rpn-data -> rpn_bbox_inside_weights
I0610 12:35:50.363880 19351 net.cpp:380] rpn-data -> rpn_bbox_outside_weights
I0610 12:35:50.364517 19351 net.cpp:122] Setting up rpn-data
I0610 12:35:50.364529 19351 net.cpp:129] Top shape: 1 1 342 63 (21546)
I0610 12:35:50.364532 19351 net.cpp:129] Top shape: 1 36 38 63 (86184)
I0610 12:35:50.364536 19351 net.cpp:129] Top shape: 1 36 38 63 (86184)
I0610 12:35:50.364537 19351 net.cpp:129] Top shape: 1 36 38 63 (86184)
I0610 12:35:50.364539 19351 net.cpp:137] Memory required for data: 1422926760
I0610 12:35:50.364542 19351 layer_factory.hpp:77] Creating layer rpn_loss_cls
I0610 12:35:50.364547 19351 net.cpp:84] Creating Layer rpn_loss_cls
I0610 12:35:50.364550 19351 net.cpp:406] rpn_loss_cls <- rpn_cls_score_reshape_rpn_cls_score_reshape_0_split_0
I0610 12:35:50.364554 19351 net.cpp:406] rpn_loss_cls <- rpn_labels
…
I0610 12:35:50.365546 19351 net.cpp:129] Top shape: (1)
I0610 12:35:50.365547 19351 net.cpp:132]     with loss weight 1
I0610 12:35:50.365550 19351 net.cpp:137] Memory required for data: 1422926768
I0610 12:35:50.365552 19351 layer_factory.hpp:77] Creating layer rpn_cls_prob
I0610 12:35:50.365557 19351 net.cpp:84] Creating Layer rpn_cls_prob
I0610 12:35:50.365561 19351 net.cpp:406] rpn_cls_prob <- rpn_cls_score_reshape_rpn_cls_score_reshape_0_split_1
I0610 12:35:50.365563 19351 net.cpp:380] rpn_cls_prob -> rpn_cls_prob
I0610 12:35:50.365630 19351 net.cpp:122] Setting up rpn_cls_prob
I0610 12:35:50.365636 19351 net.cpp:129] Top shape: 1 2 342 63 (43092)
I0610 12:35:50.365638 19351 net.cpp:137] Memory required for data: 1423099136
I0610 12:35:50.365640 19351 layer_factory.hpp:77] Creating layer rpn_cls_prob_reshape
I0610 12:35:50.365645 19351 net.cpp:84] Creating Layer rpn_cls_prob_reshape
I0610 12:35:50.365648 19351 net.cpp:406] rpn_cls_prob_reshape <- rpn_cls_prob
I0610 12:35:50.365653 19351 net.cpp:380] rpn_cls_prob_reshape -> rpn_cls_prob_reshape
I0610 12:35:50.365677 19351 net.cpp:122] Setting up rpn_cls_prob_reshape
I0610 12:35:50.365682 19351 net.cpp:129] Top shape: 1 18 38 63 (43092)
I0610 12:35:50.365684 19351 net.cpp:137] Memory required for data: 1423271504
I0610 12:35:50.365686 19351 layer_factory.hpp:77] Creating layer proposal
I0610 12:35:50.366183 19351 net.cpp:84] Creating Layer proposal
I0610 12:35:50.366194 19351 net.cpp:406] proposal <- rpn_cls_prob_reshape
I0610 12:35:50.366199 19351 net.cpp:406] proposal <- rpn_bbox_pred_rpn_bbox_pred_0_split_1
I0610 12:35:50.366201 19351 net.cpp:406] proposal <- im_info_input-data_1_split_1
I0610 12:35:50.366206 19351 net.cpp:380] proposal -> rpn_rois
I0610 12:35:50.366785 19351 net.cpp:122] Setting up proposal
I0610 12:35:50.366796 19351 net.cpp:129] Top shape: 1 5 (5)
I0610 12:35:50.366798 19351 net.cpp:137] Memory required for data: 1423271524
I0610 12:35:50.366801 19351 layer_factory.hpp:77] Creating layer roi-data
I0610 12:35:50.366916 19351 net.cpp:84] Creating Layer roi-data
I0610 12:35:50.366924 19351 net.cpp:406] roi-data <- rpn_rois
I0610 12:35:50.366928 19351 net.cpp:406] roi-data <- gt_boxes_input-data_2_split_1
I0610 12:35:50.366931 19351 net.cpp:406] roi-data <- flags_input-data_3_split_1
I0610 12:35:50.366936 19351 net.cpp:380] roi-data -> rois
I0610 12:35:50.366942 19351 net.cpp:380] roi-data -> labels
I0610 12:35:50.366947 19351 net.cpp:380] roi-data -> bbox_targets
I0610 12:35:50.366951 19351 net.cpp:380] roi-data -> bbox_inside_weights
I0610 12:35:50.366955 19351 net.cpp:380] roi-data -> bbox_outside_weights
I0610 12:35:50.367277 19351 net.cpp:122] Setting up roi-data
I0610 12:35:50.367287 19351 net.cpp:129] Top shape: 1 5 (5)
I0610 12:35:50.367290 19351 net.cpp:129] Top shape: 1 1 (1)
I0610 12:35:50.367291 19351 net.cpp:129] Top shape: 1 32 (32)
I0610 12:35:50.367293 19351 net.cpp:129] Top shape: 1 32 (32)
I0610 12:35:50.367296 19351 net.cpp:129] Top shape: 1 32 (32)
I0610 12:35:50.367297 19351 net.cpp:137] Memory required for data: 1423271932
I0610 12:35:50.367300 19351 layer_factory.hpp:77] Creating layer roi_pool5
I0610 12:35:50.367305 19351 net.cpp:84] Creating Layer roi_pool5
I0610 12:35:50.367308 19351 net.cpp:406] roi_pool5 <- conv5_3_relu5_3_0_split_1
I0610 12:35:50.367311 19351 net.cpp:406] roi_pool5 <- rois
I0610 12:35:50.367316 19351 net.cpp:380] roi_pool5 -> pool5
I0610 12:35:50.367321 19351 roi_pooling_layer.cpp:30] Spatial scale: 0.0625
I0610 12:35:50.367363 19351 net.cpp:122] Setting up roi_pool5
I0610 12:35:50.367369 19351 net.cpp:129] Top shape: 1 512 7 7 (25088)
I0610 12:35:50.367372 19351 net.cpp:137] Memory required for data: 1423372284
I0610 12:35:50.367373 19351 layer_factory.hpp:77] Creating layer fc6
I0610 12:35:50.367378 19351 net.cpp:84] Creating Layer fc6
I0610 12:35:50.367382 19351 net.cpp:406] fc6 <- pool5
I0610 12:35:50.367385 19351 net.cpp:380] fc6 -> fc6
I0610 12:35:50.521577 19351 net.cpp:122] Setting up fc6
I0610 12:35:50.521606 19351 net.cpp:129] Top shape: 1 4096 (4096)
I0610 12:35:50.521610 19351 net.cpp:137] Memory required for data: 1423388668
I0610 12:35:50.521623 19351 layer_factory.hpp:77] Creating layer relu6
I0610 12:35:50.521631 19351 net.cpp:84] Creating Layer relu6
I0610 12:35:50.521636 19351 net.cpp:406] relu6 <- fc6
I0610 12:35:50.521641 19351 net.cpp:367] relu6 -> fc6 (in-place)
I0610 12:35:50.521647 19351 net.cpp:122] Setting up relu6
I0610 12:35:50.521649 19351 net.cpp:129] Top shape: 1 4096 (4096)
I0610 12:35:50.521651 19351 net.cpp:137] Memory required for data: 1423405052
I0610 12:35:50.521653 19351 layer_factory.hpp:77] Creating layer drop6
I0610 12:35:50.521657 19351 net.cpp:84] Creating Layer drop6
I0610 12:35:50.521659 19351 net.cpp:406] drop6 <- fc6
I0610 12:35:50.521662 19351 net.cpp:367] drop6 -> fc6 (in-place)
I0610 12:35:50.521688 19351 net.cpp:122] Setting up drop6
I0610 12:35:50.521693 19351 net.cpp:129] Top shape: 1 4096 (4096)
I0610 12:35:50.521695 19351 net.cpp:137] Memory required for data: 1423421436
I0610 12:35:50.521697 19351 layer_factory.hpp:77] Creating layer fc7
I0610 12:35:50.521703 19351 net.cpp:84] Creating Layer fc7
I0610 12:35:50.521705 19351 net.cpp:406] fc7 <- fc6
I0610 12:35:50.521709 19351 net.cpp:380] fc7 -> fc7
I0610 12:35:50.547433 19351 net.cpp:122] Setting up fc7
I0610 12:35:50.547462 19351 net.cpp:129] Top shape: 1 4096 (4096)
I0610 12:35:50.547464 19351 net.cpp:137] Memory required for data: 1423437820
I0610 12:35:50.547473 19351 layer_factory.hpp:77] Creating layer relu7
I0610 12:35:50.547482 19351 net.cpp:84] Creating Layer relu7
I0610 12:35:50.547485 19351 net.cpp:406] relu7 <- fc7
I0610 12:35:50.547490 19351 net.cpp:367] relu7 -> fc7 (in-place)
I0610 12:35:50.547497 19351 net.cpp:122] Setting up relu7
I0610 12:35:50.547499 19351 net.cpp:129] Top shape: 1 4096 (4096)
I0610 12:35:50.547502 19351 net.cpp:137] Memory required for data: 1423454204
I0610 12:35:50.547502 19351 layer_factory.hpp:77] Creating layer drop7
I0610 12:35:50.547508 19351 net.cpp:84] Creating Layer drop7
I0610 12:35:50.547509 19351 net.cpp:406] drop7 <- fc7
I0610 12:35:50.547513 19351 net.cpp:367] drop7 -> fc7 (in-place)
I0610 12:35:50.547538 19351 net.cpp:122] Setting up drop7
I0610 12:35:50.547541 19351 net.cpp:129] Top shape: 1 4096 (4096)
I0610 12:35:50.547544 19351 net.cpp:137] Memory required for data: 1423470588
I0610 12:35:50.547545 19351 layer_factory.hpp:77] Creating layer fc7_drop7_0_split
I0610 12:35:50.547550 19351 net.cpp:84] Creating Layer fc7_drop7_0_split
I0610 12:35:50.547552 19351 net.cpp:406] fc7_drop7_0_split <- fc7
I0610 12:35:50.547556 19351 net.cpp:380] fc7_drop7_0_split -> fc7_drop7_0_split_0
I0610 12:35:50.547560 19351 net.cpp:380] fc7_drop7_0_split -> fc7_drop7_0_split_1
I0610 12:35:50.547605 19351 net.cpp:122] Setting up fc7_drop7_0_split
I0610 12:35:50.547608 19351 net.cpp:129] Top shape: 1 4096 (4096)
I0610 12:35:50.547611 19351 net.cpp:129] Top shape: 1 4096 (4096)
I0610 12:35:50.547612 19351 net.cpp:137] Memory required for data: 1423503356
I0610 12:35:50.547614 19351 layer_factory.hpp:77] Creating layer cls_score
I0610 12:35:50.547621 19351 net.cpp:84] Creating Layer cls_score
I0610 12:35:50.547623 19351 net.cpp:406] cls_score <- fc7_drop7_0_split_0
I0610 12:35:50.547627 19351 net.cpp:380] cls_score -> cls_score
I0610 12:35:50.548032 19351 net.cpp:122] Setting up cls_score
I0610 12:35:50.548039 19351 net.cpp:129] Top shape: 1 8 (8)
I0610 12:35:50.548041 19351 net.cpp:137] Memory required for data: 1423503388
I0610 12:35:50.548045 19351 layer_factory.hpp:77] Creating layer bbox_pred
I0610 12:35:50.548049 19351 net.cpp:84] Creating Layer bbox_pred
I0610 12:35:50.548053 19351 net.cpp:406] bbox_pred <- fc7_drop7_0_split_1
I0610 12:35:50.548056 19351 net.cpp:380] bbox_pred -> bbox_pred
I0610 12:35:50.549170 19351 net.cpp:122] Setting up bbox_pred
I0610 12:35:50.549176 19351 net.cpp:129] Top shape: 1 32 (32)
I0610 12:35:50.549177 19351 net.cpp:137] Memory required for data: 1423503516
I0610 12:35:50.549181 19351 layer_factory.hpp:77] Creating layer loss_cls
I0610 12:35:50.549185 19351 net.cpp:84] Creating Layer loss_cls
I0610 12:35:50.549188 19351 net.cpp:406] loss_cls <- cls_score
I0610 12:35:50.549191 19351 net.cpp:406] loss_cls <- labels
I0610 12:35:50.549196 19351 net.cpp:380] loss_cls -> loss_cls
…
I0610 20:30:27.431167 32573 upgrade_proto.cpp:70] Successfully upgraded file specified using deprecated input fields.
W0610 20:30:27.431170 32573 upgrade_proto.cpp:72] Note that future Caffe releases will only support input layers and not input fields.
I0610 20:30:27.431394 32573 net.cpp:51] Initializing net from parameters: 
name: "VGG_ILSVRC_16_layers"
state {
  phase: TEST
  level: 0
}
layer {
  name: "input"
  type: "Input"
  top: "data"
  top: "im_info"
  input_param {
    shape {
      dim: 1
      dim: 3
      dim: 224
      dim: 224
    }
    shape {
      dim: 1
      dim: 3
    }
  }
}
layer {
  name: "conv1_1"
  type: "Convolution"
  bottom: "data"
  top: "conv1_1"
  param {
    lr_mult: 0
    decay_mult: 0
  }
  param {
    lr_mult: 0
    decay_mult: 0
  }
  convolution_param {
    num_output: 64
    pad: 1
    kernel_size: 3
  }
}
layer {
  name: "relu1_1"
  type: "ReLU"
  bottom: "conv1_1"
  top: "conv1_1"
}
layer {
  name: "conv1_2"
  type: "Convolution"
  bottom: "conv1_1"
  top: "conv1_2"
  param {
    lr_mult: 0
    decay_mult: 0
  }
  param {
    lr_mult: 0
    decay_mult: 0
  }
  convolution_param {
    num_output: 64
    pad: 1
    kernel_size: 3
  }
}
layer {
  name: "relu1_2"
  type: "ReLU"
  bottom: "conv1_2"
  top: "conv1_2"
}
layer {
  name: "pool1"
  type: "Pooling"
  bottom: "conv1_2"
  top: "pool1"
  pooling_param {
    pool: MAX
    kernel_size: 2
    stride: 2
  }
}
layer {
  name: "conv2_1"
  type: "Convolution"
  bottom: "pool1"
  top: "conv2_1"
  param {
    lr_mult: 0
    decay_mult: 0
  }
  param {
    lr_mult: 0
    decay_mult: 0
  }
  convolution_param {
    num_output: 128
    pad: 1
    kernel_size: 3
  }
}
layer {
  name: "relu2_1"
  type: "ReLU"
  bottom: "conv2_1"
  top: "conv2_1"
}
layer {
  name: "conv2_2"
  type: "Convolution"
  bottom: "conv2_1"
  top: "conv2_2"
  param {
    lr_mult: 0
    decay_mult: 0
  }
  param {
    lr_mult: 0
    decay_mult: 0
  }
  convolution_param {
    num_output: 128
    pad: 1
    kernel_size: 3
  }
}
layer {
  name: "relu2_2"
  type: "ReLU"
  bottom: "conv2_2"
  top: "conv2_2"
}
layer {
  name: "pool2"
  type: "Pooling"
  bottom: "conv2_2"
  top: "pool2"
  pooling_param {
    pool: MAX
    kernel_size: 2
    stride: 2
  }
}
layer {
  name: "conv3_1"
  type: "Convolution"
  bottom: "pool2"
  top: "conv3_1"
  param {
    lr_mult: 1
    decay_mult: 1
  }
  param {
    lr_mult: 2
    decay_mult: 0
  }
  convolution_param {
    num_output: 256
    pad: 1
    kernel_size: 3
  }
}
layer {
  name: "relu3_1"
  type: "ReLU"
  bottom: "conv3_1"
  top: "conv3_1"
}
layer {
  name: "conv3_2"
  type: "Convolution"
  bottom: "conv3_1"
  top: "conv3_2"
  param {
    lr_mult: 1
    decay_mult: 1
  }
  param {
    lr_mult: 2
    decay_mult: 0
  }
  convolution_param {
    num_output: 256
    pad: 1
    kernel_size: 3
  }
}
layer {
  name: "relu3_2"
  type: "ReLU"
  bottom: "conv3_2"
  top: "conv3_2"
}
layer {
  name: "conv3_3"
  type: "Convolution"
  bottom: "conv3_2"
  top: "conv3_3"
  param {
    lr_mult: 1
    decay_mult: 1
  }
  param {
    lr_mult: 2
    decay_mult: 0
  }
  convolution_param {
    num_output: 256
    pad: 1
    kernel_size: 3
  }
}
layer {
  name: "relu3_3"
  type: "ReLU"
  bottom: "conv3_3"
  top: "conv3_3"
}
layer {
  name: "pool3"
  type: "Pooling"
  bottom: "conv3_3"
  top: "pool3"
  pooling_param {
    pool: MAX
    kernel_size: 2
    stride: 2
  }
}
layer {
  name: "conv4_1"
  type: "Convolution"
  bottom: "pool3"
  top: "conv4_1"
  param {
    lr_mult: 1
    decay_mult: 1
  }
  param {
    lr_mult: 2
    decay_mult: 0
  }
  convolution_param {
    num_output: 512
    pad: 1
    kernel_size: 3
  }
}
layer {
  name: "relu4_1"
  type: "ReLU"
  bottom: "conv4_1"
  top: "conv4_1"
}
layer {
  name: "conv4_2"
  type: "Convolution"
  bottom: "conv4_1"
  top: "conv4_2"
  param {
    lr_mult: 1
    decay_mult: 1
  }
  param {
    lr_mult: 2
    decay_mult: 0
  }
  convolution_param {
    num_output: 512
    pad: 1
    kernel_size: 3
  }
}
layer {
  name: "relu4_2"
  type: "ReLU"
  bottom: "conv4_2"
  top: "conv4_2"
}
layer {
  name: "conv4_3"
  type: "Convolution"
  bottom: "conv4_2"
  top: "conv4_3"
  param {
    lr_mult: 1
    decay_mult: 1
  }
  param {
    lr_mult: 2
    decay_mult: 0
  }
  convolution_param {
    num_output: 512
    pad: 1
    kernel_size: 3
  }
}
layer {
  name: "relu4_3"
  type: "ReLU"
  bottom: "conv4_3"
  top: "conv4_3"
}
layer {
  name: "pool4"
  type: "Pooling"
  bottom: "conv4_3"
  top: "pool4"
  pooling_param {
    pool: MAX
    kernel_size: 2
    stride: 2
  }
}
layer {
  name: "conv5_1"
  type: "Convolution"
  bottom: "pool4"
  top: "conv5_1"
  param {
    lr_mult: 1
    decay_mult: 1
  }
  param {
    lr_mult: 2
    decay_mult: 0
  }
  convolution_param {
    num_output: 512
    pad: 1
    kernel_size: 3
  }
}
layer {
  name: "relu5_1"
  type: "ReLU"
  bottom: "conv5_1"
  top: "conv5_1"
}
layer {
  name: "conv5_2"
  type: "Convolution"
  bottom: "conv5_1"
  top: "conv5_2"
  param {
    lr_mult: 1
    decay_mult: 1
  }
  param {
    lr_mult: 2
    decay_mult: 0
  }
  convolution_param {
    num_output: 512
    pad: 1
    kernel_size: 3
  }
}
layer {
  name: "relu5_2"
  type: "ReLU"
  bottom: "conv5_2"
  top: "conv5_2"
}
layer {
  name: "conv5_3"
  type: "Convolution"
  bottom: "conv5_2"
  top: "conv5_3"
  param {
    lr_mult: 1
    decay_mult: 1
  }
  param {
    lr_mult: 2
    decay_mult: 0
  }
  convolution_param {
    num_output: 512
    pad: 1
    kernel_size: 3
  }
}
layer {
  name: "relu5_3"
  type: "ReLU"
  bottom: "conv5_3"
  top: "conv5_3"
}
layer {
  name: "rpn_conv/3x3"
  type: "Convolution"
  bottom: "conv5_3"
  top: "rpn/output"
  param {
    lr_mult: 1
    decay_mult: 1
  }
  param {
    lr_mult: 2
    decay_mult: 0
  }
  convolution_param {
    num_output: 512
    pad: 1
    kernel_size: 3
    stride: 1
    weight_filler {
      type: "gaussian"
      std: 0.01
    }
    bias_filler {
      type: "constant"
      value: 0
    }
  }
}
layer {
  name: "rpn_relu/3x3"
  type: "ReLU"
  bottom: "rpn/output"
  top: "rpn/output"
}
layer {
  name: "rpn_cls_score"
  type: "Convolution"
  bottom: "rpn/output"
  top: "rpn_cls_score"
  param {
    lr_mult: 1
    decay_mult: 1
  }
  param {
    lr_mult: 2
    decay_mult: 0
  }
  convolution_param {
    num_output: 18
    pad: 0
    kernel_size: 1
    stride: 1
    weight_filler {
      type: "gaussian"
      std: 0.01
    }
    bias_filler {
      type: "constant"
      value: 0
    }
  }
}
layer {
  name: "rpn_bbox_pred"
  type: "Convolution"
  bottom: "rpn/output"
  top: "rpn_bbox_pred"
  param {
    lr_mult: 1
    decay_mult: 1
  }
  param {
    lr_mult: 2
    decay_mult: 0
  }
  convolution_param {
    num_output: 36
    pad: 0
    kernel_size: 1
    stride: 1
    weight_filler {
      type: "gaussian"
      std: 0.01
    }
    bias_filler {
      type: "constant"
      value: 0
    }
  }
}
layer {
  name: "rpn_cls_score_reshape"
  type: "Reshape"
  bottom: "rpn_cls_score"
  top: "rpn_cls_score_reshape"
  reshape_param {
    shape {
      dim: 0
      dim: 2
      dim: -1
      dim: 0
    }
  }
}
layer {
  name: "rpn_cls_prob"
  type: "Softmax"
  bottom: "rpn_cls_score_reshape"
  top: "rpn_cls_prob"
}
layer {
  name: "rpn_cls_prob_reshape"
  type: "Reshape"
  bottom: "rpn_cls_prob"
  top: "rpn_cls_prob_reshape"
  reshape_param {
    shape {
      dim: 0
      dim: 18
      dim: -1
      dim: 0
    }
  }
}
layer {
  name: "proposal"
  type: "Python"
  bottom: "rpn_cls_prob_reshape"
  bottom: "rpn_bbox_pred"
  bottom: "im_info"
  top: "rois"
  python_param {
    module: "rpn.proposal_layer"
    layer: "ProposalLayer"
    param_str: "\'feat_stride\': 16"
  }
}
layer {
  name: "roi_pool5"
  type: "ROIPooling"
  bottom: "conv5_3"
  bottom: "rois"
  top: "pool5"
  roi_pooling_param {
    pooled_h: 7
    pooled_w: 7
    spatial_scale: 0.0625
  }
}
layer {
  name: "fc6"
  type: "InnerProduct"
  bottom: "pool5"
  top: "fc6"
  param {
    lr_mult: 1
    decay_mult: 1
  }
  param {
    lr_mult: 2
    decay_mult: 0
  }
  inner_product_param {
    num_output: 4096
  }
}
layer {
  name: "relu6"
  type: "ReLU"
  bottom: "fc6"
  top: "fc6"
}
layer {
  name: "drop6"
  type: "Dropout"
  bottom: "fc6"
  top: "fc6"
  dropout_param {
    dropout_ratio: 0.5
  }
}
layer {
  name: "fc7"
  type: "InnerProduct"
  bottom: "fc6"
  top: "fc7"
  param {
    lr_mult: 1
    decay_mult: 1
  }
  param {
    lr_mult: 2
    decay_mult: 0
  }
  inner_product_param {
    num_output: 4096
  }
}
layer {
  name: "relu7"
  type: "ReLU"
  bottom: "fc7"
  top: "fc7"
}
layer {
  name: "drop7"
  type: "Dropout"
  bottom: "fc7"
  top: "fc7"
  dropout_param {
    dropout_ratio: 0.5
  }
}
layer {
  name: "cls_score"
  type: "InnerProduct"
  bottom: "fc7"
  top: "cls_score"
  param {
    lr_mult: 1
    decay_mult: 1
  }
  param {
    lr_mult: 2
    decay_mult: 0
  }
  inner_product_param {
    num_output: 8
    weight_filler {
      type: "gaussian"
      std: 0.01
    }
    bias_filler {
      type: "constant"
      value: 0
    }
  }
}
layer {
  name: "bbox_pred"
  type: "InnerProduct"
  bottom: "fc7"
  top: "bbox_pred"
  param {
    lr_mult: 1
    decay_mult: 1
  }
  param {
    lr_mult: 2
    decay_mult: 0
  }
  inner_product_param {
    num_output: 32
    weight_filler {
      type: "gaussian"
      std: 0.001
    }
    bias_filler {
      type: "constant"
      value: 0
    }
  }
}
layer {
  name: "cls_prob"
  type: "Softmax"
  bottom: "cls_score"
  top: "cls_prob"
}
I0610 20:30:27.431552 32573 layer_factory.hpp:77] Creating layer input
I0610 20:30:27.431560 32573 net.cpp:84] Creating Layer input
I0610 20:30:27.431563 32573 net.cpp:380] input -> data
I0610 20:30:27.431571 32573 net.cpp:380] input -> im_info
I0610 20:30:27.711906 32573 net.cpp:122] Setting up input
I0610 20:30:27.711930 32573 net.cpp:129] Top shape: 1 3 224 224 (150528)
I0610 20:30:27.711933 32573 net.cpp:129] Top shape: 1 3 (3)
I0610 20:30:27.711935 32573 net.cpp:137] Memory required for data: 602124
I0610 20:30:27.711939 32573 layer_factory.hpp:77] Creating layer conv1_1
I0610 20:30:27.711953 32573 net.cpp:84] Creating Layer conv1_1
I0610 20:30:27.711956 32573 net.cpp:406] conv1_1 <- data
I0610 20:30:27.711962 32573 net.cpp:380] conv1_1 -> conv1_1
I0610 20:30:27.713906 32573 net.cpp:122] Setting up conv1_1
I0610 20:30:27.713918 32573 net.cpp:129] Top shape: 1 64 224 224 (3211264)
I0610 20:30:27.713920 32573 net.cpp:137] Memory required for data: 13447180
I0610 20:30:27.713929 32573 layer_factory.hpp:77] Creating layer relu1_1
I0610 20:30:27.713937 32573 net.cpp:84] Creating Layer relu1_1
I0610 20:30:27.713938 32573 net.cpp:406] relu1_1 <- conv1_1
I0610 20:30:27.713944 32573 net.cpp:367] relu1_1 -> conv1_1 (in-place)
I0610 20:30:27.713951 32573 net.cpp:122] Setting up relu1_1
I0610 20:30:27.713958 32573 net.cpp:129] Top shape: 1 64 224 224 (3211264)
I0610 20:30:27.713960 32573 net.cpp:137] Memory required for data: 26292236
I0610 20:30:27.713964 32573 layer_factory.hpp:77] Creating layer conv1_2
I0610 20:30:27.713971 32573 net.cpp:84] Creating Layer conv1_2
I0610 20:30:27.713974 32573 net.cpp:406] conv1_2 <- conv1_1
I0610 20:30:27.713980 32573 net.cpp:380] conv1_2 -> conv1_2
I0610 20:30:27.714275 32573 net.cpp:122] Setting up conv1_2
I0610 20:30:27.714282 32573 net.cpp:129] Top shape: 1 64 224 224 (3211264)
I0610 20:30:27.714284 32573 net.cpp:137] Memory required for data: 39137292
I0610 20:30:27.714290 32573 layer_factory.hpp:77] Creating layer relu1_2
I0610 20:30:27.714295 32573 net.cpp:84] Creating Layer relu1_2
I0610 20:30:27.714298 32573 net.cpp:406] relu1_2 <- conv1_2
I0610 20:30:27.714300 32573 net.cpp:367] relu1_2 -> conv1_2 (in-place)
I0610 20:30:27.714303 32573 net.cpp:122] Setting up relu1_2
I0610 20:30:27.714308 32573 net.cpp:129] Top shape: 1 64 224 224 (3211264)
I0610 20:30:27.714308 32573 net.cpp:137] Memory required for data: 51982348
I0610 20:30:27.714310 32573 layer_factory.hpp:77] Creating layer pool1
I0610 20:30:27.714316 32573 net.cpp:84] Creating Layer pool1
I0610 20:30:27.714320 32573 net.cpp:406] pool1 <- conv1_2
I0610 20:30:27.714326 32573 net.cpp:380] pool1 -> pool1
I0610 20:30:27.714368 32573 net.cpp:122] Setting up pool1
I0610 20:30:27.714373 32573 net.cpp:129] Top shape: 1 64 112 112 (802816)
I0610 20:30:27.714375 32573 net.cpp:137] Memory required for data: 55193612
I0610 20:30:27.714377 32573 layer_factory.hpp:77] Creating layer conv2_1
I0610 20:30:27.714385 32573 net.cpp:84] Creating Layer conv2_1
I0610 20:30:27.714388 32573 net.cpp:406] conv2_1 <- pool1
I0610 20:30:27.714393 32573 net.cpp:380] conv2_1 -> conv2_1
I0610 20:30:27.716328 32573 net.cpp:122] Setting up conv2_1
I0610 20:30:27.716339 32573 net.cpp:129] Top shape: 1 128 112 112 (1605632)
I0610 20:30:27.716344 32573 net.cpp:137] Memory required for data: 61616140
I0610 20:30:27.716354 32573 layer_factory.hpp:77] Creating layer relu2_1
I0610 20:30:27.716361 32573 net.cpp:84] Creating Layer relu2_1
I0610 20:30:27.716367 32573 net.cpp:406] relu2_1 <- conv2_1
I0610 20:30:27.716370 32573 net.cpp:367] relu2_1 -> conv2_1 (in-place)
I0610 20:30:27.716378 32573 net.cpp:122] Setting up relu2_1
I0610 20:30:27.716383 32573 net.cpp:129] Top shape: 1 128 112 112 (1605632)
I0610 20:30:27.716385 32573 net.cpp:137] Memory required for data: 68038668
I0610 20:30:27.716388 32573 layer_factory.hpp:77] Creating layer conv2_2
I0610 20:30:27.716398 32573 net.cpp:84] Creating Layer conv2_2
I0610 20:30:27.716399 32573 net.cpp:406] conv2_2 <- conv2_1
I0610 20:30:27.716403 32573 net.cpp:380] conv2_2 -> conv2_2
I0610 20:30:27.716734 32573 net.cpp:122] Setting up conv2_2
I0610 20:30:27.716742 32573 net.cpp:129] Top shape: 1 128 112 112 (1605632)
I0610 20:30:27.716744 32573 net.cpp:137] Memory required for data: 74461196
I0610 20:30:27.716748 32573 layer_factory.hpp:77] Creating layer relu2_2
I0610 20:30:27.716753 32573 net.cpp:84] Creating Layer relu2_2
I0610 20:30:27.716754 32573 net.cpp:406] relu2_2 <- conv2_2
I0610 20:30:27.716758 32573 net.cpp:367] relu2_2 -> conv2_2 (in-place)
I0610 20:30:27.716761 32573 net.cpp:122] Setting up relu2_2
I0610 20:30:27.716768 32573 net.cpp:129] Top shape: 1 128 112 112 (1605632)
I0610 20:30:27.716769 32573 net.cpp:137] Memory required for data: 80883724
I0610 20:30:27.716770 32573 layer_factory.hpp:77] Creating layer pool2
I0610 20:30:27.716775 32573 net.cpp:84] Creating Layer pool2
I0610 20:30:27.716779 32573 net.cpp:406] pool2 <- conv2_2
I0610 20:30:27.716784 32573 net.cpp:380] pool2 -> pool2
I0610 20:30:27.716826 32573 net.cpp:122] Setting up pool2
I0610 20:30:27.716831 32573 net.cpp:129] Top shape: 1 128 56 56 (401408)
I0610 20:30:27.716833 32573 net.cpp:137] Memory required for data: 82489356
I0610 20:30:27.716836 32573 layer_factory.hpp:77] Creating layer conv3_1
I0610 20:30:27.716842 32573 net.cpp:84] Creating Layer conv3_1
I0610 20:30:27.716845 32573 net.cpp:406] conv3_1 <- pool2
I0610 20:30:27.716848 32573 net.cpp:380] conv3_1 -> conv3_1
I0610 20:30:27.717252 32573 net.cpp:122] Setting up conv3_1
I0610 20:30:27.717259 32573 net.cpp:129] Top shape: 1 256 56 56 (802816)
I0610 20:30:27.717263 32573 net.cpp:137] Memory required for data: 85700620
I0610 20:30:27.717273 32573 layer_factory.hpp:77] Creating layer relu3_1
I0610 20:30:27.717278 32573 net.cpp:84] Creating Layer relu3_1
I0610 20:30:27.717283 32573 net.cpp:406] relu3_1 <- conv3_1
I0610 20:30:27.717288 32573 net.cpp:367] relu3_1 -> conv3_1 (in-place)
I0610 20:30:27.717293 32573 net.cpp:122] Setting up relu3_1
I0610 20:30:27.717298 32573 net.cpp:129] Top shape: 1 256 56 56 (802816)
I0610 20:30:27.717301 32573 net.cpp:137] Memory required for data: 88911884
I0610 20:30:27.717304 32573 layer_factory.hpp:77] Creating layer conv3_2
I0610 20:30:27.717312 32573 net.cpp:84] Creating Layer conv3_2
I0610 20:30:27.717316 32573 net.cpp:406] conv3_2 <- conv3_1
I0610 20:30:27.717320 32573 net.cpp:380] conv3_2 -> conv3_2
I0610 20:30:27.718755 32573 net.cpp:122] Setting up conv3_2
I0610 20:30:27.718766 32573 net.cpp:129] Top shape: 1 256 56 56 (802816)
I0610 20:30:27.718770 32573 net.cpp:137] Memory required for data: 92123148
I0610 20:30:27.718773 32573 layer_factory.hpp:77] Creating layer relu3_2
I0610 20:30:27.718780 32573 net.cpp:84] Creating Layer relu3_2
I0610 20:30:27.718782 32573 net.cpp:406] relu3_2 <- conv3_2
I0610 20:30:27.718787 32573 net.cpp:367] relu3_2 -> conv3_2 (in-place)
I0610 20:30:27.718794 32573 net.cpp:122] Setting up relu3_2
I0610 20:30:27.718799 32573 net.cpp:129] Top shape: 1 256 56 56 (802816)
I0610 20:30:27.718802 32573 net.cpp:137] Memory required for data: 95334412
I0610 20:30:27.718806 32573 layer_factory.hpp:77] Creating layer conv3_3
I0610 20:30:27.718812 32573 net.cpp:84] Creating Layer conv3_3
I0610 20:30:27.718816 32573 net.cpp:406] conv3_3 <- conv3_2
I0610 20:30:27.718821 32573 net.cpp:380] conv3_3 -> conv3_3
I0610 20:30:27.720260 32573 net.cpp:122] Setting up conv3_3
I0610 20:30:27.720271 32573 net.cpp:129] Top shape: 1 256 56 56 (802816)
I0610 20:30:27.720274 32573 net.cpp:137] Memory required for data: 98545676
I0610 20:30:27.720278 32573 layer_factory.hpp:77] Creating layer relu3_3
I0610 20:30:27.720286 32573 net.cpp:84] Creating Layer relu3_3
I0610 20:30:27.720289 32573 net.cpp:406] relu3_3 <- conv3_3
I0610 20:30:27.720293 32573 net.cpp:367] relu3_3 -> conv3_3 (in-place)
I0610 20:30:27.720297 32573 net.cpp:122] Setting up relu3_3
I0610 20:30:27.720301 32573 net.cpp:129] Top shape: 1 256 56 56 (802816)
I0610 20:30:27.720302 32573 net.cpp:137] Memory required for data: 101756940
I0610 20:30:27.720304 32573 layer_factory.hpp:77] Creating layer pool3
I0610 20:30:27.720309 32573 net.cpp:84] Creating Layer pool3
I0610 20:30:27.720312 32573 net.cpp:406] pool3 <- conv3_3
I0610 20:30:27.720315 32573 net.cpp:380] pool3 -> pool3
I0610 20:30:27.720355 32573 net.cpp:122] Setting up pool3
I0610 20:30:27.720360 32573 net.cpp:129] Top shape: 1 256 28 28 (200704)
I0610 20:30:27.720362 32573 net.cpp:137] Memory required for data: 102559756
I0610 20:30:27.720365 32573 layer_factory.hpp:77] Creating layer conv4_1
I0610 20:30:27.720371 32573 net.cpp:84] Creating Layer conv4_1
I0610 20:30:27.720373 32573 net.cpp:406] conv4_1 <- pool3
I0610 20:30:27.720376 32573 net.cpp:380] conv4_1 -> conv4_1
I0610 20:30:27.723417 32573 net.cpp:122] Setting up conv4_1
I0610 20:30:27.723429 32573 net.cpp:129] Top shape: 1 512 28 28 (401408)
I0610 20:30:27.723431 32573 net.cpp:137] Memory required for data: 104165388
I0610 20:30:27.723439 32573 layer_factory.hpp:77] Creating layer relu4_1
I0610 20:30:27.723446 32573 net.cpp:84] Creating Layer relu4_1
I0610 20:30:27.723450 32573 net.cpp:406] relu4_1 <- conv4_1
I0610 20:30:27.723457 32573 net.cpp:367] relu4_1 -> conv4_1 (in-place)
I0610 20:30:27.723464 32573 net.cpp:122] Setting up relu4_1
I0610 20:30:27.723469 32573 net.cpp:129] Top shape: 1 512 28 28 (401408)
I0610 20:30:27.723471 32573 net.cpp:137] Memory required for data: 105771020
I0610 20:30:27.723475 32573 layer_factory.hpp:77] Creating layer conv4_2
I0610 20:30:27.723481 32573 net.cpp:84] Creating Layer conv4_2
I0610 20:30:27.723484 32573 net.cpp:406] conv4_2 <- conv4_1
I0610 20:30:27.723489 32573 net.cpp:380] conv4_2 -> conv4_2
I0610 20:30:27.727389 32573 net.cpp:122] Setting up conv4_2
I0610 20:30:27.727408 32573 net.cpp:129] Top shape: 1 512 28 28 (401408)
I0610 20:30:27.727411 32573 net.cpp:137] Memory required for data: 107376652
I0610 20:30:27.727421 32573 layer_factory.hpp:77] Creating layer relu4_2
I0610 20:30:27.727427 32573 net.cpp:84] Creating Layer relu4_2
I0610 20:30:27.727432 32573 net.cpp:406] relu4_2 <- conv4_2
I0610 20:30:27.727440 32573 net.cpp:367] relu4_2 -> conv4_2 (in-place)
I0610 20:30:27.727445 32573 net.cpp:122] Setting up relu4_2
I0610 20:30:27.727449 32573 net.cpp:129] Top shape: 1 512 28 28 (401408)
I0610 20:30:27.727452 32573 net.cpp:137] Memory required for data: 108982284
I0610 20:30:27.727453 32573 layer_factory.hpp:77] Creating layer conv4_3
I0610 20:30:27.727459 32573 net.cpp:84] Creating Layer conv4_3
I0610 20:30:27.727463 32573 net.cpp:406] conv4_3 <- conv4_2
I0610 20:30:27.727466 32573 net.cpp:380] conv4_3 -> conv4_3
I0610 20:30:27.731303 32573 net.cpp:122] Setting up conv4_3
I0610 20:30:27.731324 32573 net.cpp:129] Top shape: 1 512 28 28 (401408)
I0610 20:30:27.731326 32573 net.cpp:137] Memory required for data: 110587916
I0610 20:30:27.731333 32573 layer_factory.hpp:77] Creating layer relu4_3
I0610 20:30:27.731338 32573 net.cpp:84] Creating Layer relu4_3
I0610 20:30:27.731343 32573 net.cpp:406] relu4_3 <- conv4_3
I0610 20:30:27.731346 32573 net.cpp:367] relu4_3 -> conv4_3 (in-place)
I0610 20:30:27.731353 32573 net.cpp:122] Setting up relu4_3
I0610 20:30:27.731356 32573 net.cpp:129] Top shape: 1 512 28 28 (401408)
I0610 20:30:27.731359 32573 net.cpp:137] Memory required for data: 112193548
I0610 20:30:27.731360 32573 layer_factory.hpp:77] Creating layer pool4
I0610 20:30:27.731365 32573 net.cpp:84] Creating Layer pool4
I0610 20:30:27.731367 32573 net.cpp:406] pool4 <- conv4_3
I0610 20:30:27.731371 32573 net.cpp:380] pool4 -> pool4
I0610 20:30:27.731415 32573 net.cpp:122] Setting up pool4
I0610 20:30:27.731420 32573 net.cpp:129] Top shape: 1 512 14 14 (100352)
I0610 20:30:27.731421 32573 net.cpp:137] Memory required for data: 112594956
I0610 20:30:27.731423 32573 layer_factory.hpp:77] Creating layer conv5_1
I0610 20:30:27.731431 32573 net.cpp:84] Creating Layer conv5_1
I0610 20:30:27.731434 32573 net.cpp:406] conv5_1 <- pool4
I0610 20:30:27.731438 32573 net.cpp:380] conv5_1 -> conv5_1
I0610 20:30:27.736974 32573 net.cpp:122] Setting up conv5_1
I0610 20:30:27.736992 32573 net.cpp:129] Top shape: 1 512 14 14 (100352)
I0610 20:30:27.736995 32573 net.cpp:137] Memory required for data: 112996364
I0610 20:30:27.737001 32573 layer_factory.hpp:77] Creating layer relu5_1
I0610 20:30:27.737007 32573 net.cpp:84] Creating Layer relu5_1
I0610 20:30:27.737010 32573 net.cpp:406] relu5_1 <- conv5_1
I0610 20:30:27.737016 32573 net.cpp:367] relu5_1 -> conv5_1 (in-place)
I0610 20:30:27.737021 32573 net.cpp:122] Setting up relu5_1
I0610 20:30:27.737027 32573 net.cpp:129] Top shape: 1 512 14 14 (100352)
I0610 20:30:27.737031 32573 net.cpp:137] Memory required for data: 113397772
I0610 20:30:27.737035 32573 layer_factory.hpp:77] Creating layer conv5_2
I0610 20:30:27.737042 32573 net.cpp:84] Creating Layer conv5_2
I0610 20:30:27.737046 32573 net.cpp:406] conv5_2 <- conv5_1
I0610 20:30:27.737051 32573 net.cpp:380] conv5_2 -> conv5_2
I0610 20:30:27.740903 32573 net.cpp:122] Setting up conv5_2
I0610 20:30:27.740922 32573 net.cpp:129] Top shape: 1 512 14 14 (100352)
I0610 20:30:27.740924 32573 net.cpp:137] Memory required for data: 113799180
I0610 20:30:27.740932 32573 layer_factory.hpp:77] Creating layer relu5_2
I0610 20:30:27.740939 32573 net.cpp:84] Creating Layer relu5_2
I0610 20:30:27.740942 32573 net.cpp:406] relu5_2 <- conv5_2
I0610 20:30:27.740947 32573 net.cpp:367] relu5_2 -> conv5_2 (in-place)
I0610 20:30:27.740955 32573 net.cpp:122] Setting up relu5_2
I0610 20:30:27.740962 32573 net.cpp:129] Top shape: 1 512 14 14 (100352)
I0610 20:30:27.740963 32573 net.cpp:137] Memory required for data: 114200588
I0610 20:30:27.740968 32573 layer_factory.hpp:77] Creating layer conv5_3
I0610 20:30:27.740975 32573 net.cpp:84] Creating Layer conv5_3
I0610 20:30:27.740978 32573 net.cpp:406] conv5_3 <- conv5_2
I0610 20:30:27.740983 32573 net.cpp:380] conv5_3 -> conv5_3
I0610 20:30:27.744858 32573 net.cpp:122] Setting up conv5_3
I0610 20:30:27.744875 32573 net.cpp:129] Top shape: 1 512 14 14 (100352)
I0610 20:30:27.744879 32573 net.cpp:137] Memory required for data: 114601996
I0610 20:30:27.744884 32573 layer_factory.hpp:77] Creating layer relu5_3
I0610 20:30:27.744891 32573 net.cpp:84] Creating Layer relu5_3
I0610 20:30:27.744894 32573 net.cpp:406] relu5_3 <- conv5_3
I0610 20:30:27.744900 32573 net.cpp:367] relu5_3 -> conv5_3 (in-place)
I0610 20:30:27.744906 32573 net.cpp:122] Setting up relu5_3
I0610 20:30:27.744910 32573 net.cpp:129] Top shape: 1 512 14 14 (100352)
I0610 20:30:27.744911 32573 net.cpp:137] Memory required for data: 115003404
I0610 20:30:27.744913 32573 layer_factory.hpp:77] Creating layer conv5_3_relu5_3_0_split
I0610 20:30:27.744917 32573 net.cpp:84] Creating Layer conv5_3_relu5_3_0_split
I0610 20:30:27.744920 32573 net.cpp:406] conv5_3_relu5_3_0_split <- conv5_3
I0610 20:30:27.744923 32573 net.cpp:380] conv5_3_relu5_3_0_split -> conv5_3_relu5_3_0_split_0
I0610 20:30:27.744930 32573 net.cpp:380] conv5_3_relu5_3_0_split -> conv5_3_relu5_3_0_split_1
I0610 20:30:27.744979 32573 net.cpp:122] Setting up conv5_3_relu5_3_0_split
I0610 20:30:27.744984 32573 net.cpp:129] Top shape: 1 512 14 14 (100352)
I0610 20:30:27.744987 32573 net.cpp:129] Top shape: 1 512 14 14 (100352)
I0610 20:30:27.744989 32573 net.cpp:137] Memory required for data: 115806220
I0610 20:30:27.744992 32573 layer_factory.hpp:77] Creating layer rpn_conv/3x3
I0610 20:30:27.745003 32573 net.cpp:84] Creating Layer rpn_conv/3x3
I0610 20:30:27.745007 32573 net.cpp:406] rpn_conv/3x3 <- conv5_3_relu5_3_0_split_0
I0610 20:30:27.745010 32573 net.cpp:380] rpn_conv/3x3 -> rpn/output
I0610 20:30:27.765506 32573 net.cpp:122] Setting up rpn_conv/3x3
I0610 20:30:27.765523 32573 net.cpp:129] Top shape: 1 512 14 14 (100352)
I0610 20:30:27.765525 32573 net.cpp:137] Memory required for data: 116207628
I0610 20:30:27.765532 32573 layer_factory.hpp:77] Creating layer rpn_relu/3x3
I0610 20:30:27.765538 32573 net.cpp:84] Creating Layer rpn_relu/3x3
I0610 20:30:27.765542 32573 net.cpp:406] rpn_relu/3x3 <- rpn/output
I0610 20:30:27.765547 32573 net.cpp:367] rpn_relu/3x3 -> rpn/output (in-place)
I0610 20:30:27.765552 32573 net.cpp:122] Setting up rpn_relu/3x3
I0610 20:30:27.765556 32573 net.cpp:129] Top shape: 1 512 14 14 (100352)
I0610 20:30:27.765558 32573 net.cpp:137] Memory required for data: 116609036
I0610 20:30:27.765560 32573 layer_factory.hpp:77] Creating layer rpn/output_rpn_relu/3x3_0_split
I0610 20:30:27.765564 32573 net.cpp:84] Creating Layer rpn/output_rpn_relu/3x3_0_split
I0610 20:30:27.765566 32573 net.cpp:406] rpn/output_rpn_relu/3x3_0_split <- rpn/output
I0610 20:30:27.765570 32573 net.cpp:380] rpn/output_rpn_relu/3x3_0_split -> rpn/output_rpn_relu/3x3_0_split_0
I0610 20:30:27.765574 32573 net.cpp:380] rpn/output_rpn_relu/3x3_0_split -> rpn/output_rpn_relu/3x3_0_split_1
I0610 20:30:27.765624 32573 net.cpp:122] Setting up rpn/output_rpn_relu/3x3_0_split
I0610 20:30:27.765628 32573 net.cpp:129] Top shape: 1 512 14 14 (100352)
I0610 20:30:27.765631 32573 net.cpp:129] Top shape: 1 512 14 14 (100352)
I0610 20:30:27.765632 32573 net.cpp:137] Memory required for data: 117411852
I0610 20:30:27.765635 32573 layer_factory.hpp:77] Creating layer rpn_cls_score
I0610 20:30:27.765646 32573 net.cpp:84] Creating Layer rpn_cls_score
I0610 20:30:27.765650 32573 net.cpp:406] rpn_cls_score <- rpn/output_rpn_relu/3x3_0_split_0
I0610 20:30:27.765655 32573 net.cpp:380] rpn_cls_score -> rpn_cls_score
I0610 20:30:27.766003 32573 net.cpp:122] Setting up rpn_cls_score
I0610 20:30:27.766010 32573 net.cpp:129] Top shape: 1 18 14 14 (3528)
I0610 20:30:27.766014 32573 net.cpp:137] Memory required for data: 117425964
I0610 20:30:27.766021 32573 layer_factory.hpp:77] Creating layer rpn_bbox_pred
I0610 20:30:27.766031 32573 net.cpp:84] Creating Layer rpn_bbox_pred
I0610 20:30:27.766033 32573 net.cpp:406] rpn_bbox_pred <- rpn/output_rpn_relu/3x3_0_split_1
I0610 20:30:27.766039 32573 net.cpp:380] rpn_bbox_pred -> rpn_bbox_pred
I0610 20:30:27.766465 32573 net.cpp:122] Setting up rpn_bbox_pred
I0610 20:30:27.766472 32573 net.cpp:129] Top shape: 1 36 14 14 (7056)
I0610 20:30:27.766476 32573 net.cpp:137] Memory required for data: 117454188
I0610 20:30:27.766481 32573 layer_factory.hpp:77] Creating layer rpn_cls_score_reshape
I0610 20:30:27.766491 32573 net.cpp:84] Creating Layer rpn_cls_score_reshape
I0610 20:30:27.766494 32573 net.cpp:406] rpn_cls_score_reshape <- rpn_cls_score
I0610 20:30:27.766500 32573 net.cpp:380] rpn_cls_score_reshape -> rpn_cls_score_reshape
I0610 20:30:27.766532 32573 net.cpp:122] Setting up rpn_cls_score_reshape
I0610 20:30:27.766537 32573 net.cpp:129] Top shape: 1 2 126 14 (3528)
I0610 20:30:27.766541 32573 net.cpp:137] Memory required for data: 117468300
I0610 20:30:27.766544 32573 layer_factory.hpp:77] Creating layer rpn_cls_prob
I0610 20:30:27.766549 32573 net.cpp:84] Creating Layer rpn_cls_prob
I0610 20:30:27.766553 32573 net.cpp:406] rpn_cls_prob <- rpn_cls_score_reshape
I0610 20:30:27.766558 32573 net.cpp:380] rpn_cls_prob -> rpn_cls_prob
I0610 20:30:27.766629 32573 net.cpp:122] Setting up rpn_cls_prob
I0610 20:30:27.766635 32573 net.cpp:129] Top shape: 1 2 126 14 (3528)
I0610 20:30:27.766639 32573 net.cpp:137] Memory required for data: 117482412
I0610 20:30:27.766643 32573 layer_factory.hpp:77] Creating layer rpn_cls_prob_reshape
I0610 20:30:27.766649 32573 net.cpp:84] Creating Layer rpn_cls_prob_reshape
I0610 20:30:27.766654 32573 net.cpp:406] rpn_cls_prob_reshape <- rpn_cls_prob
I0610 20:30:27.766659 32573 net.cpp:380] rpn_cls_prob_reshape -> rpn_cls_prob_reshape
I0610 20:30:27.766686 32573 net.cpp:122] Setting up rpn_cls_prob_reshape
I0610 20:30:27.766691 32573 net.cpp:129] Top shape: 1 18 14 14 (3528)
I0610 20:30:27.766693 32573 net.cpp:137] Memory required for data: 117496524
I0610 20:30:27.766696 32573 layer_factory.hpp:77] Creating layer proposal
I0610 20:30:27.767004 32573 net.cpp:84] Creating Layer proposal
I0610 20:30:27.767014 32573 net.cpp:406] proposal <- rpn_cls_prob_reshape
I0610 20:30:27.767019 32573 net.cpp:406] proposal <- rpn_bbox_pred
I0610 20:30:27.767022 32573 net.cpp:406] proposal <- im_info
I0610 20:30:27.767027 32573 net.cpp:380] proposal -> rois
I0610 20:30:27.767585 32573 net.cpp:122] Setting up proposal
I0610 20:30:27.767596 32573 net.cpp:129] Top shape: 1 5 (5)
I0610 20:30:27.767599 32573 net.cpp:137] Memory required for data: 117496544
I0610 20:30:27.767601 32573 layer_factory.hpp:77] Creating layer roi_pool5
I0610 20:30:27.767607 32573 net.cpp:84] Creating Layer roi_pool5
I0610 20:30:27.767611 32573 net.cpp:406] roi_pool5 <- conv5_3_relu5_3_0_split_1
I0610 20:30:27.767613 32573 net.cpp:406] roi_pool5 <- rois
I0610 20:30:27.767617 32573 net.cpp:380] roi_pool5 -> pool5
I0610 20:30:27.767623 32573 roi_pooling_layer.cpp:30] Spatial scale: 0.0625
I0610 20:30:27.767673 32573 net.cpp:122] Setting up roi_pool5
I0610 20:30:27.767679 32573 net.cpp:129] Top shape: 1 512 7 7 (25088)
I0610 20:30:27.767681 32573 net.cpp:137] Memory required for data: 117596896
I0610 20:30:27.767683 32573 layer_factory.hpp:77] Creating layer fc6
I0610 20:30:27.767688 32573 net.cpp:84] Creating Layer fc6
I0610 20:30:27.767691 32573 net.cpp:406] fc6 <- pool5
I0610 20:30:27.767695 32573 net.cpp:380] fc6 -> fc6
I0610 20:30:27.922322 32573 net.cpp:122] Setting up fc6
I0610 20:30:27.922346 32573 net.cpp:129] Top shape: 1 4096 (4096)
I0610 20:30:27.922349 32573 net.cpp:137] Memory required for data: 117613280
I0610 20:30:27.922363 32573 layer_factory.hpp:77] Creating layer relu6
I0610 20:30:27.922370 32573 net.cpp:84] Creating Layer relu6
I0610 20:30:27.922374 32573 net.cpp:406] relu6 <- fc6
I0610 20:30:27.922379 32573 net.cpp:367] relu6 -> fc6 (in-place)
I0610 20:30:27.922385 32573 net.cpp:122] Setting up relu6
I0610 20:30:27.922387 32573 net.cpp:129] Top shape: 1 4096 (4096)
I0610 20:30:27.922389 32573 net.cpp:137] Memory required for data: 117629664
I0610 20:30:27.922390 32573 layer_factory.hpp:77] Creating layer drop6
I0610 20:30:27.922395 32573 net.cpp:84] Creating Layer drop6
I0610 20:30:27.922399 32573 net.cpp:406] drop6 <- fc6
I0610 20:30:27.922401 32573 net.cpp:367] drop6 -> fc6 (in-place)
I0610 20:30:27.922430 32573 net.cpp:122] Setting up drop6
I0610 20:30:27.922435 32573 net.cpp:129] Top shape: 1 4096 (4096)
I0610 20:30:27.922436 32573 net.cpp:137] Memory required for data: 117646048
I0610 20:30:27.922439 32573 layer_factory.hpp:77] Creating layer fc7
I0610 20:30:27.922444 32573 net.cpp:84] Creating Layer fc7
I0610 20:30:27.922446 32573 net.cpp:406] fc7 <- fc6
I0610 20:30:27.922451 32573 net.cpp:380] fc7 -> fc7
I0610 20:30:27.948242 32573 net.cpp:122] Setting up fc7
I0610 20:30:27.948266 32573 net.cpp:129] Top shape: 1 4096 (4096)
I0610 20:30:27.948268 32573 net.cpp:137] Memory required for data: 117662432
I0610 20:30:27.948276 32573 layer_factory.hpp:77] Creating layer relu7
I0610 20:30:27.948283 32573 net.cpp:84] Creating Layer relu7
I0610 20:30:27.948287 32573 net.cpp:406] relu7 <- fc7
I0610 20:30:27.948294 32573 net.cpp:367] relu7 -> fc7 (in-place)
I0610 20:30:27.948300 32573 net.cpp:122] Setting up relu7
I0610 20:30:27.948303 32573 net.cpp:129] Top shape: 1 4096 (4096)
I0610 20:30:27.948304 32573 net.cpp:137] Memory required for data: 117678816
I0610 20:30:27.948307 32573 layer_factory.hpp:77] Creating layer drop7
I0610 20:30:27.948312 32573 net.cpp:84] Creating Layer drop7
I0610 20:30:27.948313 32573 net.cpp:406] drop7 <- fc7
I0610 20:30:27.948315 32573 net.cpp:367] drop7 -> fc7 (in-place)
I0610 20:30:27.948343 32573 net.cpp:122] Setting up drop7
I0610 20:30:27.948348 32573 net.cpp:129] Top shape: 1 4096 (4096)
I0610 20:30:27.948349 32573 net.cpp:137] Memory required for data: 117695200
I0610 20:30:27.948352 32573 layer_factory.hpp:77] Creating layer fc7_drop7_0_split
I0610 20:30:27.948361 32573 net.cpp:84] Creating Layer fc7_drop7_0_split
I0610 20:30:27.948366 32573 net.cpp:406] fc7_drop7_0_split <- fc7
I0610 20:30:27.948374 32573 net.cpp:380] fc7_drop7_0_split -> fc7_drop7_0_split_0
I0610 20:30:27.948382 32573 net.cpp:380] fc7_drop7_0_split -> fc7_drop7_0_split_1
I0610 20:30:27.948426 32573 net.cpp:122] Setting up fc7_drop7_0_split
I0610 20:30:27.948431 32573 net.cpp:129] Top shape: 1 4096 (4096)
I0610 20:30:27.948433 32573 net.cpp:129] Top shape: 1 4096 (4096)
I0610 20:30:27.948436 32573 net.cpp:137] Memory required for data: 117727968
I0610 20:30:27.948439 32573 layer_factory.hpp:77] Creating layer cls_score
I0610 20:30:27.948448 32573 net.cpp:84] Creating Layer cls_score
I0610 20:30:27.948453 32573 net.cpp:406] cls_score <- fc7_drop7_0_split_0
I0610 20:30:27.948462 32573 net.cpp:380] cls_score -> cls_score
I0610 20:30:27.948853 32573 net.cpp:122] Setting up cls_score
I0610 20:30:27.948858 32573 net.cpp:129] Top shape: 1 8 (8)
I0610 20:30:27.948860 32573 net.cpp:137] Memory required for data: 117728000
I0610 20:30:27.948864 32573 layer_factory.hpp:77] Creating layer bbox_pred
I0610 20:30:27.948869 32573 net.cpp:84] Creating Layer bbox_pred
I0610 20:30:27.948871 32573 net.cpp:406] bbox_pred <- fc7_drop7_0_split_1
I0610 20:30:27.948875 32573 net.cpp:380] bbox_pred -> bbox_pred
I0610 20:30:27.950925 32573 net.cpp:122] Setting up bbox_pred
I0610 20:30:27.950935 32573 net.cpp:129] Top shape: 1 32 (32)
I0610 20:30:27.950937 32573 net.cpp:137] Memory required for data: 117728128
I0610 20:30:27.950942 32573 layer_factory.hpp:77] Creating layer cls_prob
I0610 20:30:27.950947 32573 net.cpp:84] Creating Layer cls_prob
I0610 20:30:27.950949 32573 net.cpp:406] cls_prob <- cls_score
I0610 20:30:27.950953 32573 net.cpp:380] cls_prob -> cls_prob
I0610 20:30:27.951028 32573 net.cpp:122] Setting up cls_prob
I0610 20:30:27.951035 32573 net.cpp:129] Top shape: 1 8 (8)
I0610 20:30:27.951036 32573 net.cpp:137] Memory required for data: 117728160
I0610 20:30:27.951038 32573 net.cpp:200] cls_prob does not need backward computation.
I0610 20:30:27.951040 32573 net.cpp:200] bbox_pred does not need backward computation.
I0610 20:30:27.951043 32573 net.cpp:200] cls_score does not need backward computation.
I0610 20:30:27.951045 32573 net.cpp:200] fc7_drop7_0_split does not need backward computation.
…
