…
I1109 10:18:36.531844 24579 upgrade_proto.cpp:77] Attempting to upgrade batch norm layers using deprecated params: models/pascal_voc/MMCV5S8/faster_rcnn_end2end/train.prototxt
I1109 10:18:36.531860 24579 upgrade_proto.cpp:80] Successfully upgraded batch norm layers using deprecated params.
I1109 10:18:36.532147 24579 net.cpp:51] Initializing net from parameters: 
name: "MMCV5"
state {
  phase: TRAIN
}
layer {
  name: "input-data"
  type: "Python"
  top: "data"
  top: "im_info"
  top: "gt_boxes"
  top: "flags"
  python_param {
    module: "roi_data_layer.layer"
    layer: "RoIDataLayer"
    param_str: "\'num_classes\': 2"
  }
}
layer {
  name: "conv1_small"
  type: "Convolution"
  bottom: "data"
  top: "conv1"
  param {
    lr_mult: 1
    decay_mult: 1
  }
  param {
    lr_mult: 2
    decay_mult: 0
  }
  convolution_param {
    num_output: 16
    pad: 2
    kernel_size: 5
    stride: 2
    weight_filler {
      type: "xavier"
      std: 0.01
    }
    bias_filler {
      type: "constant"
      value: 0
    }
  }
}
layer {
  name: "conv1_small_bn"
  type: "BatchNorm"
  bottom: "conv1"
  top: "conv1"
  param {
    lr_mult: 0
    decay_mult: 0
  }
  param {
    lr_mult: 0
    decay_mult: 0
  }
  param {
    lr_mult: 0
    decay_mult: 0
  }
  batch_norm_param {
    use_global_stats: false
    moving_average_fraction: 0.9
    eps: 2e-05
  }
}
layer {
  name: "conv1_small_bn_scale"
  type: "Scale"
  bottom: "conv1"
  top: "conv1"
  param {
    lr_mult: 1
    decay_mult: 0
  }
  param {
    lr_mult: 1
    decay_mult: 0
  }
  scale_param {
    filler {
      value: 1
    }
    bias_term: true
    bias_filler {
      value: 0
    }
  }
}
layer {
  name: "relu1"
  type: "ReLU"
  bottom: "conv1"
  top: "conv1"
}
layer {
  name: "mm_conv2"
  type: "Convolution"
  bottom: "conv1"
  top: "conv2"
  param {
    lr_mult: 1
    decay_mult: 1
  }
  param {
    lr_mult: 2
    decay_mult: 0
  }
  convolution_param {
    num_output: 32
    pad: 1
    kernel_size: 3
    stride: 2
    weight_filler {
      type: "xavier"
      std: 0.01
    }
    bias_filler {
      type: "constant"
      value: 1
    }
  }
}
layer {
  name: "mm_conv2_bn"
  type: "BatchNorm"
  bottom: "conv2"
  top: "conv2"
  param {
    lr_mult: 0
    decay_mult: 0
  }
  param {
    lr_mult: 0
    decay_mult: 0
  }
  param {
    lr_mult: 0
    decay_mult: 0
  }
  batch_norm_param {
    use_global_stats: false
    moving_average_fraction: 0.9
    eps: 2e-05
  }
}
layer {
  name: "mm_conv2_bn_scale"
  type: "Scale"
  bottom: "conv2"
  top: "conv2"
  param {
    lr_mult: 1
    decay_mult: 0
  }
  param {
    lr_mult: 1
    decay_mult: 0
  }
  scale_param {
    filler {
      value: 1
    }
    bias_term: true
    bias_filler {
      value: 0
    }
  }
}
layer {
  name: "relu2"
  type: "ReLU"
  bottom: "conv2"
  top: "conv2"
}
layer {
  name: "mm_conv3"
  type: "Convolution"
  bottom: "conv2"
  top: "conv3"
  param {
    lr_mult: 1
    decay_mult: 1
  }
  param {
    lr_mult: 2
    decay_mult: 0
  }
  convolution_param {
    num_output: 64
    pad: 1
    kernel_size: 3
    stride: 2
    weight_filler {
      type: "xavier"
      std: 0.01
    }
    bias_filler {
      type: "constant"
      value: 0
    }
  }
}
layer {
  name: "mm_conv3_bn"
  type: "BatchNorm"
  bottom: "conv3"
  top: "conv3"
  param {
    lr_mult: 0
    decay_mult: 0
  }
  param {
    lr_mult: 0
    decay_mult: 0
  }
  param {
    lr_mult: 0
    decay_mult: 0
  }
  batch_norm_param {
    use_global_stats: false
    moving_average_fraction: 0.9
    eps: 2e-05
  }
}
layer {
  name: "mm_conv3_bn_scale"
  type: "Scale"
  bottom: "conv3"
  top: "conv3"
  param {
    lr_mult: 1
    decay_mult: 0
  }
  param {
    lr_mult: 1
    decay_mult: 0
  }
  scale_param {
    filler {
      value: 1
    }
    bias_term: true
    bias_filler {
      value: 0
    }
  }
}
layer {
  name: "relu3"
  type: "ReLU"
  bottom: "conv3"
  top: "conv3"
}
layer {
  name: "mm_conv4"
  type: "Convolution"
  bottom: "conv3"
  top: "conv4"
  param {
    lr_mult: 1
    decay_mult: 1
  }
  param {
    lr_mult: 2
    decay_mult: 0
  }
  convolution_param {
    num_output: 64
    pad: 1
    kernel_size: 3
    weight_filler {
      type: "xavier"
      std: 0.01
    }
    bias_filler {
      type: "constant"
      value: 1
    }
  }
}
layer {
  name: "mm_conv4_bn"
  type: "BatchNorm"
  bottom: "conv4"
  top: "conv4"
  param {
    lr_mult: 0
    decay_mult: 0
  }
  param {
    lr_mult: 0
    decay_mult: 0
  }
  param {
    lr_mult: 0
    decay_mult: 0
  }
  batch_norm_param {
    use_global_stats: false
    moving_average_fraction: 0.9
    eps: 2e-05
  }
}
layer {
  name: "mm_conv4_bn_scale"
  type: "Scale"
  bottom: "conv4"
  top: "conv4"
  param {
    lr_mult: 1
    decay_mult: 0
  }
  param {
    lr_mult: 1
    decay_mult: 0
  }
  scale_param {
    filler {
      value: 1
    }
    bias_term: true
    bias_filler {
      value: 0
    }
  }
}
layer {
  name: "relu4"
  type: "ReLU"
  bottom: "conv4"
  top: "conv4"
}
layer {
  name: "mm_conv5"
  type: "Convolution"
  bottom: "conv4"
  top: "conv5"
  param {
    lr_mult: 1
    decay_mult: 1
  }
  param {
    lr_mult: 2
    decay_mult: 0
  }
  convolution_param {
    num_output: 64
    pad: 1
    kernel_size: 3
    weight_filler {
      type: "xavier"
      std: 0.01
    }
    bias_filler {
      type: "constant"
      value: 1
    }
  }
}
layer {
  name: "mm_conv5_bn"
  type: "BatchNorm"
  bottom: "conv5"
  top: "conv5"
  param {
    lr_mult: 0
    decay_mult: 0
  }
  param {
    lr_mult: 0
    decay_mult: 0
  }
  param {
    lr_mult: 0
    decay_mult: 0
  }
  batch_norm_param {
    use_global_stats: false
    moving_average_fraction: 0.9
    eps: 2e-05
  }
}
layer {
  name: "mm_conv5_bn_scale"
  type: "Scale"
  bottom: "conv5"
  top: "conv5"
  param {
    lr_mult: 1
    decay_mult: 0
  }
  param {
    lr_mult: 1
    decay_mult: 0
  }
  scale_param {
    filler {
      value: 1
    }
    bias_term: true
    bias_filler {
      value: 0
    }
  }
}
layer {
  name: "relu5"
  type: "ReLU"
  bottom: "conv5"
  top: "conv5"
}
layer {
  name: "rpn_conv/3x3"
  type: "Convolution"
  bottom: "conv5"
  top: "rpn/output"
  param {
    lr_mult: 1
  }
  param {
    lr_mult: 2
  }
  convolution_param {
    num_output: 64
    pad: 1
    kernel_size: 3
    stride: 1
    weight_filler {
      type: "xavier"
      std: 0.01
    }
    bias_filler {
      type: "constant"
      value: 0
    }
  }
}
layer {
  name: "rpn_conv/3x3_bn"
  type: "BatchNorm"
  bottom: "rpn/output"
  top: "rpn/output"
  param {
    lr_mult: 0
    decay_mult: 0
  }
  param {
    lr_mult: 0
    decay_mult: 0
  }
  param {
    lr_mult: 0
    decay_mult: 0
  }
  batch_norm_param {
    use_global_stats: false
    moving_average_fraction: 0.9
    eps: 2e-05
  }
}
layer {
  name: "rpn_conv/3x3_bn_scale"
  type: "Scale"
  bottom: "rpn/output"
  top: "rpn/output"
  param {
    lr_mult: 1
    decay_mult: 0
  }
  param {
    lr_mult: 1
    decay_mult: 0
  }
  scale_param {
    filler {
      value: 1
    }
    bias_term: true
    bias_filler {
      value: 0
    }
  }
}
layer {
  name: "rpn_relu/3x3"
  type: "ReLU"
  bottom: "rpn/output"
  top: "rpn/output"
}
layer {
  name: "rpn_cls_score"
  type: "Convolution"
  bottom: "rpn/output"
  top: "rpn_cls_score"
  param {
    lr_mult: 1
  }
  param {
    lr_mult: 2
  }
  convolution_param {
    num_output: 18
    pad: 0
    kernel_size: 1
    stride: 1
    weight_filler {
      type: "xavier"
      std: 0.01
    }
    bias_filler {
      type: "constant"
      value: 0
    }
  }
}
layer {
  name: "rpn_bbox_pred"
  type: "Convolution"
  bottom: "rpn/output"
  top: "rpn_bbox_pred"
  param {
    lr_mult: 1
  }
  param {
    lr_mult: 2
  }
  convolution_param {
    num_output: 36
    pad: 0
    kernel_size: 1
    stride: 1
    weight_filler {
      type: "xavier"
      std: 0.01
    }
    bias_filler {
      type: "constant"
      value: 0
    }
  }
}
layer {
  name: "rpn_cls_score_reshape"
  type: "Reshape"
  bottom: "rpn_cls_score"
  top: "rpn_cls_score_reshape"
  reshape_param {
    shape {
      dim: 0
      dim: 2
      dim: -1
      dim: 0
    }
  }
}
layer {
  name: "rpn-data"
  type: "Python"
  bottom: "rpn_cls_score"
  bottom: "gt_boxes"
  bottom: "im_info"
  bottom: "data"
  bottom: "flags"
  top: "rpn_labels"
  top: "rpn_bbox_targets"
  top: "rpn_bbox_inside_weights"
  top: "rpn_bbox_outside_weights"
  python_param {
    module: "rpn.anchor_target_layer"
    layer: "AnchorTargetLayer"
    param_str: "\'feat_stride\': 8"
  }
}
layer {
  name: "rpn_loss_cls"
  type: "SoftmaxWithLoss"
  bottom: "rpn_cls_score_reshape"
  bottom: "rpn_labels"
  top: "rpn_cls_loss"
  loss_weight: 2
  propagate_down: true
  propagate_down: false
  loss_param {
    ignore_label: -1
    normalize: true
  }
}
layer {
  name: "rpn_loss_bbox"
  type: "SmoothL1Loss"
  bottom: "rpn_bbox_pred"
  bottom: "rpn_bbox_targets"
  bottom: "rpn_bbox_inside_weights"
  bottom: "rpn_bbox_outside_weights"
  top: "rpn_loss_bbox"
  loss_weight: 1
  smooth_l1_loss_param {
    sigma: 3
  }
}
layer {
  name: "rpn_cls_prob"
  type: "Softmax"
  bottom: "rpn_cls_score_reshape"
  top: "rpn_cls_prob"
}
layer {
  name: "rpn_cls_prob_reshape"
  type: "Reshape"
  bottom: "rpn_cls_prob"
  top: "rpn_cls_prob_reshape"
  reshape_param {
    shape {
      dim: 0
      dim: 18
      dim: -1
      dim: 0
    }
  }
}
layer {
  name: "proposal"
  type: "Python"
  bottom: "rpn_cls_prob_reshape"
  bottom: "rpn_bbox_pred"
  bottom: "im_info"
  top: "rpn_rois"
  python_param {
    module: "rpn.proposal_layer"
    layer: "ProposalLayer"
    param_str: "\'feat_stride\': 8"
  }
}
layer {
  name: "roi-data"
  type: "Python"
  bottom: "rpn_rois"
  bottom: "gt_boxes"
  bottom: "flags"
  top: "rois"
  top: "labels"
  top: "bbox_targets"
  top: "bbox_inside_weights"
  top: "bbox_outside_weights"
  python_param {
    module: "rpn.proposal_target_layer"
    layer: "ProposalTargetLayer"
    param_str: "\'num_classes\': 2"
  }
}
layer {
  name: "roi_pool_conv5"
  type: "ROIPooling"
  bottom: "conv5"
  bottom: "rois"
  top: "roi_pool_conv5"
  roi_pooling_param {
    pooled_h: 4
    pooled_w: 4
    spatial_scale: 0.125
  }
}
layer {
  name: "mm_fc6_L"
  type: "InnerProduct"
  bottom: "roi_pool_conv5"
  top: "fc6_l"
  param {
    lr_mult: 0
    decay_mult: 0
  }
  param {
    lr_mult: 0
    decay_mult: 0
  }
  inner_product_param {
    num_output: 128
    weight_filler {
      type: "xavier"
      std: 0.005
    }
    bias_filler {
      type: "constant"
      value: 1
    }
  }
}
layer {
  name: "mm_fc6_L_bn"
  type: "BatchNorm"
  bottom: "fc6_l"
  top: "fc6_l"
  param {
    lr_mult: 0
    decay_mult: 0
  }
  param {
    lr_mult: 0
    decay_mult: 0
  }
  param {
    lr_mult: 0
    decay_mult: 0
  }
  batch_norm_param {
    use_global_stats: false
    moving_average_fraction: 0.9
    eps: 2e-05
  }
}
layer {
  name: "mm_fc6_L_bn_scale"
  type: "Scale"
  bottom: "fc6_l"
  top: "fc6_l"
  param {
    lr_mult: 0
    decay_mult: 0
  }
  param {
    lr_mult: 0
    decay_mult: 0
  }
  scale_param {
    filler {
      value: 1
    }
    bias_term: true
    bias_filler {
      value: 0
    }
  }
}
layer {
  name: "relu6_L"
  type: "ReLU"
  bottom: "fc6_l"
  top: "fc6_l"
}
layer {
  name: "mm_fc6_U"
  type: "InnerProduct"
  bottom: "fc6_l"
  top: "fc6_u"
  param {
    lr_mult: 0
    decay_mult: 0
  }
  param {
    lr_mult: 0
    decay_mult: 0
  }
  inner_product_param {
    num_output: 512
    weight_filler {
      type: "xavier"
      std: 0.005
    }
    bias_filler {
      type: "constant"
      value: 1
    }
  }
}
layer {
  name: "mm_fc6_U_bn"
  type: "BatchNorm"
  bottom: "fc6_u"
  top: "fc6_u"
  param {
    lr_mult: 0
    decay_mult: 0
  }
  param {
    lr_mult: 0
    decay_mult: 0
  }
  param {
    lr_mult: 0
    decay_mult: 0
  }
  batch_norm_param {
    use_global_stats: false
    moving_average_fraction: 0.9
    eps: 2e-05
  }
}
layer {
  name: "mm_fc6_U_bn_scale"
  type: "Scale"
  bottom: "fc6_u"
  top: "fc6_u"
  param {
    lr_mult: 0
    decay_mult: 0
  }
  param {
    lr_mult: 0
    decay_mult: 0
  }
  scale_param {
    filler {
      value: 1
    }
    bias_term: true
    bias_filler {
      value: 0
    }
  }
}
layer {
  name: "relu6_U"
  type: "ReLU"
  bottom: "fc6_u"
  top: "fc6_u"
}
layer {
  name: "cls_score"
  type: "InnerProduct"
  bottom: "fc6_u"
  top: "cls_score"
  param {
    lr_mult: 0
  }
  param {
    lr_mult: 0
  }
  inner_product_param {
    num_output: 2
    weight_filler {
      type: "xavier"
      std: 0.01
    }
    bias_filler {
      type: "constant"
      value: 0
    }
  }
}
layer {
  name: "bbox_pred"
  type: "InnerProduct"
  bottom: "fc6_u"
  top: "bbox_pred"
  param {
    lr_mult: 0
  }
  param {
    lr_mult: 0
  }
  inner_product_param {
    num_output: 8
    weight_filler {
      type: "xavier"
      std: 0.001
    }
    bias_filler {
      type: "constant"
      value: 0
    }
  }
}
layer {
  name: "loss_cls"
  type: "SoftmaxWithLoss"
  bottom: "cls_score"
  bottom: "labels"
  top: "cls_loss"
  loss_weight: 0
  propagate_down: false
  propagate_down: false
  loss_param {
    ignore_label: -1
    normalize: true
  }
}
layer {
  name: "loss_bbox"
  type: "SmoothL1Loss"
  bottom: "bbox_pred"
  bottom: "bbox_targets"
  bottom: "bbox_inside_weights"
  bottom: "bbox_outside_weights"
  top: "bbox_loss"
  loss_weight: 0
  propagate_down: false
  propagate_down: false
  propagate_down: false
  propagate_down: false
}
I1109 10:18:36.532336 24579 layer_factory.hpp:77] Creating layer input-data
I1109 10:18:36.621937 24579 net.cpp:84] Creating Layer input-data
I1109 10:18:36.621973 24579 net.cpp:380] input-data -> data
I1109 10:18:36.621987 24579 net.cpp:380] input-data -> im_info
I1109 10:18:36.621995 24579 net.cpp:380] input-data -> gt_boxes
I1109 10:18:36.622002 24579 net.cpp:380] input-data -> flags
RoiDataLayer: name_to_top: {'flags': 3, 'gt_boxes': 2, 'data': 0, 'im_info': 1}
I1109 10:18:36.961215 24579 net.cpp:122] Setting up input-data
I1109 10:18:36.961238 24579 net.cpp:129] Top shape: 8 3 144 256 (884736)
I1109 10:18:36.961243 24579 net.cpp:129] Top shape: 1 3 (3)
I1109 10:18:36.961246 24579 net.cpp:129] Top shape: 1 4 (4)
I1109 10:18:36.961247 24579 net.cpp:129] Top shape: 1 1 (1)
I1109 10:18:36.961249 24579 net.cpp:137] Memory required for data: 3538976
I1109 10:18:36.961256 24579 layer_factory.hpp:77] Creating layer data_input-data_0_split
I1109 10:18:36.961268 24579 net.cpp:84] Creating Layer data_input-data_0_split
I1109 10:18:36.961272 24579 net.cpp:406] data_input-data_0_split <- data
I1109 10:18:36.961278 24579 net.cpp:380] data_input-data_0_split -> data_input-data_0_split_0
I1109 10:18:36.961288 24579 net.cpp:380] data_input-data_0_split -> data_input-data_0_split_1
I1109 10:18:36.961339 24579 net.cpp:122] Setting up data_input-data_0_split
I1109 10:18:36.961345 24579 net.cpp:129] Top shape: 8 3 144 256 (884736)
I1109 10:18:36.961347 24579 net.cpp:129] Top shape: 8 3 144 256 (884736)
I1109 10:18:36.961349 24579 net.cpp:137] Memory required for data: 10616864
I1109 10:18:36.961351 24579 layer_factory.hpp:77] Creating layer im_info_input-data_1_split
I1109 10:18:36.961357 24579 net.cpp:84] Creating Layer im_info_input-data_1_split
I1109 10:18:36.961360 24579 net.cpp:406] im_info_input-data_1_split <- im_info
I1109 10:18:36.961365 24579 net.cpp:380] im_info_input-data_1_split -> im_info_input-data_1_split_0
I1109 10:18:36.961370 24579 net.cpp:380] im_info_input-data_1_split -> im_info_input-data_1_split_1
I1109 10:18:36.961406 24579 net.cpp:122] Setting up im_info_input-data_1_split
I1109 10:18:36.961410 24579 net.cpp:129] Top shape: 1 3 (3)
I1109 10:18:36.961413 24579 net.cpp:129] Top shape: 1 3 (3)
I1109 10:18:36.961414 24579 net.cpp:137] Memory required for data: 10616888
I1109 10:18:36.961416 24579 layer_factory.hpp:77] Creating layer gt_boxes_input-data_2_split
I1109 10:18:36.961421 24579 net.cpp:84] Creating Layer gt_boxes_input-data_2_split
I1109 10:18:36.961424 24579 net.cpp:406] gt_boxes_input-data_2_split <- gt_boxes
I1109 10:18:36.961427 24579 net.cpp:380] gt_boxes_input-data_2_split -> gt_boxes_input-data_2_split_0
I1109 10:18:36.961436 24579 net.cpp:380] gt_boxes_input-data_2_split -> gt_boxes_input-data_2_split_1
I1109 10:18:36.961469 24579 net.cpp:122] Setting up gt_boxes_input-data_2_split
I1109 10:18:36.961474 24579 net.cpp:129] Top shape: 1 4 (4)
I1109 10:18:36.961477 24579 net.cpp:129] Top shape: 1 4 (4)
I1109 10:18:36.961478 24579 net.cpp:137] Memory required for data: 10616920
I1109 10:18:36.961480 24579 layer_factory.hpp:77] Creating layer flags_input-data_3_split
I1109 10:18:36.961489 24579 net.cpp:84] Creating Layer flags_input-data_3_split
I1109 10:18:36.961493 24579 net.cpp:406] flags_input-data_3_split <- flags
I1109 10:18:36.961496 24579 net.cpp:380] flags_input-data_3_split -> flags_input-data_3_split_0
I1109 10:18:36.961500 24579 net.cpp:380] flags_input-data_3_split -> flags_input-data_3_split_1
I1109 10:18:36.961532 24579 net.cpp:122] Setting up flags_input-data_3_split
I1109 10:18:36.961537 24579 net.cpp:129] Top shape: 1 1 (1)
I1109 10:18:36.961539 24579 net.cpp:129] Top shape: 1 1 (1)
I1109 10:18:36.961540 24579 net.cpp:137] Memory required for data: 10616928
I1109 10:18:36.961542 24579 layer_factory.hpp:77] Creating layer conv1_small
I1109 10:18:36.961555 24579 net.cpp:84] Creating Layer conv1_small
I1109 10:18:36.961557 24579 net.cpp:406] conv1_small <- data_input-data_0_split_0
I1109 10:18:36.961562 24579 net.cpp:380] conv1_small -> conv1
I1109 10:18:36.964108 24579 net.cpp:122] Setting up conv1_small
I1109 10:18:36.964129 24579 net.cpp:129] Top shape: 8 16 72 128 (1179648)
I1109 10:18:36.964133 24579 net.cpp:137] Memory required for data: 15335520
I1109 10:18:36.964144 24579 layer_factory.hpp:77] Creating layer conv1_small_bn
I1109 10:18:36.964154 24579 net.cpp:84] Creating Layer conv1_small_bn
I1109 10:18:36.964161 24579 net.cpp:406] conv1_small_bn <- conv1
I1109 10:18:36.964167 24579 net.cpp:367] conv1_small_bn -> conv1 (in-place)
I1109 10:18:36.964423 24579 net.cpp:122] Setting up conv1_small_bn
I1109 10:18:36.964429 24579 net.cpp:129] Top shape: 8 16 72 128 (1179648)
I1109 10:18:36.964432 24579 net.cpp:137] Memory required for data: 20054112
I1109 10:18:36.964439 24579 layer_factory.hpp:77] Creating layer conv1_small_bn_scale
I1109 10:18:36.964449 24579 net.cpp:84] Creating Layer conv1_small_bn_scale
I1109 10:18:36.964452 24579 net.cpp:406] conv1_small_bn_scale <- conv1
I1109 10:18:36.964455 24579 net.cpp:367] conv1_small_bn_scale -> conv1 (in-place)
I1109 10:18:36.964500 24579 layer_factory.hpp:77] Creating layer conv1_small_bn_scale
I1109 10:18:36.964638 24579 net.cpp:122] Setting up conv1_small_bn_scale
I1109 10:18:36.964646 24579 net.cpp:129] Top shape: 8 16 72 128 (1179648)
I1109 10:18:36.964648 24579 net.cpp:137] Memory required for data: 24772704
I1109 10:18:36.964653 24579 layer_factory.hpp:77] Creating layer relu1
I1109 10:18:36.964659 24579 net.cpp:84] Creating Layer relu1
I1109 10:18:36.964663 24579 net.cpp:406] relu1 <- conv1
I1109 10:18:36.964668 24579 net.cpp:367] relu1 -> conv1 (in-place)
I1109 10:18:36.964671 24579 net.cpp:122] Setting up relu1
I1109 10:18:36.964675 24579 net.cpp:129] Top shape: 8 16 72 128 (1179648)
I1109 10:18:36.964678 24579 net.cpp:137] Memory required for data: 29491296
I1109 10:18:36.964679 24579 layer_factory.hpp:77] Creating layer mm_conv2
I1109 10:18:36.964686 24579 net.cpp:84] Creating Layer mm_conv2
I1109 10:18:36.964689 24579 net.cpp:406] mm_conv2 <- conv1
I1109 10:18:36.964694 24579 net.cpp:380] mm_conv2 -> conv2
I1109 10:18:36.964995 24579 net.cpp:122] Setting up mm_conv2
I1109 10:18:36.965001 24579 net.cpp:129] Top shape: 8 32 36 64 (589824)
I1109 10:18:36.965003 24579 net.cpp:137] Memory required for data: 31850592
I1109 10:18:36.965008 24579 layer_factory.hpp:77] Creating layer mm_conv2_bn
I1109 10:18:36.965018 24579 net.cpp:84] Creating Layer mm_conv2_bn
I1109 10:18:36.965020 24579 net.cpp:406] mm_conv2_bn <- conv2
I1109 10:18:36.965024 24579 net.cpp:367] mm_conv2_bn -> conv2 (in-place)
I1109 10:18:36.965250 24579 net.cpp:122] Setting up mm_conv2_bn
I1109 10:18:36.965255 24579 net.cpp:129] Top shape: 8 32 36 64 (589824)
I1109 10:18:36.965257 24579 net.cpp:137] Memory required for data: 34209888
I1109 10:18:36.965261 24579 layer_factory.hpp:77] Creating layer mm_conv2_bn_scale
I1109 10:18:36.965270 24579 net.cpp:84] Creating Layer mm_conv2_bn_scale
I1109 10:18:36.965271 24579 net.cpp:406] mm_conv2_bn_scale <- conv2
I1109 10:18:36.965275 24579 net.cpp:367] mm_conv2_bn_scale -> conv2 (in-place)
I1109 10:18:36.965315 24579 layer_factory.hpp:77] Creating layer mm_conv2_bn_scale
I1109 10:18:36.965435 24579 net.cpp:122] Setting up mm_conv2_bn_scale
I1109 10:18:36.965441 24579 net.cpp:129] Top shape: 8 32 36 64 (589824)
I1109 10:18:36.965442 24579 net.cpp:137] Memory required for data: 36569184
I1109 10:18:36.965446 24579 layer_factory.hpp:77] Creating layer relu2
I1109 10:18:36.965451 24579 net.cpp:84] Creating Layer relu2
I1109 10:18:36.965453 24579 net.cpp:406] relu2 <- conv2
I1109 10:18:36.965458 24579 net.cpp:367] relu2 -> conv2 (in-place)
I1109 10:18:36.965461 24579 net.cpp:122] Setting up relu2
I1109 10:18:36.965466 24579 net.cpp:129] Top shape: 8 32 36 64 (589824)
I1109 10:18:36.965467 24579 net.cpp:137] Memory required for data: 38928480
I1109 10:18:36.965469 24579 layer_factory.hpp:77] Creating layer mm_conv3
I1109 10:18:36.965476 24579 net.cpp:84] Creating Layer mm_conv3
I1109 10:18:36.965479 24579 net.cpp:406] mm_conv3 <- conv2
I1109 10:18:36.965482 24579 net.cpp:380] mm_conv3 -> conv3
I1109 10:18:36.968286 24579 net.cpp:122] Setting up mm_conv3
I1109 10:18:36.968309 24579 net.cpp:129] Top shape: 8 64 18 32 (294912)
I1109 10:18:36.968312 24579 net.cpp:137] Memory required for data: 40108128
I1109 10:18:36.968320 24579 layer_factory.hpp:77] Creating layer mm_conv3_bn
I1109 10:18:36.968333 24579 net.cpp:84] Creating Layer mm_conv3_bn
I1109 10:18:36.968340 24579 net.cpp:406] mm_conv3_bn <- conv3
I1109 10:18:36.968348 24579 net.cpp:367] mm_conv3_bn -> conv3 (in-place)
I1109 10:18:36.968636 24579 net.cpp:122] Setting up mm_conv3_bn
I1109 10:18:36.968647 24579 net.cpp:129] Top shape: 8 64 18 32 (294912)
I1109 10:18:36.968650 24579 net.cpp:137] Memory required for data: 41287776
I1109 10:18:36.968665 24579 layer_factory.hpp:77] Creating layer mm_conv3_bn_scale
I1109 10:18:36.968678 24579 net.cpp:84] Creating Layer mm_conv3_bn_scale
I1109 10:18:36.968683 24579 net.cpp:406] mm_conv3_bn_scale <- conv3
I1109 10:18:36.968691 24579 net.cpp:367] mm_conv3_bn_scale -> conv3 (in-place)
I1109 10:18:36.968747 24579 layer_factory.hpp:77] Creating layer mm_conv3_bn_scale
I1109 10:18:36.968889 24579 net.cpp:122] Setting up mm_conv3_bn_scale
I1109 10:18:36.968896 24579 net.cpp:129] Top shape: 8 64 18 32 (294912)
I1109 10:18:36.968899 24579 net.cpp:137] Memory required for data: 42467424
I1109 10:18:36.968906 24579 layer_factory.hpp:77] Creating layer relu3
I1109 10:18:36.968917 24579 net.cpp:84] Creating Layer relu3
I1109 10:18:36.968920 24579 net.cpp:406] relu3 <- conv3
I1109 10:18:36.968925 24579 net.cpp:367] relu3 -> conv3 (in-place)
I1109 10:18:36.968933 24579 net.cpp:122] Setting up relu3
I1109 10:18:36.968940 24579 net.cpp:129] Top shape: 8 64 18 32 (294912)
I1109 10:18:36.968942 24579 net.cpp:137] Memory required for data: 43647072
I1109 10:18:36.968945 24579 layer_factory.hpp:77] Creating layer mm_conv4
I1109 10:18:36.968957 24579 net.cpp:84] Creating Layer mm_conv4
I1109 10:18:36.968961 24579 net.cpp:406] mm_conv4 <- conv3
I1109 10:18:36.968967 24579 net.cpp:380] mm_conv4 -> conv4
I1109 10:18:36.969419 24579 net.cpp:122] Setting up mm_conv4
I1109 10:18:36.969429 24579 net.cpp:129] Top shape: 8 64 18 32 (294912)
I1109 10:18:36.969432 24579 net.cpp:137] Memory required for data: 44826720
I1109 10:18:36.969439 24579 layer_factory.hpp:77] Creating layer mm_conv4_bn
I1109 10:18:36.969447 24579 net.cpp:84] Creating Layer mm_conv4_bn
I1109 10:18:36.969451 24579 net.cpp:406] mm_conv4_bn <- conv4
I1109 10:18:36.969458 24579 net.cpp:367] mm_conv4_bn -> conv4 (in-place)
I1109 10:18:36.969688 24579 net.cpp:122] Setting up mm_conv4_bn
I1109 10:18:36.969696 24579 net.cpp:129] Top shape: 8 64 18 32 (294912)
I1109 10:18:36.969698 24579 net.cpp:137] Memory required for data: 46006368
I1109 10:18:36.969707 24579 layer_factory.hpp:77] Creating layer mm_conv4_bn_scale
I1109 10:18:36.969717 24579 net.cpp:84] Creating Layer mm_conv4_bn_scale
I1109 10:18:36.969722 24579 net.cpp:406] mm_conv4_bn_scale <- conv4
I1109 10:18:36.969728 24579 net.cpp:367] mm_conv4_bn_scale -> conv4 (in-place)
I1109 10:18:36.969780 24579 layer_factory.hpp:77] Creating layer mm_conv4_bn_scale
I1109 10:18:36.969916 24579 net.cpp:122] Setting up mm_conv4_bn_scale
I1109 10:18:36.969923 24579 net.cpp:129] Top shape: 8 64 18 32 (294912)
I1109 10:18:36.969926 24579 net.cpp:137] Memory required for data: 47186016
I1109 10:18:36.969933 24579 layer_factory.hpp:77] Creating layer relu4
I1109 10:18:36.969938 24579 net.cpp:84] Creating Layer relu4
I1109 10:18:36.969943 24579 net.cpp:406] relu4 <- conv4
I1109 10:18:36.969947 24579 net.cpp:367] relu4 -> conv4 (in-place)
I1109 10:18:36.969954 24579 net.cpp:122] Setting up relu4
I1109 10:18:36.969960 24579 net.cpp:129] Top shape: 8 64 18 32 (294912)
I1109 10:18:36.969964 24579 net.cpp:137] Memory required for data: 48365664
I1109 10:18:36.969967 24579 layer_factory.hpp:77] Creating layer mm_conv5
I1109 10:18:36.969977 24579 net.cpp:84] Creating Layer mm_conv5
I1109 10:18:36.969981 24579 net.cpp:406] mm_conv5 <- conv4
I1109 10:18:36.969987 24579 net.cpp:380] mm_conv5 -> conv5
I1109 10:18:36.970430 24579 net.cpp:122] Setting up mm_conv5
I1109 10:18:36.970439 24579 net.cpp:129] Top shape: 8 64 18 32 (294912)
I1109 10:18:36.970443 24579 net.cpp:137] Memory required for data: 49545312
I1109 10:18:36.970448 24579 layer_factory.hpp:77] Creating layer mm_conv5_bn
I1109 10:18:36.970458 24579 net.cpp:84] Creating Layer mm_conv5_bn
I1109 10:18:36.970463 24579 net.cpp:406] mm_conv5_bn <- conv5
I1109 10:18:36.970468 24579 net.cpp:367] mm_conv5_bn -> conv5 (in-place)
I1109 10:18:36.970695 24579 net.cpp:122] Setting up mm_conv5_bn
I1109 10:18:36.970702 24579 net.cpp:129] Top shape: 8 64 18 32 (294912)
I1109 10:18:36.970705 24579 net.cpp:137] Memory required for data: 50724960
I1109 10:18:36.970719 24579 layer_factory.hpp:77] Creating layer mm_conv5_bn_scale
I1109 10:18:36.970727 24579 net.cpp:84] Creating Layer mm_conv5_bn_scale
I1109 10:18:36.970732 24579 net.cpp:406] mm_conv5_bn_scale <- conv5
I1109 10:18:36.970739 24579 net.cpp:367] mm_conv5_bn_scale -> conv5 (in-place)
I1109 10:18:36.970793 24579 layer_factory.hpp:77] Creating layer mm_conv5_bn_scale
I1109 10:18:36.970929 24579 net.cpp:122] Setting up mm_conv5_bn_scale
I1109 10:18:36.970937 24579 net.cpp:129] Top shape: 8 64 18 32 (294912)
I1109 10:18:36.970940 24579 net.cpp:137] Memory required for data: 51904608
I1109 10:18:36.970947 24579 layer_factory.hpp:77] Creating layer relu5
I1109 10:18:36.970953 24579 net.cpp:84] Creating Layer relu5
I1109 10:18:36.970958 24579 net.cpp:406] relu5 <- conv5
I1109 10:18:36.970963 24579 net.cpp:367] relu5 -> conv5 (in-place)
I1109 10:18:36.970969 24579 net.cpp:122] Setting up relu5
I1109 10:18:36.970975 24579 net.cpp:129] Top shape: 8 64 18 32 (294912)
I1109 10:18:36.970980 24579 net.cpp:137] Memory required for data: 53084256
I1109 10:18:36.970983 24579 layer_factory.hpp:77] Creating layer conv5_relu5_0_split
I1109 10:18:36.970989 24579 net.cpp:84] Creating Layer conv5_relu5_0_split
I1109 10:18:36.970993 24579 net.cpp:406] conv5_relu5_0_split <- conv5
I1109 10:18:36.971004 24579 net.cpp:380] conv5_relu5_0_split -> conv5_relu5_0_split_0
I1109 10:18:36.971011 24579 net.cpp:380] conv5_relu5_0_split -> conv5_relu5_0_split_1
I1109 10:18:36.971057 24579 net.cpp:122] Setting up conv5_relu5_0_split
I1109 10:18:36.971063 24579 net.cpp:129] Top shape: 8 64 18 32 (294912)
I1109 10:18:36.971068 24579 net.cpp:129] Top shape: 8 64 18 32 (294912)
I1109 10:18:36.971088 24579 net.cpp:137] Memory required for data: 55443552
I1109 10:18:36.971093 24579 layer_factory.hpp:77] Creating layer rpn_conv/3x3
I1109 10:18:36.971104 24579 net.cpp:84] Creating Layer rpn_conv/3x3
I1109 10:18:36.971109 24579 net.cpp:406] rpn_conv/3x3 <- conv5_relu5_0_split_0
I1109 10:18:36.971117 24579 net.cpp:380] rpn_conv/3x3 -> rpn/output
I1109 10:18:36.971571 24579 net.cpp:122] Setting up rpn_conv/3x3
I1109 10:18:36.971580 24579 net.cpp:129] Top shape: 8 64 18 32 (294912)
I1109 10:18:36.971583 24579 net.cpp:137] Memory required for data: 56623200
I1109 10:18:36.971590 24579 layer_factory.hpp:77] Creating layer rpn_conv/3x3_bn
I1109 10:18:36.971596 24579 net.cpp:84] Creating Layer rpn_conv/3x3_bn
I1109 10:18:36.971599 24579 net.cpp:406] rpn_conv/3x3_bn <- rpn/output
I1109 10:18:36.971607 24579 net.cpp:367] rpn_conv/3x3_bn -> rpn/output (in-place)
I1109 10:18:36.971837 24579 net.cpp:122] Setting up rpn_conv/3x3_bn
I1109 10:18:36.971843 24579 net.cpp:129] Top shape: 8 64 18 32 (294912)
I1109 10:18:36.971846 24579 net.cpp:137] Memory required for data: 57802848
I1109 10:18:36.971854 24579 layer_factory.hpp:77] Creating layer rpn_conv/3x3_bn_scale
I1109 10:18:36.971864 24579 net.cpp:84] Creating Layer rpn_conv/3x3_bn_scale
I1109 10:18:36.971868 24579 net.cpp:406] rpn_conv/3x3_bn_scale <- rpn/output
I1109 10:18:36.971874 24579 net.cpp:367] rpn_conv/3x3_bn_scale -> rpn/output (in-place)
I1109 10:18:36.971926 24579 layer_factory.hpp:77] Creating layer rpn_conv/3x3_bn_scale
I1109 10:18:36.972061 24579 net.cpp:122] Setting up rpn_conv/3x3_bn_scale
I1109 10:18:36.972069 24579 net.cpp:129] Top shape: 8 64 18 32 (294912)
I1109 10:18:36.972072 24579 net.cpp:137] Memory required for data: 58982496
I1109 10:18:36.972079 24579 layer_factory.hpp:77] Creating layer rpn_relu/3x3
I1109 10:18:36.972085 24579 net.cpp:84] Creating Layer rpn_relu/3x3
I1109 10:18:36.972090 24579 net.cpp:406] rpn_relu/3x3 <- rpn/output
I1109 10:18:36.972095 24579 net.cpp:367] rpn_relu/3x3 -> rpn/output (in-place)
I1109 10:18:36.972101 24579 net.cpp:122] Setting up rpn_relu/3x3
I1109 10:18:36.972106 24579 net.cpp:129] Top shape: 8 64 18 32 (294912)
I1109 10:18:36.972110 24579 net.cpp:137] Memory required for data: 60162144
I1109 10:18:36.972113 24579 layer_factory.hpp:77] Creating layer rpn/output_rpn_relu/3x3_0_split
I1109 10:18:36.972123 24579 net.cpp:84] Creating Layer rpn/output_rpn_relu/3x3_0_split
I1109 10:18:36.972126 24579 net.cpp:406] rpn/output_rpn_relu/3x3_0_split <- rpn/output
I1109 10:18:36.972132 24579 net.cpp:380] rpn/output_rpn_relu/3x3_0_split -> rpn/output_rpn_relu/3x3_0_split_0
I1109 10:18:36.972139 24579 net.cpp:380] rpn/output_rpn_relu/3x3_0_split -> rpn/output_rpn_relu/3x3_0_split_1
I1109 10:18:36.972185 24579 net.cpp:122] Setting up rpn/output_rpn_relu/3x3_0_split
I1109 10:18:36.972192 24579 net.cpp:129] Top shape: 8 64 18 32 (294912)
I1109 10:18:36.972195 24579 net.cpp:129] Top shape: 8 64 18 32 (294912)
I1109 10:18:36.972211 24579 net.cpp:137] Memory required for data: 62521440
I1109 10:18:36.972215 24579 layer_factory.hpp:77] Creating layer rpn_cls_score
I1109 10:18:36.972231 24579 net.cpp:84] Creating Layer rpn_cls_score
I1109 10:18:36.972235 24579 net.cpp:406] rpn_cls_score <- rpn/output_rpn_relu/3x3_0_split_0
I1109 10:18:36.972242 24579 net.cpp:380] rpn_cls_score -> rpn_cls_score
I1109 10:18:36.972556 24579 net.cpp:122] Setting up rpn_cls_score
I1109 10:18:36.972565 24579 net.cpp:129] Top shape: 8 18 18 32 (82944)
I1109 10:18:36.972568 24579 net.cpp:137] Memory required for data: 62853216
I1109 10:18:36.972575 24579 layer_factory.hpp:77] Creating layer rpn_cls_score_rpn_cls_score_0_split
I1109 10:18:36.972590 24579 net.cpp:84] Creating Layer rpn_cls_score_rpn_cls_score_0_split
I1109 10:18:36.972594 24579 net.cpp:406] rpn_cls_score_rpn_cls_score_0_split <- rpn_cls_score
I1109 10:18:36.972600 24579 net.cpp:380] rpn_cls_score_rpn_cls_score_0_split -> rpn_cls_score_rpn_cls_score_0_split_0
I1109 10:18:36.972607 24579 net.cpp:380] rpn_cls_score_rpn_cls_score_0_split -> rpn_cls_score_rpn_cls_score_0_split_1
I1109 10:18:36.972654 24579 net.cpp:122] Setting up rpn_cls_score_rpn_cls_score_0_split
I1109 10:18:36.972661 24579 net.cpp:129] Top shape: 8 18 18 32 (82944)
I1109 10:18:36.972666 24579 net.cpp:129] Top shape: 8 18 18 32 (82944)
I1109 10:18:36.972668 24579 net.cpp:137] Memory required for data: 63516768
I1109 10:18:36.972671 24579 layer_factory.hpp:77] Creating layer rpn_bbox_pred
I1109 10:18:36.972682 24579 net.cpp:84] Creating Layer rpn_bbox_pred
I1109 10:18:36.972685 24579 net.cpp:406] rpn_bbox_pred <- rpn/output_rpn_relu/3x3_0_split_1
I1109 10:18:36.972692 24579 net.cpp:380] rpn_bbox_pred -> rpn_bbox_pred
I1109 10:18:36.972993 24579 net.cpp:122] Setting up rpn_bbox_pred
I1109 10:18:36.973001 24579 net.cpp:129] Top shape: 8 36 18 32 (165888)
I1109 10:18:36.973004 24579 net.cpp:137] Memory required for data: 64180320
I1109 10:18:36.973011 24579 layer_factory.hpp:77] Creating layer rpn_bbox_pred_rpn_bbox_pred_0_split
I1109 10:18:36.973023 24579 net.cpp:84] Creating Layer rpn_bbox_pred_rpn_bbox_pred_0_split
I1109 10:18:36.973027 24579 net.cpp:406] rpn_bbox_pred_rpn_bbox_pred_0_split <- rpn_bbox_pred
I1109 10:18:36.973033 24579 net.cpp:380] rpn_bbox_pred_rpn_bbox_pred_0_split -> rpn_bbox_pred_rpn_bbox_pred_0_split_0
I1109 10:18:36.973042 24579 net.cpp:380] rpn_bbox_pred_rpn_bbox_pred_0_split -> rpn_bbox_pred_rpn_bbox_pred_0_split_1
I1109 10:18:36.973086 24579 net.cpp:122] Setting up rpn_bbox_pred_rpn_bbox_pred_0_split
I1109 10:18:36.973093 24579 net.cpp:129] Top shape: 8 36 18 32 (165888)
I1109 10:18:36.973098 24579 net.cpp:129] Top shape: 8 36 18 32 (165888)
I1109 10:18:36.973100 24579 net.cpp:137] Memory required for data: 65507424
I1109 10:18:36.973104 24579 layer_factory.hpp:77] Creating layer rpn_cls_score_reshape
I1109 10:18:36.973114 24579 net.cpp:84] Creating Layer rpn_cls_score_reshape
I1109 10:18:36.973117 24579 net.cpp:406] rpn_cls_score_reshape <- rpn_cls_score_rpn_cls_score_0_split_0
I1109 10:18:36.973124 24579 net.cpp:380] rpn_cls_score_reshape -> rpn_cls_score_reshape
I1109 10:18:36.973155 24579 net.cpp:122] Setting up rpn_cls_score_reshape
I1109 10:18:36.973162 24579 net.cpp:129] Top shape: 8 2 162 32 (82944)
I1109 10:18:36.973165 24579 net.cpp:137] Memory required for data: 65839200
I1109 10:18:36.973168 24579 layer_factory.hpp:77] Creating layer rpn_cls_score_reshape_rpn_cls_score_reshape_0_split
I1109 10:18:36.973175 24579 net.cpp:84] Creating Layer rpn_cls_score_reshape_rpn_cls_score_reshape_0_split
I1109 10:18:36.973191 24579 net.cpp:406] rpn_cls_score_reshape_rpn_cls_score_reshape_0_split <- rpn_cls_score_reshape
I1109 10:18:36.973208 24579 net.cpp:380] rpn_cls_score_reshape_rpn_cls_score_reshape_0_split -> rpn_cls_score_reshape_rpn_cls_score_reshape_0_split_0
I1109 10:18:36.973225 24579 net.cpp:380] rpn_cls_score_reshape_rpn_cls_score_reshape_0_split -> rpn_cls_score_reshape_rpn_cls_score_reshape_0_split_1
I1109 10:18:36.973291 24579 net.cpp:122] Setting up rpn_cls_score_reshape_rpn_cls_score_reshape_0_split
I1109 10:18:36.973299 24579 net.cpp:129] Top shape: 8 2 162 32 (82944)
I1109 10:18:36.973304 24579 net.cpp:129] Top shape: 8 2 162 32 (82944)
I1109 10:18:36.973306 24579 net.cpp:137] Memory required for data: 66502752
I1109 10:18:36.973309 24579 layer_factory.hpp:77] Creating layer rpn-data
I1109 10:18:36.979432 24579 net.cpp:84] Creating Layer rpn-data
I1109 10:18:36.979465 24579 net.cpp:406] rpn-data <- rpn_cls_score_rpn_cls_score_0_split_1
I1109 10:18:36.979476 24579 net.cpp:406] rpn-data <- gt_boxes_input-data_2_split_0
I1109 10:18:36.979482 24579 net.cpp:406] rpn-data <- im_info_input-data_1_split_0
I1109 10:18:36.979487 24579 net.cpp:406] rpn-data <- data_input-data_0_split_1
I1109 10:18:36.979493 24579 net.cpp:406] rpn-data <- flags_input-data_3_split_0
I1109 10:18:36.979502 24579 net.cpp:380] rpn-data -> rpn_labels
I1109 10:18:36.979516 24579 net.cpp:380] rpn-data -> rpn_bbox_targets
I1109 10:18:36.979534 24579 net.cpp:380] rpn-data -> rpn_bbox_inside_weights
I1109 10:18:36.979542 24579 net.cpp:380] rpn-data -> rpn_bbox_outside_weights
I1109 10:18:36.981798 24579 net.cpp:122] Setting up rpn-data
I1109 10:18:36.981829 24579 net.cpp:129] Top shape: 8 1 162 32 (41472)
I1109 10:18:36.981833 24579 net.cpp:129] Top shape: 8 36 18 32 (165888)
I1109 10:18:36.981835 24579 net.cpp:129] Top shape: 8 36 18 32 (165888)
I1109 10:18:36.981838 24579 net.cpp:129] Top shape: 8 36 18 32 (165888)
I1109 10:18:36.981840 24579 net.cpp:137] Memory required for data: 68659296
I1109 10:18:36.981843 24579 layer_factory.hpp:77] Creating layer rpn_loss_cls
I1109 10:18:36.981856 24579 net.cpp:84] Creating Layer rpn_loss_cls
I1109 10:18:36.981861 24579 net.cpp:406] rpn_loss_cls <- rpn_cls_score_reshape_rpn_cls_score_reshape_0_split_0
I1109 10:18:36.981866 24579 net.cpp:406] rpn_loss_cls <- rpn_labels
…
I1109 10:18:36.983764 24579 net.cpp:129] Top shape: (1)
I1109 10:18:36.983768 24579 net.cpp:132]     with loss weight 1
I1109 10:18:36.983779 24579 net.cpp:137] Memory required for data: 68659304
I1109 10:18:36.983784 24579 layer_factory.hpp:77] Creating layer rpn_cls_prob
I1109 10:18:36.983798 24579 net.cpp:84] Creating Layer rpn_cls_prob
I1109 10:18:36.983803 24579 net.cpp:406] rpn_cls_prob <- rpn_cls_score_reshape_rpn_cls_score_reshape_0_split_1
I1109 10:18:36.983813 24579 net.cpp:380] rpn_cls_prob -> rpn_cls_prob
I1109 10:18:36.983971 24579 net.cpp:122] Setting up rpn_cls_prob
I1109 10:18:36.983981 24579 net.cpp:129] Top shape: 8 2 162 32 (82944)
I1109 10:18:36.983985 24579 net.cpp:137] Memory required for data: 68991080
I1109 10:18:36.983989 24579 layer_factory.hpp:77] Creating layer rpn_cls_prob_reshape
I1109 10:18:36.983999 24579 net.cpp:84] Creating Layer rpn_cls_prob_reshape
I1109 10:18:36.984002 24579 net.cpp:406] rpn_cls_prob_reshape <- rpn_cls_prob
I1109 10:18:36.984010 24579 net.cpp:380] rpn_cls_prob_reshape -> rpn_cls_prob_reshape
I1109 10:18:36.984045 24579 net.cpp:122] Setting up rpn_cls_prob_reshape
I1109 10:18:36.984051 24579 net.cpp:129] Top shape: 8 18 18 32 (82944)
I1109 10:18:36.984055 24579 net.cpp:137] Memory required for data: 69322856
I1109 10:18:36.984057 24579 layer_factory.hpp:77] Creating layer proposal
I1109 10:18:37.002318 24579 net.cpp:84] Creating Layer proposal
I1109 10:18:37.002377 24579 net.cpp:406] proposal <- rpn_cls_prob_reshape
I1109 10:18:37.002387 24579 net.cpp:406] proposal <- rpn_bbox_pred_rpn_bbox_pred_0_split_1
I1109 10:18:37.002391 24579 net.cpp:406] proposal <- im_info_input-data_1_split_1
I1109 10:18:37.002398 24579 net.cpp:380] proposal -> rpn_rois
I1109 10:18:37.011876 24579 net.cpp:122] Setting up proposal
I1109 10:18:37.011904 24579 net.cpp:129] Top shape: 1 5 (5)
I1109 10:18:37.011906 24579 net.cpp:137] Memory required for data: 69322876
I1109 10:18:37.011912 24579 layer_factory.hpp:77] Creating layer roi-data
I1109 10:18:37.021244 24579 net.cpp:84] Creating Layer roi-data
I1109 10:18:37.021270 24579 net.cpp:406] roi-data <- rpn_rois
I1109 10:18:37.021279 24579 net.cpp:406] roi-data <- gt_boxes_input-data_2_split_1
I1109 10:18:37.021286 24579 net.cpp:406] roi-data <- flags_input-data_3_split_1
I1109 10:18:37.021293 24579 net.cpp:380] roi-data -> rois
I1109 10:18:37.021304 24579 net.cpp:380] roi-data -> labels
I1109 10:18:37.021313 24579 net.cpp:380] roi-data -> bbox_targets
I1109 10:18:37.021323 24579 net.cpp:380] roi-data -> bbox_inside_weights
I1109 10:18:37.021332 24579 net.cpp:380] roi-data -> bbox_outside_weights
I1109 10:18:37.021991 24579 net.cpp:122] Setting up roi-data
I1109 10:18:37.022007 24579 net.cpp:129] Top shape: 1 5 (5)
I1109 10:18:37.022011 24579 net.cpp:129] Top shape: 1 1 (1)
I1109 10:18:37.022014 24579 net.cpp:129] Top shape: 1 8 (8)
I1109 10:18:37.022017 24579 net.cpp:129] Top shape: 1 8 (8)
I1109 10:18:37.022022 24579 net.cpp:129] Top shape: 1 8 (8)
I1109 10:18:37.022023 24579 net.cpp:137] Memory required for data: 69322996
I1109 10:18:37.022027 24579 layer_factory.hpp:77] Creating layer roi_pool_conv5
I1109 10:18:37.022035 24579 net.cpp:84] Creating Layer roi_pool_conv5
I1109 10:18:37.022042 24579 net.cpp:406] roi_pool_conv5 <- conv5_relu5_0_split_1
I1109 10:18:37.022045 24579 net.cpp:406] roi_pool_conv5 <- rois
I1109 10:18:37.022050 24579 net.cpp:380] roi_pool_conv5 -> roi_pool_conv5
I1109 10:18:37.022059 24579 roi_pooling_layer.cpp:30] Spatial scale: 0.125
I1109 10:18:37.022131 24579 net.cpp:122] Setting up roi_pool_conv5
I1109 10:18:37.022138 24579 net.cpp:129] Top shape: 1 64 4 4 (1024)
I1109 10:18:37.022140 24579 net.cpp:137] Memory required for data: 69327092
I1109 10:18:37.022143 24579 layer_factory.hpp:77] Creating layer mm_fc6_L
I1109 10:18:37.022153 24579 net.cpp:84] Creating Layer mm_fc6_L
I1109 10:18:37.022158 24579 net.cpp:406] mm_fc6_L <- roi_pool_conv5
I1109 10:18:37.022163 24579 net.cpp:380] mm_fc6_L -> fc6_l
I1109 10:18:37.023519 24579 net.cpp:122] Setting up mm_fc6_L
I1109 10:18:37.023532 24579 net.cpp:129] Top shape: 1 128 (128)
I1109 10:18:37.023535 24579 net.cpp:137] Memory required for data: 69327604
I1109 10:18:37.023542 24579 layer_factory.hpp:77] Creating layer mm_fc6_L_bn
I1109 10:18:37.023550 24579 net.cpp:84] Creating Layer mm_fc6_L_bn
I1109 10:18:37.023555 24579 net.cpp:406] mm_fc6_L_bn <- fc6_l
I1109 10:18:37.023561 24579 net.cpp:367] mm_fc6_L_bn -> fc6_l (in-place)
I1109 10:18:37.023836 24579 net.cpp:122] Setting up mm_fc6_L_bn
I1109 10:18:37.023844 24579 net.cpp:129] Top shape: 1 128 (128)
I1109 10:18:37.023846 24579 net.cpp:137] Memory required for data: 69328116
I1109 10:18:37.023854 24579 layer_factory.hpp:77] Creating layer mm_fc6_L_bn_scale
I1109 10:18:37.023862 24579 net.cpp:84] Creating Layer mm_fc6_L_bn_scale
I1109 10:18:37.023866 24579 net.cpp:406] mm_fc6_L_bn_scale <- fc6_l
I1109 10:18:37.023874 24579 net.cpp:367] mm_fc6_L_bn_scale -> fc6_l (in-place)
I1109 10:18:37.023929 24579 layer_factory.hpp:77] Creating layer mm_fc6_L_bn_scale
I1109 10:18:37.024085 24579 net.cpp:122] Setting up mm_fc6_L_bn_scale
I1109 10:18:37.024092 24579 net.cpp:129] Top shape: 1 128 (128)
I1109 10:18:37.024096 24579 net.cpp:137] Memory required for data: 69328628
I1109 10:18:37.024101 24579 layer_factory.hpp:77] Creating layer relu6_L
I1109 10:18:37.024108 24579 net.cpp:84] Creating Layer relu6_L
I1109 10:18:37.024111 24579 net.cpp:406] relu6_L <- fc6_l
I1109 10:18:37.024116 24579 net.cpp:367] relu6_L -> fc6_l (in-place)
I1109 10:18:37.024121 24579 net.cpp:122] Setting up relu6_L
I1109 10:18:37.024125 24579 net.cpp:129] Top shape: 1 128 (128)
I1109 10:18:37.024127 24579 net.cpp:137] Memory required for data: 69329140
I1109 10:18:37.024130 24579 layer_factory.hpp:77] Creating layer mm_fc6_U
I1109 10:18:37.024138 24579 net.cpp:84] Creating Layer mm_fc6_U
I1109 10:18:37.024142 24579 net.cpp:406] mm_fc6_U <- fc6_l
I1109 10:18:37.024147 24579 net.cpp:380] mm_fc6_U -> fc6_u
I1109 10:18:37.024922 24579 net.cpp:122] Setting up mm_fc6_U
I1109 10:18:37.024932 24579 net.cpp:129] Top shape: 1 512 (512)
I1109 10:18:37.024935 24579 net.cpp:137] Memory required for data: 69331188
I1109 10:18:37.024941 24579 layer_factory.hpp:77] Creating layer mm_fc6_U_bn
I1109 10:18:37.024950 24579 net.cpp:84] Creating Layer mm_fc6_U_bn
I1109 10:18:37.024955 24579 net.cpp:406] mm_fc6_U_bn <- fc6_u
I1109 10:18:37.024960 24579 net.cpp:367] mm_fc6_U_bn -> fc6_u (in-place)
I1109 10:18:37.025230 24579 net.cpp:122] Setting up mm_fc6_U_bn
I1109 10:18:37.025239 24579 net.cpp:129] Top shape: 1 512 (512)
I1109 10:18:37.025241 24579 net.cpp:137] Memory required for data: 69333236
I1109 10:18:37.025249 24579 layer_factory.hpp:77] Creating layer mm_fc6_U_bn_scale
I1109 10:18:37.025257 24579 net.cpp:84] Creating Layer mm_fc6_U_bn_scale
I1109 10:18:37.025260 24579 net.cpp:406] mm_fc6_U_bn_scale <- fc6_u
I1109 10:18:37.025266 24579 net.cpp:367] mm_fc6_U_bn_scale -> fc6_u (in-place)
I1109 10:18:37.025315 24579 layer_factory.hpp:77] Creating layer mm_fc6_U_bn_scale
I1109 10:18:37.025482 24579 net.cpp:122] Setting up mm_fc6_U_bn_scale
I1109 10:18:37.025490 24579 net.cpp:129] Top shape: 1 512 (512)
I1109 10:18:37.025492 24579 net.cpp:137] Memory required for data: 69335284
I1109 10:18:37.025498 24579 layer_factory.hpp:77] Creating layer relu6_U
I1109 10:18:37.025504 24579 net.cpp:84] Creating Layer relu6_U
I1109 10:18:37.025509 24579 net.cpp:406] relu6_U <- fc6_u
I1109 10:18:37.025513 24579 net.cpp:367] relu6_U -> fc6_u (in-place)
I1109 10:18:37.025521 24579 net.cpp:122] Setting up relu6_U
I1109 10:18:37.025526 24579 net.cpp:129] Top shape: 1 512 (512)
I1109 10:18:37.025528 24579 net.cpp:137] Memory required for data: 69337332
I1109 10:18:37.025532 24579 layer_factory.hpp:77] Creating layer fc6_u_relu6_U_0_split
I1109 10:18:37.025538 24579 net.cpp:84] Creating Layer fc6_u_relu6_U_0_split
I1109 10:18:37.025542 24579 net.cpp:406] fc6_u_relu6_U_0_split <- fc6_u
I1109 10:18:37.025547 24579 net.cpp:380] fc6_u_relu6_U_0_split -> fc6_u_relu6_U_0_split_0
I1109 10:18:37.025554 24579 net.cpp:380] fc6_u_relu6_U_0_split -> fc6_u_relu6_U_0_split_1
I1109 10:18:37.025607 24579 net.cpp:122] Setting up fc6_u_relu6_U_0_split
I1109 10:18:37.025614 24579 net.cpp:129] Top shape: 1 512 (512)
I1109 10:18:37.025616 24579 net.cpp:129] Top shape: 1 512 (512)
I1109 10:18:37.025619 24579 net.cpp:137] Memory required for data: 69341428
I1109 10:18:37.025621 24579 layer_factory.hpp:77] Creating layer cls_score
I1109 10:18:37.025629 24579 net.cpp:84] Creating Layer cls_score
I1109 10:18:37.025635 24579 net.cpp:406] cls_score <- fc6_u_relu6_U_0_split_0
I1109 10:18:37.025640 24579 net.cpp:380] cls_score -> cls_score
I1109 10:18:37.025794 24579 net.cpp:122] Setting up cls_score
I1109 10:18:37.025800 24579 net.cpp:129] Top shape: 1 2 (2)
I1109 10:18:37.025804 24579 net.cpp:137] Memory required for data: 69341436
I1109 10:18:37.025810 24579 layer_factory.hpp:77] Creating layer bbox_pred
I1109 10:18:37.025816 24579 net.cpp:84] Creating Layer bbox_pred
I1109 10:18:37.025820 24579 net.cpp:406] bbox_pred <- fc6_u_relu6_U_0_split_1
I1109 10:18:37.025826 24579 net.cpp:380] bbox_pred -> bbox_pred
I1109 10:18:37.026019 24579 net.cpp:122] Setting up bbox_pred
I1109 10:18:37.026026 24579 net.cpp:129] Top shape: 1 8 (8)
I1109 10:18:37.026029 24579 net.cpp:137] Memory required for data: 69341468
I1109 10:18:37.026034 24579 layer_factory.hpp:77] Creating layer loss_cls
I1109 10:18:37.026042 24579 net.cpp:84] Creating Layer loss_cls
I1109 10:18:37.026046 24579 net.cpp:406] loss_cls <- cls_score
I1109 10:18:37.026051 24579 net.cpp:406] loss_cls <- labels
I1109 10:18:37.026059 24579 net.cpp:380] loss_cls -> cls_loss
…
