…
snapshot_prefix: "vgg16_faster_rcnn"
average_loss: 100
iter_size: 2
I0605 23:10:56.196398 11609 solver.cpp:77] Creating training net from train_net file: models/pascal_voc/VGG16/faster_rcnn_end2end/train.prototxt
I0605 23:10:56.196882 11609 net.cpp:51] Initializing net from parameters: 
name: "VGG_ILSVRC_16_layers"
state {
  phase: TRAIN
}
layer {
  name: "input-data"
  type: "Python"
  top: "data"
  top: "im_info"
  top: "gt_boxes"
  top: "flags"
  python_param {
    module: "roi_data_layer.layer"
    layer: "RoIDataLayer"
    param_str: "\'num_classes\': 8"
  }
}
layer {
  name: "conv1_1"
  type: "Convolution"
  bottom: "data"
  top: "conv1_1"
  param {
    lr_mult: 0
    decay_mult: 0
  }
  param {
    lr_mult: 0
    decay_mult: 0
  }
  convolution_param {
    num_output: 64
    pad: 1
    kernel_size: 3
  }
}
layer {
  name: "relu1_1"
  type: "ReLU"
  bottom: "conv1_1"
  top: "conv1_1"
}
layer {
  name: "conv1_2"
  type: "Convolution"
  bottom: "conv1_1"
  top: "conv1_2"
  param {
    lr_mult: 0
    decay_mult: 0
  }
  param {
    lr_mult: 0
    decay_mult: 0
  }
  convolution_param {
    num_output: 64
    pad: 1
    kernel_size: 3
  }
}
layer {
  name: "relu1_2"
  type: "ReLU"
  bottom: "conv1_2"
  top: "conv1_2"
}
layer {
  name: "pool1"
  type: "Pooling"
  bottom: "conv1_2"
  top: "pool1"
  pooling_param {
    pool: MAX
    kernel_size: 2
    stride: 2
  }
}
layer {
  name: "conv2_1"
  type: "Convolution"
  bottom: "pool1"
  top: "conv2_1"
  param {
    lr_mult: 0
    decay_mult: 0
  }
  param {
    lr_mult: 0
    decay_mult: 0
  }
  convolution_param {
    num_output: 128
    pad: 1
    kernel_size: 3
  }
}
layer {
  name: "relu2_1"
  type: "ReLU"
  bottom: "conv2_1"
  top: "conv2_1"
}
layer {
  name: "conv2_2"
  type: "Convolution"
  bottom: "conv2_1"
  top: "conv2_2"
  param {
    lr_mult: 0
    decay_mult: 0
  }
  param {
    lr_mult: 0
    decay_mult: 0
  }
  convolution_param {
    num_output: 128
    pad: 1
    kernel_size: 3
  }
}
layer {
  name: "relu2_2"
  type: "ReLU"
  bottom: "conv2_2"
  top: "conv2_2"
}
layer {
  name: "pool2"
  type: "Pooling"
  bottom: "conv2_2"
  top: "pool2"
  pooling_param {
    pool: MAX
    kernel_size: 2
    stride: 2
  }
}
layer {
  name: "conv3_1"
  type: "Convolution"
  bottom: "pool2"
  top: "conv3_1"
  param {
    lr_mult: 1
  }
  param {
    lr_mult: 2
  }
  convolution_param {
    num_output: 256
    pad: 1
    kernel_size: 3
  }
}
layer {
  name: "relu3_1"
  type: "ReLU"
  bottom: "conv3_1"
  top: "conv3_1"
}
layer {
  name: "conv3_2"
  type: "Convolution"
  bottom: "conv3_1"
  top: "conv3_2"
  param {
    lr_mult: 1
  }
  param {
    lr_mult: 2
  }
  convolution_param {
    num_output: 256
    pad: 1
    kernel_size: 3
  }
}
layer {
  name: "relu3_2"
  type: "ReLU"
  bottom: "conv3_2"
  top: "conv3_2"
}
layer {
  name: "conv3_3"
  type: "Convolution"
  bottom: "conv3_2"
  top: "conv3_3"
  param {
    lr_mult: 1
  }
  param {
    lr_mult: 2
  }
  convolution_param {
    num_output: 256
    pad: 1
    kernel_size: 3
  }
}
layer {
  name: "relu3_3"
  type: "ReLU"
  bottom: "conv3_3"
  top: "conv3_3"
}
layer {
  name: "pool3"
  type: "Pooling"
  bottom: "conv3_3"
  top: "pool3"
  pooling_param {
    pool: MAX
    kernel_size: 2
    stride: 2
  }
}
layer {
  name: "conv4_1"
  type: "Convolution"
  bottom: "pool3"
  top: "conv4_1"
  param {
    lr_mult: 1
  }
  param {
    lr_mult: 2
  }
  convolution_param {
    num_output: 512
    pad: 1
    kernel_size: 3
  }
}
layer {
  name: "relu4_1"
  type: "ReLU"
  bottom: "conv4_1"
  top: "conv4_1"
}
layer {
  name: "conv4_2"
  type: "Convolution"
  bottom: "conv4_1"
  top: "conv4_2"
  param {
    lr_mult: 1
  }
  param {
    lr_mult: 2
  }
  convolution_param {
    num_output: 512
    pad: 1
    kernel_size: 3
  }
}
layer {
  name: "relu4_2"
  type: "ReLU"
  bottom: "conv4_2"
  top: "conv4_2"
}
layer {
  name: "conv4_3"
  type: "Convolution"
  bottom: "conv4_2"
  top: "conv4_3"
  param {
    lr_mult: 1
  }
  param {
    lr_mult: 2
  }
  convolution_param {
    num_output: 512
    pad: 1
    kernel_size: 3
  }
}
layer {
  name: "relu4_3"
  type: "ReLU"
  bottom: "conv4_3"
  top: "conv4_3"
}
layer {
  name: "pool4"
  type: "Pooling"
  bottom: "conv4_3"
  top: "pool4"
  pooling_param {
    pool: MAX
    kernel_size: 2
    stride: 2
  }
}
layer {
  name: "conv5_1"
  type: "Convolution"
  bottom: "pool4"
  top: "conv5_1"
  param {
    lr_mult: 1
  }
  param {
    lr_mult: 2
  }
  convolution_param {
    num_output: 512
    pad: 1
    kernel_size: 3
  }
}
layer {
  name: "relu5_1"
  type: "ReLU"
  bottom: "conv5_1"
  top: "conv5_1"
}
layer {
  name: "conv5_2"
  type: "Convolution"
  bottom: "conv5_1"
  top: "conv5_2"
  param {
    lr_mult: 1
  }
  param {
    lr_mult: 2
  }
  convolution_param {
    num_output: 512
    pad: 1
    kernel_size: 3
  }
}
layer {
  name: "relu5_2"
  type: "ReLU"
  bottom: "conv5_2"
  top: "conv5_2"
}
layer {
  name: "conv5_3"
  type: "Convolution"
  bottom: "conv5_2"
  top: "conv5_3"
  param {
    lr_mult: 1
  }
  param {
    lr_mult: 2
  }
  convolution_param {
    num_output: 512
    pad: 1
    kernel_size: 3
  }
}
layer {
  name: "relu5_3"
  type: "ReLU"
  bottom: "conv5_3"
  top: "conv5_3"
}
layer {
  name: "rpn_conv/3x3"
  type: "Convolution"
  bottom: "conv5_3"
  top: "rpn/output"
  param {
    lr_mult: 1
  }
  param {
    lr_mult: 2
  }
  convolution_param {
    num_output: 512
    pad: 1
    kernel_size: 3
    stride: 1
    weight_filler {
      type: "gaussian"
      std: 0.01
    }
    bias_filler {
      type: "constant"
      value: 0
    }
  }
}
layer {
  name: "rpn_relu/3x3"
  type: "ReLU"
  bottom: "rpn/output"
  top: "rpn/output"
}
layer {
  name: "rpn_cls_score"
  type: "Convolution"
  bottom: "rpn/output"
  top: "rpn_cls_score"
  param {
    lr_mult: 1
  }
  param {
    lr_mult: 2
  }
  convolution_param {
    num_output: 18
    pad: 0
    kernel_size: 1
    stride: 1
    weight_filler {
      type: "gaussian"
      std: 0.01
    }
    bias_filler {
      type: "constant"
      value: 0
    }
  }
}
layer {
  name: "rpn_bbox_pred"
  type: "Convolution"
  bottom: "rpn/output"
  top: "rpn_bbox_pred"
  param {
    lr_mult: 1
  }
  param {
    lr_mult: 2
  }
  convolution_param {
    num_output: 36
    pad: 0
    kernel_size: 1
    stride: 1
    weight_filler {
      type: "gaussian"
      std: 0.01
    }
    bias_filler {
      type: "constant"
      value: 0
    }
  }
}
layer {
  name: "rpn_cls_score_reshape"
  type: "Reshape"
  bottom: "rpn_cls_score"
  top: "rpn_cls_score_reshape"
  reshape_param {
    shape {
      dim: 0
      dim: 2
      dim: -1
      dim: 0
    }
  }
}
layer {
  name: "rpn-data"
  type: "Python"
  bottom: "rpn_cls_score"
  bottom: "gt_boxes"
  bottom: "im_info"
  bottom: "data"
  bottom: "flags"
  top: "rpn_labels"
  top: "rpn_bbox_targets"
  top: "rpn_bbox_inside_weights"
  top: "rpn_bbox_outside_weights"
  python_param {
    module: "rpn.anchor_target_layer"
    layer: "AnchorTargetLayer"
    param_str: "\'feat_stride\': 16"
  }
}
layer {
  name: "rpn_loss_cls"
  type: "SoftmaxWithLoss"
  bottom: "rpn_cls_score_reshape"
  bottom: "rpn_labels"
  top: "rpn_cls_loss"
  loss_weight: 1
  propagate_down: true
  propagate_down: false
  loss_param {
    ignore_label: -1
    normalize: true
  }
}
layer {
  name: "rpn_loss_bbox"
  type: "SmoothL1Loss"
  bottom: "rpn_bbox_pred"
  bottom: "rpn_bbox_targets"
  bottom: "rpn_bbox_inside_weights"
  bottom: "rpn_bbox_outside_weights"
  top: "rpn_loss_bbox"
  loss_weight: 1
  smooth_l1_loss_param {
    sigma: 3
  }
}
layer {
  name: "rpn_cls_prob"
  type: "Softmax"
  bottom: "rpn_cls_score_reshape"
  top: "rpn_cls_prob"
}
layer {
  name: "rpn_cls_prob_reshape"
  type: "Reshape"
  bottom: "rpn_cls_prob"
  top: "rpn_cls_prob_reshape"
  reshape_param {
    shape {
      dim: 0
      dim: 18
      dim: -1
      dim: 0
    }
  }
}
layer {
  name: "proposal"
  type: "Python"
  bottom: "rpn_cls_prob_reshape"
  bottom: "rpn_bbox_pred"
  bottom: "im_info"
  top: "rpn_rois"
  python_param {
    module: "rpn.proposal_layer"
    layer: "ProposalLayer"
    param_str: "\'feat_stride\': 16"
  }
}
layer {
  name: "roi-data"
  type: "Python"
  bottom: "rpn_rois"
  bottom: "gt_boxes"
  bottom: "flags"
  top: "rois"
  top: "labels"
  top: "bbox_targets"
  top: "bbox_inside_weights"
  top: "bbox_outside_weights"
  python_param {
    module: "rpn.proposal_target_layer"
    layer: "ProposalTargetLayer"
    param_str: "\'num_classes\': 8"
  }
}
layer {
  name: "roi_pool5"
  type: "ROIPooling"
  bottom: "conv5_3"
  bottom: "rois"
  top: "pool5"
  roi_pooling_param {
    pooled_h: 7
    pooled_w: 7
    spatial_scale: 0.0625
  }
}
layer {
  name: "fc6"
  type: "InnerProduct"
  bottom: "pool5"
  top: "fc6"
  param {
    lr_mult: 1
  }
  param {
    lr_mult: 2
  }
  inner_product_param {
    num_output: 4096
  }
}
layer {
  name: "relu6"
  type: "ReLU"
  bottom: "fc6"
  top: "fc6"
}
layer {
  name: "drop6"
  type: "Dropout"
  bottom: "fc6"
  top: "fc6"
  dropout_param {
    dropout_ratio: 0.5
  }
}
layer {
  name: "fc7"
  type: "InnerProduct"
  bottom: "fc6"
  top: "fc7"
  param {
    lr_mult: 1
  }
  param {
    lr_mult: 2
  }
  inner_product_param {
    num_output: 4096
  }
}
layer {
  name: "relu7"
  type: "ReLU"
  bottom: "fc7"
  top: "fc7"
}
layer {
  name: "drop7"
  type: "Dropout"
  bottom: "fc7"
  top: "fc7"
  dropout_param {
    dropout_ratio: 0.5
  }
}
layer {
  name: "cls_score"
  type: "InnerProduct"
  bottom: "fc7"
  top: "cls_score"
  param {
    lr_mult: 1
  }
  param {
    lr_mult: 2
  }
  inner_product_param {
    num_output: 8
    weight_filler {
      type: "gaussian"
      std: 0.01
    }
    bias_filler {
      type: "constant"
      value: 0
    }
  }
}
layer {
  name: "bbox_pred"
  type: "InnerProduct"
  bottom: "fc7"
  top: "bbox_pred"
  param {
    lr_mult: 1
  }
  param {
    lr_mult: 2
  }
  inner_product_param {
    num_output: 32
    weight_filler {
      type: "gaussian"
      std: 0.001
    }
    bias_filler {
      type: "constant"
      value: 0
    }
  }
}
layer {
  name: "loss_cls"
  type: "SoftmaxWithLoss"
  bottom: "cls_score"
  bottom: "labels"
  top: "loss_cls"
  loss_weight: 1
  propagate_down: true
  propagate_down: false
}
layer {
  name: "loss_bbox"
  type: "SmoothL1Loss"
  bottom: "bbox_pred"
  bottom: "bbox_targets"
  bottom: "bbox_inside_weights"
  bottom: "bbox_outside_weights"
  top: "loss_bbox"
  loss_weight: 1
}
I0605 23:10:56.197084 11609 layer_factory.hpp:77] Creating layer input-data
I0605 23:10:56.226989 11609 net.cpp:84] Creating Layer input-data
I0605 23:10:56.227016 11609 net.cpp:380] input-data -> data
I0605 23:10:56.227030 11609 net.cpp:380] input-data -> im_info
I0605 23:10:56.227036 11609 net.cpp:380] input-data -> gt_boxes
I0605 23:10:56.227043 11609 net.cpp:380] input-data -> flags
RoiDataLayer: name_to_top: {'flags': 3, 'gt_boxes': 2, 'data': 0, 'im_info': 1}
I0605 23:10:56.487365 11609 net.cpp:122] Setting up input-data
I0605 23:10:56.487401 11609 net.cpp:129] Top shape: 1 3 600 1000 (1800000)
I0605 23:10:56.487406 11609 net.cpp:129] Top shape: 1 3 (3)
I0605 23:10:56.487407 11609 net.cpp:129] Top shape: 1 4 (4)
I0605 23:10:56.487411 11609 net.cpp:129] Top shape: 1 1 (1)
I0605 23:10:56.487412 11609 net.cpp:137] Memory required for data: 7200032
I0605 23:10:56.487416 11609 layer_factory.hpp:77] Creating layer data_input-data_0_split
I0605 23:10:56.487426 11609 net.cpp:84] Creating Layer data_input-data_0_split
I0605 23:10:56.487429 11609 net.cpp:406] data_input-data_0_split <- data
I0605 23:10:56.487435 11609 net.cpp:380] data_input-data_0_split -> data_input-data_0_split_0
I0605 23:10:56.487443 11609 net.cpp:380] data_input-data_0_split -> data_input-data_0_split_1
I0605 23:10:56.487468 11609 net.cpp:122] Setting up data_input-data_0_split
I0605 23:10:56.487474 11609 net.cpp:129] Top shape: 1 3 600 1000 (1800000)
I0605 23:10:56.487478 11609 net.cpp:129] Top shape: 1 3 600 1000 (1800000)
I0605 23:10:56.487478 11609 net.cpp:137] Memory required for data: 21600032
I0605 23:10:56.487481 11609 layer_factory.hpp:77] Creating layer im_info_input-data_1_split
I0605 23:10:56.487485 11609 net.cpp:84] Creating Layer im_info_input-data_1_split
I0605 23:10:56.487488 11609 net.cpp:406] im_info_input-data_1_split <- im_info
I0605 23:10:56.487490 11609 net.cpp:380] im_info_input-data_1_split -> im_info_input-data_1_split_0
I0605 23:10:56.487495 11609 net.cpp:380] im_info_input-data_1_split -> im_info_input-data_1_split_1
I0605 23:10:56.487514 11609 net.cpp:122] Setting up im_info_input-data_1_split
I0605 23:10:56.487519 11609 net.cpp:129] Top shape: 1 3 (3)
I0605 23:10:56.487521 11609 net.cpp:129] Top shape: 1 3 (3)
I0605 23:10:56.487524 11609 net.cpp:137] Memory required for data: 21600056
I0605 23:10:56.487525 11609 layer_factory.hpp:77] Creating layer gt_boxes_input-data_2_split
I0605 23:10:56.487529 11609 net.cpp:84] Creating Layer gt_boxes_input-data_2_split
I0605 23:10:56.487530 11609 net.cpp:406] gt_boxes_input-data_2_split <- gt_boxes
I0605 23:10:56.487535 11609 net.cpp:380] gt_boxes_input-data_2_split -> gt_boxes_input-data_2_split_0
I0605 23:10:56.487542 11609 net.cpp:380] gt_boxes_input-data_2_split -> gt_boxes_input-data_2_split_1
I0605 23:10:56.487563 11609 net.cpp:122] Setting up gt_boxes_input-data_2_split
I0605 23:10:56.487567 11609 net.cpp:129] Top shape: 1 4 (4)
I0605 23:10:56.487571 11609 net.cpp:129] Top shape: 1 4 (4)
I0605 23:10:56.487572 11609 net.cpp:137] Memory required for data: 21600088
I0605 23:10:56.487574 11609 layer_factory.hpp:77] Creating layer flags_input-data_3_split
I0605 23:10:56.487579 11609 net.cpp:84] Creating Layer flags_input-data_3_split
I0605 23:10:56.487581 11609 net.cpp:406] flags_input-data_3_split <- flags
I0605 23:10:56.487586 11609 net.cpp:380] flags_input-data_3_split -> flags_input-data_3_split_0
I0605 23:10:56.487589 11609 net.cpp:380] flags_input-data_3_split -> flags_input-data_3_split_1
I0605 23:10:56.487612 11609 net.cpp:122] Setting up flags_input-data_3_split
I0605 23:10:56.487617 11609 net.cpp:129] Top shape: 1 1 (1)
I0605 23:10:56.487620 11609 net.cpp:129] Top shape: 1 1 (1)
I0605 23:10:56.487622 11609 net.cpp:137] Memory required for data: 21600096
I0605 23:10:56.487624 11609 layer_factory.hpp:77] Creating layer conv1_1
I0605 23:10:56.487632 11609 net.cpp:84] Creating Layer conv1_1
I0605 23:10:56.487634 11609 net.cpp:406] conv1_1 <- data_input-data_0_split_0
I0605 23:10:56.487639 11609 net.cpp:380] conv1_1 -> conv1_1
I0605 23:10:56.489428 11609 net.cpp:122] Setting up conv1_1
I0605 23:10:56.489440 11609 net.cpp:129] Top shape: 1 64 600 1000 (38400000)
I0605 23:10:56.489444 11609 net.cpp:137] Memory required for data: 175200096
I0605 23:10:56.489452 11609 layer_factory.hpp:77] Creating layer relu1_1
I0605 23:10:56.489459 11609 net.cpp:84] Creating Layer relu1_1
I0605 23:10:56.489461 11609 net.cpp:406] relu1_1 <- conv1_1
I0605 23:10:56.489466 11609 net.cpp:367] relu1_1 -> conv1_1 (in-place)
I0605 23:10:56.489471 11609 net.cpp:122] Setting up relu1_1
I0605 23:10:56.489475 11609 net.cpp:129] Top shape: 1 64 600 1000 (38400000)
I0605 23:10:56.489476 11609 net.cpp:137] Memory required for data: 328800096
I0605 23:10:56.489478 11609 layer_factory.hpp:77] Creating layer conv1_2
I0605 23:10:56.489483 11609 net.cpp:84] Creating Layer conv1_2
I0605 23:10:56.489485 11609 net.cpp:406] conv1_2 <- conv1_1
I0605 23:10:56.489490 11609 net.cpp:380] conv1_2 -> conv1_2
I0605 23:10:56.491317 11609 net.cpp:122] Setting up conv1_2
I0605 23:10:56.491328 11609 net.cpp:129] Top shape: 1 64 600 1000 (38400000)
I0605 23:10:56.491330 11609 net.cpp:137] Memory required for data: 482400096
I0605 23:10:56.491338 11609 layer_factory.hpp:77] Creating layer relu1_2
I0605 23:10:56.491348 11609 net.cpp:84] Creating Layer relu1_2
I0605 23:10:56.491350 11609 net.cpp:406] relu1_2 <- conv1_2
I0605 23:10:56.491354 11609 net.cpp:367] relu1_2 -> conv1_2 (in-place)
I0605 23:10:56.491359 11609 net.cpp:122] Setting up relu1_2
I0605 23:10:56.491364 11609 net.cpp:129] Top shape: 1 64 600 1000 (38400000)
I0605 23:10:56.491365 11609 net.cpp:137] Memory required for data: 636000096
I0605 23:10:56.491367 11609 layer_factory.hpp:77] Creating layer pool1
I0605 23:10:56.491371 11609 net.cpp:84] Creating Layer pool1
I0605 23:10:56.491374 11609 net.cpp:406] pool1 <- conv1_2
I0605 23:10:56.491379 11609 net.cpp:380] pool1 -> pool1
I0605 23:10:56.491407 11609 net.cpp:122] Setting up pool1
I0605 23:10:56.491413 11609 net.cpp:129] Top shape: 1 64 300 500 (9600000)
I0605 23:10:56.491415 11609 net.cpp:137] Memory required for data: 674400096
I0605 23:10:56.491417 11609 layer_factory.hpp:77] Creating layer conv2_1
I0605 23:10:56.491423 11609 net.cpp:84] Creating Layer conv2_1
I0605 23:10:56.491426 11609 net.cpp:406] conv2_1 <- pool1
I0605 23:10:56.491431 11609 net.cpp:380] conv2_1 -> conv2_1
I0605 23:10:56.492326 11609 net.cpp:122] Setting up conv2_1
I0605 23:10:56.492337 11609 net.cpp:129] Top shape: 1 128 300 500 (19200000)
I0605 23:10:56.492341 11609 net.cpp:137] Memory required for data: 751200096
I0605 23:10:56.492347 11609 layer_factory.hpp:77] Creating layer relu2_1
I0605 23:10:56.492353 11609 net.cpp:84] Creating Layer relu2_1
I0605 23:10:56.492355 11609 net.cpp:406] relu2_1 <- conv2_1
I0605 23:10:56.492360 11609 net.cpp:367] relu2_1 -> conv2_1 (in-place)
I0605 23:10:56.492365 11609 net.cpp:122] Setting up relu2_1
I0605 23:10:56.492370 11609 net.cpp:129] Top shape: 1 128 300 500 (19200000)
I0605 23:10:56.492372 11609 net.cpp:137] Memory required for data: 828000096
I0605 23:10:56.492373 11609 layer_factory.hpp:77] Creating layer conv2_2
I0605 23:10:56.492380 11609 net.cpp:84] Creating Layer conv2_2
I0605 23:10:56.492384 11609 net.cpp:406] conv2_2 <- conv2_1
I0605 23:10:56.492389 11609 net.cpp:380] conv2_2 -> conv2_2
I0605 23:10:56.492683 11609 net.cpp:122] Setting up conv2_2
I0605 23:10:56.492691 11609 net.cpp:129] Top shape: 1 128 300 500 (19200000)
I0605 23:10:56.492693 11609 net.cpp:137] Memory required for data: 904800096
I0605 23:10:56.492697 11609 layer_factory.hpp:77] Creating layer relu2_2
I0605 23:10:56.492702 11609 net.cpp:84] Creating Layer relu2_2
I0605 23:10:56.492707 11609 net.cpp:406] relu2_2 <- conv2_2
I0605 23:10:56.492709 11609 net.cpp:367] relu2_2 -> conv2_2 (in-place)
I0605 23:10:56.492712 11609 net.cpp:122] Setting up relu2_2
I0605 23:10:56.492717 11609 net.cpp:129] Top shape: 1 128 300 500 (19200000)
I0605 23:10:56.492718 11609 net.cpp:137] Memory required for data: 981600096
I0605 23:10:56.492720 11609 layer_factory.hpp:77] Creating layer pool2
I0605 23:10:56.492725 11609 net.cpp:84] Creating Layer pool2
I0605 23:10:56.492728 11609 net.cpp:406] pool2 <- conv2_2
I0605 23:10:56.492732 11609 net.cpp:380] pool2 -> pool2
I0605 23:10:56.492758 11609 net.cpp:122] Setting up pool2
I0605 23:10:56.492763 11609 net.cpp:129] Top shape: 1 128 150 250 (4800000)
I0605 23:10:56.492763 11609 net.cpp:137] Memory required for data: 1000800096
I0605 23:10:56.492766 11609 layer_factory.hpp:77] Creating layer conv3_1
I0605 23:10:56.492771 11609 net.cpp:84] Creating Layer conv3_1
I0605 23:10:56.492774 11609 net.cpp:406] conv3_1 <- pool2
I0605 23:10:56.492779 11609 net.cpp:380] conv3_1 -> conv3_1
I0605 23:10:56.493711 11609 net.cpp:122] Setting up conv3_1
I0605 23:10:56.493721 11609 net.cpp:129] Top shape: 1 256 150 250 (9600000)
I0605 23:10:56.493724 11609 net.cpp:137] Memory required for data: 1039200096
I0605 23:10:56.493732 11609 layer_factory.hpp:77] Creating layer relu3_1
I0605 23:10:56.493741 11609 net.cpp:84] Creating Layer relu3_1
I0605 23:10:56.493743 11609 net.cpp:406] relu3_1 <- conv3_1
I0605 23:10:56.493747 11609 net.cpp:367] relu3_1 -> conv3_1 (in-place)
I0605 23:10:56.493752 11609 net.cpp:122] Setting up relu3_1
I0605 23:10:56.493757 11609 net.cpp:129] Top shape: 1 256 150 250 (9600000)
I0605 23:10:56.493758 11609 net.cpp:137] Memory required for data: 1077600096
I0605 23:10:56.493760 11609 layer_factory.hpp:77] Creating layer conv3_2
I0605 23:10:56.493765 11609 net.cpp:84] Creating Layer conv3_2
I0605 23:10:56.493769 11609 net.cpp:406] conv3_2 <- conv3_1
I0605 23:10:56.493773 11609 net.cpp:380] conv3_2 -> conv3_2
I0605 23:10:56.494901 11609 net.cpp:122] Setting up conv3_2
I0605 23:10:56.494911 11609 net.cpp:129] Top shape: 1 256 150 250 (9600000)
I0605 23:10:56.494915 11609 net.cpp:137] Memory required for data: 1116000096
I0605 23:10:56.494920 11609 layer_factory.hpp:77] Creating layer relu3_2
I0605 23:10:56.494923 11609 net.cpp:84] Creating Layer relu3_2
I0605 23:10:56.494925 11609 net.cpp:406] relu3_2 <- conv3_2
I0605 23:10:56.494930 11609 net.cpp:367] relu3_2 -> conv3_2 (in-place)
I0605 23:10:56.494936 11609 net.cpp:122] Setting up relu3_2
I0605 23:10:56.494940 11609 net.cpp:129] Top shape: 1 256 150 250 (9600000)
I0605 23:10:56.494942 11609 net.cpp:137] Memory required for data: 1154400096
I0605 23:10:56.494945 11609 layer_factory.hpp:77] Creating layer conv3_3
I0605 23:10:56.494949 11609 net.cpp:84] Creating Layer conv3_3
I0605 23:10:56.494952 11609 net.cpp:406] conv3_3 <- conv3_2
I0605 23:10:56.494956 11609 net.cpp:380] conv3_3 -> conv3_3
I0605 23:10:56.496091 11609 net.cpp:122] Setting up conv3_3
I0605 23:10:56.496103 11609 net.cpp:129] Top shape: 1 256 150 250 (9600000)
I0605 23:10:56.496105 11609 net.cpp:137] Memory required for data: 1192800096
I0605 23:10:56.496109 11609 layer_factory.hpp:77] Creating layer relu3_3
I0605 23:10:56.496114 11609 net.cpp:84] Creating Layer relu3_3
I0605 23:10:56.496117 11609 net.cpp:406] relu3_3 <- conv3_3
I0605 23:10:56.496121 11609 net.cpp:367] relu3_3 -> conv3_3 (in-place)
I0605 23:10:56.496127 11609 net.cpp:122] Setting up relu3_3
I0605 23:10:56.496131 11609 net.cpp:129] Top shape: 1 256 150 250 (9600000)
I0605 23:10:56.496132 11609 net.cpp:137] Memory required for data: 1231200096
I0605 23:10:56.496134 11609 layer_factory.hpp:77] Creating layer pool3
I0605 23:10:56.496139 11609 net.cpp:84] Creating Layer pool3
I0605 23:10:56.496140 11609 net.cpp:406] pool3 <- conv3_3
I0605 23:10:56.496143 11609 net.cpp:380] pool3 -> pool3
I0605 23:10:56.496171 11609 net.cpp:122] Setting up pool3
I0605 23:10:56.496176 11609 net.cpp:129] Top shape: 1 256 75 125 (2400000)
I0605 23:10:56.496178 11609 net.cpp:137] Memory required for data: 1240800096
I0605 23:10:56.496181 11609 layer_factory.hpp:77] Creating layer conv4_1
I0605 23:10:56.496186 11609 net.cpp:84] Creating Layer conv4_1
I0605 23:10:56.496188 11609 net.cpp:406] conv4_1 <- pool3
I0605 23:10:56.496193 11609 net.cpp:380] conv4_1 -> conv4_1
I0605 23:10:56.499243 11609 net.cpp:122] Setting up conv4_1
I0605 23:10:56.499258 11609 net.cpp:129] Top shape: 1 512 75 125 (4800000)
I0605 23:10:56.499261 11609 net.cpp:137] Memory required for data: 1260000096
I0605 23:10:56.499266 11609 layer_factory.hpp:77] Creating layer relu4_1
I0605 23:10:56.499271 11609 net.cpp:84] Creating Layer relu4_1
I0605 23:10:56.499274 11609 net.cpp:406] relu4_1 <- conv4_1
I0605 23:10:56.499279 11609 net.cpp:367] relu4_1 -> conv4_1 (in-place)
I0605 23:10:56.499284 11609 net.cpp:122] Setting up relu4_1
I0605 23:10:56.499287 11609 net.cpp:129] Top shape: 1 512 75 125 (4800000)
I0605 23:10:56.499289 11609 net.cpp:137] Memory required for data: 1279200096
I0605 23:10:56.499291 11609 layer_factory.hpp:77] Creating layer conv4_2
I0605 23:10:56.499297 11609 net.cpp:84] Creating Layer conv4_2
I0605 23:10:56.499300 11609 net.cpp:406] conv4_2 <- conv4_1
I0605 23:10:56.499305 11609 net.cpp:380] conv4_2 -> conv4_2
I0605 23:10:56.502586 11609 net.cpp:122] Setting up conv4_2
I0605 23:10:56.502602 11609 net.cpp:129] Top shape: 1 512 75 125 (4800000)
I0605 23:10:56.502605 11609 net.cpp:137] Memory required for data: 1298400096
I0605 23:10:56.502614 11609 layer_factory.hpp:77] Creating layer relu4_2
I0605 23:10:56.502620 11609 net.cpp:84] Creating Layer relu4_2
I0605 23:10:56.502624 11609 net.cpp:406] relu4_2 <- conv4_2
I0605 23:10:56.502629 11609 net.cpp:367] relu4_2 -> conv4_2 (in-place)
I0605 23:10:56.502635 11609 net.cpp:122] Setting up relu4_2
I0605 23:10:56.502638 11609 net.cpp:129] Top shape: 1 512 75 125 (4800000)
I0605 23:10:56.502640 11609 net.cpp:137] Memory required for data: 1317600096
I0605 23:10:56.502642 11609 layer_factory.hpp:77] Creating layer conv4_3
I0605 23:10:56.502647 11609 net.cpp:84] Creating Layer conv4_3
I0605 23:10:56.502650 11609 net.cpp:406] conv4_3 <- conv4_2
I0605 23:10:56.502655 11609 net.cpp:380] conv4_3 -> conv4_3
I0605 23:10:56.506211 11609 net.cpp:122] Setting up conv4_3
I0605 23:10:56.506230 11609 net.cpp:129] Top shape: 1 512 75 125 (4800000)
I0605 23:10:56.506232 11609 net.cpp:137] Memory required for data: 1336800096
I0605 23:10:56.506238 11609 layer_factory.hpp:77] Creating layer relu4_3
I0605 23:10:56.506244 11609 net.cpp:84] Creating Layer relu4_3
I0605 23:10:56.506248 11609 net.cpp:406] relu4_3 <- conv4_3
I0605 23:10:56.506253 11609 net.cpp:367] relu4_3 -> conv4_3 (in-place)
I0605 23:10:56.506261 11609 net.cpp:122] Setting up relu4_3
I0605 23:10:56.506265 11609 net.cpp:129] Top shape: 1 512 75 125 (4800000)
I0605 23:10:56.506268 11609 net.cpp:137] Memory required for data: 1356000096
I0605 23:10:56.506269 11609 layer_factory.hpp:77] Creating layer pool4
I0605 23:10:56.506273 11609 net.cpp:84] Creating Layer pool4
I0605 23:10:56.506275 11609 net.cpp:406] pool4 <- conv4_3
I0605 23:10:56.506278 11609 net.cpp:380] pool4 -> pool4
I0605 23:10:56.506309 11609 net.cpp:122] Setting up pool4
I0605 23:10:56.506314 11609 net.cpp:129] Top shape: 1 512 38 63 (1225728)
I0605 23:10:56.506316 11609 net.cpp:137] Memory required for data: 1360903008
I0605 23:10:56.506317 11609 layer_factory.hpp:77] Creating layer conv5_1
I0605 23:10:56.506325 11609 net.cpp:84] Creating Layer conv5_1
I0605 23:10:56.506328 11609 net.cpp:406] conv5_1 <- pool4
I0605 23:10:56.506332 11609 net.cpp:380] conv5_1 -> conv5_1
I0605 23:10:56.509706 11609 net.cpp:122] Setting up conv5_1
I0605 23:10:56.509721 11609 net.cpp:129] Top shape: 1 512 38 63 (1225728)
I0605 23:10:56.509722 11609 net.cpp:137] Memory required for data: 1365805920
I0605 23:10:56.509728 11609 layer_factory.hpp:77] Creating layer relu5_1
I0605 23:10:56.509733 11609 net.cpp:84] Creating Layer relu5_1
I0605 23:10:56.509737 11609 net.cpp:406] relu5_1 <- conv5_1
I0605 23:10:56.509742 11609 net.cpp:367] relu5_1 -> conv5_1 (in-place)
I0605 23:10:56.509747 11609 net.cpp:122] Setting up relu5_1
I0605 23:10:56.509752 11609 net.cpp:129] Top shape: 1 512 38 63 (1225728)
I0605 23:10:56.509752 11609 net.cpp:137] Memory required for data: 1370708832
I0605 23:10:56.509755 11609 layer_factory.hpp:77] Creating layer conv5_2
I0605 23:10:56.509762 11609 net.cpp:84] Creating Layer conv5_2
I0605 23:10:56.509764 11609 net.cpp:406] conv5_2 <- conv5_1
I0605 23:10:56.509768 11609 net.cpp:380] conv5_2 -> conv5_2
I0605 23:10:56.513116 11609 net.cpp:122] Setting up conv5_2
I0605 23:10:56.513131 11609 net.cpp:129] Top shape: 1 512 38 63 (1225728)
I0605 23:10:56.513134 11609 net.cpp:137] Memory required for data: 1375611744
I0605 23:10:56.513139 11609 layer_factory.hpp:77] Creating layer relu5_2
I0605 23:10:56.513150 11609 net.cpp:84] Creating Layer relu5_2
I0605 23:10:56.513154 11609 net.cpp:406] relu5_2 <- conv5_2
I0605 23:10:56.513159 11609 net.cpp:367] relu5_2 -> conv5_2 (in-place)
I0605 23:10:56.513164 11609 net.cpp:122] Setting up relu5_2
I0605 23:10:56.513168 11609 net.cpp:129] Top shape: 1 512 38 63 (1225728)
I0605 23:10:56.513170 11609 net.cpp:137] Memory required for data: 1380514656
I0605 23:10:56.513171 11609 layer_factory.hpp:77] Creating layer conv5_3
I0605 23:10:56.513177 11609 net.cpp:84] Creating Layer conv5_3
I0605 23:10:56.513180 11609 net.cpp:406] conv5_3 <- conv5_2
I0605 23:10:56.513185 11609 net.cpp:380] conv5_3 -> conv5_3
I0605 23:10:56.516491 11609 net.cpp:122] Setting up conv5_3
I0605 23:10:56.516506 11609 net.cpp:129] Top shape: 1 512 38 63 (1225728)
I0605 23:10:56.516510 11609 net.cpp:137] Memory required for data: 1385417568
I0605 23:10:56.516515 11609 layer_factory.hpp:77] Creating layer relu5_3
I0605 23:10:56.516521 11609 net.cpp:84] Creating Layer relu5_3
I0605 23:10:56.516525 11609 net.cpp:406] relu5_3 <- conv5_3
I0605 23:10:56.516530 11609 net.cpp:367] relu5_3 -> conv5_3 (in-place)
I0605 23:10:56.516535 11609 net.cpp:122] Setting up relu5_3
I0605 23:10:56.516538 11609 net.cpp:129] Top shape: 1 512 38 63 (1225728)
I0605 23:10:56.516541 11609 net.cpp:137] Memory required for data: 1390320480
I0605 23:10:56.516542 11609 layer_factory.hpp:77] Creating layer conv5_3_relu5_3_0_split
I0605 23:10:56.516547 11609 net.cpp:84] Creating Layer conv5_3_relu5_3_0_split
I0605 23:10:56.516551 11609 net.cpp:406] conv5_3_relu5_3_0_split <- conv5_3
I0605 23:10:56.516553 11609 net.cpp:380] conv5_3_relu5_3_0_split -> conv5_3_relu5_3_0_split_0
I0605 23:10:56.516558 11609 net.cpp:380] conv5_3_relu5_3_0_split -> conv5_3_relu5_3_0_split_1
I0605 23:10:56.516585 11609 net.cpp:122] Setting up conv5_3_relu5_3_0_split
I0605 23:10:56.516589 11609 net.cpp:129] Top shape: 1 512 38 63 (1225728)
I0605 23:10:56.516592 11609 net.cpp:129] Top shape: 1 512 38 63 (1225728)
I0605 23:10:56.516595 11609 net.cpp:137] Memory required for data: 1400126304
I0605 23:10:56.516597 11609 layer_factory.hpp:77] Creating layer rpn_conv/3x3
I0605 23:10:56.516607 11609 net.cpp:84] Creating Layer rpn_conv/3x3
I0605 23:10:56.516609 11609 net.cpp:406] rpn_conv/3x3 <- conv5_3_relu5_3_0_split_0
I0605 23:10:56.516615 11609 net.cpp:380] rpn_conv/3x3 -> rpn/output
I0605 23:10:56.536351 11609 net.cpp:122] Setting up rpn_conv/3x3
I0605 23:10:56.536386 11609 net.cpp:129] Top shape: 1 512 38 63 (1225728)
I0605 23:10:56.536388 11609 net.cpp:137] Memory required for data: 1405029216
I0605 23:10:56.536394 11609 layer_factory.hpp:77] Creating layer rpn_relu/3x3
I0605 23:10:56.536399 11609 net.cpp:84] Creating Layer rpn_relu/3x3
I0605 23:10:56.536402 11609 net.cpp:406] rpn_relu/3x3 <- rpn/output
I0605 23:10:56.536406 11609 net.cpp:367] rpn_relu/3x3 -> rpn/output (in-place)
I0605 23:10:56.536412 11609 net.cpp:122] Setting up rpn_relu/3x3
I0605 23:10:56.536417 11609 net.cpp:129] Top shape: 1 512 38 63 (1225728)
I0605 23:10:56.536418 11609 net.cpp:137] Memory required for data: 1409932128
I0605 23:10:56.536419 11609 layer_factory.hpp:77] Creating layer rpn/output_rpn_relu/3x3_0_split
I0605 23:10:56.536423 11609 net.cpp:84] Creating Layer rpn/output_rpn_relu/3x3_0_split
I0605 23:10:56.536425 11609 net.cpp:406] rpn/output_rpn_relu/3x3_0_split <- rpn/output
I0605 23:10:56.536430 11609 net.cpp:380] rpn/output_rpn_relu/3x3_0_split -> rpn/output_rpn_relu/3x3_0_split_0
I0605 23:10:56.536440 11609 net.cpp:380] rpn/output_rpn_relu/3x3_0_split -> rpn/output_rpn_relu/3x3_0_split_1
I0605 23:10:56.536468 11609 net.cpp:122] Setting up rpn/output_rpn_relu/3x3_0_split
I0605 23:10:56.536475 11609 net.cpp:129] Top shape: 1 512 38 63 (1225728)
I0605 23:10:56.536478 11609 net.cpp:129] Top shape: 1 512 38 63 (1225728)
I0605 23:10:56.536480 11609 net.cpp:137] Memory required for data: 1419737952
I0605 23:10:56.536483 11609 layer_factory.hpp:77] Creating layer rpn_cls_score
I0605 23:10:56.536490 11609 net.cpp:84] Creating Layer rpn_cls_score
I0605 23:10:56.536494 11609 net.cpp:406] rpn_cls_score <- rpn/output_rpn_relu/3x3_0_split_0
I0605 23:10:56.536497 11609 net.cpp:380] rpn_cls_score -> rpn_cls_score
I0605 23:10:56.536736 11609 net.cpp:122] Setting up rpn_cls_score
I0605 23:10:56.536741 11609 net.cpp:129] Top shape: 1 18 38 63 (43092)
I0605 23:10:56.536743 11609 net.cpp:137] Memory required for data: 1419910320
I0605 23:10:56.536746 11609 layer_factory.hpp:77] Creating layer rpn_cls_score_rpn_cls_score_0_split
I0605 23:10:56.536752 11609 net.cpp:84] Creating Layer rpn_cls_score_rpn_cls_score_0_split
I0605 23:10:56.536756 11609 net.cpp:406] rpn_cls_score_rpn_cls_score_0_split <- rpn_cls_score
I0605 23:10:56.536759 11609 net.cpp:380] rpn_cls_score_rpn_cls_score_0_split -> rpn_cls_score_rpn_cls_score_0_split_0
I0605 23:10:56.536765 11609 net.cpp:380] rpn_cls_score_rpn_cls_score_0_split -> rpn_cls_score_rpn_cls_score_0_split_1
I0605 23:10:56.536789 11609 net.cpp:122] Setting up rpn_cls_score_rpn_cls_score_0_split
I0605 23:10:56.536794 11609 net.cpp:129] Top shape: 1 18 38 63 (43092)
I0605 23:10:56.536798 11609 net.cpp:129] Top shape: 1 18 38 63 (43092)
I0605 23:10:56.536799 11609 net.cpp:137] Memory required for data: 1420255056
I0605 23:10:56.536801 11609 layer_factory.hpp:77] Creating layer rpn_bbox_pred
I0605 23:10:56.536808 11609 net.cpp:84] Creating Layer rpn_bbox_pred
I0605 23:10:56.536810 11609 net.cpp:406] rpn_bbox_pred <- rpn/output_rpn_relu/3x3_0_split_1
I0605 23:10:56.536819 11609 net.cpp:380] rpn_bbox_pred -> rpn_bbox_pred
I0605 23:10:56.537123 11609 net.cpp:122] Setting up rpn_bbox_pred
I0605 23:10:56.537129 11609 net.cpp:129] Top shape: 1 36 38 63 (86184)
I0605 23:10:56.537132 11609 net.cpp:137] Memory required for data: 1420599792
I0605 23:10:56.537135 11609 layer_factory.hpp:77] Creating layer rpn_bbox_pred_rpn_bbox_pred_0_split
I0605 23:10:56.537140 11609 net.cpp:84] Creating Layer rpn_bbox_pred_rpn_bbox_pred_0_split
I0605 23:10:56.537142 11609 net.cpp:406] rpn_bbox_pred_rpn_bbox_pred_0_split <- rpn_bbox_pred
I0605 23:10:56.537147 11609 net.cpp:380] rpn_bbox_pred_rpn_bbox_pred_0_split -> rpn_bbox_pred_rpn_bbox_pred_0_split_0
I0605 23:10:56.537153 11609 net.cpp:380] rpn_bbox_pred_rpn_bbox_pred_0_split -> rpn_bbox_pred_rpn_bbox_pred_0_split_1
I0605 23:10:56.537178 11609 net.cpp:122] Setting up rpn_bbox_pred_rpn_bbox_pred_0_split
I0605 23:10:56.537183 11609 net.cpp:129] Top shape: 1 36 38 63 (86184)
I0605 23:10:56.537184 11609 net.cpp:129] Top shape: 1 36 38 63 (86184)
I0605 23:10:56.537187 11609 net.cpp:137] Memory required for data: 1421289264
I0605 23:10:56.537189 11609 layer_factory.hpp:77] Creating layer rpn_cls_score_reshape
I0605 23:10:56.537196 11609 net.cpp:84] Creating Layer rpn_cls_score_reshape
I0605 23:10:56.537199 11609 net.cpp:406] rpn_cls_score_reshape <- rpn_cls_score_rpn_cls_score_0_split_0
I0605 23:10:56.537204 11609 net.cpp:380] rpn_cls_score_reshape -> rpn_cls_score_reshape
I0605 23:10:56.537222 11609 net.cpp:122] Setting up rpn_cls_score_reshape
I0605 23:10:56.537226 11609 net.cpp:129] Top shape: 1 2 342 63 (43092)
I0605 23:10:56.537228 11609 net.cpp:137] Memory required for data: 1421461632
I0605 23:10:56.537230 11609 layer_factory.hpp:77] Creating layer rpn_cls_score_reshape_rpn_cls_score_reshape_0_split
I0605 23:10:56.537235 11609 net.cpp:84] Creating Layer rpn_cls_score_reshape_rpn_cls_score_reshape_0_split
I0605 23:10:56.537238 11609 net.cpp:406] rpn_cls_score_reshape_rpn_cls_score_reshape_0_split <- rpn_cls_score_reshape
I0605 23:10:56.537242 11609 net.cpp:380] rpn_cls_score_reshape_rpn_cls_score_reshape_0_split -> rpn_cls_score_reshape_rpn_cls_score_reshape_0_split_0
I0605 23:10:56.537247 11609 net.cpp:380] rpn_cls_score_reshape_rpn_cls_score_reshape_0_split -> rpn_cls_score_reshape_rpn_cls_score_reshape_0_split_1
I0605 23:10:56.537271 11609 net.cpp:122] Setting up rpn_cls_score_reshape_rpn_cls_score_reshape_0_split
I0605 23:10:56.537276 11609 net.cpp:129] Top shape: 1 2 342 63 (43092)
I0605 23:10:56.537281 11609 net.cpp:129] Top shape: 1 2 342 63 (43092)
I0605 23:10:56.537281 11609 net.cpp:137] Memory required for data: 1421806368
I0605 23:10:56.537283 11609 layer_factory.hpp:77] Creating layer rpn-data
I0605 23:10:56.537650 11609 net.cpp:84] Creating Layer rpn-data
I0605 23:10:56.537659 11609 net.cpp:406] rpn-data <- rpn_cls_score_rpn_cls_score_0_split_1
I0605 23:10:56.537663 11609 net.cpp:406] rpn-data <- gt_boxes_input-data_2_split_0
I0605 23:10:56.537667 11609 net.cpp:406] rpn-data <- im_info_input-data_1_split_0
I0605 23:10:56.537669 11609 net.cpp:406] rpn-data <- data_input-data_0_split_1
I0605 23:10:56.537672 11609 net.cpp:406] rpn-data <- flags_input-data_3_split_0
I0605 23:10:56.537678 11609 net.cpp:380] rpn-data -> rpn_labels
I0605 23:10:56.537683 11609 net.cpp:380] rpn-data -> rpn_bbox_targets
I0605 23:10:56.537689 11609 net.cpp:380] rpn-data -> rpn_bbox_inside_weights
I0605 23:10:56.537695 11609 net.cpp:380] rpn-data -> rpn_bbox_outside_weights
I0605 23:10:56.538280 11609 net.cpp:122] Setting up rpn-data
I0605 23:10:56.538291 11609 net.cpp:129] Top shape: 1 1 342 63 (21546)
I0605 23:10:56.538295 11609 net.cpp:129] Top shape: 1 36 38 63 (86184)
I0605 23:10:56.538297 11609 net.cpp:129] Top shape: 1 36 38 63 (86184)
I0605 23:10:56.538300 11609 net.cpp:129] Top shape: 1 36 38 63 (86184)
I0605 23:10:56.538302 11609 net.cpp:137] Memory required for data: 1422926760
I0605 23:10:56.538305 11609 layer_factory.hpp:77] Creating layer rpn_loss_cls
I0605 23:10:56.538311 11609 net.cpp:84] Creating Layer rpn_loss_cls
I0605 23:10:56.538313 11609 net.cpp:406] rpn_loss_cls <- rpn_cls_score_reshape_rpn_cls_score_reshape_0_split_0
I0605 23:10:56.538317 11609 net.cpp:406] rpn_loss_cls <- rpn_labels
…
I0605 23:10:56.539237 11609 net.cpp:129] Top shape: (1)
I0605 23:10:56.539238 11609 net.cpp:132]     with loss weight 1
I0605 23:10:56.539242 11609 net.cpp:137] Memory required for data: 1422926768
I0605 23:10:56.539244 11609 layer_factory.hpp:77] Creating layer rpn_cls_prob
I0605 23:10:56.539249 11609 net.cpp:84] Creating Layer rpn_cls_prob
I0605 23:10:56.539252 11609 net.cpp:406] rpn_cls_prob <- rpn_cls_score_reshape_rpn_cls_score_reshape_0_split_1
I0605 23:10:56.539257 11609 net.cpp:380] rpn_cls_prob -> rpn_cls_prob
I0605 23:10:56.539299 11609 net.cpp:122] Setting up rpn_cls_prob
I0605 23:10:56.539305 11609 net.cpp:129] Top shape: 1 2 342 63 (43092)
I0605 23:10:56.539309 11609 net.cpp:137] Memory required for data: 1423099136
I0605 23:10:56.539310 11609 layer_factory.hpp:77] Creating layer rpn_cls_prob_reshape
I0605 23:10:56.539314 11609 net.cpp:84] Creating Layer rpn_cls_prob_reshape
I0605 23:10:56.539317 11609 net.cpp:406] rpn_cls_prob_reshape <- rpn_cls_prob
I0605 23:10:56.539324 11609 net.cpp:380] rpn_cls_prob_reshape -> rpn_cls_prob_reshape
I0605 23:10:56.539340 11609 net.cpp:122] Setting up rpn_cls_prob_reshape
I0605 23:10:56.539346 11609 net.cpp:129] Top shape: 1 18 38 63 (43092)
I0605 23:10:56.539348 11609 net.cpp:137] Memory required for data: 1423271504
I0605 23:10:56.539351 11609 layer_factory.hpp:77] Creating layer proposal
I0605 23:10:56.539851 11609 net.cpp:84] Creating Layer proposal
I0605 23:10:56.539862 11609 net.cpp:406] proposal <- rpn_cls_prob_reshape
I0605 23:10:56.539866 11609 net.cpp:406] proposal <- rpn_bbox_pred_rpn_bbox_pred_0_split_1
I0605 23:10:56.539870 11609 net.cpp:406] proposal <- im_info_input-data_1_split_1
I0605 23:10:56.539875 11609 net.cpp:380] proposal -> rpn_rois
I0605 23:10:56.540439 11609 net.cpp:122] Setting up proposal
I0605 23:10:56.540449 11609 net.cpp:129] Top shape: 1 5 (5)
I0605 23:10:56.540452 11609 net.cpp:137] Memory required for data: 1423271524
I0605 23:10:56.540455 11609 layer_factory.hpp:77] Creating layer roi-data
I0605 23:10:56.540575 11609 net.cpp:84] Creating Layer roi-data
I0605 23:10:56.540582 11609 net.cpp:406] roi-data <- rpn_rois
I0605 23:10:56.540586 11609 net.cpp:406] roi-data <- gt_boxes_input-data_2_split_1
I0605 23:10:56.540591 11609 net.cpp:406] roi-data <- flags_input-data_3_split_1
I0605 23:10:56.540594 11609 net.cpp:380] roi-data -> rois
I0605 23:10:56.540601 11609 net.cpp:380] roi-data -> labels
I0605 23:10:56.540606 11609 net.cpp:380] roi-data -> bbox_targets
I0605 23:10:56.540611 11609 net.cpp:380] roi-data -> bbox_inside_weights
I0605 23:10:56.540616 11609 net.cpp:380] roi-data -> bbox_outside_weights
I0605 23:10:56.540899 11609 net.cpp:122] Setting up roi-data
I0605 23:10:56.540910 11609 net.cpp:129] Top shape: 1 5 (5)
I0605 23:10:56.540912 11609 net.cpp:129] Top shape: 1 1 (1)
I0605 23:10:56.540915 11609 net.cpp:129] Top shape: 1 32 (32)
I0605 23:10:56.540916 11609 net.cpp:129] Top shape: 1 32 (32)
I0605 23:10:56.540920 11609 net.cpp:129] Top shape: 1 32 (32)
I0605 23:10:56.540920 11609 net.cpp:137] Memory required for data: 1423271932
I0605 23:10:56.540923 11609 layer_factory.hpp:77] Creating layer roi_pool5
I0605 23:10:56.540928 11609 net.cpp:84] Creating Layer roi_pool5
I0605 23:10:56.540930 11609 net.cpp:406] roi_pool5 <- conv5_3_relu5_3_0_split_1
I0605 23:10:56.540935 11609 net.cpp:406] roi_pool5 <- rois
I0605 23:10:56.540938 11609 net.cpp:380] roi_pool5 -> pool5
I0605 23:10:56.540943 11609 roi_pooling_layer.cpp:30] Spatial scale: 0.0625
I0605 23:10:56.540972 11609 net.cpp:122] Setting up roi_pool5
I0605 23:10:56.540977 11609 net.cpp:129] Top shape: 1 512 7 7 (25088)
I0605 23:10:56.540978 11609 net.cpp:137] Memory required for data: 1423372284
I0605 23:10:56.540980 11609 layer_factory.hpp:77] Creating layer fc6
I0605 23:10:56.540985 11609 net.cpp:84] Creating Layer fc6
I0605 23:10:56.540988 11609 net.cpp:406] fc6 <- pool5
I0605 23:10:56.540992 11609 net.cpp:380] fc6 -> fc6
I0605 23:10:56.690778 11609 net.cpp:122] Setting up fc6
I0605 23:10:56.690824 11609 net.cpp:129] Top shape: 1 4096 (4096)
I0605 23:10:56.690826 11609 net.cpp:137] Memory required for data: 1423388668
I0605 23:10:56.690841 11609 layer_factory.hpp:77] Creating layer relu6
I0605 23:10:56.690850 11609 net.cpp:84] Creating Layer relu6
I0605 23:10:56.690853 11609 net.cpp:406] relu6 <- fc6
I0605 23:10:56.690860 11609 net.cpp:367] relu6 -> fc6 (in-place)
I0605 23:10:56.690866 11609 net.cpp:122] Setting up relu6
I0605 23:10:56.690871 11609 net.cpp:129] Top shape: 1 4096 (4096)
I0605 23:10:56.690872 11609 net.cpp:137] Memory required for data: 1423405052
I0605 23:10:56.690873 11609 layer_factory.hpp:77] Creating layer drop6
I0605 23:10:56.690878 11609 net.cpp:84] Creating Layer drop6
I0605 23:10:56.690881 11609 net.cpp:406] drop6 <- fc6
I0605 23:10:56.690884 11609 net.cpp:367] drop6 -> fc6 (in-place)
I0605 23:10:56.690902 11609 net.cpp:122] Setting up drop6
I0605 23:10:56.690907 11609 net.cpp:129] Top shape: 1 4096 (4096)
I0605 23:10:56.690907 11609 net.cpp:137] Memory required for data: 1423421436
I0605 23:10:56.690909 11609 layer_factory.hpp:77] Creating layer fc7
I0605 23:10:56.690917 11609 net.cpp:84] Creating Layer fc7
I0605 23:10:56.690919 11609 net.cpp:406] fc7 <- fc6
I0605 23:10:56.690922 11609 net.cpp:380] fc7 -> fc7
I0605 23:10:56.715818 11609 net.cpp:122] Setting up fc7
I0605 23:10:56.715844 11609 net.cpp:129] Top shape: 1 4096 (4096)
I0605 23:10:56.715847 11609 net.cpp:137] Memory required for data: 1423437820
I0605 23:10:56.715855 11609 layer_factory.hpp:77] Creating layer relu7
I0605 23:10:56.715863 11609 net.cpp:84] Creating Layer relu7
I0605 23:10:56.715867 11609 net.cpp:406] relu7 <- fc7
I0605 23:10:56.715873 11609 net.cpp:367] relu7 -> fc7 (in-place)
I0605 23:10:56.715878 11609 net.cpp:122] Setting up relu7
I0605 23:10:56.715881 11609 net.cpp:129] Top shape: 1 4096 (4096)
I0605 23:10:56.715883 11609 net.cpp:137] Memory required for data: 1423454204
I0605 23:10:56.715884 11609 layer_factory.hpp:77] Creating layer drop7
I0605 23:10:56.715889 11609 net.cpp:84] Creating Layer drop7
I0605 23:10:56.715891 11609 net.cpp:406] drop7 <- fc7
I0605 23:10:56.715896 11609 net.cpp:367] drop7 -> fc7 (in-place)
I0605 23:10:56.715914 11609 net.cpp:122] Setting up drop7
I0605 23:10:56.715919 11609 net.cpp:129] Top shape: 1 4096 (4096)
I0605 23:10:56.715920 11609 net.cpp:137] Memory required for data: 1423470588
I0605 23:10:56.715922 11609 layer_factory.hpp:77] Creating layer fc7_drop7_0_split
I0605 23:10:56.715926 11609 net.cpp:84] Creating Layer fc7_drop7_0_split
I0605 23:10:56.715929 11609 net.cpp:406] fc7_drop7_0_split <- fc7
I0605 23:10:56.715932 11609 net.cpp:380] fc7_drop7_0_split -> fc7_drop7_0_split_0
I0605 23:10:56.715939 11609 net.cpp:380] fc7_drop7_0_split -> fc7_drop7_0_split_1
I0605 23:10:56.715963 11609 net.cpp:122] Setting up fc7_drop7_0_split
I0605 23:10:56.715967 11609 net.cpp:129] Top shape: 1 4096 (4096)
I0605 23:10:56.715970 11609 net.cpp:129] Top shape: 1 4096 (4096)
I0605 23:10:56.715971 11609 net.cpp:137] Memory required for data: 1423503356
I0605 23:10:56.715973 11609 layer_factory.hpp:77] Creating layer cls_score
I0605 23:10:56.715981 11609 net.cpp:84] Creating Layer cls_score
I0605 23:10:56.715983 11609 net.cpp:406] cls_score <- fc7_drop7_0_split_0
I0605 23:10:56.715987 11609 net.cpp:380] cls_score -> cls_score
I0605 23:10:56.716322 11609 net.cpp:122] Setting up cls_score
I0605 23:10:56.716328 11609 net.cpp:129] Top shape: 1 8 (8)
I0605 23:10:56.716331 11609 net.cpp:137] Memory required for data: 1423503388
I0605 23:10:56.716334 11609 layer_factory.hpp:77] Creating layer bbox_pred
I0605 23:10:56.716339 11609 net.cpp:84] Creating Layer bbox_pred
I0605 23:10:56.716341 11609 net.cpp:406] bbox_pred <- fc7_drop7_0_split_1
I0605 23:10:56.716346 11609 net.cpp:380] bbox_pred -> bbox_pred
I0605 23:10:56.717401 11609 net.cpp:122] Setting up bbox_pred
I0605 23:10:56.717406 11609 net.cpp:129] Top shape: 1 32 (32)
I0605 23:10:56.717408 11609 net.cpp:137] Memory required for data: 1423503516
I0605 23:10:56.717412 11609 layer_factory.hpp:77] Creating layer loss_cls
I0605 23:10:56.717418 11609 net.cpp:84] Creating Layer loss_cls
I0605 23:10:56.717422 11609 net.cpp:406] loss_cls <- cls_score
I0605 23:10:56.717424 11609 net.cpp:406] loss_cls <- labels
I0605 23:10:56.717428 11609 net.cpp:380] loss_cls -> loss_cls
…
I0606 07:08:47.436570 13504 upgrade_proto.cpp:70] Successfully upgraded file specified using deprecated input fields.
W0606 07:08:47.436573 13504 upgrade_proto.cpp:72] Note that future Caffe releases will only support input layers and not input fields.
I0606 07:08:47.436787 13504 net.cpp:51] Initializing net from parameters: 
name: "VGG_ILSVRC_16_layers"
state {
  phase: TEST
  level: 0
}
layer {
  name: "input"
  type: "Input"
  top: "data"
  top: "im_info"
  input_param {
    shape {
      dim: 1
      dim: 3
      dim: 224
      dim: 224
    }
    shape {
      dim: 1
      dim: 3
    }
  }
}
layer {
  name: "conv1_1"
  type: "Convolution"
  bottom: "data"
  top: "conv1_1"
  param {
    lr_mult: 0
    decay_mult: 0
  }
  param {
    lr_mult: 0
    decay_mult: 0
  }
  convolution_param {
    num_output: 64
    pad: 1
    kernel_size: 3
  }
}
layer {
  name: "relu1_1"
  type: "ReLU"
  bottom: "conv1_1"
  top: "conv1_1"
}
layer {
  name: "conv1_2"
  type: "Convolution"
  bottom: "conv1_1"
  top: "conv1_2"
  param {
    lr_mult: 0
    decay_mult: 0
  }
  param {
    lr_mult: 0
    decay_mult: 0
  }
  convolution_param {
    num_output: 64
    pad: 1
    kernel_size: 3
  }
}
layer {
  name: "relu1_2"
  type: "ReLU"
  bottom: "conv1_2"
  top: "conv1_2"
}
layer {
  name: "pool1"
  type: "Pooling"
  bottom: "conv1_2"
  top: "pool1"
  pooling_param {
    pool: MAX
    kernel_size: 2
    stride: 2
  }
}
layer {
  name: "conv2_1"
  type: "Convolution"
  bottom: "pool1"
  top: "conv2_1"
  param {
    lr_mult: 0
    decay_mult: 0
  }
  param {
    lr_mult: 0
    decay_mult: 0
  }
  convolution_param {
    num_output: 128
    pad: 1
    kernel_size: 3
  }
}
layer {
  name: "relu2_1"
  type: "ReLU"
  bottom: "conv2_1"
  top: "conv2_1"
}
layer {
  name: "conv2_2"
  type: "Convolution"
  bottom: "conv2_1"
  top: "conv2_2"
  param {
    lr_mult: 0
    decay_mult: 0
  }
  param {
    lr_mult: 0
    decay_mult: 0
  }
  convolution_param {
    num_output: 128
    pad: 1
    kernel_size: 3
  }
}
layer {
  name: "relu2_2"
  type: "ReLU"
  bottom: "conv2_2"
  top: "conv2_2"
}
layer {
  name: "pool2"
  type: "Pooling"
  bottom: "conv2_2"
  top: "pool2"
  pooling_param {
    pool: MAX
    kernel_size: 2
    stride: 2
  }
}
layer {
  name: "conv3_1"
  type: "Convolution"
  bottom: "pool2"
  top: "conv3_1"
  param {
    lr_mult: 1
    decay_mult: 1
  }
  param {
    lr_mult: 2
    decay_mult: 0
  }
  convolution_param {
    num_output: 256
    pad: 1
    kernel_size: 3
  }
}
layer {
  name: "relu3_1"
  type: "ReLU"
  bottom: "conv3_1"
  top: "conv3_1"
}
layer {
  name: "conv3_2"
  type: "Convolution"
  bottom: "conv3_1"
  top: "conv3_2"
  param {
    lr_mult: 1
    decay_mult: 1
  }
  param {
    lr_mult: 2
    decay_mult: 0
  }
  convolution_param {
    num_output: 256
    pad: 1
    kernel_size: 3
  }
}
layer {
  name: "relu3_2"
  type: "ReLU"
  bottom: "conv3_2"
  top: "conv3_2"
}
layer {
  name: "conv3_3"
  type: "Convolution"
  bottom: "conv3_2"
  top: "conv3_3"
  param {
    lr_mult: 1
    decay_mult: 1
  }
  param {
    lr_mult: 2
    decay_mult: 0
  }
  convolution_param {
    num_output: 256
    pad: 1
    kernel_size: 3
  }
}
layer {
  name: "relu3_3"
  type: "ReLU"
  bottom: "conv3_3"
  top: "conv3_3"
}
layer {
  name: "pool3"
  type: "Pooling"
  bottom: "conv3_3"
  top: "pool3"
  pooling_param {
    pool: MAX
    kernel_size: 2
    stride: 2
  }
}
layer {
  name: "conv4_1"
  type: "Convolution"
  bottom: "pool3"
  top: "conv4_1"
  param {
    lr_mult: 1
    decay_mult: 1
  }
  param {
    lr_mult: 2
    decay_mult: 0
  }
  convolution_param {
    num_output: 512
    pad: 1
    kernel_size: 3
  }
}
layer {
  name: "relu4_1"
  type: "ReLU"
  bottom: "conv4_1"
  top: "conv4_1"
}
layer {
  name: "conv4_2"
  type: "Convolution"
  bottom: "conv4_1"
  top: "conv4_2"
  param {
    lr_mult: 1
    decay_mult: 1
  }
  param {
    lr_mult: 2
    decay_mult: 0
  }
  convolution_param {
    num_output: 512
    pad: 1
    kernel_size: 3
  }
}
layer {
  name: "relu4_2"
  type: "ReLU"
  bottom: "conv4_2"
  top: "conv4_2"
}
layer {
  name: "conv4_3"
  type: "Convolution"
  bottom: "conv4_2"
  top: "conv4_3"
  param {
    lr_mult: 1
    decay_mult: 1
  }
  param {
    lr_mult: 2
    decay_mult: 0
  }
  convolution_param {
    num_output: 512
    pad: 1
    kernel_size: 3
  }
}
layer {
  name: "relu4_3"
  type: "ReLU"
  bottom: "conv4_3"
  top: "conv4_3"
}
layer {
  name: "pool4"
  type: "Pooling"
  bottom: "conv4_3"
  top: "pool4"
  pooling_param {
    pool: MAX
    kernel_size: 2
    stride: 2
  }
}
layer {
  name: "conv5_1"
  type: "Convolution"
  bottom: "pool4"
  top: "conv5_1"
  param {
    lr_mult: 1
    decay_mult: 1
  }
  param {
    lr_mult: 2
    decay_mult: 0
  }
  convolution_param {
    num_output: 512
    pad: 1
    kernel_size: 3
  }
}
layer {
  name: "relu5_1"
  type: "ReLU"
  bottom: "conv5_1"
  top: "conv5_1"
}
layer {
  name: "conv5_2"
  type: "Convolution"
  bottom: "conv5_1"
  top: "conv5_2"
  param {
    lr_mult: 1
    decay_mult: 1
  }
  param {
    lr_mult: 2
    decay_mult: 0
  }
  convolution_param {
    num_output: 512
    pad: 1
    kernel_size: 3
  }
}
layer {
  name: "relu5_2"
  type: "ReLU"
  bottom: "conv5_2"
  top: "conv5_2"
}
layer {
  name: "conv5_3"
  type: "Convolution"
  bottom: "conv5_2"
  top: "conv5_3"
  param {
    lr_mult: 1
    decay_mult: 1
  }
  param {
    lr_mult: 2
    decay_mult: 0
  }
  convolution_param {
    num_output: 512
    pad: 1
    kernel_size: 3
  }
}
layer {
  name: "relu5_3"
  type: "ReLU"
  bottom: "conv5_3"
  top: "conv5_3"
}
layer {
  name: "rpn_conv/3x3"
  type: "Convolution"
  bottom: "conv5_3"
  top: "rpn/output"
  param {
    lr_mult: 1
    decay_mult: 1
  }
  param {
    lr_mult: 2
    decay_mult: 0
  }
  convolution_param {
    num_output: 512
    pad: 1
    kernel_size: 3
    stride: 1
    weight_filler {
      type: "gaussian"
      std: 0.01
    }
    bias_filler {
      type: "constant"
      value: 0
    }
  }
}
layer {
  name: "rpn_relu/3x3"
  type: "ReLU"
  bottom: "rpn/output"
  top: "rpn/output"
}
layer {
  name: "rpn_cls_score"
  type: "Convolution"
  bottom: "rpn/output"
  top: "rpn_cls_score"
  param {
    lr_mult: 1
    decay_mult: 1
  }
  param {
    lr_mult: 2
    decay_mult: 0
  }
  convolution_param {
    num_output: 18
    pad: 0
    kernel_size: 1
    stride: 1
    weight_filler {
      type: "gaussian"
      std: 0.01
    }
    bias_filler {
      type: "constant"
      value: 0
    }
  }
}
layer {
  name: "rpn_bbox_pred"
  type: "Convolution"
  bottom: "rpn/output"
  top: "rpn_bbox_pred"
  param {
    lr_mult: 1
    decay_mult: 1
  }
  param {
    lr_mult: 2
    decay_mult: 0
  }
  convolution_param {
    num_output: 36
    pad: 0
    kernel_size: 1
    stride: 1
    weight_filler {
      type: "gaussian"
      std: 0.01
    }
    bias_filler {
      type: "constant"
      value: 0
    }
  }
}
layer {
  name: "rpn_cls_score_reshape"
  type: "Reshape"
  bottom: "rpn_cls_score"
  top: "rpn_cls_score_reshape"
  reshape_param {
    shape {
      dim: 0
      dim: 2
      dim: -1
      dim: 0
    }
  }
}
layer {
  name: "rpn_cls_prob"
  type: "Softmax"
  bottom: "rpn_cls_score_reshape"
  top: "rpn_cls_prob"
}
layer {
  name: "rpn_cls_prob_reshape"
  type: "Reshape"
  bottom: "rpn_cls_prob"
  top: "rpn_cls_prob_reshape"
  reshape_param {
    shape {
      dim: 0
      dim: 18
      dim: -1
      dim: 0
    }
  }
}
layer {
  name: "proposal"
  type: "Python"
  bottom: "rpn_cls_prob_reshape"
  bottom: "rpn_bbox_pred"
  bottom: "im_info"
  top: "rois"
  python_param {
    module: "rpn.proposal_layer"
    layer: "ProposalLayer"
    param_str: "\'feat_stride\': 16"
  }
}
layer {
  name: "roi_pool5"
  type: "ROIPooling"
  bottom: "conv5_3"
  bottom: "rois"
  top: "pool5"
  roi_pooling_param {
    pooled_h: 7
    pooled_w: 7
    spatial_scale: 0.0625
  }
}
layer {
  name: "fc6"
  type: "InnerProduct"
  bottom: "pool5"
  top: "fc6"
  param {
    lr_mult: 1
    decay_mult: 1
  }
  param {
    lr_mult: 2
    decay_mult: 0
  }
  inner_product_param {
    num_output: 4096
  }
}
layer {
  name: "relu6"
  type: "ReLU"
  bottom: "fc6"
  top: "fc6"
}
layer {
  name: "drop6"
  type: "Dropout"
  bottom: "fc6"
  top: "fc6"
  dropout_param {
    dropout_ratio: 0.5
  }
}
layer {
  name: "fc7"
  type: "InnerProduct"
  bottom: "fc6"
  top: "fc7"
  param {
    lr_mult: 1
    decay_mult: 1
  }
  param {
    lr_mult: 2
    decay_mult: 0
  }
  inner_product_param {
    num_output: 4096
  }
}
layer {
  name: "relu7"
  type: "ReLU"
  bottom: "fc7"
  top: "fc7"
}
layer {
  name: "drop7"
  type: "Dropout"
  bottom: "fc7"
  top: "fc7"
  dropout_param {
    dropout_ratio: 0.5
  }
}
layer {
  name: "cls_score"
  type: "InnerProduct"
  bottom: "fc7"
  top: "cls_score"
  param {
    lr_mult: 1
    decay_mult: 1
  }
  param {
    lr_mult: 2
    decay_mult: 0
  }
  inner_product_param {
    num_output: 8
    weight_filler {
      type: "gaussian"
      std: 0.01
    }
    bias_filler {
      type: "constant"
      value: 0
    }
  }
}
layer {
  name: "bbox_pred"
  type: "InnerProduct"
  bottom: "fc7"
  top: "bbox_pred"
  param {
    lr_mult: 1
    decay_mult: 1
  }
  param {
    lr_mult: 2
    decay_mult: 0
  }
  inner_product_param {
    num_output: 32
    weight_filler {
      type: "gaussian"
      std: 0.001
    }
    bias_filler {
      type: "constant"
      value: 0
    }
  }
}
layer {
  name: "cls_prob"
  type: "Softmax"
  bottom: "cls_score"
  top: "cls_prob"
}
I0606 07:08:47.436916 13504 layer_factory.hpp:77] Creating layer input
I0606 07:08:47.436924 13504 net.cpp:84] Creating Layer input
I0606 07:08:47.436928 13504 net.cpp:380] input -> data
I0606 07:08:47.436935 13504 net.cpp:380] input -> im_info
I0606 07:08:47.703444 13504 net.cpp:122] Setting up input
I0606 07:08:47.703469 13504 net.cpp:129] Top shape: 1 3 224 224 (150528)
I0606 07:08:47.703472 13504 net.cpp:129] Top shape: 1 3 (3)
I0606 07:08:47.703474 13504 net.cpp:137] Memory required for data: 602124
I0606 07:08:47.703478 13504 layer_factory.hpp:77] Creating layer conv1_1
I0606 07:08:47.703492 13504 net.cpp:84] Creating Layer conv1_1
I0606 07:08:47.703496 13504 net.cpp:406] conv1_1 <- data
I0606 07:08:47.703501 13504 net.cpp:380] conv1_1 -> conv1_1
I0606 07:08:47.704977 13504 net.cpp:122] Setting up conv1_1
I0606 07:08:47.704988 13504 net.cpp:129] Top shape: 1 64 224 224 (3211264)
I0606 07:08:47.704990 13504 net.cpp:137] Memory required for data: 13447180
I0606 07:08:47.704998 13504 layer_factory.hpp:77] Creating layer relu1_1
I0606 07:08:47.705005 13504 net.cpp:84] Creating Layer relu1_1
I0606 07:08:47.705008 13504 net.cpp:406] relu1_1 <- conv1_1
I0606 07:08:47.705011 13504 net.cpp:367] relu1_1 -> conv1_1 (in-place)
I0606 07:08:47.705016 13504 net.cpp:122] Setting up relu1_1
I0606 07:08:47.705020 13504 net.cpp:129] Top shape: 1 64 224 224 (3211264)
I0606 07:08:47.705022 13504 net.cpp:137] Memory required for data: 26292236
I0606 07:08:47.705024 13504 layer_factory.hpp:77] Creating layer conv1_2
I0606 07:08:47.705030 13504 net.cpp:84] Creating Layer conv1_2
I0606 07:08:47.705032 13504 net.cpp:406] conv1_2 <- conv1_1
I0606 07:08:47.705052 13504 net.cpp:380] conv1_2 -> conv1_2
I0606 07:08:47.705248 13504 net.cpp:122] Setting up conv1_2
I0606 07:08:47.705255 13504 net.cpp:129] Top shape: 1 64 224 224 (3211264)
I0606 07:08:47.705257 13504 net.cpp:137] Memory required for data: 39137292
I0606 07:08:47.705262 13504 layer_factory.hpp:77] Creating layer relu1_2
I0606 07:08:47.705267 13504 net.cpp:84] Creating Layer relu1_2
I0606 07:08:47.705269 13504 net.cpp:406] relu1_2 <- conv1_2
I0606 07:08:47.705274 13504 net.cpp:367] relu1_2 -> conv1_2 (in-place)
I0606 07:08:47.705277 13504 net.cpp:122] Setting up relu1_2
I0606 07:08:47.705281 13504 net.cpp:129] Top shape: 1 64 224 224 (3211264)
I0606 07:08:47.705283 13504 net.cpp:137] Memory required for data: 51982348
I0606 07:08:47.705286 13504 layer_factory.hpp:77] Creating layer pool1
I0606 07:08:47.705289 13504 net.cpp:84] Creating Layer pool1
I0606 07:08:47.705291 13504 net.cpp:406] pool1 <- conv1_2
I0606 07:08:47.705294 13504 net.cpp:380] pool1 -> pool1
I0606 07:08:47.705322 13504 net.cpp:122] Setting up pool1
I0606 07:08:47.705327 13504 net.cpp:129] Top shape: 1 64 112 112 (802816)
I0606 07:08:47.705330 13504 net.cpp:137] Memory required for data: 55193612
I0606 07:08:47.705332 13504 layer_factory.hpp:77] Creating layer conv2_1
I0606 07:08:47.705337 13504 net.cpp:84] Creating Layer conv2_1
I0606 07:08:47.705339 13504 net.cpp:406] conv2_1 <- pool1
I0606 07:08:47.705343 13504 net.cpp:380] conv2_1 -> conv2_1
I0606 07:08:47.706806 13504 net.cpp:122] Setting up conv2_1
I0606 07:08:47.706817 13504 net.cpp:129] Top shape: 1 128 112 112 (1605632)
I0606 07:08:47.706835 13504 net.cpp:137] Memory required for data: 61616140
I0606 07:08:47.706841 13504 layer_factory.hpp:77] Creating layer relu2_1
I0606 07:08:47.706845 13504 net.cpp:84] Creating Layer relu2_1
I0606 07:08:47.706848 13504 net.cpp:406] relu2_1 <- conv2_1
I0606 07:08:47.706851 13504 net.cpp:367] relu2_1 -> conv2_1 (in-place)
I0606 07:08:47.706856 13504 net.cpp:122] Setting up relu2_1
I0606 07:08:47.706859 13504 net.cpp:129] Top shape: 1 128 112 112 (1605632)
I0606 07:08:47.706861 13504 net.cpp:137] Memory required for data: 68038668
I0606 07:08:47.706862 13504 layer_factory.hpp:77] Creating layer conv2_2
I0606 07:08:47.706871 13504 net.cpp:84] Creating Layer conv2_2
I0606 07:08:47.706872 13504 net.cpp:406] conv2_2 <- conv2_1
I0606 07:08:47.706876 13504 net.cpp:380] conv2_2 -> conv2_2
I0606 07:08:47.707101 13504 net.cpp:122] Setting up conv2_2
I0606 07:08:47.707109 13504 net.cpp:129] Top shape: 1 128 112 112 (1605632)
I0606 07:08:47.707111 13504 net.cpp:137] Memory required for data: 74461196
I0606 07:08:47.707115 13504 layer_factory.hpp:77] Creating layer relu2_2
I0606 07:08:47.707119 13504 net.cpp:84] Creating Layer relu2_2
I0606 07:08:47.707121 13504 net.cpp:406] relu2_2 <- conv2_2
I0606 07:08:47.707126 13504 net.cpp:367] relu2_2 -> conv2_2 (in-place)
I0606 07:08:47.707129 13504 net.cpp:122] Setting up relu2_2
I0606 07:08:47.707132 13504 net.cpp:129] Top shape: 1 128 112 112 (1605632)
I0606 07:08:47.707134 13504 net.cpp:137] Memory required for data: 80883724
I0606 07:08:47.707136 13504 layer_factory.hpp:77] Creating layer pool2
I0606 07:08:47.707140 13504 net.cpp:84] Creating Layer pool2
I0606 07:08:47.707142 13504 net.cpp:406] pool2 <- conv2_2
I0606 07:08:47.707146 13504 net.cpp:380] pool2 -> pool2
I0606 07:08:47.707170 13504 net.cpp:122] Setting up pool2
I0606 07:08:47.707175 13504 net.cpp:129] Top shape: 1 128 56 56 (401408)
I0606 07:08:47.707177 13504 net.cpp:137] Memory required for data: 82489356
I0606 07:08:47.707180 13504 layer_factory.hpp:77] Creating layer conv3_1
I0606 07:08:47.707186 13504 net.cpp:84] Creating Layer conv3_1
I0606 07:08:47.707197 13504 net.cpp:406] conv3_1 <- pool2
I0606 07:08:47.707201 13504 net.cpp:380] conv3_1 -> conv3_1
I0606 07:08:47.707484 13504 net.cpp:122] Setting up conv3_1
I0606 07:08:47.707489 13504 net.cpp:129] Top shape: 1 256 56 56 (802816)
I0606 07:08:47.707491 13504 net.cpp:137] Memory required for data: 85700620
I0606 07:08:47.707496 13504 layer_factory.hpp:77] Creating layer relu3_1
I0606 07:08:47.707500 13504 net.cpp:84] Creating Layer relu3_1
I0606 07:08:47.707502 13504 net.cpp:406] relu3_1 <- conv3_1
I0606 07:08:47.707506 13504 net.cpp:367] relu3_1 -> conv3_1 (in-place)
I0606 07:08:47.707511 13504 net.cpp:122] Setting up relu3_1
I0606 07:08:47.707515 13504 net.cpp:129] Top shape: 1 256 56 56 (802816)
I0606 07:08:47.707515 13504 net.cpp:137] Memory required for data: 88911884
I0606 07:08:47.707517 13504 layer_factory.hpp:77] Creating layer conv3_2
I0606 07:08:47.707522 13504 net.cpp:84] Creating Layer conv3_2
I0606 07:08:47.707525 13504 net.cpp:406] conv3_2 <- conv3_1
I0606 07:08:47.707528 13504 net.cpp:380] conv3_2 -> conv3_2
I0606 07:08:47.708675 13504 net.cpp:122] Setting up conv3_2
I0606 07:08:47.708688 13504 net.cpp:129] Top shape: 1 256 56 56 (802816)
I0606 07:08:47.708705 13504 net.cpp:137] Memory required for data: 92123148
I0606 07:08:47.708710 13504 layer_factory.hpp:77] Creating layer relu3_2
I0606 07:08:47.708714 13504 net.cpp:84] Creating Layer relu3_2
I0606 07:08:47.708716 13504 net.cpp:406] relu3_2 <- conv3_2
I0606 07:08:47.708720 13504 net.cpp:367] relu3_2 -> conv3_2 (in-place)
I0606 07:08:47.708724 13504 net.cpp:122] Setting up relu3_2
I0606 07:08:47.708727 13504 net.cpp:129] Top shape: 1 256 56 56 (802816)
I0606 07:08:47.708729 13504 net.cpp:137] Memory required for data: 95334412
I0606 07:08:47.708731 13504 layer_factory.hpp:77] Creating layer conv3_3
I0606 07:08:47.708737 13504 net.cpp:84] Creating Layer conv3_3
I0606 07:08:47.708739 13504 net.cpp:406] conv3_3 <- conv3_2
I0606 07:08:47.708744 13504 net.cpp:380] conv3_3 -> conv3_3
I0606 07:08:47.709872 13504 net.cpp:122] Setting up conv3_3
I0606 07:08:47.709882 13504 net.cpp:129] Top shape: 1 256 56 56 (802816)
I0606 07:08:47.709900 13504 net.cpp:137] Memory required for data: 98545676
I0606 07:08:47.709904 13504 layer_factory.hpp:77] Creating layer relu3_3
I0606 07:08:47.709911 13504 net.cpp:84] Creating Layer relu3_3
I0606 07:08:47.709914 13504 net.cpp:406] relu3_3 <- conv3_3
I0606 07:08:47.709918 13504 net.cpp:367] relu3_3 -> conv3_3 (in-place)
I0606 07:08:47.709923 13504 net.cpp:122] Setting up relu3_3
I0606 07:08:47.709925 13504 net.cpp:129] Top shape: 1 256 56 56 (802816)
I0606 07:08:47.709928 13504 net.cpp:137] Memory required for data: 101756940
I0606 07:08:47.709929 13504 layer_factory.hpp:77] Creating layer pool3
I0606 07:08:47.709933 13504 net.cpp:84] Creating Layer pool3
I0606 07:08:47.709936 13504 net.cpp:406] pool3 <- conv3_3
I0606 07:08:47.709939 13504 net.cpp:380] pool3 -> pool3
I0606 07:08:47.709965 13504 net.cpp:122] Setting up pool3
I0606 07:08:47.709971 13504 net.cpp:129] Top shape: 1 256 28 28 (200704)
I0606 07:08:47.709973 13504 net.cpp:137] Memory required for data: 102559756
I0606 07:08:47.709975 13504 layer_factory.hpp:77] Creating layer conv4_1
I0606 07:08:47.709981 13504 net.cpp:84] Creating Layer conv4_1
I0606 07:08:47.709983 13504 net.cpp:406] conv4_1 <- pool3
I0606 07:08:47.709987 13504 net.cpp:380] conv4_1 -> conv4_1
I0606 07:08:47.712491 13504 net.cpp:122] Setting up conv4_1
I0606 07:08:47.712501 13504 net.cpp:129] Top shape: 1 512 28 28 (401408)
I0606 07:08:47.712518 13504 net.cpp:137] Memory required for data: 104165388
I0606 07:08:47.712523 13504 layer_factory.hpp:77] Creating layer relu4_1
I0606 07:08:47.712527 13504 net.cpp:84] Creating Layer relu4_1
I0606 07:08:47.712532 13504 net.cpp:406] relu4_1 <- conv4_1
I0606 07:08:47.712535 13504 net.cpp:367] relu4_1 -> conv4_1 (in-place)
I0606 07:08:47.712540 13504 net.cpp:122] Setting up relu4_1
I0606 07:08:47.712543 13504 net.cpp:129] Top shape: 1 512 28 28 (401408)
I0606 07:08:47.712544 13504 net.cpp:137] Memory required for data: 105771020
I0606 07:08:47.712546 13504 layer_factory.hpp:77] Creating layer conv4_2
I0606 07:08:47.712553 13504 net.cpp:84] Creating Layer conv4_2
I0606 07:08:47.712554 13504 net.cpp:406] conv4_2 <- conv4_1
I0606 07:08:47.712558 13504 net.cpp:380] conv4_2 -> conv4_2
I0606 07:08:47.715872 13504 net.cpp:122] Setting up conv4_2
I0606 07:08:47.715886 13504 net.cpp:129] Top shape: 1 512 28 28 (401408)
I0606 07:08:47.715889 13504 net.cpp:137] Memory required for data: 107376652
I0606 07:08:47.715899 13504 layer_factory.hpp:77] Creating layer relu4_2
I0606 07:08:47.715904 13504 net.cpp:84] Creating Layer relu4_2
I0606 07:08:47.715906 13504 net.cpp:406] relu4_2 <- conv4_2
I0606 07:08:47.715910 13504 net.cpp:367] relu4_2 -> conv4_2 (in-place)
I0606 07:08:47.715915 13504 net.cpp:122] Setting up relu4_2
I0606 07:08:47.715919 13504 net.cpp:129] Top shape: 1 512 28 28 (401408)
I0606 07:08:47.715920 13504 net.cpp:137] Memory required for data: 108982284
I0606 07:08:47.715922 13504 layer_factory.hpp:77] Creating layer conv4_3
I0606 07:08:47.715927 13504 net.cpp:84] Creating Layer conv4_3
I0606 07:08:47.715929 13504 net.cpp:406] conv4_3 <- conv4_2
I0606 07:08:47.715934 13504 net.cpp:380] conv4_3 -> conv4_3
I0606 07:08:47.719226 13504 net.cpp:122] Setting up conv4_3
I0606 07:08:47.719241 13504 net.cpp:129] Top shape: 1 512 28 28 (401408)
I0606 07:08:47.719244 13504 net.cpp:137] Memory required for data: 110587916
I0606 07:08:47.719249 13504 layer_factory.hpp:77] Creating layer relu4_3
I0606 07:08:47.719254 13504 net.cpp:84] Creating Layer relu4_3
I0606 07:08:47.719257 13504 net.cpp:406] relu4_3 <- conv4_3
I0606 07:08:47.719261 13504 net.cpp:367] relu4_3 -> conv4_3 (in-place)
I0606 07:08:47.719265 13504 net.cpp:122] Setting up relu4_3
I0606 07:08:47.719269 13504 net.cpp:129] Top shape: 1 512 28 28 (401408)
I0606 07:08:47.719270 13504 net.cpp:137] Memory required for data: 112193548
I0606 07:08:47.719272 13504 layer_factory.hpp:77] Creating layer pool4
I0606 07:08:47.719277 13504 net.cpp:84] Creating Layer pool4
I0606 07:08:47.719278 13504 net.cpp:406] pool4 <- conv4_3
I0606 07:08:47.719282 13504 net.cpp:380] pool4 -> pool4
I0606 07:08:47.719324 13504 net.cpp:122] Setting up pool4
I0606 07:08:47.719331 13504 net.cpp:129] Top shape: 1 512 14 14 (100352)
I0606 07:08:47.719332 13504 net.cpp:137] Memory required for data: 112594956
I0606 07:08:47.719334 13504 layer_factory.hpp:77] Creating layer conv5_1
I0606 07:08:47.719341 13504 net.cpp:84] Creating Layer conv5_1
I0606 07:08:47.719344 13504 net.cpp:406] conv5_1 <- pool4
I0606 07:08:47.719348 13504 net.cpp:380] conv5_1 -> conv5_1
I0606 07:08:47.722610 13504 net.cpp:122] Setting up conv5_1
I0606 07:08:47.722640 13504 net.cpp:129] Top shape: 1 512 14 14 (100352)
I0606 07:08:47.722642 13504 net.cpp:137] Memory required for data: 112996364
I0606 07:08:47.722648 13504 layer_factory.hpp:77] Creating layer relu5_1
I0606 07:08:47.722654 13504 net.cpp:84] Creating Layer relu5_1
I0606 07:08:47.722657 13504 net.cpp:406] relu5_1 <- conv5_1
I0606 07:08:47.722661 13504 net.cpp:367] relu5_1 -> conv5_1 (in-place)
I0606 07:08:47.722666 13504 net.cpp:122] Setting up relu5_1
I0606 07:08:47.722669 13504 net.cpp:129] Top shape: 1 512 14 14 (100352)
I0606 07:08:47.722671 13504 net.cpp:137] Memory required for data: 113397772
I0606 07:08:47.722673 13504 layer_factory.hpp:77] Creating layer conv5_2
I0606 07:08:47.722679 13504 net.cpp:84] Creating Layer conv5_2
I0606 07:08:47.722681 13504 net.cpp:406] conv5_2 <- conv5_1
I0606 07:08:47.722684 13504 net.cpp:380] conv5_2 -> conv5_2
I0606 07:08:47.726024 13504 net.cpp:122] Setting up conv5_2
I0606 07:08:47.726039 13504 net.cpp:129] Top shape: 1 512 14 14 (100352)
I0606 07:08:47.726058 13504 net.cpp:137] Memory required for data: 113799180
I0606 07:08:47.726063 13504 layer_factory.hpp:77] Creating layer relu5_2
I0606 07:08:47.726068 13504 net.cpp:84] Creating Layer relu5_2
I0606 07:08:47.726069 13504 net.cpp:406] relu5_2 <- conv5_2
I0606 07:08:47.726076 13504 net.cpp:367] relu5_2 -> conv5_2 (in-place)
I0606 07:08:47.726081 13504 net.cpp:122] Setting up relu5_2
I0606 07:08:47.726084 13504 net.cpp:129] Top shape: 1 512 14 14 (100352)
I0606 07:08:47.726086 13504 net.cpp:137] Memory required for data: 114200588
I0606 07:08:47.726089 13504 layer_factory.hpp:77] Creating layer conv5_3
I0606 07:08:47.726094 13504 net.cpp:84] Creating Layer conv5_3
I0606 07:08:47.726096 13504 net.cpp:406] conv5_3 <- conv5_2
I0606 07:08:47.726100 13504 net.cpp:380] conv5_3 -> conv5_3
I0606 07:08:47.729382 13504 net.cpp:122] Setting up conv5_3
I0606 07:08:47.729410 13504 net.cpp:129] Top shape: 1 512 14 14 (100352)
I0606 07:08:47.729413 13504 net.cpp:137] Memory required for data: 114601996
I0606 07:08:47.729418 13504 layer_factory.hpp:77] Creating layer relu5_3
I0606 07:08:47.729423 13504 net.cpp:84] Creating Layer relu5_3
I0606 07:08:47.729426 13504 net.cpp:406] relu5_3 <- conv5_3
I0606 07:08:47.729431 13504 net.cpp:367] relu5_3 -> conv5_3 (in-place)
I0606 07:08:47.729435 13504 net.cpp:122] Setting up relu5_3
I0606 07:08:47.729439 13504 net.cpp:129] Top shape: 1 512 14 14 (100352)
I0606 07:08:47.729440 13504 net.cpp:137] Memory required for data: 115003404
I0606 07:08:47.729442 13504 layer_factory.hpp:77] Creating layer conv5_3_relu5_3_0_split
I0606 07:08:47.729446 13504 net.cpp:84] Creating Layer conv5_3_relu5_3_0_split
I0606 07:08:47.729449 13504 net.cpp:406] conv5_3_relu5_3_0_split <- conv5_3
I0606 07:08:47.729452 13504 net.cpp:380] conv5_3_relu5_3_0_split -> conv5_3_relu5_3_0_split_0
I0606 07:08:47.729459 13504 net.cpp:380] conv5_3_relu5_3_0_split -> conv5_3_relu5_3_0_split_1
I0606 07:08:47.729485 13504 net.cpp:122] Setting up conv5_3_relu5_3_0_split
I0606 07:08:47.729492 13504 net.cpp:129] Top shape: 1 512 14 14 (100352)
I0606 07:08:47.729496 13504 net.cpp:129] Top shape: 1 512 14 14 (100352)
I0606 07:08:47.729497 13504 net.cpp:137] Memory required for data: 115806220
I0606 07:08:47.729499 13504 layer_factory.hpp:77] Creating layer rpn_conv/3x3
I0606 07:08:47.729511 13504 net.cpp:84] Creating Layer rpn_conv/3x3
I0606 07:08:47.729514 13504 net.cpp:406] rpn_conv/3x3 <- conv5_3_relu5_3_0_split_0
I0606 07:08:47.729519 13504 net.cpp:380] rpn_conv/3x3 -> rpn/output
I0606 07:08:47.748984 13504 net.cpp:122] Setting up rpn_conv/3x3
I0606 07:08:47.748998 13504 net.cpp:129] Top shape: 1 512 14 14 (100352)
I0606 07:08:47.749001 13504 net.cpp:137] Memory required for data: 116207628
I0606 07:08:47.749006 13504 layer_factory.hpp:77] Creating layer rpn_relu/3x3
I0606 07:08:47.749009 13504 net.cpp:84] Creating Layer rpn_relu/3x3
I0606 07:08:47.749012 13504 net.cpp:406] rpn_relu/3x3 <- rpn/output
I0606 07:08:47.749017 13504 net.cpp:367] rpn_relu/3x3 -> rpn/output (in-place)
I0606 07:08:47.749022 13504 net.cpp:122] Setting up rpn_relu/3x3
I0606 07:08:47.749025 13504 net.cpp:129] Top shape: 1 512 14 14 (100352)
I0606 07:08:47.749027 13504 net.cpp:137] Memory required for data: 116609036
I0606 07:08:47.749029 13504 layer_factory.hpp:77] Creating layer rpn/output_rpn_relu/3x3_0_split
I0606 07:08:47.749033 13504 net.cpp:84] Creating Layer rpn/output_rpn_relu/3x3_0_split
I0606 07:08:47.749035 13504 net.cpp:406] rpn/output_rpn_relu/3x3_0_split <- rpn/output
I0606 07:08:47.749038 13504 net.cpp:380] rpn/output_rpn_relu/3x3_0_split -> rpn/output_rpn_relu/3x3_0_split_0
I0606 07:08:47.749043 13504 net.cpp:380] rpn/output_rpn_relu/3x3_0_split -> rpn/output_rpn_relu/3x3_0_split_1
I0606 07:08:47.749088 13504 net.cpp:122] Setting up rpn/output_rpn_relu/3x3_0_split
I0606 07:08:47.749092 13504 net.cpp:129] Top shape: 1 512 14 14 (100352)
I0606 07:08:47.749096 13504 net.cpp:129] Top shape: 1 512 14 14 (100352)
I0606 07:08:47.749099 13504 net.cpp:137] Memory required for data: 117411852
I0606 07:08:47.749100 13504 layer_factory.hpp:77] Creating layer rpn_cls_score
I0606 07:08:47.749109 13504 net.cpp:84] Creating Layer rpn_cls_score
I0606 07:08:47.749111 13504 net.cpp:406] rpn_cls_score <- rpn/output_rpn_relu/3x3_0_split_0
I0606 07:08:47.749116 13504 net.cpp:380] rpn_cls_score -> rpn_cls_score
I0606 07:08:47.749337 13504 net.cpp:122] Setting up rpn_cls_score
I0606 07:08:47.749344 13504 net.cpp:129] Top shape: 1 18 14 14 (3528)
I0606 07:08:47.749346 13504 net.cpp:137] Memory required for data: 117425964
I0606 07:08:47.749351 13504 layer_factory.hpp:77] Creating layer rpn_bbox_pred
I0606 07:08:47.749356 13504 net.cpp:84] Creating Layer rpn_bbox_pred
I0606 07:08:47.749359 13504 net.cpp:406] rpn_bbox_pred <- rpn/output_rpn_relu/3x3_0_split_1
I0606 07:08:47.749363 13504 net.cpp:380] rpn_bbox_pred -> rpn_bbox_pred
I0606 07:08:47.749665 13504 net.cpp:122] Setting up rpn_bbox_pred
I0606 07:08:47.749670 13504 net.cpp:129] Top shape: 1 36 14 14 (7056)
I0606 07:08:47.749672 13504 net.cpp:137] Memory required for data: 117454188
I0606 07:08:47.749676 13504 layer_factory.hpp:77] Creating layer rpn_cls_score_reshape
I0606 07:08:47.749685 13504 net.cpp:84] Creating Layer rpn_cls_score_reshape
I0606 07:08:47.749686 13504 net.cpp:406] rpn_cls_score_reshape <- rpn_cls_score
I0606 07:08:47.749691 13504 net.cpp:380] rpn_cls_score_reshape -> rpn_cls_score_reshape
I0606 07:08:47.749709 13504 net.cpp:122] Setting up rpn_cls_score_reshape
I0606 07:08:47.749713 13504 net.cpp:129] Top shape: 1 2 126 14 (3528)
I0606 07:08:47.749716 13504 net.cpp:137] Memory required for data: 117468300
I0606 07:08:47.749717 13504 layer_factory.hpp:77] Creating layer rpn_cls_prob
I0606 07:08:47.749722 13504 net.cpp:84] Creating Layer rpn_cls_prob
I0606 07:08:47.749723 13504 net.cpp:406] rpn_cls_prob <- rpn_cls_score_reshape
I0606 07:08:47.749728 13504 net.cpp:380] rpn_cls_prob -> rpn_cls_prob
I0606 07:08:47.749768 13504 net.cpp:122] Setting up rpn_cls_prob
I0606 07:08:47.749773 13504 net.cpp:129] Top shape: 1 2 126 14 (3528)
I0606 07:08:47.749774 13504 net.cpp:137] Memory required for data: 117482412
I0606 07:08:47.749776 13504 layer_factory.hpp:77] Creating layer rpn_cls_prob_reshape
I0606 07:08:47.749780 13504 net.cpp:84] Creating Layer rpn_cls_prob_reshape
I0606 07:08:47.749783 13504 net.cpp:406] rpn_cls_prob_reshape <- rpn_cls_prob
I0606 07:08:47.749786 13504 net.cpp:380] rpn_cls_prob_reshape -> rpn_cls_prob_reshape
I0606 07:08:47.749804 13504 net.cpp:122] Setting up rpn_cls_prob_reshape
I0606 07:08:47.749807 13504 net.cpp:129] Top shape: 1 18 14 14 (3528)
I0606 07:08:47.749809 13504 net.cpp:137] Memory required for data: 117496524
I0606 07:08:47.749811 13504 layer_factory.hpp:77] Creating layer proposal
I0606 07:08:47.750113 13504 net.cpp:84] Creating Layer proposal
I0606 07:08:47.750121 13504 net.cpp:406] proposal <- rpn_cls_prob_reshape
I0606 07:08:47.750125 13504 net.cpp:406] proposal <- rpn_bbox_pred
I0606 07:08:47.750128 13504 net.cpp:406] proposal <- im_info
I0606 07:08:47.750133 13504 net.cpp:380] proposal -> rois
I0606 07:08:47.750684 13504 net.cpp:122] Setting up proposal
I0606 07:08:47.750695 13504 net.cpp:129] Top shape: 1 5 (5)
I0606 07:08:47.750697 13504 net.cpp:137] Memory required for data: 117496544
I0606 07:08:47.750700 13504 layer_factory.hpp:77] Creating layer roi_pool5
I0606 07:08:47.750705 13504 net.cpp:84] Creating Layer roi_pool5
I0606 07:08:47.750707 13504 net.cpp:406] roi_pool5 <- conv5_3_relu5_3_0_split_1
I0606 07:08:47.750711 13504 net.cpp:406] roi_pool5 <- rois
I0606 07:08:47.750715 13504 net.cpp:380] roi_pool5 -> pool5
I0606 07:08:47.750720 13504 roi_pooling_layer.cpp:30] Spatial scale: 0.0625
I0606 07:08:47.750753 13504 net.cpp:122] Setting up roi_pool5
I0606 07:08:47.750758 13504 net.cpp:129] Top shape: 1 512 7 7 (25088)
I0606 07:08:47.750761 13504 net.cpp:137] Memory required for data: 117596896
I0606 07:08:47.750762 13504 layer_factory.hpp:77] Creating layer fc6
I0606 07:08:47.750767 13504 net.cpp:84] Creating Layer fc6
I0606 07:08:47.750769 13504 net.cpp:406] fc6 <- pool5
I0606 07:08:47.750773 13504 net.cpp:380] fc6 -> fc6
I0606 07:08:47.897727 13504 net.cpp:122] Setting up fc6
I0606 07:08:47.897755 13504 net.cpp:129] Top shape: 1 4096 (4096)
I0606 07:08:47.897758 13504 net.cpp:137] Memory required for data: 117613280
I0606 07:08:47.897773 13504 layer_factory.hpp:77] Creating layer relu6
I0606 07:08:47.897780 13504 net.cpp:84] Creating Layer relu6
I0606 07:08:47.897783 13504 net.cpp:406] relu6 <- fc6
I0606 07:08:47.897790 13504 net.cpp:367] relu6 -> fc6 (in-place)
I0606 07:08:47.897799 13504 net.cpp:122] Setting up relu6
I0606 07:08:47.897800 13504 net.cpp:129] Top shape: 1 4096 (4096)
I0606 07:08:47.897802 13504 net.cpp:137] Memory required for data: 117629664
I0606 07:08:47.897804 13504 layer_factory.hpp:77] Creating layer drop6
I0606 07:08:47.897825 13504 net.cpp:84] Creating Layer drop6
I0606 07:08:47.897827 13504 net.cpp:406] drop6 <- fc6
I0606 07:08:47.897830 13504 net.cpp:367] drop6 -> fc6 (in-place)
I0606 07:08:47.897847 13504 net.cpp:122] Setting up drop6
I0606 07:08:47.897851 13504 net.cpp:129] Top shape: 1 4096 (4096)
I0606 07:08:47.897853 13504 net.cpp:137] Memory required for data: 117646048
I0606 07:08:47.897855 13504 layer_factory.hpp:77] Creating layer fc7
I0606 07:08:47.897861 13504 net.cpp:84] Creating Layer fc7
I0606 07:08:47.897862 13504 net.cpp:406] fc7 <- fc6
I0606 07:08:47.897876 13504 net.cpp:380] fc7 -> fc7
I0606 07:08:47.922114 13504 net.cpp:122] Setting up fc7
I0606 07:08:47.922142 13504 net.cpp:129] Top shape: 1 4096 (4096)
I0606 07:08:47.922145 13504 net.cpp:137] Memory required for data: 117662432
I0606 07:08:47.922153 13504 layer_factory.hpp:77] Creating layer relu7
I0606 07:08:47.922160 13504 net.cpp:84] Creating Layer relu7
I0606 07:08:47.922163 13504 net.cpp:406] relu7 <- fc7
I0606 07:08:47.922169 13504 net.cpp:367] relu7 -> fc7 (in-place)
I0606 07:08:47.922175 13504 net.cpp:122] Setting up relu7
I0606 07:08:47.922178 13504 net.cpp:129] Top shape: 1 4096 (4096)
I0606 07:08:47.922180 13504 net.cpp:137] Memory required for data: 117678816
I0606 07:08:47.922183 13504 layer_factory.hpp:77] Creating layer drop7
I0606 07:08:47.922186 13504 net.cpp:84] Creating Layer drop7
I0606 07:08:47.922188 13504 net.cpp:406] drop7 <- fc7
I0606 07:08:47.922190 13504 net.cpp:367] drop7 -> fc7 (in-place)
I0606 07:08:47.922224 13504 net.cpp:122] Setting up drop7
I0606 07:08:47.922226 13504 net.cpp:129] Top shape: 1 4096 (4096)
I0606 07:08:47.922228 13504 net.cpp:137] Memory required for data: 117695200
I0606 07:08:47.922230 13504 layer_factory.hpp:77] Creating layer fc7_drop7_0_split
I0606 07:08:47.922236 13504 net.cpp:84] Creating Layer fc7_drop7_0_split
I0606 07:08:47.922238 13504 net.cpp:406] fc7_drop7_0_split <- fc7
I0606 07:08:47.922241 13504 net.cpp:380] fc7_drop7_0_split -> fc7_drop7_0_split_0
I0606 07:08:47.922246 13504 net.cpp:380] fc7_drop7_0_split -> fc7_drop7_0_split_1
I0606 07:08:47.922269 13504 net.cpp:122] Setting up fc7_drop7_0_split
I0606 07:08:47.922276 13504 net.cpp:129] Top shape: 1 4096 (4096)
I0606 07:08:47.922277 13504 net.cpp:129] Top shape: 1 4096 (4096)
I0606 07:08:47.922279 13504 net.cpp:137] Memory required for data: 117727968
I0606 07:08:47.922281 13504 layer_factory.hpp:77] Creating layer cls_score
I0606 07:08:47.922287 13504 net.cpp:84] Creating Layer cls_score
I0606 07:08:47.922289 13504 net.cpp:406] cls_score <- fc7_drop7_0_split_0
I0606 07:08:47.922294 13504 net.cpp:380] cls_score -> cls_score
I0606 07:08:47.922634 13504 net.cpp:122] Setting up cls_score
I0606 07:08:47.922641 13504 net.cpp:129] Top shape: 1 8 (8)
I0606 07:08:47.922642 13504 net.cpp:137] Memory required for data: 117728000
I0606 07:08:47.922646 13504 layer_factory.hpp:77] Creating layer bbox_pred
I0606 07:08:47.922652 13504 net.cpp:84] Creating Layer bbox_pred
I0606 07:08:47.922653 13504 net.cpp:406] bbox_pred <- fc7_drop7_0_split_1
I0606 07:08:47.922672 13504 net.cpp:380] bbox_pred -> bbox_pred
I0606 07:08:47.924463 13504 net.cpp:122] Setting up bbox_pred
I0606 07:08:47.924471 13504 net.cpp:129] Top shape: 1 32 (32)
I0606 07:08:47.924474 13504 net.cpp:137] Memory required for data: 117728128
I0606 07:08:47.924479 13504 layer_factory.hpp:77] Creating layer cls_prob
I0606 07:08:47.924482 13504 net.cpp:84] Creating Layer cls_prob
I0606 07:08:47.924484 13504 net.cpp:406] cls_prob <- cls_score
I0606 07:08:47.924489 13504 net.cpp:380] cls_prob -> cls_prob
I0606 07:08:47.924547 13504 net.cpp:122] Setting up cls_prob
I0606 07:08:47.924552 13504 net.cpp:129] Top shape: 1 8 (8)
I0606 07:08:47.924556 13504 net.cpp:137] Memory required for data: 117728160
I0606 07:08:47.924557 13504 net.cpp:200] cls_prob does not need backward computation.
I0606 07:08:47.924561 13504 net.cpp:200] bbox_pred does not need backward computation.
I0606 07:08:47.924562 13504 net.cpp:200] cls_score does not need backward computation.
I0606 07:08:47.924566 13504 net.cpp:200] fc7_drop7_0_split does not need backward computation.
…
