…
I1109 11:00:05.088201  2197 upgrade_proto.cpp:77] Attempting to upgrade batch norm layers using deprecated params: models/pascal_voc/MMCV5S8/faster_rcnn_end2end/train.prototxt
I1109 11:00:05.088227  2197 upgrade_proto.cpp:80] Successfully upgraded batch norm layers using deprecated params.
I1109 11:00:05.088757  2197 net.cpp:51] Initializing net from parameters: 
name: "MMCV5"
state {
  phase: TRAIN
}
layer {
  name: "input-data"
  type: "Python"
  top: "data"
  top: "im_info"
  top: "gt_boxes"
  top: "flags"
  python_param {
    module: "roi_data_layer.layer"
    layer: "RoIDataLayer"
    param_str: "\'num_classes\': 2"
  }
}
layer {
  name: "conv1_small"
  type: "Convolution"
  bottom: "data"
  top: "conv1"
  param {
    lr_mult: 1
    decay_mult: 1
  }
  param {
    lr_mult: 2
    decay_mult: 0
  }
  convolution_param {
    num_output: 16
    pad: 2
    kernel_size: 5
    stride: 2
    weight_filler {
      type: "xavier"
      std: 0.01
    }
    bias_filler {
      type: "constant"
      value: 0
    }
  }
}
layer {
  name: "conv1_small_bn"
  type: "BatchNorm"
  bottom: "conv1"
  top: "conv1"
  param {
    lr_mult: 0
    decay_mult: 0
  }
  param {
    lr_mult: 0
    decay_mult: 0
  }
  param {
    lr_mult: 0
    decay_mult: 0
  }
  batch_norm_param {
    use_global_stats: false
    moving_average_fraction: 0.9
    eps: 2e-05
  }
}
layer {
  name: "conv1_small_bn_scale"
  type: "Scale"
  bottom: "conv1"
  top: "conv1"
  param {
    lr_mult: 1
    decay_mult: 0
  }
  param {
    lr_mult: 1
    decay_mult: 0
  }
  scale_param {
    filler {
      value: 1
    }
    bias_term: true
    bias_filler {
      value: 0
    }
  }
}
layer {
  name: "relu1"
  type: "ReLU"
  bottom: "conv1"
  top: "conv1"
}
layer {
  name: "mm_conv2"
  type: "Convolution"
  bottom: "conv1"
  top: "conv2"
  param {
    lr_mult: 1
    decay_mult: 1
  }
  param {
    lr_mult: 2
    decay_mult: 0
  }
  convolution_param {
    num_output: 32
    pad: 1
    kernel_size: 3
    stride: 2
    weight_filler {
      type: "xavier"
      std: 0.01
    }
    bias_filler {
      type: "constant"
      value: 1
    }
  }
}
layer {
  name: "mm_conv2_bn"
  type: "BatchNorm"
  bottom: "conv2"
  top: "conv2"
  param {
    lr_mult: 0
    decay_mult: 0
  }
  param {
    lr_mult: 0
    decay_mult: 0
  }
  param {
    lr_mult: 0
    decay_mult: 0
  }
  batch_norm_param {
    use_global_stats: false
    moving_average_fraction: 0.9
    eps: 2e-05
  }
}
layer {
  name: "mm_conv2_bn_scale"
  type: "Scale"
  bottom: "conv2"
  top: "conv2"
  param {
    lr_mult: 1
    decay_mult: 0
  }
  param {
    lr_mult: 1
    decay_mult: 0
  }
  scale_param {
    filler {
      value: 1
    }
    bias_term: true
    bias_filler {
      value: 0
    }
  }
}
layer {
  name: "relu2"
  type: "ReLU"
  bottom: "conv2"
  top: "conv2"
}
layer {
  name: "mm_conv3"
  type: "Convolution"
  bottom: "conv2"
  top: "conv3"
  param {
    lr_mult: 1
    decay_mult: 1
  }
  param {
    lr_mult: 2
    decay_mult: 0
  }
  convolution_param {
    num_output: 64
    pad: 1
    kernel_size: 3
    stride: 2
    weight_filler {
      type: "xavier"
      std: 0.01
    }
    bias_filler {
      type: "constant"
      value: 0
    }
  }
}
layer {
  name: "mm_conv3_bn"
  type: "BatchNorm"
  bottom: "conv3"
  top: "conv3"
  param {
    lr_mult: 0
    decay_mult: 0
  }
  param {
    lr_mult: 0
    decay_mult: 0
  }
  param {
    lr_mult: 0
    decay_mult: 0
  }
  batch_norm_param {
    use_global_stats: false
    moving_average_fraction: 0.9
    eps: 2e-05
  }
}
layer {
  name: "mm_conv3_bn_scale"
  type: "Scale"
  bottom: "conv3"
  top: "conv3"
  param {
    lr_mult: 1
    decay_mult: 0
  }
  param {
    lr_mult: 1
    decay_mult: 0
  }
  scale_param {
    filler {
      value: 1
    }
    bias_term: true
    bias_filler {
      value: 0
    }
  }
}
layer {
  name: "relu3"
  type: "ReLU"
  bottom: "conv3"
  top: "conv3"
}
layer {
  name: "mm_conv4"
  type: "Convolution"
  bottom: "conv3"
  top: "conv4"
  param {
    lr_mult: 1
    decay_mult: 1
  }
  param {
    lr_mult: 2
    decay_mult: 0
  }
  convolution_param {
    num_output: 64
    pad: 1
    kernel_size: 3
    weight_filler {
      type: "xavier"
      std: 0.01
    }
    bias_filler {
      type: "constant"
      value: 1
    }
  }
}
layer {
  name: "mm_conv4_bn"
  type: "BatchNorm"
  bottom: "conv4"
  top: "conv4"
  param {
    lr_mult: 0
    decay_mult: 0
  }
  param {
    lr_mult: 0
    decay_mult: 0
  }
  param {
    lr_mult: 0
    decay_mult: 0
  }
  batch_norm_param {
    use_global_stats: false
    moving_average_fraction: 0.9
    eps: 2e-05
  }
}
layer {
  name: "mm_conv4_bn_scale"
  type: "Scale"
  bottom: "conv4"
  top: "conv4"
  param {
    lr_mult: 1
    decay_mult: 0
  }
  param {
    lr_mult: 1
    decay_mult: 0
  }
  scale_param {
    filler {
      value: 1
    }
    bias_term: true
    bias_filler {
      value: 0
    }
  }
}
layer {
  name: "relu4"
  type: "ReLU"
  bottom: "conv4"
  top: "conv4"
}
layer {
  name: "mm_conv5"
  type: "Convolution"
  bottom: "conv4"
  top: "conv5"
  param {
    lr_mult: 1
    decay_mult: 1
  }
  param {
    lr_mult: 2
    decay_mult: 0
  }
  convolution_param {
    num_output: 64
    pad: 1
    kernel_size: 3
    weight_filler {
      type: "xavier"
      std: 0.01
    }
    bias_filler {
      type: "constant"
      value: 1
    }
  }
}
layer {
  name: "mm_conv5_bn"
  type: "BatchNorm"
  bottom: "conv5"
  top: "conv5"
  param {
    lr_mult: 0
    decay_mult: 0
  }
  param {
    lr_mult: 0
    decay_mult: 0
  }
  param {
    lr_mult: 0
    decay_mult: 0
  }
  batch_norm_param {
    use_global_stats: false
    moving_average_fraction: 0.9
    eps: 2e-05
  }
}
layer {
  name: "mm_conv5_bn_scale"
  type: "Scale"
  bottom: "conv5"
  top: "conv5"
  param {
    lr_mult: 1
    decay_mult: 0
  }
  param {
    lr_mult: 1
    decay_mult: 0
  }
  scale_param {
    filler {
      value: 1
    }
    bias_term: true
    bias_filler {
      value: 0
    }
  }
}
layer {
  name: "relu5"
  type: "ReLU"
  bottom: "conv5"
  top: "conv5"
}
layer {
  name: "rpn_conv/3x3"
  type: "Convolution"
  bottom: "conv5"
  top: "rpn/output"
  param {
    lr_mult: 1
  }
  param {
    lr_mult: 2
  }
  convolution_param {
    num_output: 64
    pad: 1
    kernel_size: 3
    stride: 1
    weight_filler {
      type: "xavier"
      std: 0.01
    }
    bias_filler {
      type: "constant"
      value: 0
    }
  }
}
layer {
  name: "rpn_conv/3x3_bn"
  type: "BatchNorm"
  bottom: "rpn/output"
  top: "rpn/output"
  param {
    lr_mult: 0
    decay_mult: 0
  }
  param {
    lr_mult: 0
    decay_mult: 0
  }
  param {
    lr_mult: 0
    decay_mult: 0
  }
  batch_norm_param {
    use_global_stats: false
    moving_average_fraction: 0.9
    eps: 2e-05
  }
}
layer {
  name: "rpn_conv/3x3_bn_scale"
  type: "Scale"
  bottom: "rpn/output"
  top: "rpn/output"
  param {
    lr_mult: 1
    decay_mult: 0
  }
  param {
    lr_mult: 1
    decay_mult: 0
  }
  scale_param {
    filler {
      value: 1
    }
    bias_term: true
    bias_filler {
      value: 0
    }
  }
}
layer {
  name: "rpn_relu/3x3"
  type: "ReLU"
  bottom: "rpn/output"
  top: "rpn/output"
}
layer {
  name: "rpn_cls_score"
  type: "Convolution"
  bottom: "rpn/output"
  top: "rpn_cls_score"
  param {
    lr_mult: 1
  }
  param {
    lr_mult: 2
  }
  convolution_param {
    num_output: 18
    pad: 0
    kernel_size: 1
    stride: 1
    weight_filler {
      type: "xavier"
      std: 0.01
    }
    bias_filler {
      type: "constant"
      value: 0
    }
  }
}
layer {
  name: "rpn_bbox_pred"
  type: "Convolution"
  bottom: "rpn/output"
  top: "rpn_bbox_pred"
  param {
    lr_mult: 1
  }
  param {
    lr_mult: 2
  }
  convolution_param {
    num_output: 36
    pad: 0
    kernel_size: 1
    stride: 1
    weight_filler {
      type: "xavier"
      std: 0.01
    }
    bias_filler {
      type: "constant"
      value: 0
    }
  }
}
layer {
  name: "rpn_cls_score_reshape"
  type: "Reshape"
  bottom: "rpn_cls_score"
  top: "rpn_cls_score_reshape"
  reshape_param {
    shape {
      dim: 0
      dim: 2
      dim: -1
      dim: 0
    }
  }
}
layer {
  name: "rpn-data"
  type: "Python"
  bottom: "rpn_cls_score"
  bottom: "gt_boxes"
  bottom: "im_info"
  bottom: "data"
  bottom: "flags"
  top: "rpn_labels"
  top: "rpn_bbox_targets"
  top: "rpn_bbox_inside_weights"
  top: "rpn_bbox_outside_weights"
  python_param {
    module: "rpn.anchor_target_layer"
    layer: "AnchorTargetLayer"
    param_str: "\'feat_stride\': 8"
  }
}
layer {
  name: "rpn_loss_cls"
  type: "SoftmaxWithLoss"
  bottom: "rpn_cls_score_reshape"
  bottom: "rpn_labels"
  top: "rpn_cls_loss"
  loss_weight: 2
  propagate_down: true
  propagate_down: false
  loss_param {
    ignore_label: -1
    normalize: true
  }
}
layer {
  name: "rpn_loss_bbox"
  type: "SmoothL1Loss"
  bottom: "rpn_bbox_pred"
  bottom: "rpn_bbox_targets"
  bottom: "rpn_bbox_inside_weights"
  bottom: "rpn_bbox_outside_weights"
  top: "rpn_loss_bbox"
  loss_weight: 1
  smooth_l1_loss_param {
    sigma: 3
  }
}
layer {
  name: "rpn_cls_prob"
  type: "Softmax"
  bottom: "rpn_cls_score_reshape"
  top: "rpn_cls_prob"
}
layer {
  name: "rpn_cls_prob_reshape"
  type: "Reshape"
  bottom: "rpn_cls_prob"
  top: "rpn_cls_prob_reshape"
  reshape_param {
    shape {
      dim: 0
      dim: 18
      dim: -1
      dim: 0
    }
  }
}
layer {
  name: "proposal"
  type: "Python"
  bottom: "rpn_cls_prob_reshape"
  bottom: "rpn_bbox_pred"
  bottom: "im_info"
  top: "rpn_rois"
  python_param {
    module: "rpn.proposal_layer"
    layer: "ProposalLayer"
    param_str: "\'feat_stride\': 8"
  }
}
layer {
  name: "roi-data"
  type: "Python"
  bottom: "rpn_rois"
  bottom: "gt_boxes"
  bottom: "flags"
  top: "rois"
  top: "labels"
  top: "bbox_targets"
  top: "bbox_inside_weights"
  top: "bbox_outside_weights"
  python_param {
    module: "rpn.proposal_target_layer"
    layer: "ProposalTargetLayer"
    param_str: "\'num_classes\': 2"
  }
}
layer {
  name: "roi_pool_conv5"
  type: "ROIPooling"
  bottom: "conv5"
  bottom: "rois"
  top: "roi_pool_conv5"
  roi_pooling_param {
    pooled_h: 4
    pooled_w: 4
    spatial_scale: 0.125
  }
}
layer {
  name: "mm_fc6_L"
  type: "InnerProduct"
  bottom: "roi_pool_conv5"
  top: "fc6_l"
  param {
    lr_mult: 0
    decay_mult: 0
  }
  param {
    lr_mult: 0
    decay_mult: 0
  }
  inner_product_param {
    num_output: 128
    weight_filler {
      type: "xavier"
      std: 0.005
    }
    bias_filler {
      type: "constant"
      value: 1
    }
  }
}
layer {
  name: "mm_fc6_L_bn"
  type: "BatchNorm"
  bottom: "fc6_l"
  top: "fc6_l"
  param {
    lr_mult: 0
    decay_mult: 0
  }
  param {
    lr_mult: 0
    decay_mult: 0
  }
  param {
    lr_mult: 0
    decay_mult: 0
  }
  batch_norm_param {
    use_global_stats: false
    moving_average_fraction: 0.9
    eps: 2e-05
  }
}
layer {
  name: "mm_fc6_L_bn_scale"
  type: "Scale"
  bottom: "fc6_l"
  top: "fc6_l"
  param {
    lr_mult: 0
    decay_mult: 0
  }
  param {
    lr_mult: 0
    decay_mult: 0
  }
  scale_param {
    filler {
      value: 1
    }
    bias_term: true
    bias_filler {
      value: 0
    }
  }
}
layer {
  name: "relu6_L"
  type: "ReLU"
  bottom: "fc6_l"
  top: "fc6_l"
}
layer {
  name: "mm_fc6_U"
  type: "InnerProduct"
  bottom: "fc6_l"
  top: "fc6_u"
  param {
    lr_mult: 0
    decay_mult: 0
  }
  param {
    lr_mult: 0
    decay_mult: 0
  }
  inner_product_param {
    num_output: 512
    weight_filler {
      type: "xavier"
      std: 0.005
    }
    bias_filler {
      type: "constant"
      value: 1
    }
  }
}
layer {
  name: "mm_fc6_U_bn"
  type: "BatchNorm"
  bottom: "fc6_u"
  top: "fc6_u"
  param {
    lr_mult: 0
    decay_mult: 0
  }
  param {
    lr_mult: 0
    decay_mult: 0
  }
  param {
    lr_mult: 0
    decay_mult: 0
  }
  batch_norm_param {
    use_global_stats: false
    moving_average_fraction: 0.9
    eps: 2e-05
  }
}
layer {
  name: "mm_fc6_U_bn_scale"
  type: "Scale"
  bottom: "fc6_u"
  top: "fc6_u"
  param {
    lr_mult: 0
    decay_mult: 0
  }
  param {
    lr_mult: 0
    decay_mult: 0
  }
  scale_param {
    filler {
      value: 1
    }
    bias_term: true
    bias_filler {
      value: 0
    }
  }
}
layer {
  name: "relu6_U"
  type: "ReLU"
  bottom: "fc6_u"
  top: "fc6_u"
}
layer {
  name: "cls_score"
  type: "InnerProduct"
  bottom: "fc6_u"
  top: "cls_score"
  param {
    lr_mult: 0
  }
  param {
    lr_mult: 0
  }
  inner_product_param {
    num_output: 2
    weight_filler {
      type: "xavier"
      std: 0.01
    }
    bias_filler {
      type: "constant"
      value: 0
    }
  }
}
layer {
  name: "bbox_pred"
  type: "InnerProduct"
  bottom: "fc6_u"
  top: "bbox_pred"
  param {
    lr_mult: 0
  }
  param {
    lr_mult: 0
  }
  inner_product_param {
    num_output: 8
    weight_filler {
      type: "xavier"
      std: 0.001
    }
    bias_filler {
      type: "constant"
      value: 0
    }
  }
}
layer {
  name: "loss_cls"
  type: "SoftmaxWithLoss"
  bottom: "cls_score"
  bottom: "labels"
  top: "cls_loss"
  loss_weight: 0
  propagate_down: false
  propagate_down: false
  loss_param {
    ignore_label: -1
    normalize: true
  }
}
layer {
  name: "loss_bbox"
  type: "SmoothL1Loss"
  bottom: "bbox_pred"
  bottom: "bbox_targets"
  bottom: "bbox_inside_weights"
  bottom: "bbox_outside_weights"
  top: "bbox_loss"
  loss_weight: 0
  propagate_down: false
  propagate_down: false
  propagate_down: false
  propagate_down: false
}
I1109 11:00:05.089083  2197 layer_factory.hpp:77] Creating layer input-data
I1109 11:00:05.259492  2197 net.cpp:84] Creating Layer input-data
I1109 11:00:05.259563  2197 net.cpp:380] input-data -> data
I1109 11:00:05.259593  2197 net.cpp:380] input-data -> im_info
I1109 11:00:05.259613  2197 net.cpp:380] input-data -> gt_boxes
I1109 11:00:05.259631  2197 net.cpp:380] input-data -> flags
RoiDataLayer: name_to_top: {'flags': 3, 'gt_boxes': 2, 'data': 0, 'im_info': 1}
I1109 11:00:05.734577  2197 net.cpp:122] Setting up input-data
I1109 11:00:05.734603  2197 net.cpp:129] Top shape: 8 3 144 256 (884736)
I1109 11:00:05.734608  2197 net.cpp:129] Top shape: 1 3 (3)
I1109 11:00:05.734611  2197 net.cpp:129] Top shape: 1 4 (4)
I1109 11:00:05.734614  2197 net.cpp:129] Top shape: 1 1 (1)
I1109 11:00:05.734616  2197 net.cpp:137] Memory required for data: 3538976
I1109 11:00:05.734622  2197 layer_factory.hpp:77] Creating layer data_input-data_0_split
I1109 11:00:05.734633  2197 net.cpp:84] Creating Layer data_input-data_0_split
I1109 11:00:05.734638  2197 net.cpp:406] data_input-data_0_split <- data
I1109 11:00:05.734644  2197 net.cpp:380] data_input-data_0_split -> data_input-data_0_split_0
I1109 11:00:05.734654  2197 net.cpp:380] data_input-data_0_split -> data_input-data_0_split_1
I1109 11:00:05.734695  2197 net.cpp:122] Setting up data_input-data_0_split
I1109 11:00:05.734701  2197 net.cpp:129] Top shape: 8 3 144 256 (884736)
I1109 11:00:05.734704  2197 net.cpp:129] Top shape: 8 3 144 256 (884736)
I1109 11:00:05.734710  2197 net.cpp:137] Memory required for data: 10616864
I1109 11:00:05.734714  2197 layer_factory.hpp:77] Creating layer im_info_input-data_1_split
I1109 11:00:05.734726  2197 net.cpp:84] Creating Layer im_info_input-data_1_split
I1109 11:00:05.734730  2197 net.cpp:406] im_info_input-data_1_split <- im_info
I1109 11:00:05.734737  2197 net.cpp:380] im_info_input-data_1_split -> im_info_input-data_1_split_0
I1109 11:00:05.734745  2197 net.cpp:380] im_info_input-data_1_split -> im_info_input-data_1_split_1
I1109 11:00:05.734797  2197 net.cpp:122] Setting up im_info_input-data_1_split
I1109 11:00:05.734804  2197 net.cpp:129] Top shape: 1 3 (3)
I1109 11:00:05.734809  2197 net.cpp:129] Top shape: 1 3 (3)
I1109 11:00:05.734812  2197 net.cpp:137] Memory required for data: 10616888
I1109 11:00:05.734815  2197 layer_factory.hpp:77] Creating layer gt_boxes_input-data_2_split
I1109 11:00:05.734823  2197 net.cpp:84] Creating Layer gt_boxes_input-data_2_split
I1109 11:00:05.734828  2197 net.cpp:406] gt_boxes_input-data_2_split <- gt_boxes
I1109 11:00:05.734834  2197 net.cpp:380] gt_boxes_input-data_2_split -> gt_boxes_input-data_2_split_0
I1109 11:00:05.734843  2197 net.cpp:380] gt_boxes_input-data_2_split -> gt_boxes_input-data_2_split_1
I1109 11:00:05.734886  2197 net.cpp:122] Setting up gt_boxes_input-data_2_split
I1109 11:00:05.734894  2197 net.cpp:129] Top shape: 1 4 (4)
I1109 11:00:05.734899  2197 net.cpp:129] Top shape: 1 4 (4)
I1109 11:00:05.734901  2197 net.cpp:137] Memory required for data: 10616920
I1109 11:00:05.734905  2197 layer_factory.hpp:77] Creating layer flags_input-data_3_split
I1109 11:00:05.734915  2197 net.cpp:84] Creating Layer flags_input-data_3_split
I1109 11:00:05.734918  2197 net.cpp:406] flags_input-data_3_split <- flags
I1109 11:00:05.734925  2197 net.cpp:380] flags_input-data_3_split -> flags_input-data_3_split_0
I1109 11:00:05.734933  2197 net.cpp:380] flags_input-data_3_split -> flags_input-data_3_split_1
I1109 11:00:05.734972  2197 net.cpp:122] Setting up flags_input-data_3_split
I1109 11:00:05.734977  2197 net.cpp:129] Top shape: 1 1 (1)
I1109 11:00:05.734982  2197 net.cpp:129] Top shape: 1 1 (1)
I1109 11:00:05.734985  2197 net.cpp:137] Memory required for data: 10616928
I1109 11:00:05.734989  2197 layer_factory.hpp:77] Creating layer conv1_small
I1109 11:00:05.735005  2197 net.cpp:84] Creating Layer conv1_small
I1109 11:00:05.735009  2197 net.cpp:406] conv1_small <- data_input-data_0_split_0
I1109 11:00:05.735016  2197 net.cpp:380] conv1_small -> conv1
I1109 11:00:05.737638  2197 net.cpp:122] Setting up conv1_small
I1109 11:00:05.737668  2197 net.cpp:129] Top shape: 8 16 72 128 (1179648)
I1109 11:00:05.737671  2197 net.cpp:137] Memory required for data: 15335520
I1109 11:00:05.737690  2197 layer_factory.hpp:77] Creating layer conv1_small_bn
I1109 11:00:05.737706  2197 net.cpp:84] Creating Layer conv1_small_bn
I1109 11:00:05.737711  2197 net.cpp:406] conv1_small_bn <- conv1
I1109 11:00:05.737721  2197 net.cpp:367] conv1_small_bn -> conv1 (in-place)
I1109 11:00:05.737970  2197 net.cpp:122] Setting up conv1_small_bn
I1109 11:00:05.737979  2197 net.cpp:129] Top shape: 8 16 72 128 (1179648)
I1109 11:00:05.737982  2197 net.cpp:137] Memory required for data: 20054112
I1109 11:00:05.737994  2197 layer_factory.hpp:77] Creating layer conv1_small_bn_scale
I1109 11:00:05.738005  2197 net.cpp:84] Creating Layer conv1_small_bn_scale
I1109 11:00:05.738009  2197 net.cpp:406] conv1_small_bn_scale <- conv1
I1109 11:00:05.738018  2197 net.cpp:367] conv1_small_bn_scale -> conv1 (in-place)
I1109 11:00:05.738071  2197 layer_factory.hpp:77] Creating layer conv1_small_bn_scale
I1109 11:00:05.738211  2197 net.cpp:122] Setting up conv1_small_bn_scale
I1109 11:00:05.738219  2197 net.cpp:129] Top shape: 8 16 72 128 (1179648)
I1109 11:00:05.738222  2197 net.cpp:137] Memory required for data: 24772704
I1109 11:00:05.738229  2197 layer_factory.hpp:77] Creating layer relu1
I1109 11:00:05.738241  2197 net.cpp:84] Creating Layer relu1
I1109 11:00:05.738245  2197 net.cpp:406] relu1 <- conv1
I1109 11:00:05.738250  2197 net.cpp:367] relu1 -> conv1 (in-place)
I1109 11:00:05.738257  2197 net.cpp:122] Setting up relu1
I1109 11:00:05.738263  2197 net.cpp:129] Top shape: 8 16 72 128 (1179648)
I1109 11:00:05.738267  2197 net.cpp:137] Memory required for data: 29491296
I1109 11:00:05.738270  2197 layer_factory.hpp:77] Creating layer mm_conv2
I1109 11:00:05.738281  2197 net.cpp:84] Creating Layer mm_conv2
I1109 11:00:05.738286  2197 net.cpp:406] mm_conv2 <- conv1
I1109 11:00:05.738293  2197 net.cpp:380] mm_conv2 -> conv2
I1109 11:00:05.738602  2197 net.cpp:122] Setting up mm_conv2
I1109 11:00:05.738612  2197 net.cpp:129] Top shape: 8 32 36 64 (589824)
I1109 11:00:05.738615  2197 net.cpp:137] Memory required for data: 31850592
I1109 11:00:05.738624  2197 layer_factory.hpp:77] Creating layer mm_conv2_bn
I1109 11:00:05.738634  2197 net.cpp:84] Creating Layer mm_conv2_bn
I1109 11:00:05.738637  2197 net.cpp:406] mm_conv2_bn <- conv2
I1109 11:00:05.738644  2197 net.cpp:367] mm_conv2_bn -> conv2 (in-place)
I1109 11:00:05.738867  2197 net.cpp:122] Setting up mm_conv2_bn
I1109 11:00:05.738875  2197 net.cpp:129] Top shape: 8 32 36 64 (589824)
I1109 11:00:05.738878  2197 net.cpp:137] Memory required for data: 34209888
I1109 11:00:05.738886  2197 layer_factory.hpp:77] Creating layer mm_conv2_bn_scale
I1109 11:00:05.738894  2197 net.cpp:84] Creating Layer mm_conv2_bn_scale
I1109 11:00:05.738898  2197 net.cpp:406] mm_conv2_bn_scale <- conv2
I1109 11:00:05.738905  2197 net.cpp:367] mm_conv2_bn_scale -> conv2 (in-place)
I1109 11:00:05.738956  2197 layer_factory.hpp:77] Creating layer mm_conv2_bn_scale
I1109 11:00:05.739081  2197 net.cpp:122] Setting up mm_conv2_bn_scale
I1109 11:00:05.739089  2197 net.cpp:129] Top shape: 8 32 36 64 (589824)
I1109 11:00:05.739091  2197 net.cpp:137] Memory required for data: 36569184
I1109 11:00:05.739099  2197 layer_factory.hpp:77] Creating layer relu2
I1109 11:00:05.739104  2197 net.cpp:84] Creating Layer relu2
I1109 11:00:05.739109  2197 net.cpp:406] relu2 <- conv2
I1109 11:00:05.739114  2197 net.cpp:367] relu2 -> conv2 (in-place)
I1109 11:00:05.739120  2197 net.cpp:122] Setting up relu2
I1109 11:00:05.739126  2197 net.cpp:129] Top shape: 8 32 36 64 (589824)
I1109 11:00:05.739130  2197 net.cpp:137] Memory required for data: 38928480
I1109 11:00:05.739135  2197 layer_factory.hpp:77] Creating layer mm_conv3
I1109 11:00:05.739145  2197 net.cpp:84] Creating Layer mm_conv3
I1109 11:00:05.739150  2197 net.cpp:406] mm_conv3 <- conv2
I1109 11:00:05.739156  2197 net.cpp:380] mm_conv3 -> conv3
I1109 11:00:05.741680  2197 net.cpp:122] Setting up mm_conv3
I1109 11:00:05.741703  2197 net.cpp:129] Top shape: 8 64 18 32 (294912)
I1109 11:00:05.741708  2197 net.cpp:137] Memory required for data: 40108128
I1109 11:00:05.741719  2197 layer_factory.hpp:77] Creating layer mm_conv3_bn
I1109 11:00:05.741730  2197 net.cpp:84] Creating Layer mm_conv3_bn
I1109 11:00:05.741737  2197 net.cpp:406] mm_conv3_bn <- conv3
I1109 11:00:05.741762  2197 net.cpp:367] mm_conv3_bn -> conv3 (in-place)
I1109 11:00:05.742040  2197 net.cpp:122] Setting up mm_conv3_bn
I1109 11:00:05.742050  2197 net.cpp:129] Top shape: 8 64 18 32 (294912)
I1109 11:00:05.742053  2197 net.cpp:137] Memory required for data: 41287776
I1109 11:00:05.742069  2197 layer_factory.hpp:77] Creating layer mm_conv3_bn_scale
I1109 11:00:05.742080  2197 net.cpp:84] Creating Layer mm_conv3_bn_scale
I1109 11:00:05.742084  2197 net.cpp:406] mm_conv3_bn_scale <- conv3
I1109 11:00:05.742091  2197 net.cpp:367] mm_conv3_bn_scale -> conv3 (in-place)
I1109 11:00:05.742153  2197 layer_factory.hpp:77] Creating layer mm_conv3_bn_scale
I1109 11:00:05.742298  2197 net.cpp:122] Setting up mm_conv3_bn_scale
I1109 11:00:05.742306  2197 net.cpp:129] Top shape: 8 64 18 32 (294912)
I1109 11:00:05.742310  2197 net.cpp:137] Memory required for data: 42467424
I1109 11:00:05.742316  2197 layer_factory.hpp:77] Creating layer relu3
I1109 11:00:05.742328  2197 net.cpp:84] Creating Layer relu3
I1109 11:00:05.742332  2197 net.cpp:406] relu3 <- conv3
I1109 11:00:05.742338  2197 net.cpp:367] relu3 -> conv3 (in-place)
I1109 11:00:05.742346  2197 net.cpp:122] Setting up relu3
I1109 11:00:05.742352  2197 net.cpp:129] Top shape: 8 64 18 32 (294912)
I1109 11:00:05.742357  2197 net.cpp:137] Memory required for data: 43647072
I1109 11:00:05.742360  2197 layer_factory.hpp:77] Creating layer mm_conv4
I1109 11:00:05.742373  2197 net.cpp:84] Creating Layer mm_conv4
I1109 11:00:05.742377  2197 net.cpp:406] mm_conv4 <- conv3
I1109 11:00:05.742383  2197 net.cpp:380] mm_conv4 -> conv4
I1109 11:00:05.742856  2197 net.cpp:122] Setting up mm_conv4
I1109 11:00:05.742866  2197 net.cpp:129] Top shape: 8 64 18 32 (294912)
I1109 11:00:05.742869  2197 net.cpp:137] Memory required for data: 44826720
I1109 11:00:05.742877  2197 layer_factory.hpp:77] Creating layer mm_conv4_bn
I1109 11:00:05.742887  2197 net.cpp:84] Creating Layer mm_conv4_bn
I1109 11:00:05.742892  2197 net.cpp:406] mm_conv4_bn <- conv4
I1109 11:00:05.742898  2197 net.cpp:367] mm_conv4_bn -> conv4 (in-place)
I1109 11:00:05.743124  2197 net.cpp:122] Setting up mm_conv4_bn
I1109 11:00:05.743131  2197 net.cpp:129] Top shape: 8 64 18 32 (294912)
I1109 11:00:05.743135  2197 net.cpp:137] Memory required for data: 46006368
I1109 11:00:05.743144  2197 layer_factory.hpp:77] Creating layer mm_conv4_bn_scale
I1109 11:00:05.743155  2197 net.cpp:84] Creating Layer mm_conv4_bn_scale
I1109 11:00:05.743160  2197 net.cpp:406] mm_conv4_bn_scale <- conv4
I1109 11:00:05.743166  2197 net.cpp:367] mm_conv4_bn_scale -> conv4 (in-place)
I1109 11:00:05.743229  2197 layer_factory.hpp:77] Creating layer mm_conv4_bn_scale
I1109 11:00:05.743366  2197 net.cpp:122] Setting up mm_conv4_bn_scale
I1109 11:00:05.743374  2197 net.cpp:129] Top shape: 8 64 18 32 (294912)
I1109 11:00:05.743377  2197 net.cpp:137] Memory required for data: 47186016
I1109 11:00:05.743384  2197 layer_factory.hpp:77] Creating layer relu4
I1109 11:00:05.743391  2197 net.cpp:84] Creating Layer relu4
I1109 11:00:05.743396  2197 net.cpp:406] relu4 <- conv4
I1109 11:00:05.743402  2197 net.cpp:367] relu4 -> conv4 (in-place)
I1109 11:00:05.743410  2197 net.cpp:122] Setting up relu4
I1109 11:00:05.743417  2197 net.cpp:129] Top shape: 8 64 18 32 (294912)
I1109 11:00:05.743420  2197 net.cpp:137] Memory required for data: 48365664
I1109 11:00:05.743424  2197 layer_factory.hpp:77] Creating layer mm_conv5
I1109 11:00:05.743435  2197 net.cpp:84] Creating Layer mm_conv5
I1109 11:00:05.743439  2197 net.cpp:406] mm_conv5 <- conv4
I1109 11:00:05.743446  2197 net.cpp:380] mm_conv5 -> conv5
I1109 11:00:05.743890  2197 net.cpp:122] Setting up mm_conv5
I1109 11:00:05.743899  2197 net.cpp:129] Top shape: 8 64 18 32 (294912)
I1109 11:00:05.743903  2197 net.cpp:137] Memory required for data: 49545312
I1109 11:00:05.743911  2197 layer_factory.hpp:77] Creating layer mm_conv5_bn
I1109 11:00:05.743918  2197 net.cpp:84] Creating Layer mm_conv5_bn
I1109 11:00:05.743923  2197 net.cpp:406] mm_conv5_bn <- conv5
I1109 11:00:05.743932  2197 net.cpp:367] mm_conv5_bn -> conv5 (in-place)
I1109 11:00:05.744154  2197 net.cpp:122] Setting up mm_conv5_bn
I1109 11:00:05.744163  2197 net.cpp:129] Top shape: 8 64 18 32 (294912)
I1109 11:00:05.744166  2197 net.cpp:137] Memory required for data: 50724960
I1109 11:00:05.744179  2197 layer_factory.hpp:77] Creating layer mm_conv5_bn_scale
I1109 11:00:05.744189  2197 net.cpp:84] Creating Layer mm_conv5_bn_scale
I1109 11:00:05.744194  2197 net.cpp:406] mm_conv5_bn_scale <- conv5
I1109 11:00:05.744201  2197 net.cpp:367] mm_conv5_bn_scale -> conv5 (in-place)
I1109 11:00:05.744251  2197 layer_factory.hpp:77] Creating layer mm_conv5_bn_scale
I1109 11:00:05.744387  2197 net.cpp:122] Setting up mm_conv5_bn_scale
I1109 11:00:05.744395  2197 net.cpp:129] Top shape: 8 64 18 32 (294912)
I1109 11:00:05.744398  2197 net.cpp:137] Memory required for data: 51904608
I1109 11:00:05.744405  2197 layer_factory.hpp:77] Creating layer relu5
I1109 11:00:05.744411  2197 net.cpp:84] Creating Layer relu5
I1109 11:00:05.744416  2197 net.cpp:406] relu5 <- conv5
I1109 11:00:05.744422  2197 net.cpp:367] relu5 -> conv5 (in-place)
I1109 11:00:05.744428  2197 net.cpp:122] Setting up relu5
I1109 11:00:05.744434  2197 net.cpp:129] Top shape: 8 64 18 32 (294912)
I1109 11:00:05.744439  2197 net.cpp:137] Memory required for data: 53084256
I1109 11:00:05.744442  2197 layer_factory.hpp:77] Creating layer conv5_relu5_0_split
I1109 11:00:05.744451  2197 net.cpp:84] Creating Layer conv5_relu5_0_split
I1109 11:00:05.744454  2197 net.cpp:406] conv5_relu5_0_split <- conv5
I1109 11:00:05.744462  2197 net.cpp:380] conv5_relu5_0_split -> conv5_relu5_0_split_0
I1109 11:00:05.744470  2197 net.cpp:380] conv5_relu5_0_split -> conv5_relu5_0_split_1
I1109 11:00:05.744525  2197 net.cpp:122] Setting up conv5_relu5_0_split
I1109 11:00:05.744534  2197 net.cpp:129] Top shape: 8 64 18 32 (294912)
I1109 11:00:05.744539  2197 net.cpp:129] Top shape: 8 64 18 32 (294912)
I1109 11:00:05.744554  2197 net.cpp:137] Memory required for data: 55443552
I1109 11:00:05.744560  2197 layer_factory.hpp:77] Creating layer rpn_conv/3x3
I1109 11:00:05.744572  2197 net.cpp:84] Creating Layer rpn_conv/3x3
I1109 11:00:05.744580  2197 net.cpp:406] rpn_conv/3x3 <- conv5_relu5_0_split_0
I1109 11:00:05.744590  2197 net.cpp:380] rpn_conv/3x3 -> rpn/output
I1109 11:00:05.745056  2197 net.cpp:122] Setting up rpn_conv/3x3
I1109 11:00:05.745070  2197 net.cpp:129] Top shape: 8 64 18 32 (294912)
I1109 11:00:05.745074  2197 net.cpp:137] Memory required for data: 56623200
I1109 11:00:05.745081  2197 layer_factory.hpp:77] Creating layer rpn_conv/3x3_bn
I1109 11:00:05.745090  2197 net.cpp:84] Creating Layer rpn_conv/3x3_bn
I1109 11:00:05.745095  2197 net.cpp:406] rpn_conv/3x3_bn <- rpn/output
I1109 11:00:05.745116  2197 net.cpp:367] rpn_conv/3x3_bn -> rpn/output (in-place)
I1109 11:00:05.745375  2197 net.cpp:122] Setting up rpn_conv/3x3_bn
I1109 11:00:05.745385  2197 net.cpp:129] Top shape: 8 64 18 32 (294912)
I1109 11:00:05.745388  2197 net.cpp:137] Memory required for data: 57802848
I1109 11:00:05.745398  2197 layer_factory.hpp:77] Creating layer rpn_conv/3x3_bn_scale
I1109 11:00:05.745409  2197 net.cpp:84] Creating Layer rpn_conv/3x3_bn_scale
I1109 11:00:05.745414  2197 net.cpp:406] rpn_conv/3x3_bn_scale <- rpn/output
I1109 11:00:05.745422  2197 net.cpp:367] rpn_conv/3x3_bn_scale -> rpn/output (in-place)
I1109 11:00:05.745476  2197 layer_factory.hpp:77] Creating layer rpn_conv/3x3_bn_scale
I1109 11:00:05.745620  2197 net.cpp:122] Setting up rpn_conv/3x3_bn_scale
I1109 11:00:05.745628  2197 net.cpp:129] Top shape: 8 64 18 32 (294912)
I1109 11:00:05.745631  2197 net.cpp:137] Memory required for data: 58982496
I1109 11:00:05.745638  2197 layer_factory.hpp:77] Creating layer rpn_relu/3x3
I1109 11:00:05.745645  2197 net.cpp:84] Creating Layer rpn_relu/3x3
I1109 11:00:05.745651  2197 net.cpp:406] rpn_relu/3x3 <- rpn/output
I1109 11:00:05.745656  2197 net.cpp:367] rpn_relu/3x3 -> rpn/output (in-place)
I1109 11:00:05.745663  2197 net.cpp:122] Setting up rpn_relu/3x3
I1109 11:00:05.745669  2197 net.cpp:129] Top shape: 8 64 18 32 (294912)
I1109 11:00:05.745674  2197 net.cpp:137] Memory required for data: 60162144
I1109 11:00:05.745677  2197 layer_factory.hpp:77] Creating layer rpn/output_rpn_relu/3x3_0_split
I1109 11:00:05.745685  2197 net.cpp:84] Creating Layer rpn/output_rpn_relu/3x3_0_split
I1109 11:00:05.745689  2197 net.cpp:406] rpn/output_rpn_relu/3x3_0_split <- rpn/output
I1109 11:00:05.745697  2197 net.cpp:380] rpn/output_rpn_relu/3x3_0_split -> rpn/output_rpn_relu/3x3_0_split_0
I1109 11:00:05.745707  2197 net.cpp:380] rpn/output_rpn_relu/3x3_0_split -> rpn/output_rpn_relu/3x3_0_split_1
I1109 11:00:05.745752  2197 net.cpp:122] Setting up rpn/output_rpn_relu/3x3_0_split
I1109 11:00:05.745759  2197 net.cpp:129] Top shape: 8 64 18 32 (294912)
I1109 11:00:05.745764  2197 net.cpp:129] Top shape: 8 64 18 32 (294912)
I1109 11:00:05.745767  2197 net.cpp:137] Memory required for data: 62521440
I1109 11:00:05.745771  2197 layer_factory.hpp:77] Creating layer rpn_cls_score
I1109 11:00:05.745795  2197 net.cpp:84] Creating Layer rpn_cls_score
I1109 11:00:05.745800  2197 net.cpp:406] rpn_cls_score <- rpn/output_rpn_relu/3x3_0_split_0
I1109 11:00:05.745810  2197 net.cpp:380] rpn_cls_score -> rpn_cls_score
I1109 11:00:05.746145  2197 net.cpp:122] Setting up rpn_cls_score
I1109 11:00:05.746155  2197 net.cpp:129] Top shape: 8 18 18 32 (82944)
I1109 11:00:05.746160  2197 net.cpp:137] Memory required for data: 62853216
I1109 11:00:05.746166  2197 layer_factory.hpp:77] Creating layer rpn_cls_score_rpn_cls_score_0_split
I1109 11:00:05.746182  2197 net.cpp:84] Creating Layer rpn_cls_score_rpn_cls_score_0_split
I1109 11:00:05.746186  2197 net.cpp:406] rpn_cls_score_rpn_cls_score_0_split <- rpn_cls_score
I1109 11:00:05.746192  2197 net.cpp:380] rpn_cls_score_rpn_cls_score_0_split -> rpn_cls_score_rpn_cls_score_0_split_0
I1109 11:00:05.746201  2197 net.cpp:380] rpn_cls_score_rpn_cls_score_0_split -> rpn_cls_score_rpn_cls_score_0_split_1
I1109 11:00:05.746249  2197 net.cpp:122] Setting up rpn_cls_score_rpn_cls_score_0_split
I1109 11:00:05.746256  2197 net.cpp:129] Top shape: 8 18 18 32 (82944)
I1109 11:00:05.746261  2197 net.cpp:129] Top shape: 8 18 18 32 (82944)
I1109 11:00:05.746265  2197 net.cpp:137] Memory required for data: 63516768
I1109 11:00:05.746269  2197 layer_factory.hpp:77] Creating layer rpn_bbox_pred
I1109 11:00:05.746282  2197 net.cpp:84] Creating Layer rpn_bbox_pred
I1109 11:00:05.746286  2197 net.cpp:406] rpn_bbox_pred <- rpn/output_rpn_relu/3x3_0_split_1
I1109 11:00:05.746294  2197 net.cpp:380] rpn_bbox_pred -> rpn_bbox_pred
I1109 11:00:05.746593  2197 net.cpp:122] Setting up rpn_bbox_pred
I1109 11:00:05.746601  2197 net.cpp:129] Top shape: 8 36 18 32 (165888)
I1109 11:00:05.746605  2197 net.cpp:137] Memory required for data: 64180320
I1109 11:00:05.746613  2197 layer_factory.hpp:77] Creating layer rpn_bbox_pred_rpn_bbox_pred_0_split
I1109 11:00:05.746620  2197 net.cpp:84] Creating Layer rpn_bbox_pred_rpn_bbox_pred_0_split
I1109 11:00:05.746625  2197 net.cpp:406] rpn_bbox_pred_rpn_bbox_pred_0_split <- rpn_bbox_pred
I1109 11:00:05.746634  2197 net.cpp:380] rpn_bbox_pred_rpn_bbox_pred_0_split -> rpn_bbox_pred_rpn_bbox_pred_0_split_0
I1109 11:00:05.746642  2197 net.cpp:380] rpn_bbox_pred_rpn_bbox_pred_0_split -> rpn_bbox_pred_rpn_bbox_pred_0_split_1
I1109 11:00:05.746690  2197 net.cpp:122] Setting up rpn_bbox_pred_rpn_bbox_pred_0_split
I1109 11:00:05.746696  2197 net.cpp:129] Top shape: 8 36 18 32 (165888)
I1109 11:00:05.746701  2197 net.cpp:129] Top shape: 8 36 18 32 (165888)
I1109 11:00:05.746706  2197 net.cpp:137] Memory required for data: 65507424
I1109 11:00:05.746709  2197 layer_factory.hpp:77] Creating layer rpn_cls_score_reshape
I1109 11:00:05.746721  2197 net.cpp:84] Creating Layer rpn_cls_score_reshape
I1109 11:00:05.746723  2197 net.cpp:406] rpn_cls_score_reshape <- rpn_cls_score_rpn_cls_score_0_split_0
I1109 11:00:05.746732  2197 net.cpp:380] rpn_cls_score_reshape -> rpn_cls_score_reshape
I1109 11:00:05.746790  2197 net.cpp:122] Setting up rpn_cls_score_reshape
I1109 11:00:05.746799  2197 net.cpp:129] Top shape: 8 2 162 32 (82944)
I1109 11:00:05.746803  2197 net.cpp:137] Memory required for data: 65839200
I1109 11:00:05.746806  2197 layer_factory.hpp:77] Creating layer rpn_cls_score_reshape_rpn_cls_score_reshape_0_split
I1109 11:00:05.746815  2197 net.cpp:84] Creating Layer rpn_cls_score_reshape_rpn_cls_score_reshape_0_split
I1109 11:00:05.746819  2197 net.cpp:406] rpn_cls_score_reshape_rpn_cls_score_reshape_0_split <- rpn_cls_score_reshape
I1109 11:00:05.746827  2197 net.cpp:380] rpn_cls_score_reshape_rpn_cls_score_reshape_0_split -> rpn_cls_score_reshape_rpn_cls_score_reshape_0_split_0
I1109 11:00:05.746835  2197 net.cpp:380] rpn_cls_score_reshape_rpn_cls_score_reshape_0_split -> rpn_cls_score_reshape_rpn_cls_score_reshape_0_split_1
I1109 11:00:05.746881  2197 net.cpp:122] Setting up rpn_cls_score_reshape_rpn_cls_score_reshape_0_split
I1109 11:00:05.746886  2197 net.cpp:129] Top shape: 8 2 162 32 (82944)
I1109 11:00:05.746891  2197 net.cpp:129] Top shape: 8 2 162 32 (82944)
I1109 11:00:05.746896  2197 net.cpp:137] Memory required for data: 66502752
I1109 11:00:05.746901  2197 layer_factory.hpp:77] Creating layer rpn-data
I1109 11:00:05.804808  2197 net.cpp:84] Creating Layer rpn-data
I1109 11:00:05.804841  2197 net.cpp:406] rpn-data <- rpn_cls_score_rpn_cls_score_0_split_1
I1109 11:00:05.804852  2197 net.cpp:406] rpn-data <- gt_boxes_input-data_2_split_0
I1109 11:00:05.804857  2197 net.cpp:406] rpn-data <- im_info_input-data_1_split_0
I1109 11:00:05.804862  2197 net.cpp:406] rpn-data <- data_input-data_0_split_1
I1109 11:00:05.804867  2197 net.cpp:406] rpn-data <- flags_input-data_3_split_0
I1109 11:00:05.804873  2197 net.cpp:380] rpn-data -> rpn_labels
I1109 11:00:05.804884  2197 net.cpp:380] rpn-data -> rpn_bbox_targets
I1109 11:00:05.804900  2197 net.cpp:380] rpn-data -> rpn_bbox_inside_weights
I1109 11:00:05.804913  2197 net.cpp:380] rpn-data -> rpn_bbox_outside_weights
I1109 11:00:05.807693  2197 net.cpp:122] Setting up rpn-data
I1109 11:00:05.807732  2197 net.cpp:129] Top shape: 8 1 162 32 (41472)
I1109 11:00:05.807742  2197 net.cpp:129] Top shape: 8 36 18 32 (165888)
I1109 11:00:05.807749  2197 net.cpp:129] Top shape: 8 36 18 32 (165888)
I1109 11:00:05.807757  2197 net.cpp:129] Top shape: 8 36 18 32 (165888)
I1109 11:00:05.807765  2197 net.cpp:137] Memory required for data: 68659296
I1109 11:00:05.807775  2197 layer_factory.hpp:77] Creating layer rpn_loss_cls
I1109 11:00:05.807793  2197 net.cpp:84] Creating Layer rpn_loss_cls
I1109 11:00:05.807819  2197 net.cpp:406] rpn_loss_cls <- rpn_cls_score_reshape_rpn_cls_score_reshape_0_split_0
I1109 11:00:05.807832  2197 net.cpp:406] rpn_loss_cls <- rpn_labels
…
I1109 11:00:05.810394  2197 net.cpp:129] Top shape: (1)
I1109 11:00:05.810400  2197 net.cpp:132]     with loss weight 1
I1109 11:00:05.810415  2197 net.cpp:137] Memory required for data: 68659304
I1109 11:00:05.810425  2197 layer_factory.hpp:77] Creating layer rpn_cls_prob
I1109 11:00:05.810439  2197 net.cpp:84] Creating Layer rpn_cls_prob
I1109 11:00:05.810451  2197 net.cpp:406] rpn_cls_prob <- rpn_cls_score_reshape_rpn_cls_score_reshape_0_split_1
I1109 11:00:05.810465  2197 net.cpp:380] rpn_cls_prob -> rpn_cls_prob
I1109 11:00:05.810645  2197 net.cpp:122] Setting up rpn_cls_prob
I1109 11:00:05.810662  2197 net.cpp:129] Top shape: 8 2 162 32 (82944)
I1109 11:00:05.810668  2197 net.cpp:137] Memory required for data: 68991080
I1109 11:00:05.810675  2197 layer_factory.hpp:77] Creating layer rpn_cls_prob_reshape
I1109 11:00:05.810689  2197 net.cpp:84] Creating Layer rpn_cls_prob_reshape
I1109 11:00:05.810698  2197 net.cpp:406] rpn_cls_prob_reshape <- rpn_cls_prob
I1109 11:00:05.810712  2197 net.cpp:380] rpn_cls_prob_reshape -> rpn_cls_prob_reshape
I1109 11:00:05.810768  2197 net.cpp:122] Setting up rpn_cls_prob_reshape
I1109 11:00:05.810781  2197 net.cpp:129] Top shape: 8 18 18 32 (82944)
I1109 11:00:05.810787  2197 net.cpp:137] Memory required for data: 69322856
I1109 11:00:05.810794  2197 layer_factory.hpp:77] Creating layer proposal
I1109 11:00:05.866715  2197 net.cpp:84] Creating Layer proposal
I1109 11:00:05.866746  2197 net.cpp:406] proposal <- rpn_cls_prob_reshape
I1109 11:00:05.866757  2197 net.cpp:406] proposal <- rpn_bbox_pred_rpn_bbox_pred_0_split_1
I1109 11:00:05.866762  2197 net.cpp:406] proposal <- im_info_input-data_1_split_1
I1109 11:00:05.866771  2197 net.cpp:380] proposal -> rpn_rois
I1109 11:00:05.884814  2197 net.cpp:122] Setting up proposal
I1109 11:00:05.884850  2197 net.cpp:129] Top shape: 1 5 (5)
I1109 11:00:05.884856  2197 net.cpp:137] Memory required for data: 69322876
I1109 11:00:05.884863  2197 layer_factory.hpp:77] Creating layer roi-data
I1109 11:00:05.902367  2197 net.cpp:84] Creating Layer roi-data
I1109 11:00:05.902400  2197 net.cpp:406] roi-data <- rpn_rois
I1109 11:00:05.902412  2197 net.cpp:406] roi-data <- gt_boxes_input-data_2_split_1
I1109 11:00:05.902420  2197 net.cpp:406] roi-data <- flags_input-data_3_split_1
I1109 11:00:05.902429  2197 net.cpp:380] roi-data -> rois
I1109 11:00:05.902444  2197 net.cpp:380] roi-data -> labels
I1109 11:00:05.902454  2197 net.cpp:380] roi-data -> bbox_targets
I1109 11:00:05.902463  2197 net.cpp:380] roi-data -> bbox_inside_weights
I1109 11:00:05.902477  2197 net.cpp:380] roi-data -> bbox_outside_weights
I1109 11:00:05.903457  2197 net.cpp:122] Setting up roi-data
I1109 11:00:05.903484  2197 net.cpp:129] Top shape: 1 5 (5)
I1109 11:00:05.903496  2197 net.cpp:129] Top shape: 1 1 (1)
I1109 11:00:05.903506  2197 net.cpp:129] Top shape: 1 8 (8)
I1109 11:00:05.903514  2197 net.cpp:129] Top shape: 1 8 (8)
I1109 11:00:05.903524  2197 net.cpp:129] Top shape: 1 8 (8)
I1109 11:00:05.903529  2197 net.cpp:137] Memory required for data: 69322996
I1109 11:00:05.903537  2197 layer_factory.hpp:77] Creating layer roi_pool_conv5
I1109 11:00:05.903550  2197 net.cpp:84] Creating Layer roi_pool_conv5
I1109 11:00:05.903561  2197 net.cpp:406] roi_pool_conv5 <- conv5_relu5_0_split_1
I1109 11:00:05.903573  2197 net.cpp:406] roi_pool_conv5 <- rois
I1109 11:00:05.903584  2197 net.cpp:380] roi_pool_conv5 -> roi_pool_conv5
I1109 11:00:05.903599  2197 roi_pooling_layer.cpp:30] Spatial scale: 0.125
I1109 11:00:05.903715  2197 net.cpp:122] Setting up roi_pool_conv5
I1109 11:00:05.903724  2197 net.cpp:129] Top shape: 1 64 4 4 (1024)
I1109 11:00:05.903728  2197 net.cpp:137] Memory required for data: 69327092
I1109 11:00:05.903730  2197 layer_factory.hpp:77] Creating layer mm_fc6_L
I1109 11:00:05.903741  2197 net.cpp:84] Creating Layer mm_fc6_L
I1109 11:00:05.903746  2197 net.cpp:406] mm_fc6_L <- roi_pool_conv5
I1109 11:00:05.903754  2197 net.cpp:380] mm_fc6_L -> fc6_l
I1109 11:00:05.905117  2197 net.cpp:122] Setting up mm_fc6_L
I1109 11:00:05.905135  2197 net.cpp:129] Top shape: 1 128 (128)
I1109 11:00:05.905138  2197 net.cpp:137] Memory required for data: 69327604
I1109 11:00:05.905149  2197 layer_factory.hpp:77] Creating layer mm_fc6_L_bn
I1109 11:00:05.905165  2197 net.cpp:84] Creating Layer mm_fc6_L_bn
I1109 11:00:05.905170  2197 net.cpp:406] mm_fc6_L_bn <- fc6_l
I1109 11:00:05.905176  2197 net.cpp:367] mm_fc6_L_bn -> fc6_l (in-place)
I1109 11:00:05.905508  2197 net.cpp:122] Setting up mm_fc6_L_bn
I1109 11:00:05.905519  2197 net.cpp:129] Top shape: 1 128 (128)
I1109 11:00:05.905522  2197 net.cpp:137] Memory required for data: 69328116
I1109 11:00:05.905532  2197 layer_factory.hpp:77] Creating layer mm_fc6_L_bn_scale
I1109 11:00:05.905545  2197 net.cpp:84] Creating Layer mm_fc6_L_bn_scale
I1109 11:00:05.905550  2197 net.cpp:406] mm_fc6_L_bn_scale <- fc6_l
I1109 11:00:05.905560  2197 net.cpp:367] mm_fc6_L_bn_scale -> fc6_l (in-place)
I1109 11:00:05.905627  2197 layer_factory.hpp:77] Creating layer mm_fc6_L_bn_scale
I1109 11:00:05.905819  2197 net.cpp:122] Setting up mm_fc6_L_bn_scale
I1109 11:00:05.905828  2197 net.cpp:129] Top shape: 1 128 (128)
I1109 11:00:05.905833  2197 net.cpp:137] Memory required for data: 69328628
I1109 11:00:05.905839  2197 layer_factory.hpp:77] Creating layer relu6_L
I1109 11:00:05.905848  2197 net.cpp:84] Creating Layer relu6_L
I1109 11:00:05.905854  2197 net.cpp:406] relu6_L <- fc6_l
I1109 11:00:05.905861  2197 net.cpp:367] relu6_L -> fc6_l (in-place)
I1109 11:00:05.905869  2197 net.cpp:122] Setting up relu6_L
I1109 11:00:05.905875  2197 net.cpp:129] Top shape: 1 128 (128)
I1109 11:00:05.905879  2197 net.cpp:137] Memory required for data: 69329140
I1109 11:00:05.905882  2197 layer_factory.hpp:77] Creating layer mm_fc6_U
I1109 11:00:05.905891  2197 net.cpp:84] Creating Layer mm_fc6_U
I1109 11:00:05.905895  2197 net.cpp:406] mm_fc6_U <- fc6_l
I1109 11:00:05.905902  2197 net.cpp:380] mm_fc6_U -> fc6_u
I1109 11:00:05.906692  2197 net.cpp:122] Setting up mm_fc6_U
I1109 11:00:05.906705  2197 net.cpp:129] Top shape: 1 512 (512)
I1109 11:00:05.906710  2197 net.cpp:137] Memory required for data: 69331188
I1109 11:00:05.906721  2197 layer_factory.hpp:77] Creating layer mm_fc6_U_bn
I1109 11:00:05.906733  2197 net.cpp:84] Creating Layer mm_fc6_U_bn
I1109 11:00:05.906739  2197 net.cpp:406] mm_fc6_U_bn <- fc6_u
I1109 11:00:05.906745  2197 net.cpp:367] mm_fc6_U_bn -> fc6_u (in-place)
I1109 11:00:05.907085  2197 net.cpp:122] Setting up mm_fc6_U_bn
I1109 11:00:05.907094  2197 net.cpp:129] Top shape: 1 512 (512)
I1109 11:00:05.907099  2197 net.cpp:137] Memory required for data: 69333236
I1109 11:00:05.907106  2197 layer_factory.hpp:77] Creating layer mm_fc6_U_bn_scale
I1109 11:00:05.907117  2197 net.cpp:84] Creating Layer mm_fc6_U_bn_scale
I1109 11:00:05.907124  2197 net.cpp:406] mm_fc6_U_bn_scale <- fc6_u
I1109 11:00:05.907131  2197 net.cpp:367] mm_fc6_U_bn_scale -> fc6_u (in-place)
I1109 11:00:05.907208  2197 layer_factory.hpp:77] Creating layer mm_fc6_U_bn_scale
I1109 11:00:05.907421  2197 net.cpp:122] Setting up mm_fc6_U_bn_scale
I1109 11:00:05.907430  2197 net.cpp:129] Top shape: 1 512 (512)
I1109 11:00:05.907434  2197 net.cpp:137] Memory required for data: 69335284
I1109 11:00:05.907441  2197 layer_factory.hpp:77] Creating layer relu6_U
I1109 11:00:05.907449  2197 net.cpp:84] Creating Layer relu6_U
I1109 11:00:05.907455  2197 net.cpp:406] relu6_U <- fc6_u
I1109 11:00:05.907460  2197 net.cpp:367] relu6_U -> fc6_u (in-place)
I1109 11:00:05.907467  2197 net.cpp:122] Setting up relu6_U
I1109 11:00:05.907474  2197 net.cpp:129] Top shape: 1 512 (512)
I1109 11:00:05.907481  2197 net.cpp:137] Memory required for data: 69337332
I1109 11:00:05.907486  2197 layer_factory.hpp:77] Creating layer fc6_u_relu6_U_0_split
I1109 11:00:05.907495  2197 net.cpp:84] Creating Layer fc6_u_relu6_U_0_split
I1109 11:00:05.907500  2197 net.cpp:406] fc6_u_relu6_U_0_split <- fc6_u
I1109 11:00:05.907508  2197 net.cpp:380] fc6_u_relu6_U_0_split -> fc6_u_relu6_U_0_split_0
I1109 11:00:05.907518  2197 net.cpp:380] fc6_u_relu6_U_0_split -> fc6_u_relu6_U_0_split_1
I1109 11:00:05.907582  2197 net.cpp:122] Setting up fc6_u_relu6_U_0_split
I1109 11:00:05.907591  2197 net.cpp:129] Top shape: 1 512 (512)
I1109 11:00:05.907596  2197 net.cpp:129] Top shape: 1 512 (512)
I1109 11:00:05.907599  2197 net.cpp:137] Memory required for data: 69341428
I1109 11:00:05.907603  2197 layer_factory.hpp:77] Creating layer cls_score
I1109 11:00:05.907611  2197 net.cpp:84] Creating Layer cls_score
I1109 11:00:05.907618  2197 net.cpp:406] cls_score <- fc6_u_relu6_U_0_split_0
I1109 11:00:05.907630  2197 net.cpp:380] cls_score -> cls_score
I1109 11:00:05.907845  2197 net.cpp:122] Setting up cls_score
I1109 11:00:05.907855  2197 net.cpp:129] Top shape: 1 2 (2)
I1109 11:00:05.907860  2197 net.cpp:137] Memory required for data: 69341436
I1109 11:00:05.907866  2197 layer_factory.hpp:77] Creating layer bbox_pred
I1109 11:00:05.907874  2197 net.cpp:84] Creating Layer bbox_pred
I1109 11:00:05.907881  2197 net.cpp:406] bbox_pred <- fc6_u_relu6_U_0_split_1
I1109 11:00:05.907887  2197 net.cpp:380] bbox_pred -> bbox_pred
I1109 11:00:05.908125  2197 net.cpp:122] Setting up bbox_pred
I1109 11:00:05.908135  2197 net.cpp:129] Top shape: 1 8 (8)
I1109 11:00:05.908138  2197 net.cpp:137] Memory required for data: 69341468
I1109 11:00:05.908149  2197 layer_factory.hpp:77] Creating layer loss_cls
I1109 11:00:05.908159  2197 net.cpp:84] Creating Layer loss_cls
I1109 11:00:05.908164  2197 net.cpp:406] loss_cls <- cls_score
I1109 11:00:05.908170  2197 net.cpp:406] loss_cls <- labels
I1109 11:00:05.908181  2197 net.cpp:380] loss_cls -> cls_loss
…
