…
snapshot_prefix: "vgg16_faster_rcnn"
average_loss: 100
iter_size: 2
I0608 14:15:20.090281 40592 solver.cpp:81] Creating training net from train_net file: models/pascal_voc/VGG16/faster_rcnn_end2end/train.prototxt
I0608 14:15:20.091747 40592 net.cpp:49] Initializing net from parameters: 
name: "VGG_ILSVRC_16_layers"
state {
  phase: TRAIN
}
layer {
  name: "input-data"
  type: "Python"
  top: "data"
  top: "im_info"
  top: "gt_boxes"
  python_param {
    module: "roi_data_layer.layer"
    layer: "RoIDataLayer"
    param_str: "\'num_classes\': 8"
  }
}
layer {
  name: "conv1_1"
  type: "Convolution"
  bottom: "data"
  top: "conv1_1"
  param {
    lr_mult: 0
    decay_mult: 0
  }
  param {
    lr_mult: 0
    decay_mult: 0
  }
  convolution_param {
    num_output: 64
    pad: 1
    kernel_size: 3
  }
}
layer {
  name: "relu1_1"
  type: "ReLU"
  bottom: "conv1_1"
  top: "conv1_1"
}
layer {
  name: "conv1_2"
  type: "Convolution"
  bottom: "conv1_1"
  top: "conv1_2"
  param {
    lr_mult: 0
    decay_mult: 0
  }
  param {
    lr_mult: 0
    decay_mult: 0
  }
  convolution_param {
    num_output: 64
    pad: 1
    kernel_size: 3
  }
}
layer {
  name: "relu1_2"
  type: "ReLU"
  bottom: "conv1_2"
  top: "conv1_2"
}
layer {
  name: "pool1"
  type: "Pooling"
  bottom: "conv1_2"
  top: "pool1"
  pooling_param {
    pool: MAX
    kernel_size: 2
    stride: 2
  }
}
layer {
  name: "conv2_1"
  type: "Convolution"
  bottom: "pool1"
  top: "conv2_1"
  param {
    lr_mult: 0
    decay_mult: 0
  }
  param {
    lr_mult: 0
    decay_mult: 0
  }
  convolution_param {
    num_output: 128
    pad: 1
    kernel_size: 3
  }
}
layer {
  name: "relu2_1"
  type: "ReLU"
  bottom: "conv2_1"
  top: "conv2_1"
}
layer {
  name: "conv2_2"
  type: "Convolution"
  bottom: "conv2_1"
  top: "conv2_2"
  param {
    lr_mult: 0
    decay_mult: 0
  }
  param {
    lr_mult: 0
    decay_mult: 0
  }
  convolution_param {
    num_output: 128
    pad: 1
    kernel_size: 3
  }
}
layer {
  name: "relu2_2"
  type: "ReLU"
  bottom: "conv2_2"
  top: "conv2_2"
}
layer {
  name: "pool2"
  type: "Pooling"
  bottom: "conv2_2"
  top: "pool2"
  pooling_param {
    pool: MAX
    kernel_size: 2
    stride: 2
  }
}
layer {
  name: "conv3_1"
  type: "Convolution"
  bottom: "pool2"
  top: "conv3_1"
  param {
    lr_mult: 1
  }
  param {
    lr_mult: 2
  }
  convolution_param {
    num_output: 256
    pad: 1
    kernel_size: 3
  }
}
layer {
  name: "relu3_1"
  type: "ReLU"
  bottom: "conv3_1"
  top: "conv3_1"
}
layer {
  name: "conv3_2"
  type: "Convolution"
  bottom: "conv3_1"
  top: "conv3_2"
  param {
    lr_mult: 1
  }
  param {
    lr_mult: 2
  }
  convolution_param {
    num_output: 256
    pad: 1
    kernel_size: 3
  }
}
layer {
  name: "relu3_2"
  type: "ReLU"
  bottom: "conv3_2"
  top: "conv3_2"
}
layer {
  name: "conv3_3"
  type: "Convolution"
  bottom: "conv3_2"
  top: "conv3_3"
  param {
    lr_mult: 1
  }
  param {
    lr_mult: 2
  }
  convolution_param {
    num_output: 256
    pad: 1
    kernel_size: 3
  }
}
layer {
  name: "relu3_3"
  type: "ReLU"
  bottom: "conv3_3"
  top: "conv3_3"
}
layer {
  name: "pool3"
  type: "Pooling"
  bottom: "conv3_3"
  top: "pool3"
  pooling_param {
    pool: MAX
    kernel_size: 2
    stride: 2
  }
}
layer {
  name: "conv4_1"
  type: "Convolution"
  bottom: "pool3"
  top: "conv4_1"
  param {
    lr_mult: 1
  }
  param {
    lr_mult: 2
  }
  convolution_param {
    num_output: 512
    pad: 1
    kernel_size: 3
  }
}
layer {
  name: "relu4_1"
  type: "ReLU"
  bottom: "conv4_1"
  top: "conv4_1"
}
layer {
  name: "conv4_2"
  type: "Convolution"
  bottom: "conv4_1"
  top: "conv4_2"
  param {
    lr_mult: 1
  }
  param {
    lr_mult: 2
  }
  convolution_param {
    num_output: 512
    pad: 1
    kernel_size: 3
  }
}
layer {
  name: "relu4_2"
  type: "ReLU"
  bottom: "conv4_2"
  top: "conv4_2"
}
layer {
  name: "conv4_3"
  type: "Convolution"
  bottom: "conv4_2"
  top: "conv4_3"
  param {
    lr_mult: 1
  }
  param {
    lr_mult: 2
  }
  convolution_param {
    num_output: 512
    pad: 1
    kernel_size: 3
  }
}
layer {
  name: "relu4_3"
  type: "ReLU"
  bottom: "conv4_3"
  top: "conv4_3"
}
layer {
  name: "pool4"
  type: "Pooling"
  bottom: "conv4_3"
  top: "pool4"
  pooling_param {
    pool: MAX
    kernel_size: 2
    stride: 2
  }
}
layer {
  name: "conv5_1"
  type: "Convolution"
  bottom: "pool4"
  top: "conv5_1"
  param {
    lr_mult: 1
  }
  param {
    lr_mult: 2
  }
  convolution_param {
    num_output: 512
    pad: 1
    kernel_size: 3
  }
}
layer {
  name: "relu5_1"
  type: "ReLU"
  bottom: "conv5_1"
  top: "conv5_1"
}
layer {
  name: "conv5_2"
  type: "Convolution"
  bottom: "conv5_1"
  top: "conv5_2"
  param {
    lr_mult: 1
  }
  param {
    lr_mult: 2
  }
  convolution_param {
    num_output: 512
    pad: 1
    kernel_size: 3
  }
}
layer {
  name: "relu5_2"
  type: "ReLU"
  bottom: "conv5_2"
  top: "conv5_2"
}
layer {
  name: "conv5_3"
  type: "Convolution"
  bottom: "conv5_2"
  top: "conv5_3"
  param {
    lr_mult: 1
  }
  param {
    lr_mult: 2
  }
  convolution_param {
    num_output: 512
    pad: 1
    kernel_size: 3
  }
}
layer {
  name: "relu5_3"
  type: "ReLU"
  bottom: "conv5_3"
  top: "conv5_3"
}
layer {
  name: "rpn_conv/3x3"
  type: "Convolution"
  bottom: "conv5_3"
  top: "rpn/output"
  param {
    lr_mult: 1
  }
  param {
    lr_mult: 2
  }
  convolution_param {
    num_output: 512
    pad: 1
    kernel_size: 3
    stride: 1
    weight_filler {
      type: "gaussian"
      std: 0.01
    }
    bias_filler {
      type: "constant"
      value: 0
    }
  }
}
layer {
  name: "rpn_relu/3x3"
  type: "ReLU"
  bottom: "rpn/output"
  top: "rpn/output"
}
layer {
  name: "rpn_cls_score"
  type: "Convolution"
  bottom: "rpn/output"
  top: "rpn_cls_score"
  param {
    lr_mult: 1
  }
  param {
    lr_mult: 2
  }
  convolution_param {
    num_output: 18
    pad: 0
    kernel_size: 1
    stride: 1
    weight_filler {
      type: "gaussian"
      std: 0.01
    }
    bias_filler {
      type: "constant"
      value: 0
    }
  }
}
layer {
  name: "rpn_bbox_pred"
  type: "Convolution"
  bottom: "rpn/output"
  top: "rpn_bbox_pred"
  param {
    lr_mult: 1
  }
  param {
    lr_mult: 2
  }
  convolution_param {
    num_output: 36
    pad: 0
    kernel_size: 1
    stride: 1
    weight_filler {
      type: "gaussian"
      std: 0.01
    }
    bias_filler {
      type: "constant"
      value: 0
    }
  }
}
layer {
  name: "rpn_cls_score_reshape"
  type: "Reshape"
  bottom: "rpn_cls_score"
  top: "rpn_cls_score_reshape"
  reshape_param {
    shape {
      dim: 0
      dim: 2
      dim: -1
      dim: 0
    }
  }
}
layer {
  name: "rpn-data"
  type: "Python"
  bottom: "rpn_cls_score"
  bottom: "gt_boxes"
  bottom: "im_info"
  bottom: "data"
  top: "rpn_labels"
  top: "rpn_bbox_targets"
  top: "rpn_bbox_inside_weights"
  top: "rpn_bbox_outside_weights"
  python_param {
    module: "rpn.anchor_target_layer"
    layer: "AnchorTargetLayer"
    param_str: "\'feat_stride\': 16"
  }
}
layer {
  name: "rpn_loss_cls"
  type: "SoftmaxWithLoss"
  bottom: "rpn_cls_score_reshape"
  bottom: "rpn_labels"
  top: "rpn_cls_loss"
  loss_weight: 1
  propagate_down: true
  propagate_down: false
  loss_param {
    ignore_label: -1
    normalize: true
  }
}
layer {
  name: "rpn_loss_bbox"
  type: "SmoothL1Loss"
  bottom: "rpn_bbox_pred"
  bottom: "rpn_bbox_targets"
  bottom: "rpn_bbox_inside_weights"
  bottom: "rpn_bbox_outside_weights"
  top: "rpn_loss_bbox"
  loss_weight: 1
  smooth_l1_loss_param {
    sigma: 3
  }
}
layer {
  name: "rpn_cls_prob"
  type: "Softmax"
  bottom: "rpn_cls_score_reshape"
  top: "rpn_cls_prob"
}
layer {
  name: "rpn_cls_prob_reshape"
  type: "Reshape"
  bottom: "rpn_cls_prob"
  top: "rpn_cls_prob_reshape"
  reshape_param {
    shape {
      dim: 0
      dim: 18
      dim: -1
      dim: 0
    }
  }
}
layer {
  name: "proposal"
  type: "Python"
  bottom: "rpn_cls_prob_reshape"
  bottom: "rpn_bbox_pred"
  bottom: "im_info"
  top: "rpn_rois"
  python_param {
    module: "rpn.proposal_layer"
    layer: "ProposalLayer"
    param_str: "\'feat_stride\': 16"
  }
}
layer {
  name: "roi-data"
  type: "Python"
  bottom: "rpn_rois"
  bottom: "gt_boxes"
  top: "rois"
  top: "labels"
  top: "bbox_targets"
  top: "bbox_inside_weights"
  top: "bbox_outside_weights"
  python_param {
    module: "rpn.proposal_target_layer"
    layer: "ProposalTargetLayer"
    param_str: "\'num_classes\': 8"
  }
}
layer {
  name: "roi_pool5"
  type: "ROIPooling"
  bottom: "conv5_3"
  bottom: "rois"
  top: "pool5"
  roi_pooling_param {
    pooled_h: 7
    pooled_w: 7
    spatial_scale: 0.0625
  }
}
layer {
  name: "fc6"
  type: "InnerProduct"
  bottom: "pool5"
  top: "fc6"
  param {
    lr_mult: 1
  }
  param {
    lr_mult: 2
  }
  inner_product_param {
    num_output: 4096
  }
}
layer {
  name: "relu6"
  type: "ReLU"
  bottom: "fc6"
  top: "fc6"
}
layer {
  name: "drop6"
  type: "Dropout"
  bottom: "fc6"
  top: "fc6"
  dropout_param {
    dropout_ratio: 0.5
  }
}
layer {
  name: "fc7"
  type: "InnerProduct"
  bottom: "fc6"
  top: "fc7"
  param {
    lr_mult: 1
  }
  param {
    lr_mult: 2
  }
  inner_product_param {
    num_output: 4096
  }
}
layer {
  name: "relu7"
  type: "ReLU"
  bottom: "fc7"
  top: "fc7"
}
layer {
  name: "drop7"
  type: "Dropout"
  bottom: "fc7"
  top: "fc7"
  dropout_param {
    dropout_ratio: 0.5
  }
}
layer {
  name: "cls_score"
  type: "InnerProduct"
  bottom: "fc7"
  top: "cls_score"
  param {
    lr_mult: 1
  }
  param {
    lr_mult: 2
  }
  inner_product_param {
    num_output: 8
    weight_filler {
      type: "gaussian"
      std: 0.01
    }
    bias_filler {
      type: "constant"
      value: 0
    }
  }
}
layer {
  name: "bbox_pred"
  type: "InnerProduct"
  bottom: "fc7"
  top: "bbox_pred"
  param {
    lr_mult: 1
  }
  param {
    lr_mult: 2
  }
  inner_product_param {
    num_output: 32
    weight_filler {
      type: "gaussian"
      std: 0.001
    }
    bias_filler {
      type: "constant"
      value: 0
    }
  }
}
layer {
  name: "loss_cls"
  type: "SoftmaxWithLoss"
  bottom: "cls_score"
  bottom: "labels"
  top: "loss_cls"
  loss_weight: 1
  propagate_down: true
  propagate_down: false
}
layer {
  name: "loss_bbox"
  type: "SmoothL1Loss"
  bottom: "bbox_pred"
  bottom: "bbox_targets"
  bottom: "bbox_inside_weights"
  bottom: "bbox_outside_weights"
  top: "loss_bbox"
  loss_weight: 1
}
I0608 14:15:20.092083 40592 layer_factory.hpp:77] Creating layer input-data
I0608 14:15:20.135359 40592 net.cpp:106] Creating Layer input-data
I0608 14:15:20.135437 40592 net.cpp:411] input-data -> data
I0608 14:15:20.135468 40592 net.cpp:411] input-data -> im_info
I0608 14:15:20.135479 40592 net.cpp:411] input-data -> gt_boxes
RoiDataLayer: name_to_top: {'gt_boxes': 2, 'data': 0, 'im_info': 1}
I0608 14:15:20.719579 40592 net.cpp:150] Setting up input-data
I0608 14:15:20.719642 40592 net.cpp:157] Top shape: 1 3 144 256 (110592)
I0608 14:15:20.719661 40592 net.cpp:157] Top shape: 1 3 (3)
I0608 14:15:20.719688 40592 net.cpp:157] Top shape: 1 4 (4)
I0608 14:15:20.719705 40592 net.cpp:165] Memory required for data: 442396
I0608 14:15:20.719732 40592 layer_factory.hpp:77] Creating layer data_input-data_0_split
I0608 14:15:20.719781 40592 net.cpp:106] Creating Layer data_input-data_0_split
I0608 14:15:20.719804 40592 net.cpp:454] data_input-data_0_split <- data
I0608 14:15:20.719838 40592 net.cpp:411] data_input-data_0_split -> data_input-data_0_split_0
I0608 14:15:20.719872 40592 net.cpp:411] data_input-data_0_split -> data_input-data_0_split_1
I0608 14:15:20.719985 40592 net.cpp:150] Setting up data_input-data_0_split
I0608 14:15:20.720016 40592 net.cpp:157] Top shape: 1 3 144 256 (110592)
I0608 14:15:20.720033 40592 net.cpp:157] Top shape: 1 3 144 256 (110592)
I0608 14:15:20.720052 40592 net.cpp:165] Memory required for data: 1327132
I0608 14:15:20.720080 40592 layer_factory.hpp:77] Creating layer im_info_input-data_1_split
I0608 14:15:20.720104 40592 net.cpp:106] Creating Layer im_info_input-data_1_split
I0608 14:15:20.720124 40592 net.cpp:454] im_info_input-data_1_split <- im_info
I0608 14:15:20.720144 40592 net.cpp:411] im_info_input-data_1_split -> im_info_input-data_1_split_0
I0608 14:15:20.720193 40592 net.cpp:411] im_info_input-data_1_split -> im_info_input-data_1_split_1
I0608 14:15:20.720278 40592 net.cpp:150] Setting up im_info_input-data_1_split
I0608 14:15:20.720307 40592 net.cpp:157] Top shape: 1 3 (3)
I0608 14:15:20.720327 40592 net.cpp:157] Top shape: 1 3 (3)
I0608 14:15:20.720340 40592 net.cpp:165] Memory required for data: 1327156
I0608 14:15:20.720357 40592 layer_factory.hpp:77] Creating layer gt_boxes_input-data_2_split
I0608 14:15:20.720401 40592 net.cpp:106] Creating Layer gt_boxes_input-data_2_split
I0608 14:15:20.720451 40592 net.cpp:454] gt_boxes_input-data_2_split <- gt_boxes
I0608 14:15:20.720494 40592 net.cpp:411] gt_boxes_input-data_2_split -> gt_boxes_input-data_2_split_0
I0608 14:15:20.720517 40592 net.cpp:411] gt_boxes_input-data_2_split -> gt_boxes_input-data_2_split_1
I0608 14:15:20.720628 40592 net.cpp:150] Setting up gt_boxes_input-data_2_split
I0608 14:15:20.720656 40592 net.cpp:157] Top shape: 1 4 (4)
I0608 14:15:20.720671 40592 net.cpp:157] Top shape: 1 4 (4)
I0608 14:15:20.720682 40592 net.cpp:165] Memory required for data: 1327188
I0608 14:15:20.720702 40592 layer_factory.hpp:77] Creating layer conv1_1
I0608 14:15:20.720738 40592 net.cpp:106] Creating Layer conv1_1
I0608 14:15:20.720762 40592 net.cpp:454] conv1_1 <- data_input-data_0_split_0
I0608 14:15:20.720785 40592 net.cpp:411] conv1_1 -> conv1_1
I0608 14:15:20.731401 40592 net.cpp:150] Setting up conv1_1
I0608 14:15:20.731436 40592 net.cpp:157] Top shape: 1 64 144 256 (2359296)
I0608 14:15:20.731446 40592 net.cpp:165] Memory required for data: 10764372
I0608 14:15:20.731464 40592 layer_factory.hpp:77] Creating layer relu1_1
I0608 14:15:20.731485 40592 net.cpp:106] Creating Layer relu1_1
I0608 14:15:20.731495 40592 net.cpp:454] relu1_1 <- conv1_1
I0608 14:15:20.731505 40592 net.cpp:397] relu1_1 -> conv1_1 (in-place)
I0608 14:15:20.731523 40592 net.cpp:150] Setting up relu1_1
I0608 14:15:20.731534 40592 net.cpp:157] Top shape: 1 64 144 256 (2359296)
I0608 14:15:20.731541 40592 net.cpp:165] Memory required for data: 20201556
I0608 14:15:20.731549 40592 layer_factory.hpp:77] Creating layer conv1_2
I0608 14:15:20.731568 40592 net.cpp:106] Creating Layer conv1_2
I0608 14:15:20.731577 40592 net.cpp:454] conv1_2 <- conv1_1
I0608 14:15:20.731590 40592 net.cpp:411] conv1_2 -> conv1_2
I0608 14:15:20.731997 40592 net.cpp:150] Setting up conv1_2
I0608 14:15:20.732025 40592 net.cpp:157] Top shape: 1 64 144 256 (2359296)
I0608 14:15:20.732034 40592 net.cpp:165] Memory required for data: 29638740
I0608 14:15:20.732048 40592 layer_factory.hpp:77] Creating layer relu1_2
I0608 14:15:20.732061 40592 net.cpp:106] Creating Layer relu1_2
I0608 14:15:20.732071 40592 net.cpp:454] relu1_2 <- conv1_2
I0608 14:15:20.732081 40592 net.cpp:397] relu1_2 -> conv1_2 (in-place)
I0608 14:15:20.732095 40592 net.cpp:150] Setting up relu1_2
I0608 14:15:20.732105 40592 net.cpp:157] Top shape: 1 64 144 256 (2359296)
I0608 14:15:20.732113 40592 net.cpp:165] Memory required for data: 39075924
I0608 14:15:20.732120 40592 layer_factory.hpp:77] Creating layer pool1
I0608 14:15:20.732138 40592 net.cpp:106] Creating Layer pool1
I0608 14:15:20.732149 40592 net.cpp:454] pool1 <- conv1_2
I0608 14:15:20.732168 40592 net.cpp:411] pool1 -> pool1
I0608 14:15:20.732242 40592 net.cpp:150] Setting up pool1
I0608 14:15:20.732264 40592 net.cpp:157] Top shape: 1 64 72 128 (589824)
I0608 14:15:20.732271 40592 net.cpp:165] Memory required for data: 41435220
I0608 14:15:20.732280 40592 layer_factory.hpp:77] Creating layer conv2_1
I0608 14:15:20.732295 40592 net.cpp:106] Creating Layer conv2_1
I0608 14:15:20.732308 40592 net.cpp:454] conv2_1 <- pool1
I0608 14:15:20.732322 40592 net.cpp:411] conv2_1 -> conv2_1
I0608 14:15:20.740350 40592 net.cpp:150] Setting up conv2_1
I0608 14:15:20.740386 40592 net.cpp:157] Top shape: 1 128 72 128 (1179648)
I0608 14:15:20.740396 40592 net.cpp:165] Memory required for data: 46153812
I0608 14:15:20.740411 40592 layer_factory.hpp:77] Creating layer relu2_1
I0608 14:15:20.740428 40592 net.cpp:106] Creating Layer relu2_1
I0608 14:15:20.740438 40592 net.cpp:454] relu2_1 <- conv2_1
I0608 14:15:20.740456 40592 net.cpp:397] relu2_1 -> conv2_1 (in-place)
I0608 14:15:20.740469 40592 net.cpp:150] Setting up relu2_1
I0608 14:15:20.740479 40592 net.cpp:157] Top shape: 1 128 72 128 (1179648)
I0608 14:15:20.740490 40592 net.cpp:165] Memory required for data: 50872404
I0608 14:15:20.740499 40592 layer_factory.hpp:77] Creating layer conv2_2
I0608 14:15:20.740528 40592 net.cpp:106] Creating Layer conv2_2
I0608 14:15:20.740553 40592 net.cpp:454] conv2_2 <- conv2_1
I0608 14:15:20.740566 40592 net.cpp:411] conv2_2 -> conv2_2
I0608 14:15:20.741048 40592 net.cpp:150] Setting up conv2_2
I0608 14:15:20.741077 40592 net.cpp:157] Top shape: 1 128 72 128 (1179648)
I0608 14:15:20.741086 40592 net.cpp:165] Memory required for data: 55590996
I0608 14:15:20.741097 40592 layer_factory.hpp:77] Creating layer relu2_2
I0608 14:15:20.741114 40592 net.cpp:106] Creating Layer relu2_2
I0608 14:15:20.741123 40592 net.cpp:454] relu2_2 <- conv2_2
I0608 14:15:20.741137 40592 net.cpp:397] relu2_2 -> conv2_2 (in-place)
I0608 14:15:20.741149 40592 net.cpp:150] Setting up relu2_2
I0608 14:15:20.741170 40592 net.cpp:157] Top shape: 1 128 72 128 (1179648)
I0608 14:15:20.741179 40592 net.cpp:165] Memory required for data: 60309588
I0608 14:15:20.741188 40592 layer_factory.hpp:77] Creating layer pool2
I0608 14:15:20.741199 40592 net.cpp:106] Creating Layer pool2
I0608 14:15:20.741206 40592 net.cpp:454] pool2 <- conv2_2
I0608 14:15:20.741216 40592 net.cpp:411] pool2 -> pool2
I0608 14:15:20.741282 40592 net.cpp:150] Setting up pool2
I0608 14:15:20.741303 40592 net.cpp:157] Top shape: 1 128 36 64 (294912)
I0608 14:15:20.741325 40592 net.cpp:165] Memory required for data: 61489236
I0608 14:15:20.741333 40592 layer_factory.hpp:77] Creating layer conv3_1
I0608 14:15:20.741348 40592 net.cpp:106] Creating Layer conv3_1
I0608 14:15:20.741358 40592 net.cpp:454] conv3_1 <- pool2
I0608 14:15:20.741370 40592 net.cpp:411] conv3_1 -> conv3_1
I0608 14:15:20.741928 40592 net.cpp:150] Setting up conv3_1
I0608 14:15:20.741953 40592 net.cpp:157] Top shape: 1 256 36 64 (589824)
I0608 14:15:20.741962 40592 net.cpp:165] Memory required for data: 63848532
I0608 14:15:20.741976 40592 layer_factory.hpp:77] Creating layer relu3_1
I0608 14:15:20.741993 40592 net.cpp:106] Creating Layer relu3_1
I0608 14:15:20.742002 40592 net.cpp:454] relu3_1 <- conv3_1
I0608 14:15:20.742015 40592 net.cpp:397] relu3_1 -> conv3_1 (in-place)
I0608 14:15:20.742044 40592 net.cpp:150] Setting up relu3_1
I0608 14:15:20.742055 40592 net.cpp:157] Top shape: 1 256 36 64 (589824)
I0608 14:15:20.742063 40592 net.cpp:165] Memory required for data: 66207828
I0608 14:15:20.742070 40592 layer_factory.hpp:77] Creating layer conv3_2
I0608 14:15:20.742089 40592 net.cpp:106] Creating Layer conv3_2
I0608 14:15:20.742108 40592 net.cpp:454] conv3_2 <- conv3_1
I0608 14:15:20.742120 40592 net.cpp:411] conv3_2 -> conv3_2
I0608 14:15:20.747778 40592 net.cpp:150] Setting up conv3_2
I0608 14:15:20.747812 40592 net.cpp:157] Top shape: 1 256 36 64 (589824)
I0608 14:15:20.747833 40592 net.cpp:165] Memory required for data: 68567124
I0608 14:15:20.747846 40592 layer_factory.hpp:77] Creating layer relu3_2
I0608 14:15:20.747861 40592 net.cpp:106] Creating Layer relu3_2
I0608 14:15:20.747874 40592 net.cpp:454] relu3_2 <- conv3_2
I0608 14:15:20.747885 40592 net.cpp:397] relu3_2 -> conv3_2 (in-place)
I0608 14:15:20.747898 40592 net.cpp:150] Setting up relu3_2
I0608 14:15:20.747911 40592 net.cpp:157] Top shape: 1 256 36 64 (589824)
I0608 14:15:20.747920 40592 net.cpp:165] Memory required for data: 70926420
I0608 14:15:20.747928 40592 layer_factory.hpp:77] Creating layer conv3_3
I0608 14:15:20.747944 40592 net.cpp:106] Creating Layer conv3_3
I0608 14:15:20.747957 40592 net.cpp:454] conv3_3 <- conv3_2
I0608 14:15:20.747968 40592 net.cpp:411] conv3_3 -> conv3_3
I0608 14:15:20.752436 40592 net.cpp:150] Setting up conv3_3
I0608 14:15:20.752470 40592 net.cpp:157] Top shape: 1 256 36 64 (589824)
I0608 14:15:20.752480 40592 net.cpp:165] Memory required for data: 73285716
I0608 14:15:20.752492 40592 layer_factory.hpp:77] Creating layer relu3_3
I0608 14:15:20.752506 40592 net.cpp:106] Creating Layer relu3_3
I0608 14:15:20.752532 40592 net.cpp:454] relu3_3 <- conv3_3
I0608 14:15:20.752547 40592 net.cpp:397] relu3_3 -> conv3_3 (in-place)
I0608 14:15:20.752562 40592 net.cpp:150] Setting up relu3_3
I0608 14:15:20.752573 40592 net.cpp:157] Top shape: 1 256 36 64 (589824)
I0608 14:15:20.752583 40592 net.cpp:165] Memory required for data: 75645012
I0608 14:15:20.752591 40592 layer_factory.hpp:77] Creating layer pool3
I0608 14:15:20.752602 40592 net.cpp:106] Creating Layer pool3
I0608 14:15:20.752610 40592 net.cpp:454] pool3 <- conv3_3
I0608 14:15:20.752626 40592 net.cpp:411] pool3 -> pool3
I0608 14:15:20.752712 40592 net.cpp:150] Setting up pool3
I0608 14:15:20.752734 40592 net.cpp:157] Top shape: 1 256 18 32 (147456)
I0608 14:15:20.752741 40592 net.cpp:165] Memory required for data: 76234836
I0608 14:15:20.752750 40592 layer_factory.hpp:77] Creating layer conv4_1
I0608 14:15:20.752768 40592 net.cpp:106] Creating Layer conv4_1
I0608 14:15:20.752786 40592 net.cpp:454] conv4_1 <- pool3
I0608 14:15:20.752799 40592 net.cpp:411] conv4_1 -> conv4_1
I0608 14:15:20.764076 40592 net.cpp:150] Setting up conv4_1
I0608 14:15:20.764112 40592 net.cpp:157] Top shape: 1 512 18 32 (294912)
I0608 14:15:20.764127 40592 net.cpp:165] Memory required for data: 77414484
I0608 14:15:20.764140 40592 layer_factory.hpp:77] Creating layer relu4_1
I0608 14:15:20.764163 40592 net.cpp:106] Creating Layer relu4_1
I0608 14:15:20.764173 40592 net.cpp:454] relu4_1 <- conv4_1
I0608 14:15:20.764191 40592 net.cpp:397] relu4_1 -> conv4_1 (in-place)
I0608 14:15:20.764204 40592 net.cpp:150] Setting up relu4_1
I0608 14:15:20.764214 40592 net.cpp:157] Top shape: 1 512 18 32 (294912)
I0608 14:15:20.764221 40592 net.cpp:165] Memory required for data: 78594132
I0608 14:15:20.764230 40592 layer_factory.hpp:77] Creating layer conv4_2
I0608 14:15:20.764245 40592 net.cpp:106] Creating Layer conv4_2
I0608 14:15:20.764261 40592 net.cpp:454] conv4_2 <- conv4_1
I0608 14:15:20.764272 40592 net.cpp:411] conv4_2 -> conv4_2
I0608 14:15:20.776077 40592 net.cpp:150] Setting up conv4_2
I0608 14:15:20.776132 40592 net.cpp:157] Top shape: 1 512 18 32 (294912)
I0608 14:15:20.776152 40592 net.cpp:165] Memory required for data: 79773780
I0608 14:15:20.776191 40592 layer_factory.hpp:77] Creating layer relu4_2
I0608 14:15:20.776240 40592 net.cpp:106] Creating Layer relu4_2
I0608 14:15:20.776284 40592 net.cpp:454] relu4_2 <- conv4_2
I0608 14:15:20.776304 40592 net.cpp:397] relu4_2 -> conv4_2 (in-place)
I0608 14:15:20.776324 40592 net.cpp:150] Setting up relu4_2
I0608 14:15:20.776343 40592 net.cpp:157] Top shape: 1 512 18 32 (294912)
I0608 14:15:20.776352 40592 net.cpp:165] Memory required for data: 80953428
I0608 14:15:20.776361 40592 layer_factory.hpp:77] Creating layer conv4_3
I0608 14:15:20.776378 40592 net.cpp:106] Creating Layer conv4_3
I0608 14:15:20.776396 40592 net.cpp:454] conv4_3 <- conv4_2
I0608 14:15:20.776412 40592 net.cpp:411] conv4_3 -> conv4_3
I0608 14:15:20.785764 40592 net.cpp:150] Setting up conv4_3
I0608 14:15:20.785802 40592 net.cpp:157] Top shape: 1 512 18 32 (294912)
I0608 14:15:20.785814 40592 net.cpp:165] Memory required for data: 82133076
I0608 14:15:20.785827 40592 layer_factory.hpp:77] Creating layer relu4_3
I0608 14:15:20.785852 40592 net.cpp:106] Creating Layer relu4_3
I0608 14:15:20.785876 40592 net.cpp:454] relu4_3 <- conv4_3
I0608 14:15:20.785892 40592 net.cpp:397] relu4_3 -> conv4_3 (in-place)
I0608 14:15:20.785913 40592 net.cpp:150] Setting up relu4_3
I0608 14:15:20.785924 40592 net.cpp:157] Top shape: 1 512 18 32 (294912)
I0608 14:15:20.785948 40592 net.cpp:165] Memory required for data: 83312724
I0608 14:15:20.785975 40592 layer_factory.hpp:77] Creating layer pool4
I0608 14:15:20.785996 40592 net.cpp:106] Creating Layer pool4
I0608 14:15:20.786006 40592 net.cpp:454] pool4 <- conv4_3
I0608 14:15:20.786026 40592 net.cpp:411] pool4 -> pool4
I0608 14:15:20.786109 40592 net.cpp:150] Setting up pool4
I0608 14:15:20.786132 40592 net.cpp:157] Top shape: 1 512 9 16 (73728)
I0608 14:15:20.786201 40592 net.cpp:165] Memory required for data: 83607636
I0608 14:15:20.786214 40592 layer_factory.hpp:77] Creating layer conv5_1
I0608 14:15:20.786248 40592 net.cpp:106] Creating Layer conv5_1
I0608 14:15:20.786259 40592 net.cpp:454] conv5_1 <- pool4
I0608 14:15:20.786275 40592 net.cpp:411] conv5_1 -> conv5_1
I0608 14:15:20.795415 40592 net.cpp:150] Setting up conv5_1
I0608 14:15:20.795450 40592 net.cpp:157] Top shape: 1 512 9 16 (73728)
I0608 14:15:20.795461 40592 net.cpp:165] Memory required for data: 83902548
I0608 14:15:20.795473 40592 layer_factory.hpp:77] Creating layer relu5_1
I0608 14:15:20.795487 40592 net.cpp:106] Creating Layer relu5_1
I0608 14:15:20.795497 40592 net.cpp:454] relu5_1 <- conv5_1
I0608 14:15:20.795509 40592 net.cpp:397] relu5_1 -> conv5_1 (in-place)
I0608 14:15:20.795536 40592 net.cpp:150] Setting up relu5_1
I0608 14:15:20.795568 40592 net.cpp:157] Top shape: 1 512 9 16 (73728)
I0608 14:15:20.795578 40592 net.cpp:165] Memory required for data: 84197460
I0608 14:15:20.795586 40592 layer_factory.hpp:77] Creating layer conv5_2
I0608 14:15:20.795604 40592 net.cpp:106] Creating Layer conv5_2
I0608 14:15:20.795619 40592 net.cpp:454] conv5_2 <- conv5_1
I0608 14:15:20.795634 40592 net.cpp:411] conv5_2 -> conv5_2
I0608 14:15:20.804679 40592 net.cpp:150] Setting up conv5_2
I0608 14:15:20.804714 40592 net.cpp:157] Top shape: 1 512 9 16 (73728)
I0608 14:15:20.804724 40592 net.cpp:165] Memory required for data: 84492372
I0608 14:15:20.804738 40592 layer_factory.hpp:77] Creating layer relu5_2
I0608 14:15:20.804752 40592 net.cpp:106] Creating Layer relu5_2
I0608 14:15:20.804765 40592 net.cpp:454] relu5_2 <- conv5_2
I0608 14:15:20.804780 40592 net.cpp:397] relu5_2 -> conv5_2 (in-place)
I0608 14:15:20.804795 40592 net.cpp:150] Setting up relu5_2
I0608 14:15:20.804810 40592 net.cpp:157] Top shape: 1 512 9 16 (73728)
I0608 14:15:20.804817 40592 net.cpp:165] Memory required for data: 84787284
I0608 14:15:20.804829 40592 layer_factory.hpp:77] Creating layer conv5_3
I0608 14:15:20.804854 40592 net.cpp:106] Creating Layer conv5_3
I0608 14:15:20.804884 40592 net.cpp:454] conv5_3 <- conv5_2
I0608 14:15:20.804898 40592 net.cpp:411] conv5_3 -> conv5_3
I0608 14:15:20.814064 40592 net.cpp:150] Setting up conv5_3
I0608 14:15:20.814105 40592 net.cpp:157] Top shape: 1 512 9 16 (73728)
I0608 14:15:20.814116 40592 net.cpp:165] Memory required for data: 85082196
I0608 14:15:20.814128 40592 layer_factory.hpp:77] Creating layer relu5_3
I0608 14:15:20.814196 40592 net.cpp:106] Creating Layer relu5_3
I0608 14:15:20.814210 40592 net.cpp:454] relu5_3 <- conv5_3
I0608 14:15:20.814226 40592 net.cpp:397] relu5_3 -> conv5_3 (in-place)
I0608 14:15:20.814244 40592 net.cpp:150] Setting up relu5_3
I0608 14:15:20.814277 40592 net.cpp:157] Top shape: 1 512 9 16 (73728)
I0608 14:15:20.814286 40592 net.cpp:165] Memory required for data: 85377108
I0608 14:15:20.814296 40592 layer_factory.hpp:77] Creating layer conv5_3_relu5_3_0_split
I0608 14:15:20.814309 40592 net.cpp:106] Creating Layer conv5_3_relu5_3_0_split
I0608 14:15:20.814327 40592 net.cpp:454] conv5_3_relu5_3_0_split <- conv5_3
I0608 14:15:20.814360 40592 net.cpp:411] conv5_3_relu5_3_0_split -> conv5_3_relu5_3_0_split_0
I0608 14:15:20.814378 40592 net.cpp:411] conv5_3_relu5_3_0_split -> conv5_3_relu5_3_0_split_1
I0608 14:15:20.814460 40592 net.cpp:150] Setting up conv5_3_relu5_3_0_split
I0608 14:15:20.814483 40592 net.cpp:157] Top shape: 1 512 9 16 (73728)
I0608 14:15:20.814502 40592 net.cpp:157] Top shape: 1 512 9 16 (73728)
I0608 14:15:20.814512 40592 net.cpp:165] Memory required for data: 85966932
I0608 14:15:20.814522 40592 layer_factory.hpp:77] Creating layer rpn_conv/3x3
I0608 14:15:20.814544 40592 net.cpp:106] Creating Layer rpn_conv/3x3
I0608 14:15:20.814555 40592 net.cpp:454] rpn_conv/3x3 <- conv5_3_relu5_3_0_split_0
I0608 14:15:20.814573 40592 net.cpp:411] rpn_conv/3x3 -> rpn/output
I0608 14:15:20.843683 40592 net.cpp:150] Setting up rpn_conv/3x3
I0608 14:15:20.843730 40592 net.cpp:157] Top shape: 1 512 9 16 (73728)
I0608 14:15:20.843740 40592 net.cpp:165] Memory required for data: 86261844
I0608 14:15:20.843755 40592 layer_factory.hpp:77] Creating layer rpn_relu/3x3
I0608 14:15:20.843772 40592 net.cpp:106] Creating Layer rpn_relu/3x3
I0608 14:15:20.843781 40592 net.cpp:454] rpn_relu/3x3 <- rpn/output
I0608 14:15:20.843794 40592 net.cpp:397] rpn_relu/3x3 -> rpn/output (in-place)
I0608 14:15:20.843811 40592 net.cpp:150] Setting up rpn_relu/3x3
I0608 14:15:20.843824 40592 net.cpp:157] Top shape: 1 512 9 16 (73728)
I0608 14:15:20.843832 40592 net.cpp:165] Memory required for data: 86556756
I0608 14:15:20.843842 40592 layer_factory.hpp:77] Creating layer rpn/output_rpn_relu/3x3_0_split
I0608 14:15:20.843860 40592 net.cpp:106] Creating Layer rpn/output_rpn_relu/3x3_0_split
I0608 14:15:20.843888 40592 net.cpp:454] rpn/output_rpn_relu/3x3_0_split <- rpn/output
I0608 14:15:20.843901 40592 net.cpp:411] rpn/output_rpn_relu/3x3_0_split -> rpn/output_rpn_relu/3x3_0_split_0
I0608 14:15:20.843920 40592 net.cpp:411] rpn/output_rpn_relu/3x3_0_split -> rpn/output_rpn_relu/3x3_0_split_1
I0608 14:15:20.844002 40592 net.cpp:150] Setting up rpn/output_rpn_relu/3x3_0_split
I0608 14:15:20.844023 40592 net.cpp:157] Top shape: 1 512 9 16 (73728)
I0608 14:15:20.844033 40592 net.cpp:157] Top shape: 1 512 9 16 (73728)
I0608 14:15:20.844043 40592 net.cpp:165] Memory required for data: 87146580
I0608 14:15:20.844051 40592 layer_factory.hpp:77] Creating layer rpn_cls_score
I0608 14:15:20.844079 40592 net.cpp:106] Creating Layer rpn_cls_score
I0608 14:15:20.844103 40592 net.cpp:454] rpn_cls_score <- rpn/output_rpn_relu/3x3_0_split_0
I0608 14:15:20.844121 40592 net.cpp:411] rpn_cls_score -> rpn_cls_score
I0608 14:15:20.844624 40592 net.cpp:150] Setting up rpn_cls_score
I0608 14:15:20.844651 40592 net.cpp:157] Top shape: 1 18 9 16 (2592)
I0608 14:15:20.844660 40592 net.cpp:165] Memory required for data: 87156948
I0608 14:15:20.844673 40592 layer_factory.hpp:77] Creating layer rpn_cls_score_rpn_cls_score_0_split
I0608 14:15:20.844691 40592 net.cpp:106] Creating Layer rpn_cls_score_rpn_cls_score_0_split
I0608 14:15:20.844704 40592 net.cpp:454] rpn_cls_score_rpn_cls_score_0_split <- rpn_cls_score
I0608 14:15:20.844717 40592 net.cpp:411] rpn_cls_score_rpn_cls_score_0_split -> rpn_cls_score_rpn_cls_score_0_split_0
I0608 14:15:20.844743 40592 net.cpp:411] rpn_cls_score_rpn_cls_score_0_split -> rpn_cls_score_rpn_cls_score_0_split_1
I0608 14:15:20.844821 40592 net.cpp:150] Setting up rpn_cls_score_rpn_cls_score_0_split
I0608 14:15:20.844846 40592 net.cpp:157] Top shape: 1 18 9 16 (2592)
I0608 14:15:20.844857 40592 net.cpp:157] Top shape: 1 18 9 16 (2592)
I0608 14:15:20.844866 40592 net.cpp:165] Memory required for data: 87177684
I0608 14:15:20.844875 40592 layer_factory.hpp:77] Creating layer rpn_bbox_pred
I0608 14:15:20.844897 40592 net.cpp:106] Creating Layer rpn_bbox_pred
I0608 14:15:20.844910 40592 net.cpp:454] rpn_bbox_pred <- rpn/output_rpn_relu/3x3_0_split_1
I0608 14:15:20.844924 40592 net.cpp:411] rpn_bbox_pred -> rpn_bbox_pred
I0608 14:15:20.845510 40592 net.cpp:150] Setting up rpn_bbox_pred
I0608 14:15:20.845536 40592 net.cpp:157] Top shape: 1 36 9 16 (5184)
I0608 14:15:20.845546 40592 net.cpp:165] Memory required for data: 87198420
I0608 14:15:20.845558 40592 layer_factory.hpp:77] Creating layer rpn_bbox_pred_rpn_bbox_pred_0_split
I0608 14:15:20.845571 40592 net.cpp:106] Creating Layer rpn_bbox_pred_rpn_bbox_pred_0_split
I0608 14:15:20.845583 40592 net.cpp:454] rpn_bbox_pred_rpn_bbox_pred_0_split <- rpn_bbox_pred
I0608 14:15:20.845597 40592 net.cpp:411] rpn_bbox_pred_rpn_bbox_pred_0_split -> rpn_bbox_pred_rpn_bbox_pred_0_split_0
I0608 14:15:20.845625 40592 net.cpp:411] rpn_bbox_pred_rpn_bbox_pred_0_split -> rpn_bbox_pred_rpn_bbox_pred_0_split_1
I0608 14:15:20.845711 40592 net.cpp:150] Setting up rpn_bbox_pred_rpn_bbox_pred_0_split
I0608 14:15:20.845733 40592 net.cpp:157] Top shape: 1 36 9 16 (5184)
I0608 14:15:20.845744 40592 net.cpp:157] Top shape: 1 36 9 16 (5184)
I0608 14:15:20.845752 40592 net.cpp:165] Memory required for data: 87239892
I0608 14:15:20.845785 40592 layer_factory.hpp:77] Creating layer rpn_cls_score_reshape
I0608 14:15:20.845816 40592 net.cpp:106] Creating Layer rpn_cls_score_reshape
I0608 14:15:20.845830 40592 net.cpp:454] rpn_cls_score_reshape <- rpn_cls_score_rpn_cls_score_0_split_0
I0608 14:15:20.845847 40592 net.cpp:411] rpn_cls_score_reshape -> rpn_cls_score_reshape
I0608 14:15:20.845904 40592 net.cpp:150] Setting up rpn_cls_score_reshape
I0608 14:15:20.845932 40592 net.cpp:157] Top shape: 1 2 81 16 (2592)
I0608 14:15:20.845957 40592 net.cpp:165] Memory required for data: 87250260
I0608 14:15:20.845971 40592 layer_factory.hpp:77] Creating layer rpn_cls_score_reshape_rpn_cls_score_reshape_0_split
I0608 14:15:20.845990 40592 net.cpp:106] Creating Layer rpn_cls_score_reshape_rpn_cls_score_reshape_0_split
I0608 14:15:20.846010 40592 net.cpp:454] rpn_cls_score_reshape_rpn_cls_score_reshape_0_split <- rpn_cls_score_reshape
I0608 14:15:20.846024 40592 net.cpp:411] rpn_cls_score_reshape_rpn_cls_score_reshape_0_split -> rpn_cls_score_reshape_rpn_cls_score_reshape_0_split_0
I0608 14:15:20.846041 40592 net.cpp:411] rpn_cls_score_reshape_rpn_cls_score_reshape_0_split -> rpn_cls_score_reshape_rpn_cls_score_reshape_0_split_1
I0608 14:15:20.846113 40592 net.cpp:150] Setting up rpn_cls_score_reshape_rpn_cls_score_reshape_0_split
I0608 14:15:20.846137 40592 net.cpp:157] Top shape: 1 2 81 16 (2592)
I0608 14:15:20.846233 40592 net.cpp:157] Top shape: 1 2 81 16 (2592)
I0608 14:15:20.846251 40592 net.cpp:165] Memory required for data: 87270996
I0608 14:15:20.846261 40592 layer_factory.hpp:77] Creating layer rpn-data
I0608 14:15:20.851490 40592 net.cpp:106] Creating Layer rpn-data
I0608 14:15:20.851546 40592 net.cpp:454] rpn-data <- rpn_cls_score_rpn_cls_score_0_split_1
I0608 14:15:20.851564 40592 net.cpp:454] rpn-data <- gt_boxes_input-data_2_split_0
I0608 14:15:20.851577 40592 net.cpp:454] rpn-data <- im_info_input-data_1_split_0
I0608 14:15:20.851588 40592 net.cpp:454] rpn-data <- data_input-data_0_split_1
I0608 14:15:20.851601 40592 net.cpp:411] rpn-data -> rpn_labels
I0608 14:15:20.851619 40592 net.cpp:411] rpn-data -> rpn_bbox_targets
I0608 14:15:20.851639 40592 net.cpp:411] rpn-data -> rpn_bbox_inside_weights
I0608 14:15:20.851655 40592 net.cpp:411] rpn-data -> rpn_bbox_outside_weights
I0608 14:15:20.852763 40592 net.cpp:150] Setting up rpn-data
I0608 14:15:20.852805 40592 net.cpp:157] Top shape: 1 1 81 16 (1296)
I0608 14:15:20.852818 40592 net.cpp:157] Top shape: 1 36 9 16 (5184)
I0608 14:15:20.852828 40592 net.cpp:157] Top shape: 1 36 9 16 (5184)
I0608 14:15:20.852838 40592 net.cpp:157] Top shape: 1 36 9 16 (5184)
I0608 14:15:20.852850 40592 net.cpp:165] Memory required for data: 87338388
I0608 14:15:20.852861 40592 layer_factory.hpp:77] Creating layer rpn_loss_cls
I0608 14:15:20.852886 40592 net.cpp:106] Creating Layer rpn_loss_cls
I0608 14:15:20.852910 40592 net.cpp:454] rpn_loss_cls <- rpn_cls_score_reshape_rpn_cls_score_reshape_0_split_0
I0608 14:15:20.852921 40592 net.cpp:454] rpn_loss_cls <- rpn_labels
…
I0608 14:15:20.853525 40592 net.cpp:157] Top shape: (1)
I0608 14:15:20.853550 40592 net.cpp:160]     with loss weight 1
I0608 14:15:20.853567 40592 net.cpp:165] Memory required for data: 87338396
I0608 14:15:20.853577 40592 layer_factory.hpp:77] Creating layer rpn_cls_prob
I0608 14:15:20.853595 40592 net.cpp:106] Creating Layer rpn_cls_prob
I0608 14:15:20.853617 40592 net.cpp:454] rpn_cls_prob <- rpn_cls_score_reshape_rpn_cls_score_reshape_0_split_1
I0608 14:15:20.853631 40592 net.cpp:411] rpn_cls_prob -> rpn_cls_prob
I0608 14:15:20.853763 40592 net.cpp:150] Setting up rpn_cls_prob
I0608 14:15:20.853790 40592 net.cpp:157] Top shape: 1 2 81 16 (2592)
I0608 14:15:20.853816 40592 net.cpp:165] Memory required for data: 87348764
I0608 14:15:20.853842 40592 layer_factory.hpp:77] Creating layer rpn_cls_prob_reshape
I0608 14:15:20.853864 40592 net.cpp:106] Creating Layer rpn_cls_prob_reshape
I0608 14:15:20.853874 40592 net.cpp:454] rpn_cls_prob_reshape <- rpn_cls_prob
I0608 14:15:20.853890 40592 net.cpp:411] rpn_cls_prob_reshape -> rpn_cls_prob_reshape
I0608 14:15:20.853947 40592 net.cpp:150] Setting up rpn_cls_prob_reshape
I0608 14:15:20.853971 40592 net.cpp:157] Top shape: 1 18 9 16 (2592)
I0608 14:15:20.853981 40592 net.cpp:165] Memory required for data: 87359132
I0608 14:15:20.853989 40592 layer_factory.hpp:77] Creating layer proposal
I0608 14:15:20.864231 40592 net.cpp:106] Creating Layer proposal
I0608 14:15:20.864264 40592 net.cpp:454] proposal <- rpn_cls_prob_reshape
I0608 14:15:20.864276 40592 net.cpp:454] proposal <- rpn_bbox_pred_rpn_bbox_pred_0_split_1
I0608 14:15:20.864287 40592 net.cpp:454] proposal <- im_info_input-data_1_split_1
I0608 14:15:20.864318 40592 net.cpp:411] proposal -> rpn_rois
I0608 14:15:20.865402 40592 net.cpp:150] Setting up proposal
I0608 14:15:20.865443 40592 net.cpp:157] Top shape: 1 5 (5)
I0608 14:15:20.865453 40592 net.cpp:165] Memory required for data: 87359152
I0608 14:15:20.865463 40592 layer_factory.hpp:77] Creating layer roi-data
I0608 14:15:20.867007 40592 net.cpp:106] Creating Layer roi-data
I0608 14:15:20.867038 40592 net.cpp:454] roi-data <- rpn_rois
I0608 14:15:20.867050 40592 net.cpp:454] roi-data <- gt_boxes_input-data_2_split_1
I0608 14:15:20.867063 40592 net.cpp:411] roi-data -> rois
I0608 14:15:20.867084 40592 net.cpp:411] roi-data -> labels
I0608 14:15:20.867097 40592 net.cpp:411] roi-data -> bbox_targets
I0608 14:15:20.867112 40592 net.cpp:411] roi-data -> bbox_inside_weights
I0608 14:15:20.867125 40592 net.cpp:411] roi-data -> bbox_outside_weights
I0608 14:15:20.867619 40592 net.cpp:150] Setting up roi-data
I0608 14:15:20.867650 40592 net.cpp:157] Top shape: 1 5 (5)
I0608 14:15:20.867660 40592 net.cpp:157] Top shape: 1 1 (1)
I0608 14:15:20.867668 40592 net.cpp:157] Top shape: 1 32 (32)
I0608 14:15:20.867678 40592 net.cpp:157] Top shape: 1 32 (32)
I0608 14:15:20.867686 40592 net.cpp:157] Top shape: 1 32 (32)
I0608 14:15:20.867693 40592 net.cpp:165] Memory required for data: 87359560
I0608 14:15:20.867705 40592 layer_factory.hpp:77] Creating layer roi_pool5
I0608 14:15:20.867722 40592 net.cpp:106] Creating Layer roi_pool5
I0608 14:15:20.867738 40592 net.cpp:454] roi_pool5 <- conv5_3_relu5_3_0_split_1
I0608 14:15:20.867749 40592 net.cpp:454] roi_pool5 <- rois
I0608 14:15:20.867759 40592 net.cpp:411] roi_pool5 -> pool5
I0608 14:15:20.867781 40592 roi_pooling_layer.cpp:30] Spatial scale: 0.0625
I0608 14:15:20.867871 40592 net.cpp:150] Setting up roi_pool5
I0608 14:15:20.867904 40592 net.cpp:157] Top shape: 1 512 7 7 (25088)
I0608 14:15:20.867913 40592 net.cpp:165] Memory required for data: 87459912
I0608 14:15:20.867920 40592 layer_factory.hpp:77] Creating layer fc6
I0608 14:15:20.867938 40592 net.cpp:106] Creating Layer fc6
I0608 14:15:20.867949 40592 net.cpp:454] fc6 <- pool5
I0608 14:15:20.867959 40592 net.cpp:411] fc6 -> fc6
I0608 14:15:21.250785 40592 net.cpp:150] Setting up fc6
I0608 14:15:21.250861 40592 net.cpp:157] Top shape: 1 4096 (4096)
I0608 14:15:21.250875 40592 net.cpp:165] Memory required for data: 87476296
I0608 14:15:21.250918 40592 layer_factory.hpp:77] Creating layer relu6
I0608 14:15:21.250946 40592 net.cpp:106] Creating Layer relu6
I0608 14:15:21.250962 40592 net.cpp:454] relu6 <- fc6
I0608 14:15:21.250984 40592 net.cpp:397] relu6 -> fc6 (in-place)
I0608 14:15:21.251009 40592 net.cpp:150] Setting up relu6
I0608 14:15:21.251024 40592 net.cpp:157] Top shape: 1 4096 (4096)
I0608 14:15:21.251037 40592 net.cpp:165] Memory required for data: 87492680
I0608 14:15:21.251076 40592 layer_factory.hpp:77] Creating layer drop6
I0608 14:15:21.251101 40592 net.cpp:106] Creating Layer drop6
I0608 14:15:21.251137 40592 net.cpp:454] drop6 <- fc6
I0608 14:15:21.251152 40592 net.cpp:397] drop6 -> fc6 (in-place)
I0608 14:15:21.251230 40592 net.cpp:150] Setting up drop6
I0608 14:15:21.251255 40592 net.cpp:157] Top shape: 1 4096 (4096)
I0608 14:15:21.251267 40592 net.cpp:165] Memory required for data: 87509064
I0608 14:15:21.251278 40592 layer_factory.hpp:77] Creating layer fc7
I0608 14:15:21.251304 40592 net.cpp:106] Creating Layer fc7
I0608 14:15:21.251327 40592 net.cpp:454] fc7 <- fc6
I0608 14:15:21.251346 40592 net.cpp:411] fc7 -> fc7
I0608 14:15:21.317127 40592 net.cpp:150] Setting up fc7
I0608 14:15:21.317198 40592 net.cpp:157] Top shape: 1 4096 (4096)
I0608 14:15:21.317209 40592 net.cpp:165] Memory required for data: 87525448
I0608 14:15:21.317227 40592 layer_factory.hpp:77] Creating layer relu7
I0608 14:15:21.317247 40592 net.cpp:106] Creating Layer relu7
I0608 14:15:21.317258 40592 net.cpp:454] relu7 <- fc7
I0608 14:15:21.317276 40592 net.cpp:397] relu7 -> fc7 (in-place)
I0608 14:15:21.317299 40592 net.cpp:150] Setting up relu7
I0608 14:15:21.317308 40592 net.cpp:157] Top shape: 1 4096 (4096)
I0608 14:15:21.317342 40592 net.cpp:165] Memory required for data: 87541832
I0608 14:15:21.317349 40592 layer_factory.hpp:77] Creating layer drop7
I0608 14:15:21.317365 40592 net.cpp:106] Creating Layer drop7
I0608 14:15:21.317373 40592 net.cpp:454] drop7 <- fc7
I0608 14:15:21.317387 40592 net.cpp:397] drop7 -> fc7 (in-place)
I0608 14:15:21.317440 40592 net.cpp:150] Setting up drop7
I0608 14:15:21.317459 40592 net.cpp:157] Top shape: 1 4096 (4096)
I0608 14:15:21.317467 40592 net.cpp:165] Memory required for data: 87558216
I0608 14:15:21.317474 40592 layer_factory.hpp:77] Creating layer fc7_drop7_0_split
I0608 14:15:21.317487 40592 net.cpp:106] Creating Layer fc7_drop7_0_split
I0608 14:15:21.317508 40592 net.cpp:454] fc7_drop7_0_split <- fc7
I0608 14:15:21.317519 40592 net.cpp:411] fc7_drop7_0_split -> fc7_drop7_0_split_0
I0608 14:15:21.317533 40592 net.cpp:411] fc7_drop7_0_split -> fc7_drop7_0_split_1
I0608 14:15:21.317625 40592 net.cpp:150] Setting up fc7_drop7_0_split
I0608 14:15:21.317644 40592 net.cpp:157] Top shape: 1 4096 (4096)
I0608 14:15:21.317652 40592 net.cpp:157] Top shape: 1 4096 (4096)
I0608 14:15:21.317662 40592 net.cpp:165] Memory required for data: 87590984
I0608 14:15:21.317669 40592 layer_factory.hpp:77] Creating layer cls_score
I0608 14:15:21.317687 40592 net.cpp:106] Creating Layer cls_score
I0608 14:15:21.317705 40592 net.cpp:454] cls_score <- fc7_drop7_0_split_0
I0608 14:15:21.317718 40592 net.cpp:411] cls_score -> cls_score
I0608 14:15:21.318336 40592 net.cpp:150] Setting up cls_score
I0608 14:15:21.318361 40592 net.cpp:157] Top shape: 1 8 (8)
I0608 14:15:21.318369 40592 net.cpp:165] Memory required for data: 87591016
I0608 14:15:21.318382 40592 layer_factory.hpp:77] Creating layer bbox_pred
I0608 14:15:21.318394 40592 net.cpp:106] Creating Layer bbox_pred
I0608 14:15:21.318408 40592 net.cpp:454] bbox_pred <- fc7_drop7_0_split_1
I0608 14:15:21.318426 40592 net.cpp:411] bbox_pred -> bbox_pred
I0608 14:15:21.323784 40592 net.cpp:150] Setting up bbox_pred
I0608 14:15:21.323817 40592 net.cpp:157] Top shape: 1 32 (32)
I0608 14:15:21.323827 40592 net.cpp:165] Memory required for data: 87591144
I0608 14:15:21.323838 40592 layer_factory.hpp:77] Creating layer loss_cls
I0608 14:15:21.323853 40592 net.cpp:106] Creating Layer loss_cls
I0608 14:15:21.323870 40592 net.cpp:454] loss_cls <- cls_score
I0608 14:15:21.323889 40592 net.cpp:454] loss_cls <- labels
I0608 14:15:21.323904 40592 net.cpp:411] loss_cls -> loss_cls
…
