…
I1109 15:00:51.707939 17014 upgrade_proto.cpp:77] Attempting to upgrade batch norm layers using deprecated params: models/pascal_voc/MMCV5S8/faster_rcnn_end2end/train.prototxt
I1109 15:00:51.707970 17014 upgrade_proto.cpp:80] Successfully upgraded batch norm layers using deprecated params.
I1109 15:00:51.708487 17014 net.cpp:51] Initializing net from parameters: 
name: "MMCV5"
state {
  phase: TRAIN
}
layer {
  name: "input-data"
  type: "Python"
  top: "data"
  top: "im_info"
  top: "gt_boxes"
  top: "flags"
  python_param {
    module: "roi_data_layer.layer"
    layer: "RoIDataLayer"
    param_str: "\'num_classes\': 2"
  }
}
layer {
  name: "conv1_small"
  type: "Convolution"
  bottom: "data"
  top: "conv1"
  param {
    lr_mult: 1
    decay_mult: 1
  }
  param {
    lr_mult: 2
    decay_mult: 0
  }
  convolution_param {
    num_output: 16
    pad: 2
    kernel_size: 5
    stride: 2
    weight_filler {
      type: "xavier"
      std: 0.01
    }
    bias_filler {
      type: "constant"
      value: 0
    }
  }
}
layer {
  name: "conv1_small_bn"
  type: "BatchNorm"
  bottom: "conv1"
  top: "conv1"
  param {
    lr_mult: 0
    decay_mult: 0
  }
  param {
    lr_mult: 0
    decay_mult: 0
  }
  param {
    lr_mult: 0
    decay_mult: 0
  }
  batch_norm_param {
    use_global_stats: false
    moving_average_fraction: 0.9
    eps: 2e-05
  }
}
layer {
  name: "conv1_small_bn_scale"
  type: "Scale"
  bottom: "conv1"
  top: "conv1"
  param {
    lr_mult: 1
    decay_mult: 0
  }
  param {
    lr_mult: 1
    decay_mult: 0
  }
  scale_param {
    filler {
      value: 1
    }
    bias_term: true
    bias_filler {
      value: 0
    }
  }
}
layer {
  name: "relu1"
  type: "ReLU"
  bottom: "conv1"
  top: "conv1"
}
layer {
  name: "mm_conv2"
  type: "Convolution"
  bottom: "conv1"
  top: "conv2"
  param {
    lr_mult: 1
    decay_mult: 1
  }
  param {
    lr_mult: 2
    decay_mult: 0
  }
  convolution_param {
    num_output: 32
    pad: 1
    kernel_size: 3
    stride: 2
    weight_filler {
      type: "xavier"
      std: 0.01
    }
    bias_filler {
      type: "constant"
      value: 1
    }
  }
}
layer {
  name: "mm_conv2_bn"
  type: "BatchNorm"
  bottom: "conv2"
  top: "conv2"
  param {
    lr_mult: 0
    decay_mult: 0
  }
  param {
    lr_mult: 0
    decay_mult: 0
  }
  param {
    lr_mult: 0
    decay_mult: 0
  }
  batch_norm_param {
    use_global_stats: false
    moving_average_fraction: 0.9
    eps: 2e-05
  }
}
layer {
  name: "mm_conv2_bn_scale"
  type: "Scale"
  bottom: "conv2"
  top: "conv2"
  param {
    lr_mult: 1
    decay_mult: 0
  }
  param {
    lr_mult: 1
    decay_mult: 0
  }
  scale_param {
    filler {
      value: 1
    }
    bias_term: true
    bias_filler {
      value: 0
    }
  }
}
layer {
  name: "relu2"
  type: "ReLU"
  bottom: "conv2"
  top: "conv2"
}
layer {
  name: "mm_conv3"
  type: "Convolution"
  bottom: "conv2"
  top: "conv3"
  param {
    lr_mult: 1
    decay_mult: 1
  }
  param {
    lr_mult: 2
    decay_mult: 0
  }
  convolution_param {
    num_output: 64
    pad: 1
    kernel_size: 3
    stride: 2
    weight_filler {
      type: "xavier"
      std: 0.01
    }
    bias_filler {
      type: "constant"
      value: 0
    }
  }
}
layer {
  name: "mm_conv3_bn"
  type: "BatchNorm"
  bottom: "conv3"
  top: "conv3"
  param {
    lr_mult: 0
    decay_mult: 0
  }
  param {
    lr_mult: 0
    decay_mult: 0
  }
  param {
    lr_mult: 0
    decay_mult: 0
  }
  batch_norm_param {
    use_global_stats: false
    moving_average_fraction: 0.9
    eps: 2e-05
  }
}
layer {
  name: "mm_conv3_bn_scale"
  type: "Scale"
  bottom: "conv3"
  top: "conv3"
  param {
    lr_mult: 1
    decay_mult: 0
  }
  param {
    lr_mult: 1
    decay_mult: 0
  }
  scale_param {
    filler {
      value: 1
    }
    bias_term: true
    bias_filler {
      value: 0
    }
  }
}
layer {
  name: "relu3"
  type: "ReLU"
  bottom: "conv3"
  top: "conv3"
}
layer {
  name: "mm_conv4"
  type: "Convolution"
  bottom: "conv3"
  top: "conv4"
  param {
    lr_mult: 1
    decay_mult: 1
  }
  param {
    lr_mult: 2
    decay_mult: 0
  }
  convolution_param {
    num_output: 64
    pad: 1
    kernel_size: 3
    weight_filler {
      type: "xavier"
      std: 0.01
    }
    bias_filler {
      type: "constant"
      value: 1
    }
  }
}
layer {
  name: "mm_conv4_bn"
  type: "BatchNorm"
  bottom: "conv4"
  top: "conv4"
  param {
    lr_mult: 0
    decay_mult: 0
  }
  param {
    lr_mult: 0
    decay_mult: 0
  }
  param {
    lr_mult: 0
    decay_mult: 0
  }
  batch_norm_param {
    use_global_stats: false
    moving_average_fraction: 0.9
    eps: 2e-05
  }
}
layer {
  name: "mm_conv4_bn_scale"
  type: "Scale"
  bottom: "conv4"
  top: "conv4"
  param {
    lr_mult: 1
    decay_mult: 0
  }
  param {
    lr_mult: 1
    decay_mult: 0
  }
  scale_param {
    filler {
      value: 1
    }
    bias_term: true
    bias_filler {
      value: 0
    }
  }
}
layer {
  name: "relu4"
  type: "ReLU"
  bottom: "conv4"
  top: "conv4"
}
layer {
  name: "mm_conv5"
  type: "Convolution"
  bottom: "conv4"
  top: "conv5"
  param {
    lr_mult: 1
    decay_mult: 1
  }
  param {
    lr_mult: 2
    decay_mult: 0
  }
  convolution_param {
    num_output: 64
    pad: 1
    kernel_size: 3
    weight_filler {
      type: "xavier"
      std: 0.01
    }
    bias_filler {
      type: "constant"
      value: 1
    }
  }
}
layer {
  name: "mm_conv5_bn"
  type: "BatchNorm"
  bottom: "conv5"
  top: "conv5"
  param {
    lr_mult: 0
    decay_mult: 0
  }
  param {
    lr_mult: 0
    decay_mult: 0
  }
  param {
    lr_mult: 0
    decay_mult: 0
  }
  batch_norm_param {
    use_global_stats: false
    moving_average_fraction: 0.9
    eps: 2e-05
  }
}
layer {
  name: "mm_conv5_bn_scale"
  type: "Scale"
  bottom: "conv5"
  top: "conv5"
  param {
    lr_mult: 1
    decay_mult: 0
  }
  param {
    lr_mult: 1
    decay_mult: 0
  }
  scale_param {
    filler {
      value: 1
    }
    bias_term: true
    bias_filler {
      value: 0
    }
  }
}
layer {
  name: "relu5"
  type: "ReLU"
  bottom: "conv5"
  top: "conv5"
}
layer {
  name: "rpn_conv/3x3"
  type: "Convolution"
  bottom: "conv5"
  top: "rpn/output"
  param {
    lr_mult: 1
  }
  param {
    lr_mult: 2
  }
  convolution_param {
    num_output: 64
    pad: 1
    kernel_size: 3
    stride: 1
    weight_filler {
      type: "xavier"
      std: 0.01
    }
    bias_filler {
      type: "constant"
      value: 0
    }
  }
}
layer {
  name: "rpn_conv/3x3_bn"
  type: "BatchNorm"
  bottom: "rpn/output"
  top: "rpn/output"
  param {
    lr_mult: 0
    decay_mult: 0
  }
  param {
    lr_mult: 0
    decay_mult: 0
  }
  param {
    lr_mult: 0
    decay_mult: 0
  }
  batch_norm_param {
    use_global_stats: false
    moving_average_fraction: 0.9
    eps: 2e-05
  }
}
layer {
  name: "rpn_conv/3x3_bn_scale"
  type: "Scale"
  bottom: "rpn/output"
  top: "rpn/output"
  param {
    lr_mult: 1
    decay_mult: 0
  }
  param {
    lr_mult: 1
    decay_mult: 0
  }
  scale_param {
    filler {
      value: 1
    }
    bias_term: true
    bias_filler {
      value: 0
    }
  }
}
layer {
  name: "rpn_relu/3x3"
  type: "ReLU"
  bottom: "rpn/output"
  top: "rpn/output"
}
layer {
  name: "rpn_cls_score"
  type: "Convolution"
  bottom: "rpn/output"
  top: "rpn_cls_score"
  param {
    lr_mult: 1
  }
  param {
    lr_mult: 2
  }
  convolution_param {
    num_output: 18
    pad: 0
    kernel_size: 1
    stride: 1
    weight_filler {
      type: "xavier"
      std: 0.01
    }
    bias_filler {
      type: "constant"
      value: 0
    }
  }
}
layer {
  name: "rpn_bbox_pred"
  type: "Convolution"
  bottom: "rpn/output"
  top: "rpn_bbox_pred"
  param {
    lr_mult: 1
  }
  param {
    lr_mult: 2
  }
  convolution_param {
    num_output: 36
    pad: 0
    kernel_size: 1
    stride: 1
    weight_filler {
      type: "xavier"
      std: 0.01
    }
    bias_filler {
      type: "constant"
      value: 0
    }
  }
}
layer {
  name: "rpn_cls_score_reshape"
  type: "Reshape"
  bottom: "rpn_cls_score"
  top: "rpn_cls_score_reshape"
  reshape_param {
    shape {
      dim: 0
      dim: 2
      dim: -1
      dim: 0
    }
  }
}
layer {
  name: "rpn-data"
  type: "Python"
  bottom: "rpn_cls_score"
  bottom: "gt_boxes"
  bottom: "im_info"
  bottom: "data"
  bottom: "flags"
  top: "rpn_labels"
  top: "rpn_bbox_targets"
  top: "rpn_bbox_inside_weights"
  top: "rpn_bbox_outside_weights"
  python_param {
    module: "rpn.anchor_target_layer"
    layer: "AnchorTargetLayer"
    param_str: "\'feat_stride\': 8"
  }
}
layer {
  name: "rpn_loss_cls"
  type: "SoftmaxWithLoss"
  bottom: "rpn_cls_score_reshape"
  bottom: "rpn_labels"
  top: "rpn_cls_loss"
  loss_weight: 2
  propagate_down: true
  propagate_down: false
  loss_param {
    ignore_label: -1
    normalize: true
  }
}
layer {
  name: "rpn_loss_bbox"
  type: "SmoothL1Loss"
  bottom: "rpn_bbox_pred"
  bottom: "rpn_bbox_targets"
  bottom: "rpn_bbox_inside_weights"
  bottom: "rpn_bbox_outside_weights"
  top: "rpn_loss_bbox"
  loss_weight: 1
  smooth_l1_loss_param {
    sigma: 3
  }
}
layer {
  name: "rpn_cls_prob"
  type: "Softmax"
  bottom: "rpn_cls_score_reshape"
  top: "rpn_cls_prob"
}
layer {
  name: "rpn_cls_prob_reshape"
  type: "Reshape"
  bottom: "rpn_cls_prob"
  top: "rpn_cls_prob_reshape"
  reshape_param {
    shape {
      dim: 0
      dim: 18
      dim: -1
      dim: 0
    }
  }
}
layer {
  name: "proposal"
  type: "Python"
  bottom: "rpn_cls_prob_reshape"
  bottom: "rpn_bbox_pred"
  bottom: "im_info"
  top: "rpn_rois"
  python_param {
    module: "rpn.proposal_layer"
    layer: "ProposalLayer"
    param_str: "\'feat_stride\': 8"
  }
}
layer {
  name: "roi-data"
  type: "Python"
  bottom: "rpn_rois"
  bottom: "gt_boxes"
  bottom: "flags"
  top: "rois"
  top: "labels"
  top: "bbox_targets"
  top: "bbox_inside_weights"
  top: "bbox_outside_weights"
  python_param {
    module: "rpn.proposal_target_layer"
    layer: "ProposalTargetLayer"
    param_str: "\'num_classes\': 2"
  }
}
layer {
  name: "roi_pool_conv5"
  type: "ROIPooling"
  bottom: "conv5"
  bottom: "rois"
  top: "roi_pool_conv5"
  roi_pooling_param {
    pooled_h: 4
    pooled_w: 4
    spatial_scale: 0.125
  }
}
layer {
  name: "mm_fc6_L"
  type: "InnerProduct"
  bottom: "roi_pool_conv5"
  top: "fc6_l"
  param {
    lr_mult: 0
    decay_mult: 0
  }
  param {
    lr_mult: 0
    decay_mult: 0
  }
  inner_product_param {
    num_output: 128
    weight_filler {
      type: "xavier"
      std: 0.005
    }
    bias_filler {
      type: "constant"
      value: 1
    }
  }
}
layer {
  name: "mm_fc6_L_bn"
  type: "BatchNorm"
  bottom: "fc6_l"
  top: "fc6_l"
  param {
    lr_mult: 0
    decay_mult: 0
  }
  param {
    lr_mult: 0
    decay_mult: 0
  }
  param {
    lr_mult: 0
    decay_mult: 0
  }
  batch_norm_param {
    use_global_stats: false
    moving_average_fraction: 0.9
    eps: 2e-05
  }
}
layer {
  name: "mm_fc6_L_bn_scale"
  type: "Scale"
  bottom: "fc6_l"
  top: "fc6_l"
  param {
    lr_mult: 0
    decay_mult: 0
  }
  param {
    lr_mult: 0
    decay_mult: 0
  }
  scale_param {
    filler {
      value: 1
    }
    bias_term: true
    bias_filler {
      value: 0
    }
  }
}
layer {
  name: "relu6_L"
  type: "ReLU"
  bottom: "fc6_l"
  top: "fc6_l"
}
layer {
  name: "mm_fc6_U"
  type: "InnerProduct"
  bottom: "fc6_l"
  top: "fc6_u"
  param {
    lr_mult: 0
    decay_mult: 0
  }
  param {
    lr_mult: 0
    decay_mult: 0
  }
  inner_product_param {
    num_output: 512
    weight_filler {
      type: "xavier"
      std: 0.005
    }
    bias_filler {
      type: "constant"
      value: 1
    }
  }
}
layer {
  name: "mm_fc6_U_bn"
  type: "BatchNorm"
  bottom: "fc6_u"
  top: "fc6_u"
  param {
    lr_mult: 0
    decay_mult: 0
  }
  param {
    lr_mult: 0
    decay_mult: 0
  }
  param {
    lr_mult: 0
    decay_mult: 0
  }
  batch_norm_param {
    use_global_stats: false
    moving_average_fraction: 0.9
    eps: 2e-05
  }
}
layer {
  name: "mm_fc6_U_bn_scale"
  type: "Scale"
  bottom: "fc6_u"
  top: "fc6_u"
  param {
    lr_mult: 0
    decay_mult: 0
  }
  param {
    lr_mult: 0
    decay_mult: 0
  }
  scale_param {
    filler {
      value: 1
    }
    bias_term: true
    bias_filler {
      value: 0
    }
  }
}
layer {
  name: "relu6_U"
  type: "ReLU"
  bottom: "fc6_u"
  top: "fc6_u"
}
layer {
  name: "cls_score"
  type: "InnerProduct"
  bottom: "fc6_u"
  top: "cls_score"
  param {
    lr_mult: 0
  }
  param {
    lr_mult: 0
  }
  inner_product_param {
    num_output: 2
    weight_filler {
      type: "xavier"
      std: 0.01
    }
    bias_filler {
      type: "constant"
      value: 0
    }
  }
}
layer {
  name: "bbox_pred"
  type: "InnerProduct"
  bottom: "fc6_u"
  top: "bbox_pred"
  param {
    lr_mult: 0
  }
  param {
    lr_mult: 0
  }
  inner_product_param {
    num_output: 8
    weight_filler {
      type: "xavier"
      std: 0.001
    }
    bias_filler {
      type: "constant"
      value: 0
    }
  }
}
layer {
  name: "loss_cls"
  type: "SoftmaxWithLoss"
  bottom: "cls_score"
  bottom: "labels"
  top: "cls_loss"
  loss_weight: 0
  propagate_down: false
  propagate_down: false
  loss_param {
    ignore_label: -1
    normalize: true
  }
}
layer {
  name: "loss_bbox"
  type: "SmoothL1Loss"
  bottom: "bbox_pred"
  bottom: "bbox_targets"
  bottom: "bbox_inside_weights"
  bottom: "bbox_outside_weights"
  top: "bbox_loss"
  loss_weight: 0
  propagate_down: false
  propagate_down: false
  propagate_down: false
  propagate_down: false
}
I1109 15:00:51.708799 17014 layer_factory.hpp:77] Creating layer input-data
I1109 15:00:51.938246 17014 net.cpp:84] Creating Layer input-data
I1109 15:00:51.938280 17014 net.cpp:380] input-data -> data
I1109 15:00:51.938293 17014 net.cpp:380] input-data -> im_info
I1109 15:00:51.938303 17014 net.cpp:380] input-data -> gt_boxes
I1109 15:00:51.938309 17014 net.cpp:380] input-data -> flags
RoiDataLayer: name_to_top: {'flags': 3, 'gt_boxes': 2, 'data': 0, 'im_info': 1}
I1109 15:00:52.465464 17014 net.cpp:122] Setting up input-data
I1109 15:00:52.465494 17014 net.cpp:129] Top shape: 8 3 144 256 (884736)
I1109 15:00:52.465499 17014 net.cpp:129] Top shape: 1 3 (3)
I1109 15:00:52.465504 17014 net.cpp:129] Top shape: 1 4 (4)
I1109 15:00:52.465508 17014 net.cpp:129] Top shape: 1 1 (1)
I1109 15:00:52.465512 17014 net.cpp:137] Memory required for data: 3538976
I1109 15:00:52.465517 17014 layer_factory.hpp:77] Creating layer data_input-data_0_split
I1109 15:00:52.465533 17014 net.cpp:84] Creating Layer data_input-data_0_split
I1109 15:00:52.465538 17014 net.cpp:406] data_input-data_0_split <- data
I1109 15:00:52.465549 17014 net.cpp:380] data_input-data_0_split -> data_input-data_0_split_0
I1109 15:00:52.465562 17014 net.cpp:380] data_input-data_0_split -> data_input-data_0_split_1
I1109 15:00:52.465626 17014 net.cpp:122] Setting up data_input-data_0_split
I1109 15:00:52.465632 17014 net.cpp:129] Top shape: 8 3 144 256 (884736)
I1109 15:00:52.465637 17014 net.cpp:129] Top shape: 8 3 144 256 (884736)
I1109 15:00:52.465641 17014 net.cpp:137] Memory required for data: 10616864
I1109 15:00:52.465644 17014 layer_factory.hpp:77] Creating layer im_info_input-data_1_split
I1109 15:00:52.465651 17014 net.cpp:84] Creating Layer im_info_input-data_1_split
I1109 15:00:52.465654 17014 net.cpp:406] im_info_input-data_1_split <- im_info
I1109 15:00:52.465663 17014 net.cpp:380] im_info_input-data_1_split -> im_info_input-data_1_split_0
I1109 15:00:52.465672 17014 net.cpp:380] im_info_input-data_1_split -> im_info_input-data_1_split_1
I1109 15:00:52.465723 17014 net.cpp:122] Setting up im_info_input-data_1_split
I1109 15:00:52.465728 17014 net.cpp:129] Top shape: 1 3 (3)
I1109 15:00:52.465734 17014 net.cpp:129] Top shape: 1 3 (3)
I1109 15:00:52.465735 17014 net.cpp:137] Memory required for data: 10616888
I1109 15:00:52.465739 17014 layer_factory.hpp:77] Creating layer gt_boxes_input-data_2_split
I1109 15:00:52.465744 17014 net.cpp:84] Creating Layer gt_boxes_input-data_2_split
I1109 15:00:52.465749 17014 net.cpp:406] gt_boxes_input-data_2_split <- gt_boxes
I1109 15:00:52.465755 17014 net.cpp:380] gt_boxes_input-data_2_split -> gt_boxes_input-data_2_split_0
I1109 15:00:52.465764 17014 net.cpp:380] gt_boxes_input-data_2_split -> gt_boxes_input-data_2_split_1
I1109 15:00:52.465816 17014 net.cpp:122] Setting up gt_boxes_input-data_2_split
I1109 15:00:52.465822 17014 net.cpp:129] Top shape: 1 4 (4)
I1109 15:00:52.465826 17014 net.cpp:129] Top shape: 1 4 (4)
I1109 15:00:52.465828 17014 net.cpp:137] Memory required for data: 10616920
I1109 15:00:52.465832 17014 layer_factory.hpp:77] Creating layer flags_input-data_3_split
I1109 15:00:52.465839 17014 net.cpp:84] Creating Layer flags_input-data_3_split
I1109 15:00:52.465842 17014 net.cpp:406] flags_input-data_3_split <- flags
I1109 15:00:52.465850 17014 net.cpp:380] flags_input-data_3_split -> flags_input-data_3_split_0
I1109 15:00:52.465857 17014 net.cpp:380] flags_input-data_3_split -> flags_input-data_3_split_1
I1109 15:00:52.465907 17014 net.cpp:122] Setting up flags_input-data_3_split
I1109 15:00:52.465912 17014 net.cpp:129] Top shape: 1 1 (1)
I1109 15:00:52.465916 17014 net.cpp:129] Top shape: 1 1 (1)
I1109 15:00:52.465919 17014 net.cpp:137] Memory required for data: 10616928
I1109 15:00:52.465922 17014 layer_factory.hpp:77] Creating layer conv1_small
I1109 15:00:52.465939 17014 net.cpp:84] Creating Layer conv1_small
I1109 15:00:52.465942 17014 net.cpp:406] conv1_small <- data_input-data_0_split_0
I1109 15:00:52.465950 17014 net.cpp:380] conv1_small -> conv1
I1109 15:00:52.470237 17014 net.cpp:122] Setting up conv1_small
I1109 15:00:52.470265 17014 net.cpp:129] Top shape: 8 16 72 128 (1179648)
I1109 15:00:52.470268 17014 net.cpp:137] Memory required for data: 15335520
I1109 15:00:52.470285 17014 layer_factory.hpp:77] Creating layer conv1_small_bn
I1109 15:00:52.470299 17014 net.cpp:84] Creating Layer conv1_small_bn
I1109 15:00:52.470304 17014 net.cpp:406] conv1_small_bn <- conv1
I1109 15:00:52.470314 17014 net.cpp:367] conv1_small_bn -> conv1 (in-place)
I1109 15:00:52.470664 17014 net.cpp:122] Setting up conv1_small_bn
I1109 15:00:52.470671 17014 net.cpp:129] Top shape: 8 16 72 128 (1179648)
I1109 15:00:52.470674 17014 net.cpp:137] Memory required for data: 20054112
I1109 15:00:52.470686 17014 layer_factory.hpp:77] Creating layer conv1_small_bn_scale
I1109 15:00:52.470697 17014 net.cpp:84] Creating Layer conv1_small_bn_scale
I1109 15:00:52.470701 17014 net.cpp:406] conv1_small_bn_scale <- conv1
I1109 15:00:52.470708 17014 net.cpp:367] conv1_small_bn_scale -> conv1 (in-place)
I1109 15:00:52.470770 17014 layer_factory.hpp:77] Creating layer conv1_small_bn_scale
I1109 15:00:52.470965 17014 net.cpp:122] Setting up conv1_small_bn_scale
I1109 15:00:52.470973 17014 net.cpp:129] Top shape: 8 16 72 128 (1179648)
I1109 15:00:52.470976 17014 net.cpp:137] Memory required for data: 24772704
I1109 15:00:52.470983 17014 layer_factory.hpp:77] Creating layer relu1
I1109 15:00:52.470993 17014 net.cpp:84] Creating Layer relu1
I1109 15:00:52.470998 17014 net.cpp:406] relu1 <- conv1
I1109 15:00:52.471002 17014 net.cpp:367] relu1 -> conv1 (in-place)
I1109 15:00:52.471009 17014 net.cpp:122] Setting up relu1
I1109 15:00:52.471014 17014 net.cpp:129] Top shape: 8 16 72 128 (1179648)
I1109 15:00:52.471016 17014 net.cpp:137] Memory required for data: 29491296
I1109 15:00:52.471019 17014 layer_factory.hpp:77] Creating layer mm_conv2
I1109 15:00:52.471037 17014 net.cpp:84] Creating Layer mm_conv2
I1109 15:00:52.471040 17014 net.cpp:406] mm_conv2 <- conv1
I1109 15:00:52.471050 17014 net.cpp:380] mm_conv2 -> conv2
I1109 15:00:52.471485 17014 net.cpp:122] Setting up mm_conv2
I1109 15:00:52.471493 17014 net.cpp:129] Top shape: 8 32 36 64 (589824)
I1109 15:00:52.471496 17014 net.cpp:137] Memory required for data: 31850592
I1109 15:00:52.471505 17014 layer_factory.hpp:77] Creating layer mm_conv2_bn
I1109 15:00:52.471513 17014 net.cpp:84] Creating Layer mm_conv2_bn
I1109 15:00:52.471516 17014 net.cpp:406] mm_conv2_bn <- conv2
I1109 15:00:52.471523 17014 net.cpp:367] mm_conv2_bn -> conv2 (in-place)
I1109 15:00:52.471834 17014 net.cpp:122] Setting up mm_conv2_bn
I1109 15:00:52.471841 17014 net.cpp:129] Top shape: 8 32 36 64 (589824)
I1109 15:00:52.471844 17014 net.cpp:137] Memory required for data: 34209888
I1109 15:00:52.471853 17014 layer_factory.hpp:77] Creating layer mm_conv2_bn_scale
I1109 15:00:52.471858 17014 net.cpp:84] Creating Layer mm_conv2_bn_scale
I1109 15:00:52.471863 17014 net.cpp:406] mm_conv2_bn_scale <- conv2
I1109 15:00:52.471869 17014 net.cpp:367] mm_conv2_bn_scale -> conv2 (in-place)
I1109 15:00:52.471927 17014 layer_factory.hpp:77] Creating layer mm_conv2_bn_scale
I1109 15:00:52.472103 17014 net.cpp:122] Setting up mm_conv2_bn_scale
I1109 15:00:52.472110 17014 net.cpp:129] Top shape: 8 32 36 64 (589824)
I1109 15:00:52.472113 17014 net.cpp:137] Memory required for data: 36569184
I1109 15:00:52.472120 17014 layer_factory.hpp:77] Creating layer relu2
I1109 15:00:52.472126 17014 net.cpp:84] Creating Layer relu2
I1109 15:00:52.472128 17014 net.cpp:406] relu2 <- conv2
I1109 15:00:52.472133 17014 net.cpp:367] relu2 -> conv2 (in-place)
I1109 15:00:52.472138 17014 net.cpp:122] Setting up relu2
I1109 15:00:52.472143 17014 net.cpp:129] Top shape: 8 32 36 64 (589824)
I1109 15:00:52.472146 17014 net.cpp:137] Memory required for data: 38928480
I1109 15:00:52.472149 17014 layer_factory.hpp:77] Creating layer mm_conv3
I1109 15:00:52.472158 17014 net.cpp:84] Creating Layer mm_conv3
I1109 15:00:52.472162 17014 net.cpp:406] mm_conv3 <- conv2
I1109 15:00:52.472168 17014 net.cpp:380] mm_conv3 -> conv3
I1109 15:00:52.475440 17014 net.cpp:122] Setting up mm_conv3
I1109 15:00:52.475462 17014 net.cpp:129] Top shape: 8 64 18 32 (294912)
I1109 15:00:52.475466 17014 net.cpp:137] Memory required for data: 40108128
I1109 15:00:52.475476 17014 layer_factory.hpp:77] Creating layer mm_conv3_bn
I1109 15:00:52.475486 17014 net.cpp:84] Creating Layer mm_conv3_bn
I1109 15:00:52.475489 17014 net.cpp:406] mm_conv3_bn <- conv3
I1109 15:00:52.475498 17014 net.cpp:367] mm_conv3_bn -> conv3 (in-place)
I1109 15:00:52.475844 17014 net.cpp:122] Setting up mm_conv3_bn
I1109 15:00:52.475852 17014 net.cpp:129] Top shape: 8 64 18 32 (294912)
I1109 15:00:52.475855 17014 net.cpp:137] Memory required for data: 41287776
I1109 15:00:52.475869 17014 layer_factory.hpp:77] Creating layer mm_conv3_bn_scale
I1109 15:00:52.475878 17014 net.cpp:84] Creating Layer mm_conv3_bn_scale
I1109 15:00:52.475881 17014 net.cpp:406] mm_conv3_bn_scale <- conv3
I1109 15:00:52.475888 17014 net.cpp:367] mm_conv3_bn_scale -> conv3 (in-place)
I1109 15:00:52.475953 17014 layer_factory.hpp:77] Creating layer mm_conv3_bn_scale
I1109 15:00:52.476150 17014 net.cpp:122] Setting up mm_conv3_bn_scale
I1109 15:00:52.476157 17014 net.cpp:129] Top shape: 8 64 18 32 (294912)
I1109 15:00:52.476161 17014 net.cpp:137] Memory required for data: 42467424
I1109 15:00:52.476167 17014 layer_factory.hpp:77] Creating layer relu3
I1109 15:00:52.476178 17014 net.cpp:84] Creating Layer relu3
I1109 15:00:52.476182 17014 net.cpp:406] relu3 <- conv3
I1109 15:00:52.476187 17014 net.cpp:367] relu3 -> conv3 (in-place)
I1109 15:00:52.476193 17014 net.cpp:122] Setting up relu3
I1109 15:00:52.476197 17014 net.cpp:129] Top shape: 8 64 18 32 (294912)
I1109 15:00:52.476200 17014 net.cpp:137] Memory required for data: 43647072
I1109 15:00:52.476203 17014 layer_factory.hpp:77] Creating layer mm_conv4
I1109 15:00:52.476215 17014 net.cpp:84] Creating Layer mm_conv4
I1109 15:00:52.476218 17014 net.cpp:406] mm_conv4 <- conv3
I1109 15:00:52.476224 17014 net.cpp:380] mm_conv4 -> conv4
I1109 15:00:52.476940 17014 net.cpp:122] Setting up mm_conv4
I1109 15:00:52.476974 17014 net.cpp:129] Top shape: 8 64 18 32 (294912)
I1109 15:00:52.476985 17014 net.cpp:137] Memory required for data: 44826720
I1109 15:00:52.476999 17014 layer_factory.hpp:77] Creating layer mm_conv4_bn
I1109 15:00:52.477013 17014 net.cpp:84] Creating Layer mm_conv4_bn
I1109 15:00:52.477025 17014 net.cpp:406] mm_conv4_bn <- conv4
I1109 15:00:52.477036 17014 net.cpp:367] mm_conv4_bn -> conv4 (in-place)
I1109 15:00:52.477373 17014 net.cpp:122] Setting up mm_conv4_bn
I1109 15:00:52.477391 17014 net.cpp:129] Top shape: 8 64 18 32 (294912)
I1109 15:00:52.477401 17014 net.cpp:137] Memory required for data: 46006368
I1109 15:00:52.477416 17014 layer_factory.hpp:77] Creating layer mm_conv4_bn_scale
I1109 15:00:52.477437 17014 net.cpp:84] Creating Layer mm_conv4_bn_scale
I1109 15:00:52.477448 17014 net.cpp:406] mm_conv4_bn_scale <- conv4
I1109 15:00:52.477461 17014 net.cpp:367] mm_conv4_bn_scale -> conv4 (in-place)
I1109 15:00:52.477535 17014 layer_factory.hpp:77] Creating layer mm_conv4_bn_scale
I1109 15:00:52.477741 17014 net.cpp:122] Setting up mm_conv4_bn_scale
I1109 15:00:52.477758 17014 net.cpp:129] Top shape: 8 64 18 32 (294912)
I1109 15:00:52.477767 17014 net.cpp:137] Memory required for data: 47186016
I1109 15:00:52.477779 17014 layer_factory.hpp:77] Creating layer relu4
I1109 15:00:52.477792 17014 net.cpp:84] Creating Layer relu4
I1109 15:00:52.477802 17014 net.cpp:406] relu4 <- conv4
I1109 15:00:52.477813 17014 net.cpp:367] relu4 -> conv4 (in-place)
I1109 15:00:52.477825 17014 net.cpp:122] Setting up relu4
I1109 15:00:52.477836 17014 net.cpp:129] Top shape: 8 64 18 32 (294912)
I1109 15:00:52.477845 17014 net.cpp:137] Memory required for data: 48365664
I1109 15:00:52.477854 17014 layer_factory.hpp:77] Creating layer mm_conv5
I1109 15:00:52.477870 17014 net.cpp:84] Creating Layer mm_conv5
I1109 15:00:52.477880 17014 net.cpp:406] mm_conv5 <- conv4
I1109 15:00:52.477893 17014 net.cpp:380] mm_conv5 -> conv5
I1109 15:00:52.478610 17014 net.cpp:122] Setting up mm_conv5
I1109 15:00:52.478629 17014 net.cpp:129] Top shape: 8 64 18 32 (294912)
I1109 15:00:52.478638 17014 net.cpp:137] Memory required for data: 49545312
I1109 15:00:52.478652 17014 layer_factory.hpp:77] Creating layer mm_conv5_bn
I1109 15:00:52.478664 17014 net.cpp:84] Creating Layer mm_conv5_bn
I1109 15:00:52.478675 17014 net.cpp:406] mm_conv5_bn <- conv5
I1109 15:00:52.478688 17014 net.cpp:367] mm_conv5_bn -> conv5 (in-place)
I1109 15:00:52.479025 17014 net.cpp:122] Setting up mm_conv5_bn
I1109 15:00:52.479043 17014 net.cpp:129] Top shape: 8 64 18 32 (294912)
I1109 15:00:52.479053 17014 net.cpp:137] Memory required for data: 50724960
I1109 15:00:52.479074 17014 layer_factory.hpp:77] Creating layer mm_conv5_bn_scale
I1109 15:00:52.479089 17014 net.cpp:84] Creating Layer mm_conv5_bn_scale
I1109 15:00:52.479100 17014 net.cpp:406] mm_conv5_bn_scale <- conv5
I1109 15:00:52.479115 17014 net.cpp:367] mm_conv5_bn_scale -> conv5 (in-place)
I1109 15:00:52.479189 17014 layer_factory.hpp:77] Creating layer mm_conv5_bn_scale
I1109 15:00:52.479396 17014 net.cpp:122] Setting up mm_conv5_bn_scale
I1109 15:00:52.479415 17014 net.cpp:129] Top shape: 8 64 18 32 (294912)
I1109 15:00:52.479424 17014 net.cpp:137] Memory required for data: 51904608
I1109 15:00:52.479439 17014 layer_factory.hpp:77] Creating layer relu5
I1109 15:00:52.479449 17014 net.cpp:84] Creating Layer relu5
I1109 15:00:52.479460 17014 net.cpp:406] relu5 <- conv5
I1109 15:00:52.479471 17014 net.cpp:367] relu5 -> conv5 (in-place)
I1109 15:00:52.479483 17014 net.cpp:122] Setting up relu5
I1109 15:00:52.479495 17014 net.cpp:129] Top shape: 8 64 18 32 (294912)
I1109 15:00:52.479504 17014 net.cpp:137] Memory required for data: 53084256
I1109 15:00:52.479513 17014 layer_factory.hpp:77] Creating layer conv5_relu5_0_split
I1109 15:00:52.479532 17014 net.cpp:84] Creating Layer conv5_relu5_0_split
I1109 15:00:52.479542 17014 net.cpp:406] conv5_relu5_0_split <- conv5
I1109 15:00:52.479554 17014 net.cpp:380] conv5_relu5_0_split -> conv5_relu5_0_split_0
I1109 15:00:52.479571 17014 net.cpp:380] conv5_relu5_0_split -> conv5_relu5_0_split_1
I1109 15:00:52.479643 17014 net.cpp:122] Setting up conv5_relu5_0_split
I1109 15:00:52.479660 17014 net.cpp:129] Top shape: 8 64 18 32 (294912)
I1109 15:00:52.479671 17014 net.cpp:129] Top shape: 8 64 18 32 (294912)
I1109 15:00:52.479681 17014 net.cpp:137] Memory required for data: 55443552
I1109 15:00:52.479689 17014 layer_factory.hpp:77] Creating layer rpn_conv/3x3
I1109 15:00:52.479706 17014 net.cpp:84] Creating Layer rpn_conv/3x3
I1109 15:00:52.479717 17014 net.cpp:406] rpn_conv/3x3 <- conv5_relu5_0_split_0
I1109 15:00:52.479730 17014 net.cpp:380] rpn_conv/3x3 -> rpn/output
I1109 15:00:52.480440 17014 net.cpp:122] Setting up rpn_conv/3x3
I1109 15:00:52.480459 17014 net.cpp:129] Top shape: 8 64 18 32 (294912)
I1109 15:00:52.480475 17014 net.cpp:137] Memory required for data: 56623200
I1109 15:00:52.480489 17014 layer_factory.hpp:77] Creating layer rpn_conv/3x3_bn
I1109 15:00:52.480504 17014 net.cpp:84] Creating Layer rpn_conv/3x3_bn
I1109 15:00:52.480520 17014 net.cpp:406] rpn_conv/3x3_bn <- rpn/output
I1109 15:00:52.480549 17014 net.cpp:367] rpn_conv/3x3_bn -> rpn/output (in-place)
I1109 15:00:52.480891 17014 net.cpp:122] Setting up rpn_conv/3x3_bn
I1109 15:00:52.480902 17014 net.cpp:129] Top shape: 8 64 18 32 (294912)
I1109 15:00:52.480906 17014 net.cpp:137] Memory required for data: 57802848
I1109 15:00:52.480913 17014 layer_factory.hpp:77] Creating layer rpn_conv/3x3_bn_scale
I1109 15:00:52.480922 17014 net.cpp:84] Creating Layer rpn_conv/3x3_bn_scale
I1109 15:00:52.480926 17014 net.cpp:406] rpn_conv/3x3_bn_scale <- rpn/output
I1109 15:00:52.480931 17014 net.cpp:367] rpn_conv/3x3_bn_scale -> rpn/output (in-place)
I1109 15:00:52.480991 17014 layer_factory.hpp:77] Creating layer rpn_conv/3x3_bn_scale
I1109 15:00:52.481166 17014 net.cpp:122] Setting up rpn_conv/3x3_bn_scale
I1109 15:00:52.481173 17014 net.cpp:129] Top shape: 8 64 18 32 (294912)
I1109 15:00:52.481176 17014 net.cpp:137] Memory required for data: 58982496
I1109 15:00:52.481182 17014 layer_factory.hpp:77] Creating layer rpn_relu/3x3
I1109 15:00:52.481187 17014 net.cpp:84] Creating Layer rpn_relu/3x3
I1109 15:00:52.481191 17014 net.cpp:406] rpn_relu/3x3 <- rpn/output
I1109 15:00:52.481195 17014 net.cpp:367] rpn_relu/3x3 -> rpn/output (in-place)
I1109 15:00:52.481200 17014 net.cpp:122] Setting up rpn_relu/3x3
I1109 15:00:52.481204 17014 net.cpp:129] Top shape: 8 64 18 32 (294912)
I1109 15:00:52.481207 17014 net.cpp:137] Memory required for data: 60162144
I1109 15:00:52.481209 17014 layer_factory.hpp:77] Creating layer rpn/output_rpn_relu/3x3_0_split
I1109 15:00:52.481215 17014 net.cpp:84] Creating Layer rpn/output_rpn_relu/3x3_0_split
I1109 15:00:52.481217 17014 net.cpp:406] rpn/output_rpn_relu/3x3_0_split <- rpn/output
I1109 15:00:52.481223 17014 net.cpp:380] rpn/output_rpn_relu/3x3_0_split -> rpn/output_rpn_relu/3x3_0_split_0
I1109 15:00:52.481230 17014 net.cpp:380] rpn/output_rpn_relu/3x3_0_split -> rpn/output_rpn_relu/3x3_0_split_1
I1109 15:00:52.481279 17014 net.cpp:122] Setting up rpn/output_rpn_relu/3x3_0_split
I1109 15:00:52.481286 17014 net.cpp:129] Top shape: 8 64 18 32 (294912)
I1109 15:00:52.481289 17014 net.cpp:129] Top shape: 8 64 18 32 (294912)
I1109 15:00:52.481292 17014 net.cpp:137] Memory required for data: 62521440
I1109 15:00:52.481294 17014 layer_factory.hpp:77] Creating layer rpn_cls_score
I1109 15:00:52.481303 17014 net.cpp:84] Creating Layer rpn_cls_score
I1109 15:00:52.481307 17014 net.cpp:406] rpn_cls_score <- rpn/output_rpn_relu/3x3_0_split_0
I1109 15:00:52.481313 17014 net.cpp:380] rpn_cls_score -> rpn_cls_score
I1109 15:00:52.481688 17014 net.cpp:122] Setting up rpn_cls_score
I1109 15:00:52.481698 17014 net.cpp:129] Top shape: 8 18 18 32 (82944)
I1109 15:00:52.481700 17014 net.cpp:137] Memory required for data: 62853216
I1109 15:00:52.481706 17014 layer_factory.hpp:77] Creating layer rpn_cls_score_rpn_cls_score_0_split
I1109 15:00:52.481719 17014 net.cpp:84] Creating Layer rpn_cls_score_rpn_cls_score_0_split
I1109 15:00:52.481724 17014 net.cpp:406] rpn_cls_score_rpn_cls_score_0_split <- rpn_cls_score
I1109 15:00:52.481729 17014 net.cpp:380] rpn_cls_score_rpn_cls_score_0_split -> rpn_cls_score_rpn_cls_score_0_split_0
I1109 15:00:52.481736 17014 net.cpp:380] rpn_cls_score_rpn_cls_score_0_split -> rpn_cls_score_rpn_cls_score_0_split_1
I1109 15:00:52.481789 17014 net.cpp:122] Setting up rpn_cls_score_rpn_cls_score_0_split
I1109 15:00:52.481796 17014 net.cpp:129] Top shape: 8 18 18 32 (82944)
I1109 15:00:52.481801 17014 net.cpp:129] Top shape: 8 18 18 32 (82944)
I1109 15:00:52.481802 17014 net.cpp:137] Memory required for data: 63516768
I1109 15:00:52.481806 17014 layer_factory.hpp:77] Creating layer rpn_bbox_pred
I1109 15:00:52.481817 17014 net.cpp:84] Creating Layer rpn_bbox_pred
I1109 15:00:52.481820 17014 net.cpp:406] rpn_bbox_pred <- rpn/output_rpn_relu/3x3_0_split_1
I1109 15:00:52.481827 17014 net.cpp:380] rpn_bbox_pred -> rpn_bbox_pred
I1109 15:00:52.482209 17014 net.cpp:122] Setting up rpn_bbox_pred
I1109 15:00:52.482218 17014 net.cpp:129] Top shape: 8 36 18 32 (165888)
I1109 15:00:52.482221 17014 net.cpp:137] Memory required for data: 64180320
I1109 15:00:52.482228 17014 layer_factory.hpp:77] Creating layer rpn_bbox_pred_rpn_bbox_pred_0_split
I1109 15:00:52.482237 17014 net.cpp:84] Creating Layer rpn_bbox_pred_rpn_bbox_pred_0_split
I1109 15:00:52.482240 17014 net.cpp:406] rpn_bbox_pred_rpn_bbox_pred_0_split <- rpn_bbox_pred
I1109 15:00:52.482250 17014 net.cpp:380] rpn_bbox_pred_rpn_bbox_pred_0_split -> rpn_bbox_pred_rpn_bbox_pred_0_split_0
I1109 15:00:52.482257 17014 net.cpp:380] rpn_bbox_pred_rpn_bbox_pred_0_split -> rpn_bbox_pred_rpn_bbox_pred_0_split_1
I1109 15:00:52.482312 17014 net.cpp:122] Setting up rpn_bbox_pred_rpn_bbox_pred_0_split
I1109 15:00:52.482318 17014 net.cpp:129] Top shape: 8 36 18 32 (165888)
I1109 15:00:52.482322 17014 net.cpp:129] Top shape: 8 36 18 32 (165888)
I1109 15:00:52.482326 17014 net.cpp:137] Memory required for data: 65507424
I1109 15:00:52.482329 17014 layer_factory.hpp:77] Creating layer rpn_cls_score_reshape
I1109 15:00:52.482338 17014 net.cpp:84] Creating Layer rpn_cls_score_reshape
I1109 15:00:52.482342 17014 net.cpp:406] rpn_cls_score_reshape <- rpn_cls_score_rpn_cls_score_0_split_0
I1109 15:00:52.482349 17014 net.cpp:380] rpn_cls_score_reshape -> rpn_cls_score_reshape
I1109 15:00:52.482384 17014 net.cpp:122] Setting up rpn_cls_score_reshape
I1109 15:00:52.482390 17014 net.cpp:129] Top shape: 8 2 162 32 (82944)
I1109 15:00:52.482393 17014 net.cpp:137] Memory required for data: 65839200
I1109 15:00:52.482396 17014 layer_factory.hpp:77] Creating layer rpn_cls_score_reshape_rpn_cls_score_reshape_0_split
I1109 15:00:52.482403 17014 net.cpp:84] Creating Layer rpn_cls_score_reshape_rpn_cls_score_reshape_0_split
I1109 15:00:52.482408 17014 net.cpp:406] rpn_cls_score_reshape_rpn_cls_score_reshape_0_split <- rpn_cls_score_reshape
I1109 15:00:52.482412 17014 net.cpp:380] rpn_cls_score_reshape_rpn_cls_score_reshape_0_split -> rpn_cls_score_reshape_rpn_cls_score_reshape_0_split_0
I1109 15:00:52.482421 17014 net.cpp:380] rpn_cls_score_reshape_rpn_cls_score_reshape_0_split -> rpn_cls_score_reshape_rpn_cls_score_reshape_0_split_1
I1109 15:00:52.482470 17014 net.cpp:122] Setting up rpn_cls_score_reshape_rpn_cls_score_reshape_0_split
I1109 15:00:52.482475 17014 net.cpp:129] Top shape: 8 2 162 32 (82944)
I1109 15:00:52.482480 17014 net.cpp:129] Top shape: 8 2 162 32 (82944)
I1109 15:00:52.482482 17014 net.cpp:137] Memory required for data: 66502752
I1109 15:00:52.482486 17014 layer_factory.hpp:77] Creating layer rpn-data
I1109 15:00:52.493484 17014 net.cpp:84] Creating Layer rpn-data
I1109 15:00:52.493510 17014 net.cpp:406] rpn-data <- rpn_cls_score_rpn_cls_score_0_split_1
I1109 15:00:52.493520 17014 net.cpp:406] rpn-data <- gt_boxes_input-data_2_split_0
I1109 15:00:52.493525 17014 net.cpp:406] rpn-data <- im_info_input-data_1_split_0
I1109 15:00:52.493530 17014 net.cpp:406] rpn-data <- data_input-data_0_split_1
I1109 15:00:52.493532 17014 net.cpp:406] rpn-data <- flags_input-data_3_split_0
I1109 15:00:52.493540 17014 net.cpp:380] rpn-data -> rpn_labels
I1109 15:00:52.493558 17014 net.cpp:380] rpn-data -> rpn_bbox_targets
I1109 15:00:52.493575 17014 net.cpp:380] rpn-data -> rpn_bbox_inside_weights
I1109 15:00:52.493582 17014 net.cpp:380] rpn-data -> rpn_bbox_outside_weights
I1109 15:00:52.496170 17014 net.cpp:122] Setting up rpn-data
I1109 15:00:52.496196 17014 net.cpp:129] Top shape: 8 1 162 32 (41472)
I1109 15:00:52.496201 17014 net.cpp:129] Top shape: 8 36 18 32 (165888)
I1109 15:00:52.496204 17014 net.cpp:129] Top shape: 8 36 18 32 (165888)
I1109 15:00:52.496208 17014 net.cpp:129] Top shape: 8 36 18 32 (165888)
I1109 15:00:52.496212 17014 net.cpp:137] Memory required for data: 68659296
I1109 15:00:52.496215 17014 layer_factory.hpp:77] Creating layer rpn_loss_cls
I1109 15:00:52.496227 17014 net.cpp:84] Creating Layer rpn_loss_cls
I1109 15:00:52.496238 17014 net.cpp:406] rpn_loss_cls <- rpn_cls_score_reshape_rpn_cls_score_reshape_0_split_0
I1109 15:00:52.496245 17014 net.cpp:406] rpn_loss_cls <- rpn_labels
…
I1109 15:00:52.498585 17014 net.cpp:129] Top shape: (1)
I1109 15:00:52.498587 17014 net.cpp:132]     with loss weight 1
I1109 15:00:52.498603 17014 net.cpp:137] Memory required for data: 68659304
I1109 15:00:52.498606 17014 layer_factory.hpp:77] Creating layer rpn_cls_prob
I1109 15:00:52.498613 17014 net.cpp:84] Creating Layer rpn_cls_prob
I1109 15:00:52.498617 17014 net.cpp:406] rpn_cls_prob <- rpn_cls_score_reshape_rpn_cls_score_reshape_0_split_1
I1109 15:00:52.498625 17014 net.cpp:380] rpn_cls_prob -> rpn_cls_prob
I1109 15:00:52.498728 17014 net.cpp:122] Setting up rpn_cls_prob
I1109 15:00:52.498736 17014 net.cpp:129] Top shape: 8 2 162 32 (82944)
I1109 15:00:52.498739 17014 net.cpp:137] Memory required for data: 68991080
I1109 15:00:52.498742 17014 layer_factory.hpp:77] Creating layer rpn_cls_prob_reshape
I1109 15:00:52.498749 17014 net.cpp:84] Creating Layer rpn_cls_prob_reshape
I1109 15:00:52.498752 17014 net.cpp:406] rpn_cls_prob_reshape <- rpn_cls_prob
I1109 15:00:52.498759 17014 net.cpp:380] rpn_cls_prob_reshape -> rpn_cls_prob_reshape
I1109 15:00:52.498791 17014 net.cpp:122] Setting up rpn_cls_prob_reshape
I1109 15:00:52.498797 17014 net.cpp:129] Top shape: 8 18 18 32 (82944)
I1109 15:00:52.498800 17014 net.cpp:137] Memory required for data: 69322856
I1109 15:00:52.498803 17014 layer_factory.hpp:77] Creating layer proposal
I1109 15:00:52.554919 17014 net.cpp:84] Creating Layer proposal
I1109 15:00:52.554957 17014 net.cpp:406] proposal <- rpn_cls_prob_reshape
I1109 15:00:52.554966 17014 net.cpp:406] proposal <- rpn_bbox_pred_rpn_bbox_pred_0_split_1
I1109 15:00:52.554971 17014 net.cpp:406] proposal <- im_info_input-data_1_split_1
I1109 15:00:52.554980 17014 net.cpp:380] proposal -> rpn_rois
I1109 15:00:52.571089 17014 net.cpp:122] Setting up proposal
I1109 15:00:52.571127 17014 net.cpp:129] Top shape: 1 5 (5)
I1109 15:00:52.571131 17014 net.cpp:137] Memory required for data: 69322876
I1109 15:00:52.571137 17014 layer_factory.hpp:77] Creating layer roi-data
I1109 15:00:52.588851 17014 net.cpp:84] Creating Layer roi-data
I1109 15:00:52.588889 17014 net.cpp:406] roi-data <- rpn_rois
I1109 15:00:52.588904 17014 net.cpp:406] roi-data <- gt_boxes_input-data_2_split_1
I1109 15:00:52.588913 17014 net.cpp:406] roi-data <- flags_input-data_3_split_1
I1109 15:00:52.588924 17014 net.cpp:380] roi-data -> rois
I1109 15:00:52.588943 17014 net.cpp:380] roi-data -> labels
I1109 15:00:52.588955 17014 net.cpp:380] roi-data -> bbox_targets
I1109 15:00:52.588965 17014 net.cpp:380] roi-data -> bbox_inside_weights
I1109 15:00:52.588974 17014 net.cpp:380] roi-data -> bbox_outside_weights
I1109 15:00:52.589977 17014 net.cpp:122] Setting up roi-data
I1109 15:00:52.590015 17014 net.cpp:129] Top shape: 1 5 (5)
I1109 15:00:52.590023 17014 net.cpp:129] Top shape: 1 1 (1)
I1109 15:00:52.590028 17014 net.cpp:129] Top shape: 1 8 (8)
I1109 15:00:52.590032 17014 net.cpp:129] Top shape: 1 8 (8)
I1109 15:00:52.590039 17014 net.cpp:129] Top shape: 1 8 (8)
I1109 15:00:52.590042 17014 net.cpp:137] Memory required for data: 69322996
I1109 15:00:52.590049 17014 layer_factory.hpp:77] Creating layer roi_pool_conv5
I1109 15:00:52.590065 17014 net.cpp:84] Creating Layer roi_pool_conv5
I1109 15:00:52.590075 17014 net.cpp:406] roi_pool_conv5 <- conv5_relu5_0_split_1
I1109 15:00:52.590087 17014 net.cpp:406] roi_pool_conv5 <- rois
I1109 15:00:52.590097 17014 net.cpp:380] roi_pool_conv5 -> roi_pool_conv5
I1109 15:00:52.590114 17014 roi_pooling_layer.cpp:30] Spatial scale: 0.125
I1109 15:00:52.590224 17014 net.cpp:122] Setting up roi_pool_conv5
I1109 15:00:52.590234 17014 net.cpp:129] Top shape: 1 64 4 4 (1024)
I1109 15:00:52.590237 17014 net.cpp:137] Memory required for data: 69327092
I1109 15:00:52.590242 17014 layer_factory.hpp:77] Creating layer mm_fc6_L
I1109 15:00:52.590263 17014 net.cpp:84] Creating Layer mm_fc6_L
I1109 15:00:52.590270 17014 net.cpp:406] mm_fc6_L <- roi_pool_conv5
I1109 15:00:52.590279 17014 net.cpp:380] mm_fc6_L -> fc6_l
I1109 15:00:52.591666 17014 net.cpp:122] Setting up mm_fc6_L
I1109 15:00:52.591706 17014 net.cpp:129] Top shape: 1 128 (128)
I1109 15:00:52.591712 17014 net.cpp:137] Memory required for data: 69327604
I1109 15:00:52.591727 17014 layer_factory.hpp:77] Creating layer mm_fc6_L_bn
I1109 15:00:52.591748 17014 net.cpp:84] Creating Layer mm_fc6_L_bn
I1109 15:00:52.591756 17014 net.cpp:406] mm_fc6_L_bn <- fc6_l
I1109 15:00:52.591768 17014 net.cpp:367] mm_fc6_L_bn -> fc6_l (in-place)
I1109 15:00:52.592192 17014 net.cpp:122] Setting up mm_fc6_L_bn
I1109 15:00:52.592259 17014 net.cpp:129] Top shape: 1 128 (128)
I1109 15:00:52.592283 17014 net.cpp:137] Memory required for data: 69328116
I1109 15:00:52.592309 17014 layer_factory.hpp:77] Creating layer mm_fc6_L_bn_scale
I1109 15:00:52.592340 17014 net.cpp:84] Creating Layer mm_fc6_L_bn_scale
I1109 15:00:52.592361 17014 net.cpp:406] mm_fc6_L_bn_scale <- fc6_l
I1109 15:00:52.592389 17014 net.cpp:367] mm_fc6_L_bn_scale -> fc6_l (in-place)
I1109 15:00:52.592525 17014 layer_factory.hpp:77] Creating layer mm_fc6_L_bn_scale
I1109 15:00:52.592808 17014 net.cpp:122] Setting up mm_fc6_L_bn_scale
I1109 15:00:52.592836 17014 net.cpp:129] Top shape: 1 128 (128)
I1109 15:00:52.592854 17014 net.cpp:137] Memory required for data: 69328628
I1109 15:00:52.592875 17014 layer_factory.hpp:77] Creating layer relu6_L
I1109 15:00:52.592898 17014 net.cpp:84] Creating Layer relu6_L
I1109 15:00:52.592916 17014 net.cpp:406] relu6_L <- fc6_l
I1109 15:00:52.592938 17014 net.cpp:367] relu6_L -> fc6_l (in-place)
I1109 15:00:52.592962 17014 net.cpp:122] Setting up relu6_L
I1109 15:00:52.592980 17014 net.cpp:129] Top shape: 1 128 (128)
I1109 15:00:52.592995 17014 net.cpp:137] Memory required for data: 69329140
I1109 15:00:52.593009 17014 layer_factory.hpp:77] Creating layer mm_fc6_U
I1109 15:00:52.593030 17014 net.cpp:84] Creating Layer mm_fc6_U
I1109 15:00:52.593047 17014 net.cpp:406] mm_fc6_U <- fc6_l
I1109 15:00:52.593070 17014 net.cpp:380] mm_fc6_U -> fc6_u
I1109 15:00:52.593894 17014 net.cpp:122] Setting up mm_fc6_U
I1109 15:00:52.593955 17014 net.cpp:129] Top shape: 1 512 (512)
I1109 15:00:52.593972 17014 net.cpp:137] Memory required for data: 69331188
I1109 15:00:52.593998 17014 layer_factory.hpp:77] Creating layer mm_fc6_U_bn
I1109 15:00:52.594034 17014 net.cpp:84] Creating Layer mm_fc6_U_bn
I1109 15:00:52.594056 17014 net.cpp:406] mm_fc6_U_bn <- fc6_u
I1109 15:00:52.594079 17014 net.cpp:367] mm_fc6_U_bn -> fc6_u (in-place)
I1109 15:00:52.594529 17014 net.cpp:122] Setting up mm_fc6_U_bn
I1109 15:00:52.594574 17014 net.cpp:129] Top shape: 1 512 (512)
I1109 15:00:52.594594 17014 net.cpp:137] Memory required for data: 69333236
I1109 15:00:52.594621 17014 layer_factory.hpp:77] Creating layer mm_fc6_U_bn_scale
I1109 15:00:52.594652 17014 net.cpp:84] Creating Layer mm_fc6_U_bn_scale
I1109 15:00:52.594674 17014 net.cpp:406] mm_fc6_U_bn_scale <- fc6_u
I1109 15:00:52.594700 17014 net.cpp:367] mm_fc6_U_bn_scale -> fc6_u (in-place)
I1109 15:00:52.594828 17014 layer_factory.hpp:77] Creating layer mm_fc6_U_bn_scale
I1109 15:00:52.595114 17014 net.cpp:122] Setting up mm_fc6_U_bn_scale
I1109 15:00:52.595144 17014 net.cpp:129] Top shape: 1 512 (512)
I1109 15:00:52.595165 17014 net.cpp:137] Memory required for data: 69335284
I1109 15:00:52.595188 17014 layer_factory.hpp:77] Creating layer relu6_U
I1109 15:00:52.595212 17014 net.cpp:84] Creating Layer relu6_U
I1109 15:00:52.595232 17014 net.cpp:406] relu6_U <- fc6_u
I1109 15:00:52.595257 17014 net.cpp:367] relu6_U -> fc6_u (in-place)
I1109 15:00:52.595283 17014 net.cpp:122] Setting up relu6_U
I1109 15:00:52.595304 17014 net.cpp:129] Top shape: 1 512 (512)
I1109 15:00:52.595322 17014 net.cpp:137] Memory required for data: 69337332
I1109 15:00:52.595341 17014 layer_factory.hpp:77] Creating layer fc6_u_relu6_U_0_split
I1109 15:00:52.595365 17014 net.cpp:84] Creating Layer fc6_u_relu6_U_0_split
I1109 15:00:52.595383 17014 net.cpp:406] fc6_u_relu6_U_0_split <- fc6_u
I1109 15:00:52.595405 17014 net.cpp:380] fc6_u_relu6_U_0_split -> fc6_u_relu6_U_0_split_0
I1109 15:00:52.595436 17014 net.cpp:380] fc6_u_relu6_U_0_split -> fc6_u_relu6_U_0_split_1
I1109 15:00:52.595541 17014 net.cpp:122] Setting up fc6_u_relu6_U_0_split
I1109 15:00:52.595566 17014 net.cpp:129] Top shape: 1 512 (512)
I1109 15:00:52.595587 17014 net.cpp:129] Top shape: 1 512 (512)
I1109 15:00:52.595604 17014 net.cpp:137] Memory required for data: 69341428
I1109 15:00:52.595621 17014 layer_factory.hpp:77] Creating layer cls_score
I1109 15:00:52.595647 17014 net.cpp:84] Creating Layer cls_score
I1109 15:00:52.595669 17014 net.cpp:406] cls_score <- fc6_u_relu6_U_0_split_0
I1109 15:00:52.595701 17014 net.cpp:380] cls_score -> cls_score
I1109 15:00:52.595976 17014 net.cpp:122] Setting up cls_score
I1109 15:00:52.596004 17014 net.cpp:129] Top shape: 1 2 (2)
I1109 15:00:52.596024 17014 net.cpp:137] Memory required for data: 69341436
I1109 15:00:52.596046 17014 layer_factory.hpp:77] Creating layer bbox_pred
I1109 15:00:52.596087 17014 net.cpp:84] Creating Layer bbox_pred
I1109 15:00:52.596108 17014 net.cpp:406] bbox_pred <- fc6_u_relu6_U_0_split_1
I1109 15:00:52.596133 17014 net.cpp:380] bbox_pred -> bbox_pred
I1109 15:00:52.596433 17014 net.cpp:122] Setting up bbox_pred
I1109 15:00:52.596462 17014 net.cpp:129] Top shape: 1 8 (8)
I1109 15:00:52.596482 17014 net.cpp:137] Memory required for data: 69341468
I1109 15:00:52.596503 17014 layer_factory.hpp:77] Creating layer loss_cls
I1109 15:00:52.596539 17014 net.cpp:84] Creating Layer loss_cls
I1109 15:00:52.596560 17014 net.cpp:406] loss_cls <- cls_score
I1109 15:00:52.596583 17014 net.cpp:406] loss_cls <- labels
I1109 15:00:52.596607 17014 net.cpp:380] loss_cls -> cls_loss
…
