…
net: "examples/mtcnn/train48_1x1.prototxt"
train_state {
  level: 0
  stage: ""
}
type: "SGD"
weights: "examples/mtcnn/48net-only-cls.caffemodel"
I0713 08:37:12.874779 19152 solver.cpp:102] Creating training net from net file: examples/mtcnn/train48_1x1.prototxt
I0713 08:37:12.876657 19152 net.cpp:51] Initializing net from parameters: 
name: "face_48"
state {
  phase: TRAIN
  level: 0
  stage: ""
}
layer {
  name: "input-data"
  type: "Python"
  top: "data"
  top: "label"
  top: "roi"
  python_param {
    module: "pythonLayer"
    layer: "Data_Layer_train"
  }
}
layer {
  name: "conv1"
  type: "Convolution"
  bottom: "data"
  top: "conv1"
  param {
    lr_mult: 1
    decay_mult: 1
  }
  param {
    lr_mult: 2
    decay_mult: 1
  }
  convolution_param {
    num_output: 32
    kernel_size: 3
    weight_filler {
      type: "gaussian"
      std: 0.0001
    }
    bias_filler {
      type: "constant"
    }
  }
}
layer {
  name: "relu1"
  type: "PReLU"
  bottom: "conv1"
  top: "conv1"
}
layer {
  name: "pool1"
  type: "Pooling"
  bottom: "conv1"
  top: "pool1"
  pooling_param {
    pool: MAX
    kernel_size: 3
    stride: 2
  }
}
layer {
  name: "conv2"
  type: "Convolution"
  bottom: "pool1"
  top: "conv2"
  param {
    lr_mult: 1
    decay_mult: 1
  }
  param {
    lr_mult: 2
    decay_mult: 1
  }
  convolution_param {
    num_output: 64
    kernel_size: 3
    weight_filler {
      type: "gaussian"
      std: 0.0001
    }
    bias_filler {
      type: "constant"
    }
  }
}
layer {
  name: "relu2"
  type: "PReLU"
  bottom: "conv2"
  top: "conv2"
}
layer {
  name: "pool2"
  type: "Pooling"
  bottom: "conv2"
  top: "pool2"
  pooling_param {
    pool: MAX
    kernel_size: 3
    stride: 2
  }
}
layer {
  name: "conv3"
  type: "Convolution"
  bottom: "pool2"
  top: "conv3"
  param {
    lr_mult: 1
    decay_mult: 1
  }
  param {
    lr_mult: 2
    decay_mult: 1
  }
  convolution_param {
    num_output: 64
    kernel_size: 3
    stride: 1
    weight_filler {
      type: "xavier"
    }
    bias_filler {
      type: "constant"
      value: 0
    }
  }
}
layer {
  name: "relu3"
  type: "PReLU"
  bottom: "conv3"
  top: "conv3"
}
layer {
  name: "pool3"
  type: "Pooling"
  bottom: "conv3"
  top: "pool3"
  pooling_param {
    pool: MAX
    kernel_size: 2
    stride: 2
  }
}
layer {
  name: "conv4"
  type: "Convolution"
  bottom: "pool3"
  top: "conv4"
  param {
    lr_mult: 1
    decay_mult: 1
  }
  param {
    lr_mult: 2
    decay_mult: 1
  }
  convolution_param {
    num_output: 128
    kernel_size: 2
    stride: 1
    weight_filler {
      type: "xavier"
    }
    bias_filler {
      type: "constant"
      value: 0
    }
  }
}
layer {
  name: "relu4"
  type: "PReLU"
  bottom: "conv4"
  top: "conv4"
}
layer {
  name: "fc5"
  type: "InnerProduct"
  bottom: "conv4"
  top: "fc5"
  param {
    lr_mult: 1
    decay_mult: 1
  }
  param {
    lr_mult: 2
    decay_mult: 1
  }
  inner_product_param {
    num_output: 256
    weight_filler {
      type: "xavier"
    }
    bias_filler {
      type: "constant"
      value: 0
    }
  }
}
layer {
  name: "relu5"
  type: "PReLU"
  bottom: "fc5"
  top: "fc5"
}
layer {
  name: "drop5"
  type: "Dropout"
  bottom: "fc5"
  top: "fc5"
  dropout_param {
    dropout_ratio: 0.5
  }
}
layer {
  name: "fc6-1"
  type: "InnerProduct"
  bottom: "fc5"
  top: "fc6-1"
  param {
    lr_mult: 1
    decay_mult: 1
  }
  param {
    lr_mult: 2
    decay_mult: 1
  }
  inner_product_param {
    num_output: 2
    weight_filler {
      type: "xavier"
    }
    bias_filler {
      type: "constant"
      value: 0
    }
  }
}
layer {
  name: "cls_bridge"
  type: "Python"
  bottom: "fc6-1"
  bottom: "label"
  top: "fc6-1-valid"
  top: "label-valid"
  python_param {
    module: "pythonLayer"
    layer: "cls_Layer"
  }
}
layer {
  name: "ClassifyLoss"
  type: "SoftmaxWithLoss"
  bottom: "fc6-1-valid"
  bottom: "label-valid"
  top: "ClassifyLoss"
  loss_weight: 1
  propagate_down: true
  propagate_down: false
}
layer {
  name: "cls_Acc"
  type: "Accuracy"
  bottom: "fc6-1-valid"
  bottom: "label-valid"
  top: "cls_Acc"
  include {
    phase: TRAIN
  }
}
layer {
  name: "fc6-2"
  type: "InnerProduct"
  bottom: "fc5"
  top: "fc6-2"
  param {
    lr_mult: 1
    decay_mult: 1
  }
  param {
    lr_mult: 2
    decay_mult: 1
  }
  inner_product_param {
    num_output: 4
    weight_filler {
      type: "xavier"
    }
    bias_filler {
      type: "constant"
      value: 0
    }
  }
}
layer {
  name: "RegressionLoss"
  type: "Python"
  bottom: "fc6-2"
  bottom: "roi"
  top: "RegressionLoss"
  loss_weight: 1
  python_param {
    module: "pythonLayer"
    layer: "regression_Layer"
  }
}
I0713 08:37:12.876979 19152 layer_factory.hpp:77] Creating layer input-data
I0713 08:37:14.512457 19152 net.cpp:84] Creating Layer input-data
I0713 08:37:14.512516 19152 net.cpp:380] input-data -> data
I0713 08:37:14.512562 19152 net.cpp:380] input-data -> label
I0713 08:37:14.512591 19152 net.cpp:380] input-data -> roi
Start Reading Classify Data into Memory...
2958312  Classify Data have been read into Memory...
Start Reading Regression Data into Memory...
I0713 11:51:01.577252 19152 net.cpp:129] Top shape: 1024 3 48 48 (7077888)
I0713 11:51:01.577271 19152 net.cpp:129] Top shape: 1024 1 (1024)
I0713 11:51:01.577286 19152 net.cpp:129] Top shape: 1024 4 (4096)
I0713 11:51:01.577299 19152 net.cpp:137] Memory required for data: 28332032
I0713 11:51:01.577332 19152 layer_factory.hpp:77] Creating layer conv1
I0713 11:51:01.577383 19152 net.cpp:84] Creating Layer conv1
I0713 11:51:01.577404 19152 net.cpp:406] conv1 <- data
I0713 11:51:01.577446 19152 net.cpp:380] conv1 -> conv1
I0713 11:51:01.582396 19152 net.cpp:122] Setting up conv1
I0713 11:51:01.582434 19152 net.cpp:129] Top shape: 1024 32 46 46 (69337088)
I0713 11:51:01.582449 19152 net.cpp:137] Memory required for data: 305680384
I0713 11:51:01.582484 19152 layer_factory.hpp:77] Creating layer relu1
I0713 11:51:01.582520 19152 net.cpp:84] Creating Layer relu1
I0713 11:51:01.582542 19152 net.cpp:406] relu1 <- conv1
I0713 11:51:01.582562 19152 net.cpp:367] relu1 -> conv1 (in-place)
I0713 11:51:01.584831 19152 net.cpp:122] Setting up relu1
I0713 11:51:01.584869 19152 net.cpp:129] Top shape: 1024 32 46 46 (69337088)
I0713 11:51:01.584885 19152 net.cpp:137] Memory required for data: 583028736
I0713 11:51:01.584904 19152 layer_factory.hpp:77] Creating layer pool1
I0713 11:51:01.584930 19152 net.cpp:84] Creating Layer pool1
I0713 11:51:01.584949 19152 net.cpp:406] pool1 <- conv1
I0713 11:51:01.584965 19152 net.cpp:380] pool1 -> pool1
I0713 11:51:01.585043 19152 net.cpp:122] Setting up pool1
I0713 11:51:01.585072 19152 net.cpp:129] Top shape: 1024 32 23 23 (17334272)
I0713 11:51:01.585090 19152 net.cpp:137] Memory required for data: 652365824
I0713 11:51:01.585108 19152 layer_factory.hpp:77] Creating layer conv2
I0713 11:51:01.585134 19152 net.cpp:84] Creating Layer conv2
I0713 11:51:01.585151 19152 net.cpp:406] conv2 <- pool1
I0713 11:51:01.585172 19152 net.cpp:380] conv2 -> conv2
I0713 11:51:01.588088 19152 net.cpp:122] Setting up conv2
I0713 11:51:01.588129 19152 net.cpp:129] Top shape: 1024 64 21 21 (28901376)
I0713 11:51:01.588143 19152 net.cpp:137] Memory required for data: 767971328
I0713 11:51:01.588162 19152 layer_factory.hpp:77] Creating layer relu2
I0713 11:51:01.588183 19152 net.cpp:84] Creating Layer relu2
I0713 11:51:01.588199 19152 net.cpp:406] relu2 <- conv2
I0713 11:51:01.588234 19152 net.cpp:367] relu2 -> conv2 (in-place)
I0713 11:51:01.588348 19152 net.cpp:122] Setting up relu2
I0713 11:51:01.588384 19152 net.cpp:129] Top shape: 1024 64 21 21 (28901376)
I0713 11:51:01.588403 19152 net.cpp:137] Memory required for data: 883576832
I0713 11:51:01.588430 19152 layer_factory.hpp:77] Creating layer pool2
I0713 11:51:01.588461 19152 net.cpp:84] Creating Layer pool2
I0713 11:51:01.588475 19152 net.cpp:406] pool2 <- conv2
I0713 11:51:01.588495 19152 net.cpp:380] pool2 -> pool2
I0713 11:51:01.588552 19152 net.cpp:122] Setting up pool2
I0713 11:51:01.588579 19152 net.cpp:129] Top shape: 1024 64 10 10 (6553600)
I0713 11:51:01.588603 19152 net.cpp:137] Memory required for data: 909791232
I0713 11:51:01.588634 19152 layer_factory.hpp:77] Creating layer conv3
I0713 11:51:01.588661 19152 net.cpp:84] Creating Layer conv3
I0713 11:51:01.588696 19152 net.cpp:406] conv3 <- pool2
I0713 11:51:01.588714 19152 net.cpp:380] conv3 -> conv3
I0713 11:51:01.589133 19152 net.cpp:122] Setting up conv3
I0713 11:51:01.589162 19152 net.cpp:129] Top shape: 1024 64 8 8 (4194304)
I0713 11:51:01.589186 19152 net.cpp:137] Memory required for data: 926568448
I0713 11:51:01.589207 19152 layer_factory.hpp:77] Creating layer relu3
I0713 11:51:01.589236 19152 net.cpp:84] Creating Layer relu3
I0713 11:51:01.589251 19152 net.cpp:406] relu3 <- conv3
I0713 11:51:01.589265 19152 net.cpp:367] relu3 -> conv3 (in-place)
I0713 11:51:01.589380 19152 net.cpp:122] Setting up relu3
I0713 11:51:01.589407 19152 net.cpp:129] Top shape: 1024 64 8 8 (4194304)
I0713 11:51:01.589426 19152 net.cpp:137] Memory required for data: 943345664
I0713 11:51:01.589457 19152 layer_factory.hpp:77] Creating layer pool3
I0713 11:51:01.589490 19152 net.cpp:84] Creating Layer pool3
I0713 11:51:01.589506 19152 net.cpp:406] pool3 <- conv3
I0713 11:51:01.589599 19152 net.cpp:380] pool3 -> pool3
I0713 11:51:01.589658 19152 net.cpp:122] Setting up pool3
I0713 11:51:01.589689 19152 net.cpp:129] Top shape: 1024 64 4 4 (1048576)
I0713 11:51:01.589704 19152 net.cpp:137] Memory required for data: 947539968
I0713 11:51:01.589721 19152 layer_factory.hpp:77] Creating layer conv4
I0713 11:51:01.589746 19152 net.cpp:84] Creating Layer conv4
I0713 11:51:01.589776 19152 net.cpp:406] conv4 <- pool3
I0713 11:51:01.589794 19152 net.cpp:380] conv4 -> conv4
I0713 11:51:01.590276 19152 net.cpp:122] Setting up conv4
I0713 11:51:01.590306 19152 net.cpp:129] Top shape: 1024 128 3 3 (1179648)
I0713 11:51:01.590318 19152 net.cpp:137] Memory required for data: 952258560
I0713 11:51:01.590337 19152 layer_factory.hpp:77] Creating layer relu4
I0713 11:51:01.590354 19152 net.cpp:84] Creating Layer relu4
I0713 11:51:01.590370 19152 net.cpp:406] relu4 <- conv4
I0713 11:51:01.590389 19152 net.cpp:367] relu4 -> conv4 (in-place)
I0713 11:51:01.590502 19152 net.cpp:122] Setting up relu4
I0713 11:51:01.590572 19152 net.cpp:129] Top shape: 1024 128 3 3 (1179648)
I0713 11:51:01.590600 19152 net.cpp:137] Memory required for data: 956977152
I0713 11:51:01.590637 19152 layer_factory.hpp:77] Creating layer fc5
I0713 11:51:01.590667 19152 net.cpp:84] Creating Layer fc5
I0713 11:51:01.590692 19152 net.cpp:406] fc5 <- conv4
I0713 11:51:01.590728 19152 net.cpp:380] fc5 -> fc5
I0713 11:51:01.592473 19152 net.cpp:122] Setting up fc5
I0713 11:51:01.592527 19152 net.cpp:129] Top shape: 1024 256 (262144)
I0713 11:51:01.592542 19152 net.cpp:137] Memory required for data: 958025728
I0713 11:51:01.592558 19152 layer_factory.hpp:77] Creating layer relu5
I0713 11:51:01.592581 19152 net.cpp:84] Creating Layer relu5
I0713 11:51:01.592602 19152 net.cpp:406] relu5 <- fc5
I0713 11:51:01.592617 19152 net.cpp:367] relu5 -> fc5 (in-place)
I0713 11:51:01.592725 19152 net.cpp:122] Setting up relu5
I0713 11:51:01.592767 19152 net.cpp:129] Top shape: 1024 256 (262144)
I0713 11:51:01.592797 19152 net.cpp:137] Memory required for data: 959074304
I0713 11:51:01.592824 19152 layer_factory.hpp:77] Creating layer drop5
I0713 11:51:01.592849 19152 net.cpp:84] Creating Layer drop5
I0713 11:51:01.592880 19152 net.cpp:406] drop5 <- fc5
I0713 11:51:01.592918 19152 net.cpp:367] drop5 -> fc5 (in-place)
I0713 11:51:01.592977 19152 net.cpp:122] Setting up drop5
I0713 11:51:01.593041 19152 net.cpp:129] Top shape: 1024 256 (262144)
I0713 11:51:01.593088 19152 net.cpp:137] Memory required for data: 960122880
I0713 11:51:01.593111 19152 layer_factory.hpp:77] Creating layer fc5_drop5_0_split
I0713 11:51:01.593132 19152 net.cpp:84] Creating Layer fc5_drop5_0_split
I0713 11:51:01.593144 19152 net.cpp:406] fc5_drop5_0_split <- fc5
I0713 11:51:01.593169 19152 net.cpp:380] fc5_drop5_0_split -> fc5_drop5_0_split_0
I0713 11:51:01.593191 19152 net.cpp:380] fc5_drop5_0_split -> fc5_drop5_0_split_1
I0713 11:51:01.593240 19152 net.cpp:122] Setting up fc5_drop5_0_split
I0713 11:51:01.593261 19152 net.cpp:129] Top shape: 1024 256 (262144)
I0713 11:51:01.593274 19152 net.cpp:129] Top shape: 1024 256 (262144)
I0713 11:51:01.593303 19152 net.cpp:137] Memory required for data: 962220032
I0713 11:51:01.593319 19152 layer_factory.hpp:77] Creating layer fc6-1
I0713 11:51:01.593341 19152 net.cpp:84] Creating Layer fc6-1
I0713 11:51:01.593371 19152 net.cpp:406] fc6-1 <- fc5_drop5_0_split_0
I0713 11:51:01.593397 19152 net.cpp:380] fc6-1 -> fc6-1
I0713 11:51:01.593492 19152 net.cpp:122] Setting up fc6-1
I0713 11:51:01.593519 19152 net.cpp:129] Top shape: 1024 2 (2048)
I0713 11:51:01.593539 19152 net.cpp:137] Memory required for data: 962228224
I0713 11:51:01.593562 19152 layer_factory.hpp:77] Creating layer cls_bridge
I0713 11:51:01.593652 19152 net.cpp:84] Creating Layer cls_bridge
I0713 11:51:01.593696 19152 net.cpp:406] cls_bridge <- fc6-1
I0713 11:51:01.593719 19152 net.cpp:406] cls_bridge <- label
I0713 11:51:01.593739 19152 net.cpp:380] cls_bridge -> fc6-1-valid
I0713 11:51:01.593765 19152 net.cpp:380] cls_bridge -> label-valid
I0713 11:51:01.593989 19152 net.cpp:122] Setting up cls_bridge
I0713 11:51:01.594043 19152 net.cpp:129] Top shape: 1024 2 (2048)
I0713 11:51:01.594060 19152 net.cpp:129] Top shape: 1024 1 (1024)
I0713 11:51:01.594072 19152 net.cpp:137] Memory required for data: 962240512
I0713 11:51:01.594087 19152 layer_factory.hpp:77] Creating layer fc6-1-valid_cls_bridge_0_split
I0713 11:51:01.594107 19152 net.cpp:84] Creating Layer fc6-1-valid_cls_bridge_0_split
I0713 11:51:01.594123 19152 net.cpp:406] fc6-1-valid_cls_bridge_0_split <- fc6-1-valid
I0713 11:51:01.594139 19152 net.cpp:380] fc6-1-valid_cls_bridge_0_split -> fc6-1-valid_cls_bridge_0_split_0
I0713 11:51:01.594322 19152 net.cpp:380] fc6-1-valid_cls_bridge_0_split -> fc6-1-valid_cls_bridge_0_split_1
I0713 11:51:01.594383 19152 net.cpp:122] Setting up fc6-1-valid_cls_bridge_0_split
I0713 11:51:01.594420 19152 net.cpp:129] Top shape: 1024 2 (2048)
I0713 11:51:01.594439 19152 net.cpp:129] Top shape: 1024 2 (2048)
I0713 11:51:01.594452 19152 net.cpp:137] Memory required for data: 962256896
I0713 11:51:01.594465 19152 layer_factory.hpp:77] Creating layer label-valid_cls_bridge_1_split
I0713 11:51:01.594487 19152 net.cpp:84] Creating Layer label-valid_cls_bridge_1_split
I0713 11:51:01.594503 19152 net.cpp:406] label-valid_cls_bridge_1_split <- label-valid
I0713 11:51:01.594527 19152 net.cpp:380] label-valid_cls_bridge_1_split -> label-valid_cls_bridge_1_split_0
I0713 11:51:01.594566 19152 net.cpp:380] label-valid_cls_bridge_1_split -> label-valid_cls_bridge_1_split_1
I0713 11:51:01.594615 19152 net.cpp:122] Setting up label-valid_cls_bridge_1_split
I0713 11:51:01.594631 19152 net.cpp:129] Top shape: 1024 1 (1024)
I0713 11:51:01.594646 19152 net.cpp:129] Top shape: 1024 1 (1024)
I0713 11:51:01.594658 19152 net.cpp:137] Memory required for data: 962265088
I0713 11:51:01.594673 19152 layer_factory.hpp:77] Creating layer ClassifyLoss
I0713 11:51:01.594696 19152 net.cpp:84] Creating Layer ClassifyLoss
I0713 11:51:01.594710 19152 net.cpp:406] ClassifyLoss <- fc6-1-valid_cls_bridge_0_split_0
I0713 11:51:01.594727 19152 net.cpp:406] ClassifyLoss <- label-valid_cls_bridge_1_split_0
…
