…
snapshot_prefix: "vgg16_faster_rcnn"
average_loss: 100
iter_size: 2
I0609 14:29:43.429831 23510 solver.cpp:81] Creating training net from train_net file: models/pascal_voc/VGG16/faster_rcnn_end2end/train.prototxt
I0609 14:29:43.431435 23510 net.cpp:49] Initializing net from parameters: 
name: "VGG_ILSVRC_16_layers"
state {
  phase: TRAIN
}
layer {
  name: "input-data"
  type: "Python"
  top: "data"
  top: "im_info"
  top: "gt_boxes"
  python_param {
    module: "roi_data_layer.layer"
    layer: "RoIDataLayer"
    param_str: "\'num_classes\': 8"
  }
}
layer {
  name: "conv1_1"
  type: "Convolution"
  bottom: "data"
  top: "conv1_1"
  param {
    lr_mult: 0
    decay_mult: 0
  }
  param {
    lr_mult: 0
    decay_mult: 0
  }
  convolution_param {
    num_output: 64
    pad: 1
    kernel_size: 3
  }
}
layer {
  name: "relu1_1"
  type: "ReLU"
  bottom: "conv1_1"
  top: "conv1_1"
}
layer {
  name: "conv1_2"
  type: "Convolution"
  bottom: "conv1_1"
  top: "conv1_2"
  param {
    lr_mult: 0
    decay_mult: 0
  }
  param {
    lr_mult: 0
    decay_mult: 0
  }
  convolution_param {
    num_output: 64
    pad: 1
    kernel_size: 3
  }
}
layer {
  name: "relu1_2"
  type: "ReLU"
  bottom: "conv1_2"
  top: "conv1_2"
}
layer {
  name: "pool1"
  type: "Pooling"
  bottom: "conv1_2"
  top: "pool1"
  pooling_param {
    pool: MAX
    kernel_size: 2
    stride: 2
  }
}
layer {
  name: "conv2_1"
  type: "Convolution"
  bottom: "pool1"
  top: "conv2_1"
  param {
    lr_mult: 0
    decay_mult: 0
  }
  param {
    lr_mult: 0
    decay_mult: 0
  }
  convolution_param {
    num_output: 128
    pad: 1
    kernel_size: 3
  }
}
layer {
  name: "relu2_1"
  type: "ReLU"
  bottom: "conv2_1"
  top: "conv2_1"
}
layer {
  name: "conv2_2"
  type: "Convolution"
  bottom: "conv2_1"
  top: "conv2_2"
  param {
    lr_mult: 0
    decay_mult: 0
  }
  param {
    lr_mult: 0
    decay_mult: 0
  }
  convolution_param {
    num_output: 128
    pad: 1
    kernel_size: 3
  }
}
layer {
  name: "relu2_2"
  type: "ReLU"
  bottom: "conv2_2"
  top: "conv2_2"
}
layer {
  name: "pool2"
  type: "Pooling"
  bottom: "conv2_2"
  top: "pool2"
  pooling_param {
    pool: MAX
    kernel_size: 2
    stride: 2
  }
}
layer {
  name: "conv3_1"
  type: "Convolution"
  bottom: "pool2"
  top: "conv3_1"
  param {
    lr_mult: 1
  }
  param {
    lr_mult: 2
  }
  convolution_param {
    num_output: 256
    pad: 1
    kernel_size: 3
  }
}
layer {
  name: "relu3_1"
  type: "ReLU"
  bottom: "conv3_1"
  top: "conv3_1"
}
layer {
  name: "conv3_2"
  type: "Convolution"
  bottom: "conv3_1"
  top: "conv3_2"
  param {
    lr_mult: 1
  }
  param {
    lr_mult: 2
  }
  convolution_param {
    num_output: 256
    pad: 1
    kernel_size: 3
  }
}
layer {
  name: "relu3_2"
  type: "ReLU"
  bottom: "conv3_2"
  top: "conv3_2"
}
layer {
  name: "conv3_3"
  type: "Convolution"
  bottom: "conv3_2"
  top: "conv3_3"
  param {
    lr_mult: 1
  }
  param {
    lr_mult: 2
  }
  convolution_param {
    num_output: 256
    pad: 1
    kernel_size: 3
  }
}
layer {
  name: "relu3_3"
  type: "ReLU"
  bottom: "conv3_3"
  top: "conv3_3"
}
layer {
  name: "pool3"
  type: "Pooling"
  bottom: "conv3_3"
  top: "pool3"
  pooling_param {
    pool: MAX
    kernel_size: 2
    stride: 2
  }
}
layer {
  name: "conv4_1"
  type: "Convolution"
  bottom: "pool3"
  top: "conv4_1"
  param {
    lr_mult: 1
  }
  param {
    lr_mult: 2
  }
  convolution_param {
    num_output: 512
    pad: 1
    kernel_size: 3
  }
}
layer {
  name: "relu4_1"
  type: "ReLU"
  bottom: "conv4_1"
  top: "conv4_1"
}
layer {
  name: "conv4_2"
  type: "Convolution"
  bottom: "conv4_1"
  top: "conv4_2"
  param {
    lr_mult: 1
  }
  param {
    lr_mult: 2
  }
  convolution_param {
    num_output: 512
    pad: 1
    kernel_size: 3
  }
}
layer {
  name: "relu4_2"
  type: "ReLU"
  bottom: "conv4_2"
  top: "conv4_2"
}
layer {
  name: "conv4_3"
  type: "Convolution"
  bottom: "conv4_2"
  top: "conv4_3"
  param {
    lr_mult: 1
  }
  param {
    lr_mult: 2
  }
  convolution_param {
    num_output: 512
    pad: 1
    kernel_size: 3
  }
}
layer {
  name: "relu4_3"
  type: "ReLU"
  bottom: "conv4_3"
  top: "conv4_3"
}
layer {
  name: "pool4"
  type: "Pooling"
  bottom: "conv4_3"
  top: "pool4"
  pooling_param {
    pool: MAX
    kernel_size: 2
    stride: 2
  }
}
layer {
  name: "conv5_1"
  type: "Convolution"
  bottom: "pool4"
  top: "conv5_1"
  param {
    lr_mult: 1
  }
  param {
    lr_mult: 2
  }
  convolution_param {
    num_output: 512
    pad: 1
    kernel_size: 3
  }
}
layer {
  name: "relu5_1"
  type: "ReLU"
  bottom: "conv5_1"
  top: "conv5_1"
}
layer {
  name: "conv5_2"
  type: "Convolution"
  bottom: "conv5_1"
  top: "conv5_2"
  param {
    lr_mult: 1
  }
  param {
    lr_mult: 2
  }
  convolution_param {
    num_output: 512
    pad: 1
    kernel_size: 3
  }
}
layer {
  name: "relu5_2"
  type: "ReLU"
  bottom: "conv5_2"
  top: "conv5_2"
}
layer {
  name: "conv5_3"
  type: "Convolution"
  bottom: "conv5_2"
  top: "conv5_3"
  param {
    lr_mult: 1
  }
  param {
    lr_mult: 2
  }
  convolution_param {
    num_output: 512
    pad: 1
    kernel_size: 3
  }
}
layer {
  name: "relu5_3"
  type: "ReLU"
  bottom: "conv5_3"
  top: "conv5_3"
}
layer {
  name: "rpn_conv/3x3"
  type: "Convolution"
  bottom: "conv5_3"
  top: "rpn/output"
  param {
    lr_mult: 1
  }
  param {
    lr_mult: 2
  }
  convolution_param {
    num_output: 512
    pad: 1
    kernel_size: 3
    stride: 1
    weight_filler {
      type: "gaussian"
      std: 0.01
    }
    bias_filler {
      type: "constant"
      value: 0
    }
  }
}
layer {
  name: "rpn_relu/3x3"
  type: "ReLU"
  bottom: "rpn/output"
  top: "rpn/output"
}
layer {
  name: "rpn_cls_score"
  type: "Convolution"
  bottom: "rpn/output"
  top: "rpn_cls_score"
  param {
    lr_mult: 1
  }
  param {
    lr_mult: 2
  }
  convolution_param {
    num_output: 18
    pad: 0
    kernel_size: 1
    stride: 1
    weight_filler {
      type: "gaussian"
      std: 0.01
    }
    bias_filler {
      type: "constant"
      value: 0
    }
  }
}
layer {
  name: "rpn_bbox_pred"
  type: "Convolution"
  bottom: "rpn/output"
  top: "rpn_bbox_pred"
  param {
    lr_mult: 1
  }
  param {
    lr_mult: 2
  }
  convolution_param {
    num_output: 36
    pad: 0
    kernel_size: 1
    stride: 1
    weight_filler {
      type: "gaussian"
      std: 0.01
    }
    bias_filler {
      type: "constant"
      value: 0
    }
  }
}
layer {
  name: "rpn_cls_score_reshape"
  type: "Reshape"
  bottom: "rpn_cls_score"
  top: "rpn_cls_score_reshape"
  reshape_param {
    shape {
      dim: 0
      dim: 2
      dim: -1
      dim: 0
    }
  }
}
layer {
  name: "rpn-data"
  type: "Python"
  bottom: "rpn_cls_score"
  bottom: "gt_boxes"
  bottom: "im_info"
  bottom: "data"
  top: "rpn_labels"
  top: "rpn_bbox_targets"
  top: "rpn_bbox_inside_weights"
  top: "rpn_bbox_outside_weights"
  python_param {
    module: "rpn.anchor_target_layer"
    layer: "AnchorTargetLayer"
    param_str: "\'feat_stride\': 16"
  }
}
layer {
  name: "rpn_loss_cls"
  type: "SoftmaxWithLoss"
  bottom: "rpn_cls_score_reshape"
  bottom: "rpn_labels"
  top: "rpn_cls_loss"
  loss_weight: 1
  propagate_down: true
  propagate_down: false
  loss_param {
    ignore_label: -1
    normalize: true
  }
}
layer {
  name: "rpn_loss_bbox"
  type: "SmoothL1Loss"
  bottom: "rpn_bbox_pred"
  bottom: "rpn_bbox_targets"
  bottom: "rpn_bbox_inside_weights"
  bottom: "rpn_bbox_outside_weights"
  top: "rpn_loss_bbox"
  loss_weight: 1
  smooth_l1_loss_param {
    sigma: 3
  }
}
layer {
  name: "rpn_cls_prob"
  type: "Softmax"
  bottom: "rpn_cls_score_reshape"
  top: "rpn_cls_prob"
}
layer {
  name: "rpn_cls_prob_reshape"
  type: "Reshape"
  bottom: "rpn_cls_prob"
  top: "rpn_cls_prob_reshape"
  reshape_param {
    shape {
      dim: 0
      dim: 18
      dim: -1
      dim: 0
    }
  }
}
layer {
  name: "proposal"
  type: "Python"
  bottom: "rpn_cls_prob_reshape"
  bottom: "rpn_bbox_pred"
  bottom: "im_info"
  top: "rpn_rois"
  python_param {
    module: "rpn.proposal_layer"
    layer: "ProposalLayer"
    param_str: "\'feat_stride\': 16"
  }
}
layer {
  name: "roi-data"
  type: "Python"
  bottom: "rpn_rois"
  bottom: "gt_boxes"
  top: "rois"
  top: "labels"
  top: "bbox_targets"
  top: "bbox_inside_weights"
  top: "bbox_outside_weights"
  python_param {
    module: "rpn.proposal_target_layer"
    layer: "ProposalTargetLayer"
    param_str: "\'num_classes\': 8"
  }
}
layer {
  name: "roi_pool5"
  type: "ROIPooling"
  bottom: "conv5_3"
  bottom: "rois"
  top: "pool5"
  roi_pooling_param {
    pooled_h: 7
    pooled_w: 7
    spatial_scale: 0.0625
  }
}
layer {
  name: "fc6"
  type: "InnerProduct"
  bottom: "pool5"
  top: "fc6"
  param {
    lr_mult: 1
  }
  param {
    lr_mult: 2
  }
  inner_product_param {
    num_output: 4096
  }
}
layer {
  name: "relu6"
  type: "ReLU"
  bottom: "fc6"
  top: "fc6"
}
layer {
  name: "drop6"
  type: "Dropout"
  bottom: "fc6"
  top: "fc6"
  dropout_param {
    dropout_ratio: 0.5
  }
}
layer {
  name: "fc7"
  type: "InnerProduct"
  bottom: "fc6"
  top: "fc7"
  param {
    lr_mult: 1
  }
  param {
    lr_mult: 2
  }
  inner_product_param {
    num_output: 4096
  }
}
layer {
  name: "relu7"
  type: "ReLU"
  bottom: "fc7"
  top: "fc7"
}
layer {
  name: "drop7"
  type: "Dropout"
  bottom: "fc7"
  top: "fc7"
  dropout_param {
    dropout_ratio: 0.5
  }
}
layer {
  name: "cls_score"
  type: "InnerProduct"
  bottom: "fc7"
  top: "cls_score"
  param {
    lr_mult: 1
  }
  param {
    lr_mult: 2
  }
  inner_product_param {
    num_output: 8
    weight_filler {
      type: "gaussian"
      std: 0.01
    }
    bias_filler {
      type: "constant"
      value: 0
    }
  }
}
layer {
  name: "bbox_pred"
  type: "InnerProduct"
  bottom: "fc7"
  top: "bbox_pred"
  param {
    lr_mult: 1
  }
  param {
    lr_mult: 2
  }
  inner_product_param {
    num_output: 32
    weight_filler {
      type: "gaussian"
      std: 0.001
    }
    bias_filler {
      type: "constant"
      value: 0
    }
  }
}
layer {
  name: "loss_cls"
  type: "SoftmaxWithLoss"
  bottom: "cls_score"
  bottom: "labels"
  top: "loss_cls"
  loss_weight: 1
  propagate_down: true
  propagate_down: false
}
layer {
  name: "loss_bbox"
  type: "SmoothL1Loss"
  bottom: "bbox_pred"
  bottom: "bbox_targets"
  bottom: "bbox_inside_weights"
  bottom: "bbox_outside_weights"
  top: "loss_bbox"
  loss_weight: 1
}
I0609 14:29:43.431748 23510 layer_factory.hpp:77] Creating layer input-data
I0609 14:29:43.474086 23510 net.cpp:106] Creating Layer input-data
I0609 14:29:43.474138 23510 net.cpp:411] input-data -> data
I0609 14:29:43.474268 23510 net.cpp:411] input-data -> im_info
I0609 14:29:43.474295 23510 net.cpp:411] input-data -> gt_boxes
RoiDataLayer: name_to_top: {'gt_boxes': 2, 'data': 0, 'im_info': 1}
I0609 14:29:44.024524 23510 net.cpp:150] Setting up input-data
I0609 14:29:44.024572 23510 net.cpp:157] Top shape: 1 3 600 1000 (1800000)
I0609 14:29:44.024583 23510 net.cpp:157] Top shape: 1 3 (3)
I0609 14:29:44.024592 23510 net.cpp:157] Top shape: 1 4 (4)
I0609 14:29:44.024603 23510 net.cpp:165] Memory required for data: 7200028
I0609 14:29:44.024617 23510 layer_factory.hpp:77] Creating layer data_input-data_0_split
I0609 14:29:44.024642 23510 net.cpp:106] Creating Layer data_input-data_0_split
I0609 14:29:44.024662 23510 net.cpp:454] data_input-data_0_split <- data
I0609 14:29:44.024677 23510 net.cpp:411] data_input-data_0_split -> data_input-data_0_split_0
I0609 14:29:44.024695 23510 net.cpp:411] data_input-data_0_split -> data_input-data_0_split_1
I0609 14:29:44.024762 23510 net.cpp:150] Setting up data_input-data_0_split
I0609 14:29:44.024783 23510 net.cpp:157] Top shape: 1 3 600 1000 (1800000)
I0609 14:29:44.024793 23510 net.cpp:157] Top shape: 1 3 600 1000 (1800000)
I0609 14:29:44.024808 23510 net.cpp:165] Memory required for data: 21600028
I0609 14:29:44.024817 23510 layer_factory.hpp:77] Creating layer im_info_input-data_1_split
I0609 14:29:44.024833 23510 net.cpp:106] Creating Layer im_info_input-data_1_split
I0609 14:29:44.024843 23510 net.cpp:454] im_info_input-data_1_split <- im_info
I0609 14:29:44.024854 23510 net.cpp:411] im_info_input-data_1_split -> im_info_input-data_1_split_0
I0609 14:29:44.024879 23510 net.cpp:411] im_info_input-data_1_split -> im_info_input-data_1_split_1
I0609 14:29:44.024960 23510 net.cpp:150] Setting up im_info_input-data_1_split
I0609 14:29:44.024976 23510 net.cpp:157] Top shape: 1 3 (3)
I0609 14:29:44.024986 23510 net.cpp:157] Top shape: 1 3 (3)
I0609 14:29:44.024993 23510 net.cpp:165] Memory required for data: 21600052
I0609 14:29:44.025002 23510 layer_factory.hpp:77] Creating layer gt_boxes_input-data_2_split
I0609 14:29:44.025020 23510 net.cpp:106] Creating Layer gt_boxes_input-data_2_split
I0609 14:29:44.025030 23510 net.cpp:454] gt_boxes_input-data_2_split <- gt_boxes
I0609 14:29:44.025041 23510 net.cpp:411] gt_boxes_input-data_2_split -> gt_boxes_input-data_2_split_0
I0609 14:29:44.025058 23510 net.cpp:411] gt_boxes_input-data_2_split -> gt_boxes_input-data_2_split_1
I0609 14:29:44.025118 23510 net.cpp:150] Setting up gt_boxes_input-data_2_split
I0609 14:29:44.025141 23510 net.cpp:157] Top shape: 1 4 (4)
I0609 14:29:44.025151 23510 net.cpp:157] Top shape: 1 4 (4)
I0609 14:29:44.025159 23510 net.cpp:165] Memory required for data: 21600084
I0609 14:29:44.025168 23510 layer_factory.hpp:77] Creating layer conv1_1
I0609 14:29:44.025192 23510 net.cpp:106] Creating Layer conv1_1
I0609 14:29:44.025218 23510 net.cpp:454] conv1_1 <- data_input-data_0_split_0
I0609 14:29:44.025240 23510 net.cpp:411] conv1_1 -> conv1_1
I0609 14:29:44.032793 23510 net.cpp:150] Setting up conv1_1
I0609 14:29:44.032842 23510 net.cpp:157] Top shape: 1 64 600 1000 (38400000)
I0609 14:29:44.032852 23510 net.cpp:165] Memory required for data: 175200084
I0609 14:29:44.032873 23510 layer_factory.hpp:77] Creating layer relu1_1
I0609 14:29:44.032908 23510 net.cpp:106] Creating Layer relu1_1
I0609 14:29:44.032919 23510 net.cpp:454] relu1_1 <- conv1_1
I0609 14:29:44.032934 23510 net.cpp:397] relu1_1 -> conv1_1 (in-place)
I0609 14:29:44.032953 23510 net.cpp:150] Setting up relu1_1
I0609 14:29:44.032965 23510 net.cpp:157] Top shape: 1 64 600 1000 (38400000)
I0609 14:29:44.032989 23510 net.cpp:165] Memory required for data: 328800084
I0609 14:29:44.032997 23510 layer_factory.hpp:77] Creating layer conv1_2
I0609 14:29:44.033015 23510 net.cpp:106] Creating Layer conv1_2
I0609 14:29:44.033027 23510 net.cpp:454] conv1_2 <- conv1_1
I0609 14:29:44.033041 23510 net.cpp:411] conv1_2 -> conv1_2
I0609 14:29:44.041363 23510 net.cpp:150] Setting up conv1_2
I0609 14:29:44.041417 23510 net.cpp:157] Top shape: 1 64 600 1000 (38400000)
I0609 14:29:44.041427 23510 net.cpp:165] Memory required for data: 482400084
I0609 14:29:44.041451 23510 layer_factory.hpp:77] Creating layer relu1_2
I0609 14:29:44.041486 23510 net.cpp:106] Creating Layer relu1_2
I0609 14:29:44.041497 23510 net.cpp:454] relu1_2 <- conv1_2
I0609 14:29:44.041519 23510 net.cpp:397] relu1_2 -> conv1_2 (in-place)
I0609 14:29:44.041543 23510 net.cpp:150] Setting up relu1_2
I0609 14:29:44.041553 23510 net.cpp:157] Top shape: 1 64 600 1000 (38400000)
I0609 14:29:44.041560 23510 net.cpp:165] Memory required for data: 636000084
I0609 14:29:44.041568 23510 layer_factory.hpp:77] Creating layer pool1
I0609 14:29:44.041586 23510 net.cpp:106] Creating Layer pool1
I0609 14:29:44.041599 23510 net.cpp:454] pool1 <- conv1_2
I0609 14:29:44.041613 23510 net.cpp:411] pool1 -> pool1
I0609 14:29:44.041715 23510 net.cpp:150] Setting up pool1
I0609 14:29:44.041738 23510 net.cpp:157] Top shape: 1 64 300 500 (9600000)
I0609 14:29:44.041746 23510 net.cpp:165] Memory required for data: 674400084
I0609 14:29:44.041755 23510 layer_factory.hpp:77] Creating layer conv2_1
I0609 14:29:44.041774 23510 net.cpp:106] Creating Layer conv2_1
I0609 14:29:44.041808 23510 net.cpp:454] conv2_1 <- pool1
I0609 14:29:44.041836 23510 net.cpp:411] conv2_1 -> conv2_1
I0609 14:29:44.045826 23510 net.cpp:150] Setting up conv2_1
I0609 14:29:44.045864 23510 net.cpp:157] Top shape: 1 128 300 500 (19200000)
I0609 14:29:44.045884 23510 net.cpp:165] Memory required for data: 751200084
I0609 14:29:44.045902 23510 layer_factory.hpp:77] Creating layer relu2_1
I0609 14:29:44.045919 23510 net.cpp:106] Creating Layer relu2_1
I0609 14:29:44.045941 23510 net.cpp:454] relu2_1 <- conv2_1
I0609 14:29:44.045955 23510 net.cpp:397] relu2_1 -> conv2_1 (in-place)
I0609 14:29:44.045969 23510 net.cpp:150] Setting up relu2_1
I0609 14:29:44.045979 23510 net.cpp:157] Top shape: 1 128 300 500 (19200000)
I0609 14:29:44.045989 23510 net.cpp:165] Memory required for data: 828000084
I0609 14:29:44.046002 23510 layer_factory.hpp:77] Creating layer conv2_2
I0609 14:29:44.046018 23510 net.cpp:106] Creating Layer conv2_2
I0609 14:29:44.046032 23510 net.cpp:454] conv2_2 <- conv2_1
I0609 14:29:44.046043 23510 net.cpp:411] conv2_2 -> conv2_2
I0609 14:29:44.046655 23510 net.cpp:150] Setting up conv2_2
I0609 14:29:44.046686 23510 net.cpp:157] Top shape: 1 128 300 500 (19200000)
I0609 14:29:44.046696 23510 net.cpp:165] Memory required for data: 904800084
I0609 14:29:44.046707 23510 layer_factory.hpp:77] Creating layer relu2_2
I0609 14:29:44.046720 23510 net.cpp:106] Creating Layer relu2_2
I0609 14:29:44.046732 23510 net.cpp:454] relu2_2 <- conv2_2
I0609 14:29:44.046743 23510 net.cpp:397] relu2_2 -> conv2_2 (in-place)
I0609 14:29:44.046756 23510 net.cpp:150] Setting up relu2_2
I0609 14:29:44.046769 23510 net.cpp:157] Top shape: 1 128 300 500 (19200000)
I0609 14:29:44.046779 23510 net.cpp:165] Memory required for data: 981600084
I0609 14:29:44.046790 23510 layer_factory.hpp:77] Creating layer pool2
I0609 14:29:44.046811 23510 net.cpp:106] Creating Layer pool2
I0609 14:29:44.046823 23510 net.cpp:454] pool2 <- conv2_2
I0609 14:29:44.046835 23510 net.cpp:411] pool2 -> pool2
I0609 14:29:44.046905 23510 net.cpp:150] Setting up pool2
I0609 14:29:44.046926 23510 net.cpp:157] Top shape: 1 128 150 250 (4800000)
I0609 14:29:44.046936 23510 net.cpp:165] Memory required for data: 1000800084
I0609 14:29:44.046943 23510 layer_factory.hpp:77] Creating layer conv3_1
I0609 14:29:44.046959 23510 net.cpp:106] Creating Layer conv3_1
I0609 14:29:44.046972 23510 net.cpp:454] conv3_1 <- pool2
I0609 14:29:44.046983 23510 net.cpp:411] conv3_1 -> conv3_1
I0609 14:29:44.051203 23510 net.cpp:150] Setting up conv3_1
I0609 14:29:44.051239 23510 net.cpp:157] Top shape: 1 256 150 250 (9600000)
I0609 14:29:44.051249 23510 net.cpp:165] Memory required for data: 1039200084
I0609 14:29:44.051267 23510 layer_factory.hpp:77] Creating layer relu3_1
I0609 14:29:44.051290 23510 net.cpp:106] Creating Layer relu3_1
I0609 14:29:44.051301 23510 net.cpp:454] relu3_1 <- conv3_1
I0609 14:29:44.051316 23510 net.cpp:397] relu3_1 -> conv3_1 (in-place)
I0609 14:29:44.051331 23510 net.cpp:150] Setting up relu3_1
I0609 14:29:44.051344 23510 net.cpp:157] Top shape: 1 256 150 250 (9600000)
I0609 14:29:44.051373 23510 net.cpp:165] Memory required for data: 1077600084
I0609 14:29:44.051381 23510 layer_factory.hpp:77] Creating layer conv3_2
I0609 14:29:44.051403 23510 net.cpp:106] Creating Layer conv3_2
I0609 14:29:44.051422 23510 net.cpp:454] conv3_2 <- conv3_1
I0609 14:29:44.051434 23510 net.cpp:411] conv3_2 -> conv3_2
I0609 14:29:44.055899 23510 net.cpp:150] Setting up conv3_2
I0609 14:29:44.055940 23510 net.cpp:157] Top shape: 1 256 150 250 (9600000)
I0609 14:29:44.055950 23510 net.cpp:165] Memory required for data: 1116000084
I0609 14:29:44.055964 23510 layer_factory.hpp:77] Creating layer relu3_2
I0609 14:29:44.055987 23510 net.cpp:106] Creating Layer relu3_2
I0609 14:29:44.055999 23510 net.cpp:454] relu3_2 <- conv3_2
I0609 14:29:44.056028 23510 net.cpp:397] relu3_2 -> conv3_2 (in-place)
I0609 14:29:44.056043 23510 net.cpp:150] Setting up relu3_2
I0609 14:29:44.056053 23510 net.cpp:157] Top shape: 1 256 150 250 (9600000)
I0609 14:29:44.056062 23510 net.cpp:165] Memory required for data: 1154400084
I0609 14:29:44.056076 23510 layer_factory.hpp:77] Creating layer conv3_3
I0609 14:29:44.056092 23510 net.cpp:106] Creating Layer conv3_3
I0609 14:29:44.056107 23510 net.cpp:454] conv3_3 <- conv3_2
I0609 14:29:44.056118 23510 net.cpp:411] conv3_3 -> conv3_3
I0609 14:29:44.061166 23510 net.cpp:150] Setting up conv3_3
I0609 14:29:44.061203 23510 net.cpp:157] Top shape: 1 256 150 250 (9600000)
I0609 14:29:44.061213 23510 net.cpp:165] Memory required for data: 1192800084
I0609 14:29:44.061228 23510 layer_factory.hpp:77] Creating layer relu3_3
I0609 14:29:44.061249 23510 net.cpp:106] Creating Layer relu3_3
I0609 14:29:44.061260 23510 net.cpp:454] relu3_3 <- conv3_3
I0609 14:29:44.061276 23510 net.cpp:397] relu3_3 -> conv3_3 (in-place)
I0609 14:29:44.061323 23510 net.cpp:150] Setting up relu3_3
I0609 14:29:44.061363 23510 net.cpp:157] Top shape: 1 256 150 250 (9600000)
I0609 14:29:44.061372 23510 net.cpp:165] Memory required for data: 1231200084
I0609 14:29:44.061381 23510 layer_factory.hpp:77] Creating layer pool3
I0609 14:29:44.061398 23510 net.cpp:106] Creating Layer pool3
I0609 14:29:44.061414 23510 net.cpp:454] pool3 <- conv3_3
I0609 14:29:44.061425 23510 net.cpp:411] pool3 -> pool3
I0609 14:29:44.061511 23510 net.cpp:150] Setting up pool3
I0609 14:29:44.061532 23510 net.cpp:157] Top shape: 1 256 75 125 (2400000)
I0609 14:29:44.061542 23510 net.cpp:165] Memory required for data: 1240800084
I0609 14:29:44.061549 23510 layer_factory.hpp:77] Creating layer conv4_1
I0609 14:29:44.061568 23510 net.cpp:106] Creating Layer conv4_1
I0609 14:29:44.061584 23510 net.cpp:454] conv4_1 <- pool3
I0609 14:29:44.061599 23510 net.cpp:411] conv4_1 -> conv4_1
I0609 14:29:44.074648 23510 net.cpp:150] Setting up conv4_1
I0609 14:29:44.074707 23510 net.cpp:157] Top shape: 1 512 75 125 (4800000)
I0609 14:29:44.074717 23510 net.cpp:165] Memory required for data: 1260000084
I0609 14:29:44.074738 23510 layer_factory.hpp:77] Creating layer relu4_1
I0609 14:29:44.074757 23510 net.cpp:106] Creating Layer relu4_1
I0609 14:29:44.074769 23510 net.cpp:454] relu4_1 <- conv4_1
I0609 14:29:44.074787 23510 net.cpp:397] relu4_1 -> conv4_1 (in-place)
I0609 14:29:44.074815 23510 net.cpp:150] Setting up relu4_1
I0609 14:29:44.074826 23510 net.cpp:157] Top shape: 1 512 75 125 (4800000)
I0609 14:29:44.074836 23510 net.cpp:165] Memory required for data: 1279200084
I0609 14:29:44.074844 23510 layer_factory.hpp:77] Creating layer conv4_2
I0609 14:29:44.074859 23510 net.cpp:106] Creating Layer conv4_2
I0609 14:29:44.074870 23510 net.cpp:454] conv4_2 <- conv4_1
I0609 14:29:44.074887 23510 net.cpp:411] conv4_2 -> conv4_2
I0609 14:29:44.086405 23510 net.cpp:150] Setting up conv4_2
I0609 14:29:44.086470 23510 net.cpp:157] Top shape: 1 512 75 125 (4800000)
I0609 14:29:44.086480 23510 net.cpp:165] Memory required for data: 1298400084
I0609 14:29:44.086508 23510 layer_factory.hpp:77] Creating layer relu4_2
I0609 14:29:44.086527 23510 net.cpp:106] Creating Layer relu4_2
I0609 14:29:44.086541 23510 net.cpp:454] relu4_2 <- conv4_2
I0609 14:29:44.086557 23510 net.cpp:397] relu4_2 -> conv4_2 (in-place)
I0609 14:29:44.086577 23510 net.cpp:150] Setting up relu4_2
I0609 14:29:44.086588 23510 net.cpp:157] Top shape: 1 512 75 125 (4800000)
I0609 14:29:44.086599 23510 net.cpp:165] Memory required for data: 1317600084
I0609 14:29:44.086608 23510 layer_factory.hpp:77] Creating layer conv4_3
I0609 14:29:44.086638 23510 net.cpp:106] Creating Layer conv4_3
I0609 14:29:44.086649 23510 net.cpp:454] conv4_3 <- conv4_2
I0609 14:29:44.086665 23510 net.cpp:411] conv4_3 -> conv4_3
I0609 14:29:44.096815 23510 net.cpp:150] Setting up conv4_3
I0609 14:29:44.096848 23510 net.cpp:157] Top shape: 1 512 75 125 (4800000)
I0609 14:29:44.096859 23510 net.cpp:165] Memory required for data: 1336800084
I0609 14:29:44.096873 23510 layer_factory.hpp:77] Creating layer relu4_3
I0609 14:29:44.096887 23510 net.cpp:106] Creating Layer relu4_3
I0609 14:29:44.096896 23510 net.cpp:454] relu4_3 <- conv4_3
I0609 14:29:44.096915 23510 net.cpp:397] relu4_3 -> conv4_3 (in-place)
I0609 14:29:44.096930 23510 net.cpp:150] Setting up relu4_3
I0609 14:29:44.096940 23510 net.cpp:157] Top shape: 1 512 75 125 (4800000)
I0609 14:29:44.096949 23510 net.cpp:165] Memory required for data: 1356000084
I0609 14:29:44.096958 23510 layer_factory.hpp:77] Creating layer pool4
I0609 14:29:44.096971 23510 net.cpp:106] Creating Layer pool4
I0609 14:29:44.096981 23510 net.cpp:454] pool4 <- conv4_3
I0609 14:29:44.096994 23510 net.cpp:411] pool4 -> pool4
I0609 14:29:44.097081 23510 net.cpp:150] Setting up pool4
I0609 14:29:44.097101 23510 net.cpp:157] Top shape: 1 512 38 63 (1225728)
I0609 14:29:44.097110 23510 net.cpp:165] Memory required for data: 1360902996
I0609 14:29:44.097120 23510 layer_factory.hpp:77] Creating layer conv5_1
I0609 14:29:44.097134 23510 net.cpp:106] Creating Layer conv5_1
I0609 14:29:44.097146 23510 net.cpp:454] conv5_1 <- pool4
I0609 14:29:44.097160 23510 net.cpp:411] conv5_1 -> conv5_1
I0609 14:29:44.105867 23510 net.cpp:150] Setting up conv5_1
I0609 14:29:44.105901 23510 net.cpp:157] Top shape: 1 512 38 63 (1225728)
I0609 14:29:44.105911 23510 net.cpp:165] Memory required for data: 1365805908
I0609 14:29:44.105923 23510 layer_factory.hpp:77] Creating layer relu5_1
I0609 14:29:44.105937 23510 net.cpp:106] Creating Layer relu5_1
I0609 14:29:44.105948 23510 net.cpp:454] relu5_1 <- conv5_1
I0609 14:29:44.105963 23510 net.cpp:397] relu5_1 -> conv5_1 (in-place)
I0609 14:29:44.105979 23510 net.cpp:150] Setting up relu5_1
I0609 14:29:44.105989 23510 net.cpp:157] Top shape: 1 512 38 63 (1225728)
I0609 14:29:44.105998 23510 net.cpp:165] Memory required for data: 1370708820
I0609 14:29:44.106007 23510 layer_factory.hpp:77] Creating layer conv5_2
I0609 14:29:44.106024 23510 net.cpp:106] Creating Layer conv5_2
I0609 14:29:44.106055 23510 net.cpp:454] conv5_2 <- conv5_1
I0609 14:29:44.106066 23510 net.cpp:411] conv5_2 -> conv5_2
I0609 14:29:44.114989 23510 net.cpp:150] Setting up conv5_2
I0609 14:29:44.115021 23510 net.cpp:157] Top shape: 1 512 38 63 (1225728)
I0609 14:29:44.115031 23510 net.cpp:165] Memory required for data: 1375611732
I0609 14:29:44.115044 23510 layer_factory.hpp:77] Creating layer relu5_2
I0609 14:29:44.115062 23510 net.cpp:106] Creating Layer relu5_2
I0609 14:29:44.115072 23510 net.cpp:454] relu5_2 <- conv5_2
I0609 14:29:44.115100 23510 net.cpp:397] relu5_2 -> conv5_2 (in-place)
I0609 14:29:44.115120 23510 net.cpp:150] Setting up relu5_2
I0609 14:29:44.115130 23510 net.cpp:157] Top shape: 1 512 38 63 (1225728)
I0609 14:29:44.115139 23510 net.cpp:165] Memory required for data: 1380514644
I0609 14:29:44.115146 23510 layer_factory.hpp:77] Creating layer conv5_3
I0609 14:29:44.115171 23510 net.cpp:106] Creating Layer conv5_3
I0609 14:29:44.115198 23510 net.cpp:454] conv5_3 <- conv5_2
I0609 14:29:44.115211 23510 net.cpp:411] conv5_3 -> conv5_3
I0609 14:29:44.124075 23510 net.cpp:150] Setting up conv5_3
I0609 14:29:44.124119 23510 net.cpp:157] Top shape: 1 512 38 63 (1225728)
I0609 14:29:44.124130 23510 net.cpp:165] Memory required for data: 1385417556
I0609 14:29:44.124142 23510 layer_factory.hpp:77] Creating layer relu5_3
I0609 14:29:44.124157 23510 net.cpp:106] Creating Layer relu5_3
I0609 14:29:44.124168 23510 net.cpp:454] relu5_3 <- conv5_3
I0609 14:29:44.124186 23510 net.cpp:397] relu5_3 -> conv5_3 (in-place)
I0609 14:29:44.124202 23510 net.cpp:150] Setting up relu5_3
I0609 14:29:44.124210 23510 net.cpp:157] Top shape: 1 512 38 63 (1225728)
I0609 14:29:44.124222 23510 net.cpp:165] Memory required for data: 1390320468
I0609 14:29:44.124229 23510 layer_factory.hpp:77] Creating layer conv5_3_relu5_3_0_split
I0609 14:29:44.124241 23510 net.cpp:106] Creating Layer conv5_3_relu5_3_0_split
I0609 14:29:44.124250 23510 net.cpp:454] conv5_3_relu5_3_0_split <- conv5_3
I0609 14:29:44.124266 23510 net.cpp:411] conv5_3_relu5_3_0_split -> conv5_3_relu5_3_0_split_0
I0609 14:29:44.124280 23510 net.cpp:411] conv5_3_relu5_3_0_split -> conv5_3_relu5_3_0_split_1
I0609 14:29:44.124368 23510 net.cpp:150] Setting up conv5_3_relu5_3_0_split
I0609 14:29:44.124389 23510 net.cpp:157] Top shape: 1 512 38 63 (1225728)
I0609 14:29:44.124399 23510 net.cpp:157] Top shape: 1 512 38 63 (1225728)
I0609 14:29:44.124408 23510 net.cpp:165] Memory required for data: 1400126292
I0609 14:29:44.124415 23510 layer_factory.hpp:77] Creating layer rpn_conv/3x3
I0609 14:29:44.124477 23510 net.cpp:106] Creating Layer rpn_conv/3x3
I0609 14:29:44.124487 23510 net.cpp:454] rpn_conv/3x3 <- conv5_3_relu5_3_0_split_0
I0609 14:29:44.124503 23510 net.cpp:411] rpn_conv/3x3 -> rpn/output
I0609 14:29:44.154081 23510 net.cpp:150] Setting up rpn_conv/3x3
I0609 14:29:44.154135 23510 net.cpp:157] Top shape: 1 512 38 63 (1225728)
I0609 14:29:44.154146 23510 net.cpp:165] Memory required for data: 1405029204
I0609 14:29:44.154222 23510 layer_factory.hpp:77] Creating layer rpn_relu/3x3
I0609 14:29:44.154244 23510 net.cpp:106] Creating Layer rpn_relu/3x3
I0609 14:29:44.154255 23510 net.cpp:454] rpn_relu/3x3 <- rpn/output
I0609 14:29:44.154274 23510 net.cpp:397] rpn_relu/3x3 -> rpn/output (in-place)
I0609 14:29:44.154294 23510 net.cpp:150] Setting up rpn_relu/3x3
I0609 14:29:44.154305 23510 net.cpp:157] Top shape: 1 512 38 63 (1225728)
I0609 14:29:44.154330 23510 net.cpp:165] Memory required for data: 1409932116
I0609 14:29:44.154338 23510 layer_factory.hpp:77] Creating layer rpn/output_rpn_relu/3x3_0_split
I0609 14:29:44.154351 23510 net.cpp:106] Creating Layer rpn/output_rpn_relu/3x3_0_split
I0609 14:29:44.154361 23510 net.cpp:454] rpn/output_rpn_relu/3x3_0_split <- rpn/output
I0609 14:29:44.154376 23510 net.cpp:411] rpn/output_rpn_relu/3x3_0_split -> rpn/output_rpn_relu/3x3_0_split_0
I0609 14:29:44.154400 23510 net.cpp:411] rpn/output_rpn_relu/3x3_0_split -> rpn/output_rpn_relu/3x3_0_split_1
I0609 14:29:44.154484 23510 net.cpp:150] Setting up rpn/output_rpn_relu/3x3_0_split
I0609 14:29:44.154505 23510 net.cpp:157] Top shape: 1 512 38 63 (1225728)
I0609 14:29:44.154515 23510 net.cpp:157] Top shape: 1 512 38 63 (1225728)
I0609 14:29:44.154523 23510 net.cpp:165] Memory required for data: 1419737940
I0609 14:29:44.154533 23510 layer_factory.hpp:77] Creating layer rpn_cls_score
I0609 14:29:44.154556 23510 net.cpp:106] Creating Layer rpn_cls_score
I0609 14:29:44.154572 23510 net.cpp:454] rpn_cls_score <- rpn/output_rpn_relu/3x3_0_split_0
I0609 14:29:44.154584 23510 net.cpp:411] rpn_cls_score -> rpn_cls_score
I0609 14:29:44.155112 23510 net.cpp:150] Setting up rpn_cls_score
I0609 14:29:44.155139 23510 net.cpp:157] Top shape: 1 18 38 63 (43092)
I0609 14:29:44.155148 23510 net.cpp:165] Memory required for data: 1419910308
I0609 14:29:44.155172 23510 layer_factory.hpp:77] Creating layer rpn_cls_score_rpn_cls_score_0_split
I0609 14:29:44.155195 23510 net.cpp:106] Creating Layer rpn_cls_score_rpn_cls_score_0_split
I0609 14:29:44.155205 23510 net.cpp:454] rpn_cls_score_rpn_cls_score_0_split <- rpn_cls_score
I0609 14:29:44.155216 23510 net.cpp:411] rpn_cls_score_rpn_cls_score_0_split -> rpn_cls_score_rpn_cls_score_0_split_0
I0609 14:29:44.155251 23510 net.cpp:411] rpn_cls_score_rpn_cls_score_0_split -> rpn_cls_score_rpn_cls_score_0_split_1
I0609 14:29:44.155334 23510 net.cpp:150] Setting up rpn_cls_score_rpn_cls_score_0_split
I0609 14:29:44.155355 23510 net.cpp:157] Top shape: 1 18 38 63 (43092)
I0609 14:29:44.155376 23510 net.cpp:157] Top shape: 1 18 38 63 (43092)
I0609 14:29:44.155396 23510 net.cpp:165] Memory required for data: 1420255044
I0609 14:29:44.155405 23510 layer_factory.hpp:77] Creating layer rpn_bbox_pred
I0609 14:29:44.155426 23510 net.cpp:106] Creating Layer rpn_bbox_pred
I0609 14:29:44.155442 23510 net.cpp:454] rpn_bbox_pred <- rpn/output_rpn_relu/3x3_0_split_1
I0609 14:29:44.155455 23510 net.cpp:411] rpn_bbox_pred -> rpn_bbox_pred
I0609 14:29:44.156055 23510 net.cpp:150] Setting up rpn_bbox_pred
I0609 14:29:44.156080 23510 net.cpp:157] Top shape: 1 36 38 63 (86184)
I0609 14:29:44.156090 23510 net.cpp:165] Memory required for data: 1420599780
I0609 14:29:44.156100 23510 layer_factory.hpp:77] Creating layer rpn_bbox_pred_rpn_bbox_pred_0_split
I0609 14:29:44.156119 23510 net.cpp:106] Creating Layer rpn_bbox_pred_rpn_bbox_pred_0_split
I0609 14:29:44.156129 23510 net.cpp:454] rpn_bbox_pred_rpn_bbox_pred_0_split <- rpn_bbox_pred
I0609 14:29:44.156147 23510 net.cpp:411] rpn_bbox_pred_rpn_bbox_pred_0_split -> rpn_bbox_pred_rpn_bbox_pred_0_split_0
I0609 14:29:44.156160 23510 net.cpp:411] rpn_bbox_pred_rpn_bbox_pred_0_split -> rpn_bbox_pred_rpn_bbox_pred_0_split_1
I0609 14:29:44.156229 23510 net.cpp:150] Setting up rpn_bbox_pred_rpn_bbox_pred_0_split
I0609 14:29:44.156250 23510 net.cpp:157] Top shape: 1 36 38 63 (86184)
I0609 14:29:44.156260 23510 net.cpp:157] Top shape: 1 36 38 63 (86184)
I0609 14:29:44.156268 23510 net.cpp:165] Memory required for data: 1421289252
I0609 14:29:44.156286 23510 layer_factory.hpp:77] Creating layer rpn_cls_score_reshape
I0609 14:29:44.156306 23510 net.cpp:106] Creating Layer rpn_cls_score_reshape
I0609 14:29:44.156317 23510 net.cpp:454] rpn_cls_score_reshape <- rpn_cls_score_rpn_cls_score_0_split_0
I0609 14:29:44.156329 23510 net.cpp:411] rpn_cls_score_reshape -> rpn_cls_score_reshape
I0609 14:29:44.156385 23510 net.cpp:150] Setting up rpn_cls_score_reshape
I0609 14:29:44.156405 23510 net.cpp:157] Top shape: 1 2 342 63 (43092)
I0609 14:29:44.156417 23510 net.cpp:165] Memory required for data: 1421461620
I0609 14:29:44.156426 23510 layer_factory.hpp:77] Creating layer rpn_cls_score_reshape_rpn_cls_score_reshape_0_split
I0609 14:29:44.156437 23510 net.cpp:106] Creating Layer rpn_cls_score_reshape_rpn_cls_score_reshape_0_split
I0609 14:29:44.156453 23510 net.cpp:454] rpn_cls_score_reshape_rpn_cls_score_reshape_0_split <- rpn_cls_score_reshape
I0609 14:29:44.156467 23510 net.cpp:411] rpn_cls_score_reshape_rpn_cls_score_reshape_0_split -> rpn_cls_score_reshape_rpn_cls_score_reshape_0_split_0
I0609 14:29:44.156483 23510 net.cpp:411] rpn_cls_score_reshape_rpn_cls_score_reshape_0_split -> rpn_cls_score_reshape_rpn_cls_score_reshape_0_split_1
I0609 14:29:44.156548 23510 net.cpp:150] Setting up rpn_cls_score_reshape_rpn_cls_score_reshape_0_split
I0609 14:29:44.156567 23510 net.cpp:157] Top shape: 1 2 342 63 (43092)
I0609 14:29:44.156581 23510 net.cpp:157] Top shape: 1 2 342 63 (43092)
I0609 14:29:44.156589 23510 net.cpp:165] Memory required for data: 1421806356
I0609 14:29:44.156600 23510 layer_factory.hpp:77] Creating layer rpn-data
I0609 14:29:44.190279 23510 net.cpp:106] Creating Layer rpn-data
I0609 14:29:44.190338 23510 net.cpp:454] rpn-data <- rpn_cls_score_rpn_cls_score_0_split_1
I0609 14:29:44.190362 23510 net.cpp:454] rpn-data <- gt_boxes_input-data_2_split_0
I0609 14:29:44.190377 23510 net.cpp:454] rpn-data <- im_info_input-data_1_split_0
I0609 14:29:44.190392 23510 net.cpp:454] rpn-data <- data_input-data_0_split_1
I0609 14:29:44.190412 23510 net.cpp:411] rpn-data -> rpn_labels
I0609 14:29:44.190438 23510 net.cpp:411] rpn-data -> rpn_bbox_targets
I0609 14:29:44.190460 23510 net.cpp:411] rpn-data -> rpn_bbox_inside_weights
I0609 14:29:44.190484 23510 net.cpp:411] rpn-data -> rpn_bbox_outside_weights
I0609 14:29:44.191571 23510 net.cpp:150] Setting up rpn-data
I0609 14:29:44.191622 23510 net.cpp:157] Top shape: 1 1 342 63 (21546)
I0609 14:29:44.191639 23510 net.cpp:157] Top shape: 1 36 38 63 (86184)
I0609 14:29:44.191653 23510 net.cpp:157] Top shape: 1 36 38 63 (86184)
I0609 14:29:44.191665 23510 net.cpp:157] Top shape: 1 36 38 63 (86184)
I0609 14:29:44.191679 23510 net.cpp:165] Memory required for data: 1422926748
I0609 14:29:44.191695 23510 layer_factory.hpp:77] Creating layer rpn_loss_cls
I0609 14:29:44.191717 23510 net.cpp:106] Creating Layer rpn_loss_cls
I0609 14:29:44.191732 23510 net.cpp:454] rpn_loss_cls <- rpn_cls_score_reshape_rpn_cls_score_reshape_0_split_0
I0609 14:29:44.191768 23510 net.cpp:454] rpn_loss_cls <- rpn_labels
…
I0609 14:29:44.193192 23510 net.cpp:157] Top shape: (1)
I0609 14:29:44.193208 23510 net.cpp:160]     with loss weight 1
I0609 14:29:44.193224 23510 net.cpp:165] Memory required for data: 1422926756
I0609 14:29:44.193239 23510 layer_factory.hpp:77] Creating layer rpn_cls_prob
I0609 14:29:44.193261 23510 net.cpp:106] Creating Layer rpn_cls_prob
I0609 14:29:44.193281 23510 net.cpp:454] rpn_cls_prob <- rpn_cls_score_reshape_rpn_cls_score_reshape_0_split_1
I0609 14:29:44.193301 23510 net.cpp:411] rpn_cls_prob -> rpn_cls_prob
I0609 14:29:44.193451 23510 net.cpp:150] Setting up rpn_cls_prob
I0609 14:29:44.193480 23510 net.cpp:157] Top shape: 1 2 342 63 (43092)
I0609 14:29:44.193496 23510 net.cpp:165] Memory required for data: 1423099124
I0609 14:29:44.193528 23510 layer_factory.hpp:77] Creating layer rpn_cls_prob_reshape
I0609 14:29:44.193553 23510 net.cpp:106] Creating Layer rpn_cls_prob_reshape
I0609 14:29:44.193589 23510 net.cpp:454] rpn_cls_prob_reshape <- rpn_cls_prob
I0609 14:29:44.193609 23510 net.cpp:411] rpn_cls_prob_reshape -> rpn_cls_prob_reshape
I0609 14:29:44.193691 23510 net.cpp:150] Setting up rpn_cls_prob_reshape
I0609 14:29:44.193742 23510 net.cpp:157] Top shape: 1 18 38 63 (43092)
I0609 14:29:44.193764 23510 net.cpp:165] Memory required for data: 1423271492
I0609 14:29:44.193779 23510 layer_factory.hpp:77] Creating layer proposal
I0609 14:29:44.202311 23510 net.cpp:106] Creating Layer proposal
I0609 14:29:44.202348 23510 net.cpp:454] proposal <- rpn_cls_prob_reshape
I0609 14:29:44.202365 23510 net.cpp:454] proposal <- rpn_bbox_pred_rpn_bbox_pred_0_split_1
I0609 14:29:44.202390 23510 net.cpp:454] proposal <- im_info_input-data_1_split_1
I0609 14:29:44.202404 23510 net.cpp:411] proposal -> rpn_rois
I0609 14:29:44.203559 23510 net.cpp:150] Setting up proposal
I0609 14:29:44.203591 23510 net.cpp:157] Top shape: 1 5 (5)
I0609 14:29:44.203601 23510 net.cpp:165] Memory required for data: 1423271512
I0609 14:29:44.203610 23510 layer_factory.hpp:77] Creating layer roi-data
I0609 14:29:44.206666 23510 net.cpp:106] Creating Layer roi-data
I0609 14:29:44.206717 23510 net.cpp:454] roi-data <- rpn_rois
I0609 14:29:44.206737 23510 net.cpp:454] roi-data <- gt_boxes_input-data_2_split_1
I0609 14:29:44.206753 23510 net.cpp:411] roi-data -> rois
I0609 14:29:44.206774 23510 net.cpp:411] roi-data -> labels
I0609 14:29:44.206815 23510 net.cpp:411] roi-data -> bbox_targets
I0609 14:29:44.206831 23510 net.cpp:411] roi-data -> bbox_inside_weights
I0609 14:29:44.206849 23510 net.cpp:411] roi-data -> bbox_outside_weights
I0609 14:29:44.223178 23510 net.cpp:150] Setting up roi-data
I0609 14:29:44.223227 23510 net.cpp:157] Top shape: 1 5 (5)
I0609 14:29:44.223237 23510 net.cpp:157] Top shape: 1 1 (1)
I0609 14:29:44.223246 23510 net.cpp:157] Top shape: 1 32 (32)
I0609 14:29:44.223254 23510 net.cpp:157] Top shape: 1 32 (32)
I0609 14:29:44.223263 23510 net.cpp:157] Top shape: 1 32 (32)
I0609 14:29:44.223284 23510 net.cpp:165] Memory required for data: 1423271920
I0609 14:29:44.223296 23510 layer_factory.hpp:77] Creating layer roi_pool5
I0609 14:29:44.223316 23510 net.cpp:106] Creating Layer roi_pool5
I0609 14:29:44.223347 23510 net.cpp:454] roi_pool5 <- conv5_3_relu5_3_0_split_1
I0609 14:29:44.223361 23510 net.cpp:454] roi_pool5 <- rois
I0609 14:29:44.223374 23510 net.cpp:411] roi_pool5 -> pool5
I0609 14:29:44.223392 23510 roi_pooling_layer.cpp:30] Spatial scale: 0.0625
I0609 14:29:44.223489 23510 net.cpp:150] Setting up roi_pool5
I0609 14:29:44.223511 23510 net.cpp:157] Top shape: 1 512 7 7 (25088)
I0609 14:29:44.223520 23510 net.cpp:165] Memory required for data: 1423372272
I0609 14:29:44.223528 23510 layer_factory.hpp:77] Creating layer fc6
I0609 14:29:44.223542 23510 net.cpp:106] Creating Layer fc6
I0609 14:29:44.223557 23510 net.cpp:454] fc6 <- pool5
I0609 14:29:44.223570 23510 net.cpp:411] fc6 -> fc6
I0609 14:29:44.602038 23510 net.cpp:150] Setting up fc6
I0609 14:29:44.602108 23510 net.cpp:157] Top shape: 1 4096 (4096)
I0609 14:29:44.602118 23510 net.cpp:165] Memory required for data: 1423388656
I0609 14:29:44.602254 23510 layer_factory.hpp:77] Creating layer relu6
I0609 14:29:44.602286 23510 net.cpp:106] Creating Layer relu6
I0609 14:29:44.602299 23510 net.cpp:454] relu6 <- fc6
I0609 14:29:44.602314 23510 net.cpp:397] relu6 -> fc6 (in-place)
I0609 14:29:44.602332 23510 net.cpp:150] Setting up relu6
I0609 14:29:44.602362 23510 net.cpp:157] Top shape: 1 4096 (4096)
I0609 14:29:44.602370 23510 net.cpp:165] Memory required for data: 1423405040
I0609 14:29:44.602380 23510 layer_factory.hpp:77] Creating layer drop6
I0609 14:29:44.602393 23510 net.cpp:106] Creating Layer drop6
I0609 14:29:44.602407 23510 net.cpp:454] drop6 <- fc6
I0609 14:29:44.602418 23510 net.cpp:397] drop6 -> fc6 (in-place)
I0609 14:29:44.602474 23510 net.cpp:150] Setting up drop6
I0609 14:29:44.602494 23510 net.cpp:157] Top shape: 1 4096 (4096)
I0609 14:29:44.602501 23510 net.cpp:165] Memory required for data: 1423421424
I0609 14:29:44.602510 23510 layer_factory.hpp:77] Creating layer fc7
I0609 14:29:44.602524 23510 net.cpp:106] Creating Layer fc7
I0609 14:29:44.602536 23510 net.cpp:454] fc7 <- fc6
I0609 14:29:44.602550 23510 net.cpp:411] fc7 -> fc7
I0609 14:29:44.671188 23510 net.cpp:150] Setting up fc7
I0609 14:29:44.671285 23510 net.cpp:157] Top shape: 1 4096 (4096)
I0609 14:29:44.671319 23510 net.cpp:165] Memory required for data: 1423437808
I0609 14:29:44.671344 23510 layer_factory.hpp:77] Creating layer relu7
I0609 14:29:44.671383 23510 net.cpp:106] Creating Layer relu7
I0609 14:29:44.671406 23510 net.cpp:454] relu7 <- fc7
I0609 14:29:44.671424 23510 net.cpp:397] relu7 -> fc7 (in-place)
I0609 14:29:44.671443 23510 net.cpp:150] Setting up relu7
I0609 14:29:44.671461 23510 net.cpp:157] Top shape: 1 4096 (4096)
I0609 14:29:44.671483 23510 net.cpp:165] Memory required for data: 1423454192
I0609 14:29:44.671494 23510 layer_factory.hpp:77] Creating layer drop7
I0609 14:29:44.671516 23510 net.cpp:106] Creating Layer drop7
I0609 14:29:44.671525 23510 net.cpp:454] drop7 <- fc7
I0609 14:29:44.671536 23510 net.cpp:397] drop7 -> fc7 (in-place)
I0609 14:29:44.671600 23510 net.cpp:150] Setting up drop7
I0609 14:29:44.671620 23510 net.cpp:157] Top shape: 1 4096 (4096)
I0609 14:29:44.671629 23510 net.cpp:165] Memory required for data: 1423470576
I0609 14:29:44.671638 23510 layer_factory.hpp:77] Creating layer fc7_drop7_0_split
I0609 14:29:44.671651 23510 net.cpp:106] Creating Layer fc7_drop7_0_split
I0609 14:29:44.671667 23510 net.cpp:454] fc7_drop7_0_split <- fc7
I0609 14:29:44.671682 23510 net.cpp:411] fc7_drop7_0_split -> fc7_drop7_0_split_0
I0609 14:29:44.671699 23510 net.cpp:411] fc7_drop7_0_split -> fc7_drop7_0_split_1
I0609 14:29:44.671802 23510 net.cpp:150] Setting up fc7_drop7_0_split
I0609 14:29:44.671823 23510 net.cpp:157] Top shape: 1 4096 (4096)
I0609 14:29:44.671834 23510 net.cpp:157] Top shape: 1 4096 (4096)
I0609 14:29:44.671842 23510 net.cpp:165] Memory required for data: 1423503344
I0609 14:29:44.671854 23510 layer_factory.hpp:77] Creating layer cls_score
I0609 14:29:44.671878 23510 net.cpp:106] Creating Layer cls_score
I0609 14:29:44.671895 23510 net.cpp:454] cls_score <- fc7_drop7_0_split_0
I0609 14:29:44.671911 23510 net.cpp:411] cls_score -> cls_score
I0609 14:29:44.672456 23510 net.cpp:150] Setting up cls_score
I0609 14:29:44.672478 23510 net.cpp:157] Top shape: 1 8 (8)
I0609 14:29:44.672504 23510 net.cpp:165] Memory required for data: 1423503376
I0609 14:29:44.672520 23510 layer_factory.hpp:77] Creating layer bbox_pred
I0609 14:29:44.672555 23510 net.cpp:106] Creating Layer bbox_pred
I0609 14:29:44.672566 23510 net.cpp:454] bbox_pred <- fc7_drop7_0_split_1
I0609 14:29:44.672578 23510 net.cpp:411] bbox_pred -> bbox_pred
I0609 14:29:44.674060 23510 net.cpp:150] Setting up bbox_pred
I0609 14:29:44.674084 23510 net.cpp:157] Top shape: 1 32 (32)
I0609 14:29:44.674093 23510 net.cpp:165] Memory required for data: 1423503504
I0609 14:29:44.674105 23510 layer_factory.hpp:77] Creating layer loss_cls
I0609 14:29:44.674125 23510 net.cpp:106] Creating Layer loss_cls
I0609 14:29:44.674190 23510 net.cpp:454] loss_cls <- cls_score
I0609 14:29:44.674211 23510 net.cpp:454] loss_cls <- labels
I0609 14:29:44.674221 23510 net.cpp:411] loss_cls -> loss_cls
…
           'RPN_POST_NMS_TOP_N': 2000,
           'RPN_PRE_NMS_TOP_N': 12000,
           'SCALES': [600],
           'SNAPSHOT_INFIX': '',
           'SNAPSHOT_ITERS': 10000,
           'USE_FLIPPED': True,
           'USE_PREFETCH': False},
 'USE_GPU_NMS': True}
WARNING: Logging before InitGoogleLogging() is written to STDERR
I0609 22:15:48.602740 27164 net.cpp:49] Initializing net from parameters: 
name: "VGG_ILSVRC_16_layers"
input: "data"
input: "im_info"
state {
  phase: TEST
}
input_shape {
  dim: 1
  dim: 3
  dim: 224
  dim: 224
}
input_shape {
  dim: 1
  dim: 3
}
layer {
  name: "conv1_1"
  type: "Convolution"
  bottom: "data"
  top: "conv1_1"
  param {
    lr_mult: 0
    decay_mult: 0
  }
  param {
    lr_mult: 0
    decay_mult: 0
  }
  convolution_param {
    num_output: 64
    pad: 1
    kernel_size: 3
  }
}
layer {
  name: "relu1_1"
  type: "ReLU"
  bottom: "conv1_1"
  top: "conv1_1"
}
layer {
  name: "conv1_2"
  type: "Convolution"
  bottom: "conv1_1"
  top: "conv1_2"
  param {
    lr_mult: 0
    decay_mult: 0
  }
  param {
    lr_mult: 0
    decay_mult: 0
  }
  convolution_param {
    num_output: 64
    pad: 1
    kernel_size: 3
  }
}
layer {
  name: "relu1_2"
  type: "ReLU"
  bottom: "conv1_2"
  top: "conv1_2"
}
layer {
  name: "pool1"
  type: "Pooling"
  bottom: "conv1_2"
  top: "pool1"
  pooling_param {
    pool: MAX
    kernel_size: 2
    stride: 2
  }
}
layer {
  name: "conv2_1"
  type: "Convolution"
  bottom: "pool1"
  top: "conv2_1"
  param {
    lr_mult: 0
    decay_mult: 0
  }
  param {
    lr_mult: 0
    decay_mult: 0
  }
  convolution_param {
    num_output: 128
    pad: 1
    kernel_size: 3
  }
}
layer {
  name: "relu2_1"
  type: "ReLU"
  bottom: "conv2_1"
  top: "conv2_1"
}
layer {
  name: "conv2_2"
  type: "Convolution"
  bottom: "conv2_1"
  top: "conv2_2"
  param {
    lr_mult: 0
    decay_mult: 0
  }
  param {
    lr_mult: 0
    decay_mult: 0
  }
  convolution_param {
    num_output: 128
    pad: 1
    kernel_size: 3
  }
}
layer {
  name: "relu2_2"
  type: "ReLU"
  bottom: "conv2_2"
  top: "conv2_2"
}
layer {
  name: "pool2"
  type: "Pooling"
  bottom: "conv2_2"
  top: "pool2"
  pooling_param {
    pool: MAX
    kernel_size: 2
    stride: 2
  }
}
layer {
  name: "conv3_1"
  type: "Convolution"
  bottom: "pool2"
  top: "conv3_1"
  param {
    lr_mult: 1
    decay_mult: 1
  }
  param {
    lr_mult: 2
    decay_mult: 0
  }
  convolution_param {
    num_output: 256
    pad: 1
    kernel_size: 3
  }
}
layer {
  name: "relu3_1"
  type: "ReLU"
  bottom: "conv3_1"
  top: "conv3_1"
}
layer {
  name: "conv3_2"
  type: "Convolution"
  bottom: "conv3_1"
  top: "conv3_2"
  param {
    lr_mult: 1
    decay_mult: 1
  }
  param {
    lr_mult: 2
    decay_mult: 0
  }
  convolution_param {
    num_output: 256
    pad: 1
    kernel_size: 3
  }
}
layer {
  name: "relu3_2"
  type: "ReLU"
  bottom: "conv3_2"
  top: "conv3_2"
}
layer {
  name: "conv3_3"
  type: "Convolution"
  bottom: "conv3_2"
  top: "conv3_3"
  param {
    lr_mult: 1
    decay_mult: 1
  }
  param {
    lr_mult: 2
    decay_mult: 0
  }
  convolution_param {
    num_output: 256
    pad: 1
    kernel_size: 3
  }
}
layer {
  name: "relu3_3"
  type: "ReLU"
  bottom: "conv3_3"
  top: "conv3_3"
}
layer {
  name: "pool3"
  type: "Pooling"
  bottom: "conv3_3"
  top: "pool3"
  pooling_param {
    pool: MAX
    kernel_size: 2
    stride: 2
  }
}
layer {
  name: "conv4_1"
  type: "Convolution"
  bottom: "pool3"
  top: "conv4_1"
  param {
    lr_mult: 1
    decay_mult: 1
  }
  param {
    lr_mult: 2
    decay_mult: 0
  }
  convolution_param {
    num_output: 512
    pad: 1
    kernel_size: 3
  }
}
layer {
  name: "relu4_1"
  type: "ReLU"
  bottom: "conv4_1"
  top: "conv4_1"
}
layer {
  name: "conv4_2"
  type: "Convolution"
  bottom: "conv4_1"
  top: "conv4_2"
  param {
    lr_mult: 1
    decay_mult: 1
  }
  param {
    lr_mult: 2
    decay_mult: 0
  }
  convolution_param {
    num_output: 512
    pad: 1
    kernel_size: 3
  }
}
layer {
  name: "relu4_2"
  type: "ReLU"
  bottom: "conv4_2"
  top: "conv4_2"
}
layer {
  name: "conv4_3"
  type: "Convolution"
  bottom: "conv4_2"
  top: "conv4_3"
  param {
    lr_mult: 1
    decay_mult: 1
  }
  param {
    lr_mult: 2
    decay_mult: 0
  }
  convolution_param {
    num_output: 512
    pad: 1
    kernel_size: 3
  }
}
layer {
  name: "relu4_3"
  type: "ReLU"
  bottom: "conv4_3"
  top: "conv4_3"
}
layer {
  name: "pool4"
  type: "Pooling"
  bottom: "conv4_3"
  top: "pool4"
  pooling_param {
    pool: MAX
    kernel_size: 2
    stride: 2
  }
}
layer {
  name: "conv5_1"
  type: "Convolution"
  bottom: "pool4"
  top: "conv5_1"
  param {
    lr_mult: 1
    decay_mult: 1
  }
  param {
    lr_mult: 2
    decay_mult: 0
  }
  convolution_param {
    num_output: 512
    pad: 1
    kernel_size: 3
  }
}
layer {
  name: "relu5_1"
  type: "ReLU"
  bottom: "conv5_1"
  top: "conv5_1"
}
layer {
  name: "conv5_2"
  type: "Convolution"
  bottom: "conv5_1"
  top: "conv5_2"
  param {
    lr_mult: 1
    decay_mult: 1
  }
  param {
    lr_mult: 2
    decay_mult: 0
  }
  convolution_param {
    num_output: 512
    pad: 1
    kernel_size: 3
  }
}
layer {
  name: "relu5_2"
  type: "ReLU"
  bottom: "conv5_2"
  top: "conv5_2"
}
layer {
  name: "conv5_3"
  type: "Convolution"
  bottom: "conv5_2"
  top: "conv5_3"
  param {
    lr_mult: 1
    decay_mult: 1
  }
  param {
    lr_mult: 2
    decay_mult: 0
  }
  convolution_param {
    num_output: 512
    pad: 1
    kernel_size: 3
  }
}
layer {
  name: "relu5_3"
  type: "ReLU"
  bottom: "conv5_3"
  top: "conv5_3"
}
layer {
  name: "rpn_conv/3x3"
  type: "Convolution"
  bottom: "conv5_3"
  top: "rpn/output"
  param {
    lr_mult: 1
    decay_mult: 1
  }
  param {
    lr_mult: 2
    decay_mult: 0
  }
  convolution_param {
    num_output: 512
    pad: 1
    kernel_size: 3
    stride: 1
    weight_filler {
      type: "gaussian"
      std: 0.01
    }
    bias_filler {
      type: "constant"
      value: 0
    }
  }
}
layer {
  name: "rpn_relu/3x3"
  type: "ReLU"
  bottom: "rpn/output"
  top: "rpn/output"
}
layer {
  name: "rpn_cls_score"
  type: "Convolution"
  bottom: "rpn/output"
  top: "rpn_cls_score"
  param {
    lr_mult: 1
    decay_mult: 1
  }
  param {
    lr_mult: 2
    decay_mult: 0
  }
  convolution_param {
    num_output: 18
    pad: 0
    kernel_size: 1
    stride: 1
    weight_filler {
      type: "gaussian"
      std: 0.01
    }
    bias_filler {
      type: "constant"
      value: 0
    }
  }
}
layer {
  name: "rpn_bbox_pred"
  type: "Convolution"
  bottom: "rpn/output"
  top: "rpn_bbox_pred"
  param {
    lr_mult: 1
    decay_mult: 1
  }
  param {
    lr_mult: 2
    decay_mult: 0
  }
  convolution_param {
    num_output: 36
    pad: 0
    kernel_size: 1
    stride: 1
    weight_filler {
      type: "gaussian"
      std: 0.01
    }
    bias_filler {
      type: "constant"
      value: 0
    }
  }
}
layer {
  name: "rpn_cls_score_reshape"
  type: "Reshape"
  bottom: "rpn_cls_score"
  top: "rpn_cls_score_reshape"
  reshape_param {
    shape {
      dim: 0
      dim: 2
      dim: -1
      dim: 0
    }
  }
}
layer {
  name: "rpn_cls_prob"
  type: "Softmax"
  bottom: "rpn_cls_score_reshape"
  top: "rpn_cls_prob"
}
layer {
  name: "rpn_cls_prob_reshape"
  type: "Reshape"
  bottom: "rpn_cls_prob"
  top: "rpn_cls_prob_reshape"
  reshape_param {
    shape {
      dim: 0
      dim: 18
      dim: -1
      dim: 0
    }
  }
}
layer {
  name: "proposal"
  type: "Python"
  bottom: "rpn_cls_prob_reshape"
  bottom: "rpn_bbox_pred"
  bottom: "im_info"
  top: "rois"
  python_param {
    module: "rpn.proposal_layer"
    layer: "ProposalLayer"
    param_str: "\'feat_stride\': 16"
  }
}
layer {
  name: "roi_pool5"
  type: "ROIPooling"
  bottom: "conv5_3"
  bottom: "rois"
  top: "pool5"
  roi_pooling_param {
    pooled_h: 7
    pooled_w: 7
    spatial_scale: 0.0625
  }
}
layer {
  name: "fc6"
  type: "InnerProduct"
  bottom: "pool5"
  top: "fc6"
  param {
    lr_mult: 1
    decay_mult: 1
  }
  param {
    lr_mult: 2
    decay_mult: 0
  }
  inner_product_param {
    num_output: 4096
  }
}
layer {
  name: "relu6"
  type: "ReLU"
  bottom: "fc6"
  top: "fc6"
}
layer {
  name: "drop6"
  type: "Dropout"
  bottom: "fc6"
  top: "fc6"
  dropout_param {
    dropout_ratio: 0.5
  }
}
layer {
  name: "fc7"
  type: "InnerProduct"
  bottom: "fc6"
  top: "fc7"
  param {
    lr_mult: 1
    decay_mult: 1
  }
  param {
    lr_mult: 2
    decay_mult: 0
  }
  inner_product_param {
    num_output: 4096
  }
}
layer {
  name: "relu7"
  type: "ReLU"
  bottom: "fc7"
  top: "fc7"
}
layer {
  name: "drop7"
  type: "Dropout"
  bottom: "fc7"
  top: "fc7"
  dropout_param {
    dropout_ratio: 0.5
  }
}
layer {
  name: "cls_score"
  type: "InnerProduct"
  bottom: "fc7"
  top: "cls_score"
  param {
    lr_mult: 1
    decay_mult: 1
  }
  param {
    lr_mult: 2
    decay_mult: 0
  }
  inner_product_param {
    num_output: 8
    weight_filler {
      type: "gaussian"
      std: 0.01
    }
    bias_filler {
      type: "constant"
      value: 0
    }
  }
}
layer {
  name: "bbox_pred"
  type: "InnerProduct"
  bottom: "fc7"
  top: "bbox_pred"
  param {
    lr_mult: 1
    decay_mult: 1
  }
  param {
    lr_mult: 2
    decay_mult: 0
  }
  inner_product_param {
    num_output: 32
    weight_filler {
      type: "gaussian"
      std: 0.001
    }
    bias_filler {
      type: "constant"
      value: 0
    }
  }
}
layer {
  name: "cls_prob"
  type: "Softmax"
  bottom: "cls_score"
  top: "cls_prob"
}
I0609 22:15:48.603143 27164 net.cpp:413] Input 0 -> data
I0609 22:15:49.152515 27164 net.cpp:413] Input 1 -> im_info
I0609 22:15:49.152622 27164 layer_factory.hpp:77] Creating layer conv1_1
I0609 22:15:49.152659 27164 net.cpp:106] Creating Layer conv1_1
I0609 22:15:49.152686 27164 net.cpp:454] conv1_1 <- data
I0609 22:15:49.152699 27164 net.cpp:411] conv1_1 -> conv1_1
I0609 22:15:49.160075 27164 net.cpp:150] Setting up conv1_1
I0609 22:15:49.160114 27164 net.cpp:157] Top shape: 1 64 224 224 (3211264)
I0609 22:15:49.160122 27164 net.cpp:165] Memory required for data: 12845056
I0609 22:15:49.160141 27164 layer_factory.hpp:77] Creating layer relu1_1
I0609 22:15:49.160162 27164 net.cpp:106] Creating Layer relu1_1
I0609 22:15:49.160174 27164 net.cpp:454] relu1_1 <- conv1_1
I0609 22:15:49.160185 27164 net.cpp:397] relu1_1 -> conv1_1 (in-place)
I0609 22:15:49.160203 27164 net.cpp:150] Setting up relu1_1
I0609 22:15:49.160228 27164 net.cpp:157] Top shape: 1 64 224 224 (3211264)
I0609 22:15:49.160243 27164 net.cpp:165] Memory required for data: 25690112
I0609 22:15:49.160251 27164 layer_factory.hpp:77] Creating layer conv1_2
I0609 22:15:49.160269 27164 net.cpp:106] Creating Layer conv1_2
I0609 22:15:49.160277 27164 net.cpp:454] conv1_2 <- conv1_1
I0609 22:15:49.160292 27164 net.cpp:411] conv1_2 -> conv1_2
I0609 22:15:49.160696 27164 net.cpp:150] Setting up conv1_2
I0609 22:15:49.160723 27164 net.cpp:157] Top shape: 1 64 224 224 (3211264)
I0609 22:15:49.160732 27164 net.cpp:165] Memory required for data: 38535168
I0609 22:15:49.160743 27164 layer_factory.hpp:77] Creating layer relu1_2
I0609 22:15:49.160754 27164 net.cpp:106] Creating Layer relu1_2
I0609 22:15:49.160765 27164 net.cpp:454] relu1_2 <- conv1_2
I0609 22:15:49.160775 27164 net.cpp:397] relu1_2 -> conv1_2 (in-place)
I0609 22:15:49.160787 27164 net.cpp:150] Setting up relu1_2
I0609 22:15:49.160797 27164 net.cpp:157] Top shape: 1 64 224 224 (3211264)
I0609 22:15:49.160805 27164 net.cpp:165] Memory required for data: 51380224
I0609 22:15:49.160827 27164 layer_factory.hpp:77] Creating layer pool1
I0609 22:15:49.160843 27164 net.cpp:106] Creating Layer pool1
I0609 22:15:49.160852 27164 net.cpp:454] pool1 <- conv1_2
I0609 22:15:49.160864 27164 net.cpp:411] pool1 -> pool1
I0609 22:15:49.160933 27164 net.cpp:150] Setting up pool1
I0609 22:15:49.160953 27164 net.cpp:157] Top shape: 1 64 112 112 (802816)
I0609 22:15:49.160961 27164 net.cpp:165] Memory required for data: 54591488
I0609 22:15:49.160969 27164 layer_factory.hpp:77] Creating layer conv2_1
I0609 22:15:49.160984 27164 net.cpp:106] Creating Layer conv2_1
I0609 22:15:49.160996 27164 net.cpp:454] conv2_1 <- pool1
I0609 22:15:49.161010 27164 net.cpp:411] conv2_1 -> conv2_1
I0609 22:15:49.167978 27164 net.cpp:150] Setting up conv2_1
I0609 22:15:49.168009 27164 net.cpp:157] Top shape: 1 128 112 112 (1605632)
I0609 22:15:49.168018 27164 net.cpp:165] Memory required for data: 61014016
I0609 22:15:49.168035 27164 layer_factory.hpp:77] Creating layer relu2_1
I0609 22:15:49.168047 27164 net.cpp:106] Creating Layer relu2_1
I0609 22:15:49.168056 27164 net.cpp:454] relu2_1 <- conv2_1
I0609 22:15:49.168067 27164 net.cpp:397] relu2_1 -> conv2_1 (in-place)
I0609 22:15:49.168084 27164 net.cpp:150] Setting up relu2_1
I0609 22:15:49.168094 27164 net.cpp:157] Top shape: 1 128 112 112 (1605632)
I0609 22:15:49.168102 27164 net.cpp:165] Memory required for data: 67436544
I0609 22:15:49.168108 27164 layer_factory.hpp:77] Creating layer conv2_2
I0609 22:15:49.168130 27164 net.cpp:106] Creating Layer conv2_2
I0609 22:15:49.168139 27164 net.cpp:454] conv2_2 <- conv2_1
I0609 22:15:49.168148 27164 net.cpp:411] conv2_2 -> conv2_2
I0609 22:15:49.168613 27164 net.cpp:150] Setting up conv2_2
I0609 22:15:49.168638 27164 net.cpp:157] Top shape: 1 128 112 112 (1605632)
I0609 22:15:49.168646 27164 net.cpp:165] Memory required for data: 73859072
I0609 22:15:49.168658 27164 layer_factory.hpp:77] Creating layer relu2_2
I0609 22:15:49.168669 27164 net.cpp:106] Creating Layer relu2_2
I0609 22:15:49.168680 27164 net.cpp:454] relu2_2 <- conv2_2
I0609 22:15:49.168694 27164 net.cpp:397] relu2_2 -> conv2_2 (in-place)
I0609 22:15:49.168709 27164 net.cpp:150] Setting up relu2_2
I0609 22:15:49.168718 27164 net.cpp:157] Top shape: 1 128 112 112 (1605632)
I0609 22:15:49.168725 27164 net.cpp:165] Memory required for data: 80281600
I0609 22:15:49.168733 27164 layer_factory.hpp:77] Creating layer pool2
I0609 22:15:49.168742 27164 net.cpp:106] Creating Layer pool2
I0609 22:15:49.168753 27164 net.cpp:454] pool2 <- conv2_2
I0609 22:15:49.168763 27164 net.cpp:411] pool2 -> pool2
I0609 22:15:49.168828 27164 net.cpp:150] Setting up pool2
I0609 22:15:49.168846 27164 net.cpp:157] Top shape: 1 128 56 56 (401408)
I0609 22:15:49.168854 27164 net.cpp:165] Memory required for data: 81887232
I0609 22:15:49.168862 27164 layer_factory.hpp:77] Creating layer conv3_1
I0609 22:15:49.168877 27164 net.cpp:106] Creating Layer conv3_1
I0609 22:15:49.168885 27164 net.cpp:454] conv3_1 <- pool2
I0609 22:15:49.168901 27164 net.cpp:411] conv3_1 -> conv3_1
I0609 22:15:49.169431 27164 net.cpp:150] Setting up conv3_1
I0609 22:15:49.169456 27164 net.cpp:157] Top shape: 1 256 56 56 (802816)
I0609 22:15:49.169463 27164 net.cpp:165] Memory required for data: 85098496
I0609 22:15:49.169476 27164 layer_factory.hpp:77] Creating layer relu3_1
I0609 22:15:49.169489 27164 net.cpp:106] Creating Layer relu3_1
I0609 22:15:49.169497 27164 net.cpp:454] relu3_1 <- conv3_1
I0609 22:15:49.169510 27164 net.cpp:397] relu3_1 -> conv3_1 (in-place)
I0609 22:15:49.169523 27164 net.cpp:150] Setting up relu3_1
I0609 22:15:49.169531 27164 net.cpp:157] Top shape: 1 256 56 56 (802816)
I0609 22:15:49.169543 27164 net.cpp:165] Memory required for data: 88309760
I0609 22:15:49.169550 27164 layer_factory.hpp:77] Creating layer conv3_2
I0609 22:15:49.169567 27164 net.cpp:106] Creating Layer conv3_2
I0609 22:15:49.169575 27164 net.cpp:454] conv3_2 <- conv3_1
I0609 22:15:49.169584 27164 net.cpp:411] conv3_2 -> conv3_2
I0609 22:15:49.174233 27164 net.cpp:150] Setting up conv3_2
I0609 22:15:49.174269 27164 net.cpp:157] Top shape: 1 256 56 56 (802816)
I0609 22:15:49.174279 27164 net.cpp:165] Memory required for data: 91521024
I0609 22:15:49.174291 27164 layer_factory.hpp:77] Creating layer relu3_2
I0609 22:15:49.174310 27164 net.cpp:106] Creating Layer relu3_2
I0609 22:15:49.174324 27164 net.cpp:454] relu3_2 <- conv3_2
I0609 22:15:49.174335 27164 net.cpp:397] relu3_2 -> conv3_2 (in-place)
I0609 22:15:49.174347 27164 net.cpp:150] Setting up relu3_2
I0609 22:15:49.174360 27164 net.cpp:157] Top shape: 1 256 56 56 (802816)
I0609 22:15:49.174366 27164 net.cpp:165] Memory required for data: 94732288
I0609 22:15:49.174376 27164 layer_factory.hpp:77] Creating layer conv3_3
I0609 22:15:49.174391 27164 net.cpp:106] Creating Layer conv3_3
I0609 22:15:49.174403 27164 net.cpp:454] conv3_3 <- conv3_2
I0609 22:15:49.174414 27164 net.cpp:411] conv3_3 -> conv3_3
I0609 22:15:49.178540 27164 net.cpp:150] Setting up conv3_3
I0609 22:15:49.178571 27164 net.cpp:157] Top shape: 1 256 56 56 (802816)
I0609 22:15:49.178580 27164 net.cpp:165] Memory required for data: 97943552
I0609 22:15:49.178591 27164 layer_factory.hpp:77] Creating layer relu3_3
I0609 22:15:49.178606 27164 net.cpp:106] Creating Layer relu3_3
I0609 22:15:49.178618 27164 net.cpp:454] relu3_3 <- conv3_3
I0609 22:15:49.178629 27164 net.cpp:397] relu3_3 -> conv3_3 (in-place)
I0609 22:15:49.178643 27164 net.cpp:150] Setting up relu3_3
I0609 22:15:49.178656 27164 net.cpp:157] Top shape: 1 256 56 56 (802816)
I0609 22:15:49.178663 27164 net.cpp:165] Memory required for data: 101154816
I0609 22:15:49.178670 27164 layer_factory.hpp:77] Creating layer pool3
I0609 22:15:49.178685 27164 net.cpp:106] Creating Layer pool3
I0609 22:15:49.178697 27164 net.cpp:454] pool3 <- conv3_3
I0609 22:15:49.178709 27164 net.cpp:411] pool3 -> pool3
I0609 22:15:49.178781 27164 net.cpp:150] Setting up pool3
I0609 22:15:49.178812 27164 net.cpp:157] Top shape: 1 256 28 28 (200704)
I0609 22:15:49.178858 27164 net.cpp:165] Memory required for data: 101957632
I0609 22:15:49.178869 27164 layer_factory.hpp:77] Creating layer conv4_1
I0609 22:15:49.178880 27164 net.cpp:106] Creating Layer conv4_1
I0609 22:15:49.178892 27164 net.cpp:454] conv4_1 <- pool3
I0609 22:15:49.178907 27164 net.cpp:411] conv4_1 -> conv4_1
I0609 22:15:49.187860 27164 net.cpp:150] Setting up conv4_1
I0609 22:15:49.187891 27164 net.cpp:157] Top shape: 1 512 28 28 (401408)
I0609 22:15:49.187901 27164 net.cpp:165] Memory required for data: 103563264
I0609 22:15:49.187912 27164 layer_factory.hpp:77] Creating layer relu4_1
I0609 22:15:49.187928 27164 net.cpp:106] Creating Layer relu4_1
I0609 22:15:49.187942 27164 net.cpp:454] relu4_1 <- conv4_1
I0609 22:15:49.187952 27164 net.cpp:397] relu4_1 -> conv4_1 (in-place)
I0609 22:15:49.187964 27164 net.cpp:150] Setting up relu4_1
I0609 22:15:49.187985 27164 net.cpp:157] Top shape: 1 512 28 28 (401408)
I0609 22:15:49.187999 27164 net.cpp:165] Memory required for data: 105168896
I0609 22:15:49.188007 27164 layer_factory.hpp:77] Creating layer conv4_2
I0609 22:15:49.188037 27164 net.cpp:106] Creating Layer conv4_2
I0609 22:15:49.188062 27164 net.cpp:454] conv4_2 <- conv4_1
I0609 22:15:49.188073 27164 net.cpp:411] conv4_2 -> conv4_2
I0609 22:15:49.198261 27164 net.cpp:150] Setting up conv4_2
I0609 22:15:49.198305 27164 net.cpp:157] Top shape: 1 512 28 28 (401408)
I0609 22:15:49.198318 27164 net.cpp:165] Memory required for data: 106774528
I0609 22:15:49.198336 27164 layer_factory.hpp:77] Creating layer relu4_2
I0609 22:15:49.198349 27164 net.cpp:106] Creating Layer relu4_2
I0609 22:15:49.198362 27164 net.cpp:454] relu4_2 <- conv4_2
I0609 22:15:49.198375 27164 net.cpp:397] relu4_2 -> conv4_2 (in-place)
I0609 22:15:49.198387 27164 net.cpp:150] Setting up relu4_2
I0609 22:15:49.198397 27164 net.cpp:157] Top shape: 1 512 28 28 (401408)
I0609 22:15:49.198410 27164 net.cpp:165] Memory required for data: 108380160
I0609 22:15:49.198416 27164 layer_factory.hpp:77] Creating layer conv4_3
I0609 22:15:49.198428 27164 net.cpp:106] Creating Layer conv4_3
I0609 22:15:49.198439 27164 net.cpp:454] conv4_3 <- conv4_2
I0609 22:15:49.198452 27164 net.cpp:411] conv4_3 -> conv4_3
I0609 22:15:49.207353 27164 net.cpp:150] Setting up conv4_3
I0609 22:15:49.207393 27164 net.cpp:157] Top shape: 1 512 28 28 (401408)
I0609 22:15:49.207402 27164 net.cpp:165] Memory required for data: 109985792
I0609 22:15:49.207415 27164 layer_factory.hpp:77] Creating layer relu4_3
I0609 22:15:49.207439 27164 net.cpp:106] Creating Layer relu4_3
I0609 22:15:49.207479 27164 net.cpp:454] relu4_3 <- conv4_3
I0609 22:15:49.207499 27164 net.cpp:397] relu4_3 -> conv4_3 (in-place)
I0609 22:15:49.207533 27164 net.cpp:150] Setting up relu4_3
I0609 22:15:49.207545 27164 net.cpp:157] Top shape: 1 512 28 28 (401408)
I0609 22:15:49.207551 27164 net.cpp:165] Memory required for data: 111591424
I0609 22:15:49.207563 27164 layer_factory.hpp:77] Creating layer pool4
I0609 22:15:49.207576 27164 net.cpp:106] Creating Layer pool4
I0609 22:15:49.207586 27164 net.cpp:454] pool4 <- conv4_3
I0609 22:15:49.207598 27164 net.cpp:411] pool4 -> pool4
I0609 22:15:49.207676 27164 net.cpp:150] Setting up pool4
I0609 22:15:49.207703 27164 net.cpp:157] Top shape: 1 512 14 14 (100352)
I0609 22:15:49.207711 27164 net.cpp:165] Memory required for data: 111992832
I0609 22:15:49.207718 27164 layer_factory.hpp:77] Creating layer conv5_1
I0609 22:15:49.207736 27164 net.cpp:106] Creating Layer conv5_1
I0609 22:15:49.207756 27164 net.cpp:454] conv5_1 <- pool4
I0609 22:15:49.207767 27164 net.cpp:411] conv5_1 -> conv5_1
I0609 22:15:49.217614 27164 net.cpp:150] Setting up conv5_1
I0609 22:15:49.217651 27164 net.cpp:157] Top shape: 1 512 14 14 (100352)
I0609 22:15:49.217661 27164 net.cpp:165] Memory required for data: 112394240
I0609 22:15:49.217674 27164 layer_factory.hpp:77] Creating layer relu5_1
I0609 22:15:49.217701 27164 net.cpp:106] Creating Layer relu5_1
I0609 22:15:49.217717 27164 net.cpp:454] relu5_1 <- conv5_1
I0609 22:15:49.217730 27164 net.cpp:397] relu5_1 -> conv5_1 (in-place)
I0609 22:15:49.217742 27164 net.cpp:150] Setting up relu5_1
I0609 22:15:49.217752 27164 net.cpp:157] Top shape: 1 512 14 14 (100352)
I0609 22:15:49.217759 27164 net.cpp:165] Memory required for data: 112795648
I0609 22:15:49.217772 27164 layer_factory.hpp:77] Creating layer conv5_2
I0609 22:15:49.217784 27164 net.cpp:106] Creating Layer conv5_2
I0609 22:15:49.217792 27164 net.cpp:454] conv5_2 <- conv5_1
I0609 22:15:49.217803 27164 net.cpp:411] conv5_2 -> conv5_2
I0609 22:15:49.227680 27164 net.cpp:150] Setting up conv5_2
I0609 22:15:49.227731 27164 net.cpp:157] Top shape: 1 512 14 14 (100352)
I0609 22:15:49.227741 27164 net.cpp:165] Memory required for data: 113197056
I0609 22:15:49.227756 27164 layer_factory.hpp:77] Creating layer relu5_2
I0609 22:15:49.227777 27164 net.cpp:106] Creating Layer relu5_2
I0609 22:15:49.227785 27164 net.cpp:454] relu5_2 <- conv5_2
I0609 22:15:49.227810 27164 net.cpp:397] relu5_2 -> conv5_2 (in-place)
I0609 22:15:49.227838 27164 net.cpp:150] Setting up relu5_2
I0609 22:15:49.227852 27164 net.cpp:157] Top shape: 1 512 14 14 (100352)
I0609 22:15:49.227860 27164 net.cpp:165] Memory required for data: 113598464
I0609 22:15:49.227867 27164 layer_factory.hpp:77] Creating layer conv5_3
I0609 22:15:49.227885 27164 net.cpp:106] Creating Layer conv5_3
I0609 22:15:49.227906 27164 net.cpp:454] conv5_3 <- conv5_2
I0609 22:15:49.227952 27164 net.cpp:411] conv5_3 -> conv5_3
I0609 22:15:49.238297 27164 net.cpp:150] Setting up conv5_3
I0609 22:15:49.238342 27164 net.cpp:157] Top shape: 1 512 14 14 (100352)
I0609 22:15:49.238350 27164 net.cpp:165] Memory required for data: 113999872
I0609 22:15:49.238364 27164 layer_factory.hpp:77] Creating layer relu5_3
I0609 22:15:49.238384 27164 net.cpp:106] Creating Layer relu5_3
I0609 22:15:49.238392 27164 net.cpp:454] relu5_3 <- conv5_3
I0609 22:15:49.238404 27164 net.cpp:397] relu5_3 -> conv5_3 (in-place)
I0609 22:15:49.238428 27164 net.cpp:150] Setting up relu5_3
I0609 22:15:49.238441 27164 net.cpp:157] Top shape: 1 512 14 14 (100352)
I0609 22:15:49.238448 27164 net.cpp:165] Memory required for data: 114401280
I0609 22:15:49.238459 27164 layer_factory.hpp:77] Creating layer conv5_3_relu5_3_0_split
I0609 22:15:49.238473 27164 net.cpp:106] Creating Layer conv5_3_relu5_3_0_split
I0609 22:15:49.238497 27164 net.cpp:454] conv5_3_relu5_3_0_split <- conv5_3
I0609 22:15:49.238507 27164 net.cpp:411] conv5_3_relu5_3_0_split -> conv5_3_relu5_3_0_split_0
I0609 22:15:49.238520 27164 net.cpp:411] conv5_3_relu5_3_0_split -> conv5_3_relu5_3_0_split_1
I0609 22:15:49.238606 27164 net.cpp:150] Setting up conv5_3_relu5_3_0_split
I0609 22:15:49.238626 27164 net.cpp:157] Top shape: 1 512 14 14 (100352)
I0609 22:15:49.238636 27164 net.cpp:157] Top shape: 1 512 14 14 (100352)
I0609 22:15:49.238642 27164 net.cpp:165] Memory required for data: 115204096
I0609 22:15:49.238649 27164 layer_factory.hpp:77] Creating layer rpn_conv/3x3
I0609 22:15:49.238669 27164 net.cpp:106] Creating Layer rpn_conv/3x3
I0609 22:15:49.238687 27164 net.cpp:454] rpn_conv/3x3 <- conv5_3_relu5_3_0_split_0
I0609 22:15:49.238698 27164 net.cpp:411] rpn_conv/3x3 -> rpn/output
I0609 22:15:49.271023 27164 net.cpp:150] Setting up rpn_conv/3x3
I0609 22:15:49.271085 27164 net.cpp:157] Top shape: 1 512 14 14 (100352)
I0609 22:15:49.271092 27164 net.cpp:165] Memory required for data: 115605504
I0609 22:15:49.271109 27164 layer_factory.hpp:77] Creating layer rpn_relu/3x3
I0609 22:15:49.271137 27164 net.cpp:106] Creating Layer rpn_relu/3x3
I0609 22:15:49.271150 27164 net.cpp:454] rpn_relu/3x3 <- rpn/output
I0609 22:15:49.271164 27164 net.cpp:397] rpn_relu/3x3 -> rpn/output (in-place)
I0609 22:15:49.271183 27164 net.cpp:150] Setting up rpn_relu/3x3
I0609 22:15:49.271193 27164 net.cpp:157] Top shape: 1 512 14 14 (100352)
I0609 22:15:49.271203 27164 net.cpp:165] Memory required for data: 116006912
I0609 22:15:49.271210 27164 layer_factory.hpp:77] Creating layer rpn/output_rpn_relu/3x3_0_split
I0609 22:15:49.271227 27164 net.cpp:106] Creating Layer rpn/output_rpn_relu/3x3_0_split
I0609 22:15:49.271242 27164 net.cpp:454] rpn/output_rpn_relu/3x3_0_split <- rpn/output
I0609 22:15:49.271255 27164 net.cpp:411] rpn/output_rpn_relu/3x3_0_split -> rpn/output_rpn_relu/3x3_0_split_0
I0609 22:15:49.271281 27164 net.cpp:411] rpn/output_rpn_relu/3x3_0_split -> rpn/output_rpn_relu/3x3_0_split_1
I0609 22:15:49.271373 27164 net.cpp:150] Setting up rpn/output_rpn_relu/3x3_0_split
I0609 22:15:49.271394 27164 net.cpp:157] Top shape: 1 512 14 14 (100352)
I0609 22:15:49.271404 27164 net.cpp:157] Top shape: 1 512 14 14 (100352)
I0609 22:15:49.271410 27164 net.cpp:165] Memory required for data: 116809728
I0609 22:15:49.271419 27164 layer_factory.hpp:77] Creating layer rpn_cls_score
I0609 22:15:49.271438 27164 net.cpp:106] Creating Layer rpn_cls_score
I0609 22:15:49.271456 27164 net.cpp:454] rpn_cls_score <- rpn/output_rpn_relu/3x3_0_split_0
I0609 22:15:49.271471 27164 net.cpp:411] rpn_cls_score -> rpn_cls_score
I0609 22:15:49.271965 27164 net.cpp:150] Setting up rpn_cls_score
I0609 22:15:49.271991 27164 net.cpp:157] Top shape: 1 18 14 14 (3528)
I0609 22:15:49.271998 27164 net.cpp:165] Memory required for data: 116823840
I0609 22:15:49.272009 27164 layer_factory.hpp:77] Creating layer rpn_bbox_pred
I0609 22:15:49.272022 27164 net.cpp:106] Creating Layer rpn_bbox_pred
I0609 22:15:49.272034 27164 net.cpp:454] rpn_bbox_pred <- rpn/output_rpn_relu/3x3_0_split_1
I0609 22:15:49.272048 27164 net.cpp:411] rpn_bbox_pred -> rpn_bbox_pred
I0609 22:15:49.272632 27164 net.cpp:150] Setting up rpn_bbox_pred
I0609 22:15:49.272658 27164 net.cpp:157] Top shape: 1 36 14 14 (7056)
I0609 22:15:49.272667 27164 net.cpp:165] Memory required for data: 116852064
I0609 22:15:49.272678 27164 layer_factory.hpp:77] Creating layer rpn_cls_score_reshape
I0609 22:15:49.272693 27164 net.cpp:106] Creating Layer rpn_cls_score_reshape
I0609 22:15:49.272717 27164 net.cpp:454] rpn_cls_score_reshape <- rpn_cls_score
I0609 22:15:49.272727 27164 net.cpp:411] rpn_cls_score_reshape -> rpn_cls_score_reshape
I0609 22:15:49.272783 27164 net.cpp:150] Setting up rpn_cls_score_reshape
I0609 22:15:49.272802 27164 net.cpp:157] Top shape: 1 2 126 14 (3528)
I0609 22:15:49.272810 27164 net.cpp:165] Memory required for data: 116866176
I0609 22:15:49.272819 27164 layer_factory.hpp:77] Creating layer rpn_cls_prob
I0609 22:15:49.272830 27164 net.cpp:106] Creating Layer rpn_cls_prob
I0609 22:15:49.272840 27164 net.cpp:454] rpn_cls_prob <- rpn_cls_score_reshape
I0609 22:15:49.272851 27164 net.cpp:411] rpn_cls_prob -> rpn_cls_prob
I0609 22:15:49.272953 27164 net.cpp:150] Setting up rpn_cls_prob
I0609 22:15:49.272974 27164 net.cpp:157] Top shape: 1 2 126 14 (3528)
I0609 22:15:49.272982 27164 net.cpp:165] Memory required for data: 116880288
I0609 22:15:49.272990 27164 layer_factory.hpp:77] Creating layer rpn_cls_prob_reshape
I0609 22:15:49.273000 27164 net.cpp:106] Creating Layer rpn_cls_prob_reshape
I0609 22:15:49.273011 27164 net.cpp:454] rpn_cls_prob_reshape <- rpn_cls_prob
I0609 22:15:49.273025 27164 net.cpp:411] rpn_cls_prob_reshape -> rpn_cls_prob_reshape
I0609 22:15:49.273077 27164 net.cpp:150] Setting up rpn_cls_prob_reshape
I0609 22:15:49.273097 27164 net.cpp:157] Top shape: 1 18 14 14 (3528)
I0609 22:15:49.273138 27164 net.cpp:165] Memory required for data: 116894400
I0609 22:15:49.273154 27164 layer_factory.hpp:77] Creating layer proposal
I0609 22:15:49.278633 27164 net.cpp:106] Creating Layer proposal
I0609 22:15:49.278666 27164 net.cpp:454] proposal <- rpn_cls_prob_reshape
I0609 22:15:49.278677 27164 net.cpp:454] proposal <- rpn_bbox_pred
I0609 22:15:49.278687 27164 net.cpp:454] proposal <- im_info
I0609 22:15:49.278698 27164 net.cpp:411] proposal -> rois
I0609 22:15:49.279547 27164 net.cpp:150] Setting up proposal
I0609 22:15:49.279579 27164 net.cpp:157] Top shape: 1 5 (5)
I0609 22:15:49.279588 27164 net.cpp:165] Memory required for data: 116894420
I0609 22:15:49.279598 27164 layer_factory.hpp:77] Creating layer roi_pool5
I0609 22:15:49.279615 27164 net.cpp:106] Creating Layer roi_pool5
I0609 22:15:49.279624 27164 net.cpp:454] roi_pool5 <- conv5_3_relu5_3_0_split_1
I0609 22:15:49.279634 27164 net.cpp:454] roi_pool5 <- rois
I0609 22:15:49.279657 27164 net.cpp:411] roi_pool5 -> pool5
I0609 22:15:49.279672 27164 roi_pooling_layer.cpp:30] Spatial scale: 0.0625
I0609 22:15:49.279760 27164 net.cpp:150] Setting up roi_pool5
I0609 22:15:49.279786 27164 net.cpp:157] Top shape: 1 512 7 7 (25088)
I0609 22:15:49.279795 27164 net.cpp:165] Memory required for data: 116994772
I0609 22:15:49.279804 27164 layer_factory.hpp:77] Creating layer fc6
I0609 22:15:49.279827 27164 net.cpp:106] Creating Layer fc6
I0609 22:15:49.279836 27164 net.cpp:454] fc6 <- pool5
I0609 22:15:49.279847 27164 net.cpp:411] fc6 -> fc6
I0609 22:15:49.675029 27164 net.cpp:150] Setting up fc6
I0609 22:15:49.675112 27164 net.cpp:157] Top shape: 1 4096 (4096)
I0609 22:15:49.675125 27164 net.cpp:165] Memory required for data: 117011156
I0609 22:15:49.675168 27164 layer_factory.hpp:77] Creating layer relu6
I0609 22:15:49.675217 27164 net.cpp:106] Creating Layer relu6
I0609 22:15:49.675232 27164 net.cpp:454] relu6 <- fc6
I0609 22:15:49.675299 27164 net.cpp:397] relu6 -> fc6 (in-place)
I0609 22:15:49.675326 27164 net.cpp:150] Setting up relu6
I0609 22:15:49.675350 27164 net.cpp:157] Top shape: 1 4096 (4096)
I0609 22:15:49.675362 27164 net.cpp:165] Memory required for data: 117027540
I0609 22:15:49.675374 27164 layer_factory.hpp:77] Creating layer drop6
I0609 22:15:49.675395 27164 net.cpp:106] Creating Layer drop6
I0609 22:15:49.675421 27164 net.cpp:454] drop6 <- fc6
I0609 22:15:49.675436 27164 net.cpp:397] drop6 -> fc6 (in-place)
I0609 22:15:49.675503 27164 net.cpp:150] Setting up drop6
I0609 22:15:49.675529 27164 net.cpp:157] Top shape: 1 4096 (4096)
I0609 22:15:49.675541 27164 net.cpp:165] Memory required for data: 117043924
I0609 22:15:49.675554 27164 layer_factory.hpp:77] Creating layer fc7
I0609 22:15:49.675580 27164 net.cpp:106] Creating Layer fc7
I0609 22:15:49.675619 27164 net.cpp:454] fc7 <- fc6
I0609 22:15:49.675637 27164 net.cpp:411] fc7 -> fc7
I0609 22:15:49.751709 27164 net.cpp:150] Setting up fc7
I0609 22:15:49.751819 27164 net.cpp:157] Top shape: 1 4096 (4096)
I0609 22:15:49.751842 27164 net.cpp:165] Memory required for data: 117060308
I0609 22:15:49.751878 27164 layer_factory.hpp:77] Creating layer relu7
I0609 22:15:49.751927 27164 net.cpp:106] Creating Layer relu7
I0609 22:15:49.751950 27164 net.cpp:454] relu7 <- fc7
I0609 22:15:49.751982 27164 net.cpp:397] relu7 -> fc7 (in-place)
I0609 22:15:49.752014 27164 net.cpp:150] Setting up relu7
I0609 22:15:49.752048 27164 net.cpp:157] Top shape: 1 4096 (4096)
I0609 22:15:49.752064 27164 net.cpp:165] Memory required for data: 117076692
I0609 22:15:49.752089 27164 layer_factory.hpp:77] Creating layer drop7
I0609 22:15:49.752120 27164 net.cpp:106] Creating Layer drop7
I0609 22:15:49.752137 27164 net.cpp:454] drop7 <- fc7
I0609 22:15:49.752187 27164 net.cpp:397] drop7 -> fc7 (in-place)
I0609 22:15:49.752293 27164 net.cpp:150] Setting up drop7
I0609 22:15:49.752334 27164 net.cpp:157] Top shape: 1 4096 (4096)
I0609 22:15:49.752352 27164 net.cpp:165] Memory required for data: 117093076
I0609 22:15:49.752377 27164 layer_factory.hpp:77] Creating layer fc7_drop7_0_split
I0609 22:15:49.752403 27164 net.cpp:106] Creating Layer fc7_drop7_0_split
I0609 22:15:49.752419 27164 net.cpp:454] fc7_drop7_0_split <- fc7
I0609 22:15:49.752439 27164 net.cpp:411] fc7_drop7_0_split -> fc7_drop7_0_split_0
I0609 22:15:49.752462 27164 net.cpp:411] fc7_drop7_0_split -> fc7_drop7_0_split_1
I0609 22:15:49.752617 27164 net.cpp:150] Setting up fc7_drop7_0_split
I0609 22:15:49.752647 27164 net.cpp:157] Top shape: 1 4096 (4096)
I0609 22:15:49.752660 27164 net.cpp:157] Top shape: 1 4096 (4096)
I0609 22:15:49.752671 27164 net.cpp:165] Memory required for data: 117125844
I0609 22:15:49.752682 27164 layer_factory.hpp:77] Creating layer cls_score
I0609 22:15:49.752714 27164 net.cpp:106] Creating Layer cls_score
I0609 22:15:49.752737 27164 net.cpp:454] cls_score <- fc7_drop7_0_split_0
I0609 22:15:49.752756 27164 net.cpp:411] cls_score -> cls_score
I0609 22:15:49.753509 27164 net.cpp:150] Setting up cls_score
I0609 22:15:49.753552 27164 net.cpp:157] Top shape: 1 8 (8)
I0609 22:15:49.753569 27164 net.cpp:165] Memory required for data: 117125876
I0609 22:15:49.753587 27164 layer_factory.hpp:77] Creating layer bbox_pred
I0609 22:15:49.753600 27164 net.cpp:106] Creating Layer bbox_pred
I0609 22:15:49.753613 27164 net.cpp:454] bbox_pred <- fc7_drop7_0_split_1
I0609 22:15:49.753633 27164 net.cpp:411] bbox_pred -> bbox_pred
I0609 22:15:49.760773 27164 net.cpp:150] Setting up bbox_pred
I0609 22:15:49.760814 27164 net.cpp:157] Top shape: 1 32 (32)
I0609 22:15:49.760828 27164 net.cpp:165] Memory required for data: 117126004
I0609 22:15:49.760849 27164 layer_factory.hpp:77] Creating layer cls_prob
I0609 22:15:49.760870 27164 net.cpp:106] Creating Layer cls_prob
I0609 22:15:49.760879 27164 net.cpp:454] cls_prob <- cls_score
I0609 22:15:49.760898 27164 net.cpp:411] cls_prob -> cls_prob
I0609 22:15:49.761065 27164 net.cpp:150] Setting up cls_prob
I0609 22:15:49.761097 27164 net.cpp:157] Top shape: 1 8 (8)
I0609 22:15:49.761114 27164 net.cpp:165] Memory required for data: 117126036
I0609 22:15:49.761131 27164 net.cpp:228] cls_prob does not need backward computation.
I0609 22:15:49.761149 27164 net.cpp:228] bbox_pred does not need backward computation.
I0609 22:15:49.761159 27164 net.cpp:228] cls_score does not need backward computation.
I0609 22:15:49.761173 27164 net.cpp:228] fc7_drop7_0_split does not need backward computation.
…
