…
snapshot_prefix: "vgg16_faster_rcnn"
average_loss: 100
iter_size: 2
I0608 21:04:18.618428  7222 solver.cpp:81] Creating training net from train_net file: models/pascal_voc/VGG16/faster_rcnn_end2end/train.prototxt
I0608 21:04:18.619925  7222 net.cpp:49] Initializing net from parameters: 
name: "VGG_ILSVRC_16_layers"
state {
  phase: TRAIN
}
layer {
  name: "input-data"
  type: "Python"
  top: "data"
  top: "im_info"
  top: "gt_boxes"
  python_param {
    module: "roi_data_layer.layer"
    layer: "RoIDataLayer"
    param_str: "\'num_classes\': 8"
  }
}
layer {
  name: "conv1_1"
  type: "Convolution"
  bottom: "data"
  top: "conv1_1"
  param {
    lr_mult: 0
    decay_mult: 0
  }
  param {
    lr_mult: 0
    decay_mult: 0
  }
  convolution_param {
    num_output: 64
    pad: 1
    kernel_size: 3
  }
}
layer {
  name: "relu1_1"
  type: "ReLU"
  bottom: "conv1_1"
  top: "conv1_1"
}
layer {
  name: "conv1_2"
  type: "Convolution"
  bottom: "conv1_1"
  top: "conv1_2"
  param {
    lr_mult: 0
    decay_mult: 0
  }
  param {
    lr_mult: 0
    decay_mult: 0
  }
  convolution_param {
    num_output: 64
    pad: 1
    kernel_size: 3
  }
}
layer {
  name: "relu1_2"
  type: "ReLU"
  bottom: "conv1_2"
  top: "conv1_2"
}
layer {
  name: "pool1"
  type: "Pooling"
  bottom: "conv1_2"
  top: "pool1"
  pooling_param {
    pool: MAX
    kernel_size: 2
    stride: 2
  }
}
layer {
  name: "conv2_1"
  type: "Convolution"
  bottom: "pool1"
  top: "conv2_1"
  param {
    lr_mult: 0
    decay_mult: 0
  }
  param {
    lr_mult: 0
    decay_mult: 0
  }
  convolution_param {
    num_output: 128
    pad: 1
    kernel_size: 3
  }
}
layer {
  name: "relu2_1"
  type: "ReLU"
  bottom: "conv2_1"
  top: "conv2_1"
}
layer {
  name: "conv2_2"
  type: "Convolution"
  bottom: "conv2_1"
  top: "conv2_2"
  param {
    lr_mult: 0
    decay_mult: 0
  }
  param {
    lr_mult: 0
    decay_mult: 0
  }
  convolution_param {
    num_output: 128
    pad: 1
    kernel_size: 3
  }
}
layer {
  name: "relu2_2"
  type: "ReLU"
  bottom: "conv2_2"
  top: "conv2_2"
}
layer {
  name: "pool2"
  type: "Pooling"
  bottom: "conv2_2"
  top: "pool2"
  pooling_param {
    pool: MAX
    kernel_size: 2
    stride: 2
  }
}
layer {
  name: "conv3_1"
  type: "Convolution"
  bottom: "pool2"
  top: "conv3_1"
  param {
    lr_mult: 1
  }
  param {
    lr_mult: 2
  }
  convolution_param {
    num_output: 256
    pad: 1
    kernel_size: 3
  }
}
layer {
  name: "relu3_1"
  type: "ReLU"
  bottom: "conv3_1"
  top: "conv3_1"
}
layer {
  name: "conv3_2"
  type: "Convolution"
  bottom: "conv3_1"
  top: "conv3_2"
  param {
    lr_mult: 1
  }
  param {
    lr_mult: 2
  }
  convolution_param {
    num_output: 256
    pad: 1
    kernel_size: 3
  }
}
layer {
  name: "relu3_2"
  type: "ReLU"
  bottom: "conv3_2"
  top: "conv3_2"
}
layer {
  name: "conv3_3"
  type: "Convolution"
  bottom: "conv3_2"
  top: "conv3_3"
  param {
    lr_mult: 1
  }
  param {
    lr_mult: 2
  }
  convolution_param {
    num_output: 256
    pad: 1
    kernel_size: 3
  }
}
layer {
  name: "relu3_3"
  type: "ReLU"
  bottom: "conv3_3"
  top: "conv3_3"
}
layer {
  name: "pool3"
  type: "Pooling"
  bottom: "conv3_3"
  top: "pool3"
  pooling_param {
    pool: MAX
    kernel_size: 2
    stride: 2
  }
}
layer {
  name: "conv4_1"
  type: "Convolution"
  bottom: "pool3"
  top: "conv4_1"
  param {
    lr_mult: 1
  }
  param {
    lr_mult: 2
  }
  convolution_param {
    num_output: 512
    pad: 1
    kernel_size: 3
  }
}
layer {
  name: "relu4_1"
  type: "ReLU"
  bottom: "conv4_1"
  top: "conv4_1"
}
layer {
  name: "conv4_2"
  type: "Convolution"
  bottom: "conv4_1"
  top: "conv4_2"
  param {
    lr_mult: 1
  }
  param {
    lr_mult: 2
  }
  convolution_param {
    num_output: 512
    pad: 1
    kernel_size: 3
  }
}
layer {
  name: "relu4_2"
  type: "ReLU"
  bottom: "conv4_2"
  top: "conv4_2"
}
layer {
  name: "conv4_3"
  type: "Convolution"
  bottom: "conv4_2"
  top: "conv4_3"
  param {
    lr_mult: 1
  }
  param {
    lr_mult: 2
  }
  convolution_param {
    num_output: 512
    pad: 1
    kernel_size: 3
  }
}
layer {
  name: "relu4_3"
  type: "ReLU"
  bottom: "conv4_3"
  top: "conv4_3"
}
layer {
  name: "pool4"
  type: "Pooling"
  bottom: "conv4_3"
  top: "pool4"
  pooling_param {
    pool: MAX
    kernel_size: 2
    stride: 2
  }
}
layer {
  name: "conv5_1"
  type: "Convolution"
  bottom: "pool4"
  top: "conv5_1"
  param {
    lr_mult: 1
  }
  param {
    lr_mult: 2
  }
  convolution_param {
    num_output: 512
    pad: 1
    kernel_size: 3
  }
}
layer {
  name: "relu5_1"
  type: "ReLU"
  bottom: "conv5_1"
  top: "conv5_1"
}
layer {
  name: "conv5_2"
  type: "Convolution"
  bottom: "conv5_1"
  top: "conv5_2"
  param {
    lr_mult: 1
  }
  param {
    lr_mult: 2
  }
  convolution_param {
    num_output: 512
    pad: 1
    kernel_size: 3
  }
}
layer {
  name: "relu5_2"
  type: "ReLU"
  bottom: "conv5_2"
  top: "conv5_2"
}
layer {
  name: "conv5_3"
  type: "Convolution"
  bottom: "conv5_2"
  top: "conv5_3"
  param {
    lr_mult: 1
  }
  param {
    lr_mult: 2
  }
  convolution_param {
    num_output: 512
    pad: 1
    kernel_size: 3
  }
}
layer {
  name: "relu5_3"
  type: "ReLU"
  bottom: "conv5_3"
  top: "conv5_3"
}
layer {
  name: "rpn_conv/3x3"
  type: "Convolution"
  bottom: "conv5_3"
  top: "rpn/output"
  param {
    lr_mult: 1
  }
  param {
    lr_mult: 2
  }
  convolution_param {
    num_output: 512
    pad: 1
    kernel_size: 3
    stride: 1
    weight_filler {
      type: "gaussian"
      std: 0.01
    }
    bias_filler {
      type: "constant"
      value: 0
    }
  }
}
layer {
  name: "rpn_relu/3x3"
  type: "ReLU"
  bottom: "rpn/output"
  top: "rpn/output"
}
layer {
  name: "rpn_cls_score"
  type: "Convolution"
  bottom: "rpn/output"
  top: "rpn_cls_score"
  param {
    lr_mult: 1
  }
  param {
    lr_mult: 2
  }
  convolution_param {
    num_output: 18
    pad: 0
    kernel_size: 1
    stride: 1
    weight_filler {
      type: "gaussian"
      std: 0.01
    }
    bias_filler {
      type: "constant"
      value: 0
    }
  }
}
layer {
  name: "rpn_bbox_pred"
  type: "Convolution"
  bottom: "rpn/output"
  top: "rpn_bbox_pred"
  param {
    lr_mult: 1
  }
  param {
    lr_mult: 2
  }
  convolution_param {
    num_output: 36
    pad: 0
    kernel_size: 1
    stride: 1
    weight_filler {
      type: "gaussian"
      std: 0.01
    }
    bias_filler {
      type: "constant"
      value: 0
    }
  }
}
layer {
  name: "rpn_cls_score_reshape"
  type: "Reshape"
  bottom: "rpn_cls_score"
  top: "rpn_cls_score_reshape"
  reshape_param {
    shape {
      dim: 0
      dim: 2
      dim: -1
      dim: 0
    }
  }
}
layer {
  name: "rpn-data"
  type: "Python"
  bottom: "rpn_cls_score"
  bottom: "gt_boxes"
  bottom: "im_info"
  bottom: "data"
  top: "rpn_labels"
  top: "rpn_bbox_targets"
  top: "rpn_bbox_inside_weights"
  top: "rpn_bbox_outside_weights"
  python_param {
    module: "rpn.anchor_target_layer"
    layer: "AnchorTargetLayer"
    param_str: "\'feat_stride\': 16"
  }
}
layer {
  name: "rpn_loss_cls"
  type: "SoftmaxWithLoss"
  bottom: "rpn_cls_score_reshape"
  bottom: "rpn_labels"
  top: "rpn_cls_loss"
  loss_weight: 1
  propagate_down: true
  propagate_down: false
  loss_param {
    ignore_label: -1
    normalize: true
  }
}
layer {
  name: "rpn_loss_bbox"
  type: "SmoothL1Loss"
  bottom: "rpn_bbox_pred"
  bottom: "rpn_bbox_targets"
  bottom: "rpn_bbox_inside_weights"
  bottom: "rpn_bbox_outside_weights"
  top: "rpn_loss_bbox"
  loss_weight: 1
  smooth_l1_loss_param {
    sigma: 3
  }
}
layer {
  name: "rpn_cls_prob"
  type: "Softmax"
  bottom: "rpn_cls_score_reshape"
  top: "rpn_cls_prob"
}
layer {
  name: "rpn_cls_prob_reshape"
  type: "Reshape"
  bottom: "rpn_cls_prob"
  top: "rpn_cls_prob_reshape"
  reshape_param {
    shape {
      dim: 0
      dim: 18
      dim: -1
      dim: 0
    }
  }
}
layer {
  name: "proposal"
  type: "Python"
  bottom: "rpn_cls_prob_reshape"
  bottom: "rpn_bbox_pred"
  bottom: "im_info"
  top: "rpn_rois"
  python_param {
    module: "rpn.proposal_layer"
    layer: "ProposalLayer"
    param_str: "\'feat_stride\': 16"
  }
}
layer {
  name: "roi-data"
  type: "Python"
  bottom: "rpn_rois"
  bottom: "gt_boxes"
  top: "rois"
  top: "labels"
  top: "bbox_targets"
  top: "bbox_inside_weights"
  top: "bbox_outside_weights"
  python_param {
    module: "rpn.proposal_target_layer"
    layer: "ProposalTargetLayer"
    param_str: "\'num_classes\': 8"
  }
}
layer {
  name: "roi_pool5"
  type: "ROIPooling"
  bottom: "conv5_3"
  bottom: "rois"
  top: "pool5"
  roi_pooling_param {
    pooled_h: 7
    pooled_w: 7
    spatial_scale: 0.0625
  }
}
layer {
  name: "fc6"
  type: "InnerProduct"
  bottom: "pool5"
  top: "fc6"
  param {
    lr_mult: 1
  }
  param {
    lr_mult: 2
  }
  inner_product_param {
    num_output: 4096
  }
}
layer {
  name: "relu6"
  type: "ReLU"
  bottom: "fc6"
  top: "fc6"
}
layer {
  name: "drop6"
  type: "Dropout"
  bottom: "fc6"
  top: "fc6"
  dropout_param {
    dropout_ratio: 0.5
  }
}
layer {
  name: "fc7"
  type: "InnerProduct"
  bottom: "fc6"
  top: "fc7"
  param {
    lr_mult: 1
  }
  param {
    lr_mult: 2
  }
  inner_product_param {
    num_output: 4096
  }
}
layer {
  name: "relu7"
  type: "ReLU"
  bottom: "fc7"
  top: "fc7"
}
layer {
  name: "drop7"
  type: "Dropout"
  bottom: "fc7"
  top: "fc7"
  dropout_param {
    dropout_ratio: 0.5
  }
}
layer {
  name: "cls_score"
  type: "InnerProduct"
  bottom: "fc7"
  top: "cls_score"
  param {
    lr_mult: 1
  }
  param {
    lr_mult: 2
  }
  inner_product_param {
    num_output: 8
    weight_filler {
      type: "gaussian"
      std: 0.01
    }
    bias_filler {
      type: "constant"
      value: 0
    }
  }
}
layer {
  name: "bbox_pred"
  type: "InnerProduct"
  bottom: "fc7"
  top: "bbox_pred"
  param {
    lr_mult: 1
  }
  param {
    lr_mult: 2
  }
  inner_product_param {
    num_output: 32
    weight_filler {
      type: "gaussian"
      std: 0.001
    }
    bias_filler {
      type: "constant"
      value: 0
    }
  }
}
layer {
  name: "loss_cls"
  type: "SoftmaxWithLoss"
  bottom: "cls_score"
  bottom: "labels"
  top: "loss_cls"
  loss_weight: 1
  propagate_down: true
  propagate_down: false
}
layer {
  name: "loss_bbox"
  type: "SmoothL1Loss"
  bottom: "bbox_pred"
  bottom: "bbox_targets"
  bottom: "bbox_inside_weights"
  bottom: "bbox_outside_weights"
  top: "loss_bbox"
  loss_weight: 1
}
I0608 21:04:18.620363  7222 layer_factory.hpp:77] Creating layer input-data
I0608 21:04:18.663275  7222 net.cpp:106] Creating Layer input-data
I0608 21:04:18.663323  7222 net.cpp:411] input-data -> data
I0608 21:04:18.663359  7222 net.cpp:411] input-data -> im_info
I0608 21:04:18.663374  7222 net.cpp:411] input-data -> gt_boxes
RoiDataLayer: name_to_top: {'gt_boxes': 2, 'data': 0, 'im_info': 1}
I0608 21:04:19.217972  7222 net.cpp:150] Setting up input-data
I0608 21:04:19.218014  7222 net.cpp:157] Top shape: 1 3 144 256 (110592)
I0608 21:04:19.218027  7222 net.cpp:157] Top shape: 1 3 (3)
I0608 21:04:19.218036  7222 net.cpp:157] Top shape: 1 4 (4)
I0608 21:04:19.218044  7222 net.cpp:165] Memory required for data: 442396
I0608 21:04:19.218056  7222 layer_factory.hpp:77] Creating layer data_input-data_0_split
I0608 21:04:19.218086  7222 net.cpp:106] Creating Layer data_input-data_0_split
I0608 21:04:19.218099  7222 net.cpp:454] data_input-data_0_split <- data
I0608 21:04:19.218114  7222 net.cpp:411] data_input-data_0_split -> data_input-data_0_split_0
I0608 21:04:19.218143  7222 net.cpp:411] data_input-data_0_split -> data_input-data_0_split_1
I0608 21:04:19.218364  7222 net.cpp:150] Setting up data_input-data_0_split
I0608 21:04:19.218386  7222 net.cpp:157] Top shape: 1 3 144 256 (110592)
I0608 21:04:19.218408  7222 net.cpp:157] Top shape: 1 3 144 256 (110592)
I0608 21:04:19.218415  7222 net.cpp:165] Memory required for data: 1327132
I0608 21:04:19.218430  7222 layer_factory.hpp:77] Creating layer im_info_input-data_1_split
I0608 21:04:19.218442  7222 net.cpp:106] Creating Layer im_info_input-data_1_split
I0608 21:04:19.218451  7222 net.cpp:454] im_info_input-data_1_split <- im_info
I0608 21:04:19.218461  7222 net.cpp:411] im_info_input-data_1_split -> im_info_input-data_1_split_0
I0608 21:04:19.218477  7222 net.cpp:411] im_info_input-data_1_split -> im_info_input-data_1_split_1
I0608 21:04:19.218536  7222 net.cpp:150] Setting up im_info_input-data_1_split
I0608 21:04:19.218555  7222 net.cpp:157] Top shape: 1 3 (3)
I0608 21:04:19.218564  7222 net.cpp:157] Top shape: 1 3 (3)
I0608 21:04:19.218571  7222 net.cpp:165] Memory required for data: 1327156
I0608 21:04:19.218580  7222 layer_factory.hpp:77] Creating layer gt_boxes_input-data_2_split
I0608 21:04:19.218590  7222 net.cpp:106] Creating Layer gt_boxes_input-data_2_split
I0608 21:04:19.218606  7222 net.cpp:454] gt_boxes_input-data_2_split <- gt_boxes
I0608 21:04:19.218617  7222 net.cpp:411] gt_boxes_input-data_2_split -> gt_boxes_input-data_2_split_0
I0608 21:04:19.218629  7222 net.cpp:411] gt_boxes_input-data_2_split -> gt_boxes_input-data_2_split_1
I0608 21:04:19.218686  7222 net.cpp:150] Setting up gt_boxes_input-data_2_split
I0608 21:04:19.218704  7222 net.cpp:157] Top shape: 1 4 (4)
I0608 21:04:19.218713  7222 net.cpp:157] Top shape: 1 4 (4)
I0608 21:04:19.218722  7222 net.cpp:165] Memory required for data: 1327188
I0608 21:04:19.218732  7222 layer_factory.hpp:77] Creating layer conv1_1
I0608 21:04:19.218751  7222 net.cpp:106] Creating Layer conv1_1
I0608 21:04:19.218767  7222 net.cpp:454] conv1_1 <- data_input-data_0_split_0
I0608 21:04:19.218778  7222 net.cpp:411] conv1_1 -> conv1_1
I0608 21:04:19.226649  7222 net.cpp:150] Setting up conv1_1
I0608 21:04:19.226680  7222 net.cpp:157] Top shape: 1 64 144 256 (2359296)
I0608 21:04:19.226699  7222 net.cpp:165] Memory required for data: 10764372
I0608 21:04:19.226717  7222 layer_factory.hpp:77] Creating layer relu1_1
I0608 21:04:19.226737  7222 net.cpp:106] Creating Layer relu1_1
I0608 21:04:19.226759  7222 net.cpp:454] relu1_1 <- conv1_1
I0608 21:04:19.226770  7222 net.cpp:397] relu1_1 -> conv1_1 (in-place)
I0608 21:04:19.226784  7222 net.cpp:150] Setting up relu1_1
I0608 21:04:19.226804  7222 net.cpp:157] Top shape: 1 64 144 256 (2359296)
I0608 21:04:19.226811  7222 net.cpp:165] Memory required for data: 20201556
I0608 21:04:19.226819  7222 layer_factory.hpp:77] Creating layer conv1_2
I0608 21:04:19.226843  7222 net.cpp:106] Creating Layer conv1_2
I0608 21:04:19.226851  7222 net.cpp:454] conv1_2 <- conv1_1
I0608 21:04:19.226864  7222 net.cpp:411] conv1_2 -> conv1_2
I0608 21:04:19.227277  7222 net.cpp:150] Setting up conv1_2
I0608 21:04:19.227304  7222 net.cpp:157] Top shape: 1 64 144 256 (2359296)
I0608 21:04:19.227313  7222 net.cpp:165] Memory required for data: 29638740
I0608 21:04:19.227339  7222 layer_factory.hpp:77] Creating layer relu1_2
I0608 21:04:19.227411  7222 net.cpp:106] Creating Layer relu1_2
I0608 21:04:19.227422  7222 net.cpp:454] relu1_2 <- conv1_2
I0608 21:04:19.227442  7222 net.cpp:397] relu1_2 -> conv1_2 (in-place)
I0608 21:04:19.227454  7222 net.cpp:150] Setting up relu1_2
I0608 21:04:19.227468  7222 net.cpp:157] Top shape: 1 64 144 256 (2359296)
I0608 21:04:19.227476  7222 net.cpp:165] Memory required for data: 39075924
I0608 21:04:19.227494  7222 layer_factory.hpp:77] Creating layer pool1
I0608 21:04:19.227509  7222 net.cpp:106] Creating Layer pool1
I0608 21:04:19.227521  7222 net.cpp:454] pool1 <- conv1_2
I0608 21:04:19.227531  7222 net.cpp:411] pool1 -> pool1
I0608 21:04:19.227600  7222 net.cpp:150] Setting up pool1
I0608 21:04:19.227623  7222 net.cpp:157] Top shape: 1 64 72 128 (589824)
I0608 21:04:19.227632  7222 net.cpp:165] Memory required for data: 41435220
I0608 21:04:19.227639  7222 layer_factory.hpp:77] Creating layer conv2_1
I0608 21:04:19.227663  7222 net.cpp:106] Creating Layer conv2_1
I0608 21:04:19.227679  7222 net.cpp:454] conv2_1 <- pool1
I0608 21:04:19.227694  7222 net.cpp:411] conv2_1 -> conv2_1
I0608 21:04:19.236707  7222 net.cpp:150] Setting up conv2_1
I0608 21:04:19.236738  7222 net.cpp:157] Top shape: 1 128 72 128 (1179648)
I0608 21:04:19.236747  7222 net.cpp:165] Memory required for data: 46153812
I0608 21:04:19.236763  7222 layer_factory.hpp:77] Creating layer relu2_1
I0608 21:04:19.236775  7222 net.cpp:106] Creating Layer relu2_1
I0608 21:04:19.236788  7222 net.cpp:454] relu2_1 <- conv2_1
I0608 21:04:19.236801  7222 net.cpp:397] relu2_1 -> conv2_1 (in-place)
I0608 21:04:19.236824  7222 net.cpp:150] Setting up relu2_1
I0608 21:04:19.236835  7222 net.cpp:157] Top shape: 1 128 72 128 (1179648)
I0608 21:04:19.236841  7222 net.cpp:165] Memory required for data: 50872404
I0608 21:04:19.236850  7222 layer_factory.hpp:77] Creating layer conv2_2
I0608 21:04:19.236863  7222 net.cpp:106] Creating Layer conv2_2
I0608 21:04:19.236876  7222 net.cpp:454] conv2_2 <- conv2_1
I0608 21:04:19.236886  7222 net.cpp:411] conv2_2 -> conv2_2
I0608 21:04:19.237354  7222 net.cpp:150] Setting up conv2_2
I0608 21:04:19.237381  7222 net.cpp:157] Top shape: 1 128 72 128 (1179648)
I0608 21:04:19.237391  7222 net.cpp:165] Memory required for data: 55590996
I0608 21:04:19.237402  7222 layer_factory.hpp:77] Creating layer relu2_2
I0608 21:04:19.237413  7222 net.cpp:106] Creating Layer relu2_2
I0608 21:04:19.237440  7222 net.cpp:454] relu2_2 <- conv2_2
I0608 21:04:19.237452  7222 net.cpp:397] relu2_2 -> conv2_2 (in-place)
I0608 21:04:19.237462  7222 net.cpp:150] Setting up relu2_2
I0608 21:04:19.237471  7222 net.cpp:157] Top shape: 1 128 72 128 (1179648)
I0608 21:04:19.237481  7222 net.cpp:165] Memory required for data: 60309588
I0608 21:04:19.237489  7222 layer_factory.hpp:77] Creating layer pool2
I0608 21:04:19.237504  7222 net.cpp:106] Creating Layer pool2
I0608 21:04:19.237514  7222 net.cpp:454] pool2 <- conv2_2
I0608 21:04:19.237524  7222 net.cpp:411] pool2 -> pool2
I0608 21:04:19.237591  7222 net.cpp:150] Setting up pool2
I0608 21:04:19.237610  7222 net.cpp:157] Top shape: 1 128 36 64 (294912)
I0608 21:04:19.237658  7222 net.cpp:165] Memory required for data: 61489236
I0608 21:04:19.237673  7222 layer_factory.hpp:77] Creating layer conv3_1
I0608 21:04:19.237689  7222 net.cpp:106] Creating Layer conv3_1
I0608 21:04:19.237696  7222 net.cpp:454] conv3_1 <- pool2
I0608 21:04:19.237710  7222 net.cpp:411] conv3_1 -> conv3_1
I0608 21:04:19.238353  7222 net.cpp:150] Setting up conv3_1
I0608 21:04:19.238379  7222 net.cpp:157] Top shape: 1 256 36 64 (589824)
I0608 21:04:19.238387  7222 net.cpp:165] Memory required for data: 63848532
I0608 21:04:19.238400  7222 layer_factory.hpp:77] Creating layer relu3_1
I0608 21:04:19.238412  7222 net.cpp:106] Creating Layer relu3_1
I0608 21:04:19.238425  7222 net.cpp:454] relu3_1 <- conv3_1
I0608 21:04:19.238437  7222 net.cpp:397] relu3_1 -> conv3_1 (in-place)
I0608 21:04:19.238449  7222 net.cpp:150] Setting up relu3_1
I0608 21:04:19.238462  7222 net.cpp:157] Top shape: 1 256 36 64 (589824)
I0608 21:04:19.238469  7222 net.cpp:165] Memory required for data: 66207828
I0608 21:04:19.238476  7222 layer_factory.hpp:77] Creating layer conv3_2
I0608 21:04:19.238493  7222 net.cpp:106] Creating Layer conv3_2
I0608 21:04:19.238502  7222 net.cpp:454] conv3_2 <- conv3_1
I0608 21:04:19.238517  7222 net.cpp:411] conv3_2 -> conv3_2
I0608 21:04:19.242738  7222 net.cpp:150] Setting up conv3_2
I0608 21:04:19.242769  7222 net.cpp:157] Top shape: 1 256 36 64 (589824)
I0608 21:04:19.242786  7222 net.cpp:165] Memory required for data: 68567124
I0608 21:04:19.242836  7222 layer_factory.hpp:77] Creating layer relu3_2
I0608 21:04:19.242867  7222 net.cpp:106] Creating Layer relu3_2
I0608 21:04:19.242882  7222 net.cpp:454] relu3_2 <- conv3_2
I0608 21:04:19.242892  7222 net.cpp:397] relu3_2 -> conv3_2 (in-place)
I0608 21:04:19.242905  7222 net.cpp:150] Setting up relu3_2
I0608 21:04:19.242915  7222 net.cpp:157] Top shape: 1 256 36 64 (589824)
I0608 21:04:19.242926  7222 net.cpp:165] Memory required for data: 70926420
I0608 21:04:19.242934  7222 layer_factory.hpp:77] Creating layer conv3_3
I0608 21:04:19.242949  7222 net.cpp:106] Creating Layer conv3_3
I0608 21:04:19.242956  7222 net.cpp:454] conv3_3 <- conv3_2
I0608 21:04:19.242966  7222 net.cpp:411] conv3_3 -> conv3_3
I0608 21:04:19.247423  7222 net.cpp:150] Setting up conv3_3
I0608 21:04:19.247454  7222 net.cpp:157] Top shape: 1 256 36 64 (589824)
I0608 21:04:19.247463  7222 net.cpp:165] Memory required for data: 73285716
I0608 21:04:19.247475  7222 layer_factory.hpp:77] Creating layer relu3_3
I0608 21:04:19.247490  7222 net.cpp:106] Creating Layer relu3_3
I0608 21:04:19.247500  7222 net.cpp:454] relu3_3 <- conv3_3
I0608 21:04:19.247516  7222 net.cpp:397] relu3_3 -> conv3_3 (in-place)
I0608 21:04:19.247529  7222 net.cpp:150] Setting up relu3_3
I0608 21:04:19.247539  7222 net.cpp:157] Top shape: 1 256 36 64 (589824)
I0608 21:04:19.247550  7222 net.cpp:165] Memory required for data: 75645012
I0608 21:04:19.247558  7222 layer_factory.hpp:77] Creating layer pool3
I0608 21:04:19.247570  7222 net.cpp:106] Creating Layer pool3
I0608 21:04:19.247581  7222 net.cpp:454] pool3 <- conv3_3
I0608 21:04:19.247593  7222 net.cpp:411] pool3 -> pool3
I0608 21:04:19.247663  7222 net.cpp:150] Setting up pool3
I0608 21:04:19.247684  7222 net.cpp:157] Top shape: 1 256 18 32 (147456)
I0608 21:04:19.247691  7222 net.cpp:165] Memory required for data: 76234836
I0608 21:04:19.247699  7222 layer_factory.hpp:77] Creating layer conv4_1
I0608 21:04:19.247716  7222 net.cpp:106] Creating Layer conv4_1
I0608 21:04:19.247730  7222 net.cpp:454] conv4_1 <- pool3
I0608 21:04:19.247740  7222 net.cpp:411] conv4_1 -> conv4_1
I0608 21:04:19.258677  7222 net.cpp:150] Setting up conv4_1
I0608 21:04:19.258713  7222 net.cpp:157] Top shape: 1 512 18 32 (294912)
I0608 21:04:19.258721  7222 net.cpp:165] Memory required for data: 77414484
I0608 21:04:19.258734  7222 layer_factory.hpp:77] Creating layer relu4_1
I0608 21:04:19.258749  7222 net.cpp:106] Creating Layer relu4_1
I0608 21:04:19.258756  7222 net.cpp:454] relu4_1 <- conv4_1
I0608 21:04:19.258774  7222 net.cpp:397] relu4_1 -> conv4_1 (in-place)
I0608 21:04:19.258787  7222 net.cpp:150] Setting up relu4_1
I0608 21:04:19.258816  7222 net.cpp:157] Top shape: 1 512 18 32 (294912)
I0608 21:04:19.258823  7222 net.cpp:165] Memory required for data: 78594132
I0608 21:04:19.258831  7222 layer_factory.hpp:77] Creating layer conv4_2
I0608 21:04:19.258849  7222 net.cpp:106] Creating Layer conv4_2
I0608 21:04:19.258880  7222 net.cpp:454] conv4_2 <- conv4_1
I0608 21:04:19.258891  7222 net.cpp:411] conv4_2 -> conv4_2
I0608 21:04:19.267724  7222 net.cpp:150] Setting up conv4_2
I0608 21:04:19.267756  7222 net.cpp:157] Top shape: 1 512 18 32 (294912)
I0608 21:04:19.267766  7222 net.cpp:165] Memory required for data: 79773780
I0608 21:04:19.267786  7222 layer_factory.hpp:77] Creating layer relu4_2
I0608 21:04:19.267799  7222 net.cpp:106] Creating Layer relu4_2
I0608 21:04:19.267812  7222 net.cpp:454] relu4_2 <- conv4_2
I0608 21:04:19.267824  7222 net.cpp:397] relu4_2 -> conv4_2 (in-place)
I0608 21:04:19.267840  7222 net.cpp:150] Setting up relu4_2
I0608 21:04:19.267849  7222 net.cpp:157] Top shape: 1 512 18 32 (294912)
I0608 21:04:19.267860  7222 net.cpp:165] Memory required for data: 80953428
I0608 21:04:19.267868  7222 layer_factory.hpp:77] Creating layer conv4_3
I0608 21:04:19.267880  7222 net.cpp:106] Creating Layer conv4_3
I0608 21:04:19.267890  7222 net.cpp:454] conv4_3 <- conv4_2
I0608 21:04:19.267904  7222 net.cpp:411] conv4_3 -> conv4_3
I0608 21:04:19.278302  7222 net.cpp:150] Setting up conv4_3
I0608 21:04:19.278349  7222 net.cpp:157] Top shape: 1 512 18 32 (294912)
I0608 21:04:19.278362  7222 net.cpp:165] Memory required for data: 82133076
I0608 21:04:19.278375  7222 layer_factory.hpp:77] Creating layer relu4_3
I0608 21:04:19.278395  7222 net.cpp:106] Creating Layer relu4_3
I0608 21:04:19.278404  7222 net.cpp:454] relu4_3 <- conv4_3
I0608 21:04:19.278432  7222 net.cpp:397] relu4_3 -> conv4_3 (in-place)
I0608 21:04:19.278447  7222 net.cpp:150] Setting up relu4_3
I0608 21:04:19.278460  7222 net.cpp:157] Top shape: 1 512 18 32 (294912)
I0608 21:04:19.278468  7222 net.cpp:165] Memory required for data: 83312724
I0608 21:04:19.278475  7222 layer_factory.hpp:77] Creating layer pool4
I0608 21:04:19.278487  7222 net.cpp:106] Creating Layer pool4
I0608 21:04:19.278497  7222 net.cpp:454] pool4 <- conv4_3
I0608 21:04:19.278511  7222 net.cpp:411] pool4 -> pool4
I0608 21:04:19.278584  7222 net.cpp:150] Setting up pool4
I0608 21:04:19.278605  7222 net.cpp:157] Top shape: 1 512 9 16 (73728)
I0608 21:04:19.278630  7222 net.cpp:165] Memory required for data: 83607636
I0608 21:04:19.278641  7222 layer_factory.hpp:77] Creating layer conv5_1
I0608 21:04:19.278656  7222 net.cpp:106] Creating Layer conv5_1
I0608 21:04:19.278677  7222 net.cpp:454] conv5_1 <- pool4
I0608 21:04:19.278692  7222 net.cpp:411] conv5_1 -> conv5_1
I0608 21:04:19.287703  7222 net.cpp:150] Setting up conv5_1
I0608 21:04:19.287736  7222 net.cpp:157] Top shape: 1 512 9 16 (73728)
I0608 21:04:19.287746  7222 net.cpp:165] Memory required for data: 83902548
I0608 21:04:19.287760  7222 layer_factory.hpp:77] Creating layer relu5_1
I0608 21:04:19.287773  7222 net.cpp:106] Creating Layer relu5_1
I0608 21:04:19.287791  7222 net.cpp:454] relu5_1 <- conv5_1
I0608 21:04:19.287803  7222 net.cpp:397] relu5_1 -> conv5_1 (in-place)
I0608 21:04:19.287816  7222 net.cpp:150] Setting up relu5_1
I0608 21:04:19.287827  7222 net.cpp:157] Top shape: 1 512 9 16 (73728)
I0608 21:04:19.287837  7222 net.cpp:165] Memory required for data: 84197460
I0608 21:04:19.287844  7222 layer_factory.hpp:77] Creating layer conv5_2
I0608 21:04:19.287863  7222 net.cpp:106] Creating Layer conv5_2
I0608 21:04:19.287871  7222 net.cpp:454] conv5_2 <- conv5_1
I0608 21:04:19.287884  7222 net.cpp:411] conv5_2 -> conv5_2
I0608 21:04:19.299691  7222 net.cpp:150] Setting up conv5_2
I0608 21:04:19.299752  7222 net.cpp:157] Top shape: 1 512 9 16 (73728)
I0608 21:04:19.299834  7222 net.cpp:165] Memory required for data: 84492372
I0608 21:04:19.299852  7222 layer_factory.hpp:77] Creating layer relu5_2
I0608 21:04:19.299875  7222 net.cpp:106] Creating Layer relu5_2
I0608 21:04:19.299896  7222 net.cpp:454] relu5_2 <- conv5_2
I0608 21:04:19.299912  7222 net.cpp:397] relu5_2 -> conv5_2 (in-place)
I0608 21:04:19.299933  7222 net.cpp:150] Setting up relu5_2
I0608 21:04:19.299957  7222 net.cpp:157] Top shape: 1 512 9 16 (73728)
I0608 21:04:19.299963  7222 net.cpp:165] Memory required for data: 84787284
I0608 21:04:19.299970  7222 layer_factory.hpp:77] Creating layer conv5_3
I0608 21:04:19.300000  7222 net.cpp:106] Creating Layer conv5_3
I0608 21:04:19.300016  7222 net.cpp:454] conv5_3 <- conv5_2
I0608 21:04:19.300045  7222 net.cpp:411] conv5_3 -> conv5_3
I0608 21:04:19.310016  7222 net.cpp:150] Setting up conv5_3
I0608 21:04:19.310077  7222 net.cpp:157] Top shape: 1 512 9 16 (73728)
I0608 21:04:19.310087  7222 net.cpp:165] Memory required for data: 85082196
I0608 21:04:19.310115  7222 layer_factory.hpp:77] Creating layer relu5_3
I0608 21:04:19.310149  7222 net.cpp:106] Creating Layer relu5_3
I0608 21:04:19.310160  7222 net.cpp:454] relu5_3 <- conv5_3
I0608 21:04:19.310202  7222 net.cpp:397] relu5_3 -> conv5_3 (in-place)
I0608 21:04:19.310267  7222 net.cpp:150] Setting up relu5_3
I0608 21:04:19.310277  7222 net.cpp:157] Top shape: 1 512 9 16 (73728)
I0608 21:04:19.310284  7222 net.cpp:165] Memory required for data: 85377108
I0608 21:04:19.310292  7222 layer_factory.hpp:77] Creating layer conv5_3_relu5_3_0_split
I0608 21:04:19.310304  7222 net.cpp:106] Creating Layer conv5_3_relu5_3_0_split
I0608 21:04:19.310312  7222 net.cpp:454] conv5_3_relu5_3_0_split <- conv5_3
I0608 21:04:19.310324  7222 net.cpp:411] conv5_3_relu5_3_0_split -> conv5_3_relu5_3_0_split_0
I0608 21:04:19.310338  7222 net.cpp:411] conv5_3_relu5_3_0_split -> conv5_3_relu5_3_0_split_1
I0608 21:04:19.310475  7222 net.cpp:150] Setting up conv5_3_relu5_3_0_split
I0608 21:04:19.310497  7222 net.cpp:157] Top shape: 1 512 9 16 (73728)
I0608 21:04:19.310520  7222 net.cpp:157] Top shape: 1 512 9 16 (73728)
I0608 21:04:19.310531  7222 net.cpp:165] Memory required for data: 85966932
I0608 21:04:19.310546  7222 layer_factory.hpp:77] Creating layer rpn_conv/3x3
I0608 21:04:19.310569  7222 net.cpp:106] Creating Layer rpn_conv/3x3
I0608 21:04:19.310580  7222 net.cpp:454] rpn_conv/3x3 <- conv5_3_relu5_3_0_split_0
I0608 21:04:19.310595  7222 net.cpp:411] rpn_conv/3x3 -> rpn/output
I0608 21:04:19.341580  7222 net.cpp:150] Setting up rpn_conv/3x3
I0608 21:04:19.341645  7222 net.cpp:157] Top shape: 1 512 9 16 (73728)
I0608 21:04:19.341655  7222 net.cpp:165] Memory required for data: 86261844
I0608 21:04:19.341673  7222 layer_factory.hpp:77] Creating layer rpn_relu/3x3
I0608 21:04:19.341706  7222 net.cpp:106] Creating Layer rpn_relu/3x3
I0608 21:04:19.341717  7222 net.cpp:454] rpn_relu/3x3 <- rpn/output
I0608 21:04:19.341732  7222 net.cpp:397] rpn_relu/3x3 -> rpn/output (in-place)
I0608 21:04:19.341770  7222 net.cpp:150] Setting up rpn_relu/3x3
I0608 21:04:19.341781  7222 net.cpp:157] Top shape: 1 512 9 16 (73728)
I0608 21:04:19.341789  7222 net.cpp:165] Memory required for data: 86556756
I0608 21:04:19.341796  7222 layer_factory.hpp:77] Creating layer rpn/output_rpn_relu/3x3_0_split
I0608 21:04:19.341812  7222 net.cpp:106] Creating Layer rpn/output_rpn_relu/3x3_0_split
I0608 21:04:19.341821  7222 net.cpp:454] rpn/output_rpn_relu/3x3_0_split <- rpn/output
I0608 21:04:19.341832  7222 net.cpp:411] rpn/output_rpn_relu/3x3_0_split -> rpn/output_rpn_relu/3x3_0_split_0
I0608 21:04:19.341848  7222 net.cpp:411] rpn/output_rpn_relu/3x3_0_split -> rpn/output_rpn_relu/3x3_0_split_1
I0608 21:04:19.341924  7222 net.cpp:150] Setting up rpn/output_rpn_relu/3x3_0_split
I0608 21:04:19.341945  7222 net.cpp:157] Top shape: 1 512 9 16 (73728)
I0608 21:04:19.341954  7222 net.cpp:157] Top shape: 1 512 9 16 (73728)
I0608 21:04:19.341961  7222 net.cpp:165] Memory required for data: 87146580
I0608 21:04:19.341969  7222 layer_factory.hpp:77] Creating layer rpn_cls_score
I0608 21:04:19.341995  7222 net.cpp:106] Creating Layer rpn_cls_score
I0608 21:04:19.342005  7222 net.cpp:454] rpn_cls_score <- rpn/output_rpn_relu/3x3_0_split_0
I0608 21:04:19.342017  7222 net.cpp:411] rpn_cls_score -> rpn_cls_score
I0608 21:04:19.342703  7222 net.cpp:150] Setting up rpn_cls_score
I0608 21:04:19.342737  7222 net.cpp:157] Top shape: 1 18 9 16 (2592)
I0608 21:04:19.342746  7222 net.cpp:165] Memory required for data: 87156948
I0608 21:04:19.342757  7222 layer_factory.hpp:77] Creating layer rpn_cls_score_rpn_cls_score_0_split
I0608 21:04:19.342778  7222 net.cpp:106] Creating Layer rpn_cls_score_rpn_cls_score_0_split
I0608 21:04:19.342787  7222 net.cpp:454] rpn_cls_score_rpn_cls_score_0_split <- rpn_cls_score
I0608 21:04:19.342797  7222 net.cpp:411] rpn_cls_score_rpn_cls_score_0_split -> rpn_cls_score_rpn_cls_score_0_split_0
I0608 21:04:19.342820  7222 net.cpp:411] rpn_cls_score_rpn_cls_score_0_split -> rpn_cls_score_rpn_cls_score_0_split_1
I0608 21:04:19.342886  7222 net.cpp:150] Setting up rpn_cls_score_rpn_cls_score_0_split
I0608 21:04:19.342909  7222 net.cpp:157] Top shape: 1 18 9 16 (2592)
I0608 21:04:19.342918  7222 net.cpp:157] Top shape: 1 18 9 16 (2592)
I0608 21:04:19.342926  7222 net.cpp:165] Memory required for data: 87177684
I0608 21:04:19.342934  7222 layer_factory.hpp:77] Creating layer rpn_bbox_pred
I0608 21:04:19.342950  7222 net.cpp:106] Creating Layer rpn_bbox_pred
I0608 21:04:19.342959  7222 net.cpp:454] rpn_bbox_pred <- rpn/output_rpn_relu/3x3_0_split_1
I0608 21:04:19.342972  7222 net.cpp:411] rpn_bbox_pred -> rpn_bbox_pred
I0608 21:04:19.343549  7222 net.cpp:150] Setting up rpn_bbox_pred
I0608 21:04:19.343574  7222 net.cpp:157] Top shape: 1 36 9 16 (5184)
I0608 21:04:19.343581  7222 net.cpp:165] Memory required for data: 87198420
I0608 21:04:19.343593  7222 layer_factory.hpp:77] Creating layer rpn_bbox_pred_rpn_bbox_pred_0_split
I0608 21:04:19.343605  7222 net.cpp:106] Creating Layer rpn_bbox_pred_rpn_bbox_pred_0_split
I0608 21:04:19.343613  7222 net.cpp:454] rpn_bbox_pred_rpn_bbox_pred_0_split <- rpn_bbox_pred
I0608 21:04:19.343623  7222 net.cpp:411] rpn_bbox_pred_rpn_bbox_pred_0_split -> rpn_bbox_pred_rpn_bbox_pred_0_split_0
I0608 21:04:19.343637  7222 net.cpp:411] rpn_bbox_pred_rpn_bbox_pred_0_split -> rpn_bbox_pred_rpn_bbox_pred_0_split_1
I0608 21:04:19.343717  7222 net.cpp:150] Setting up rpn_bbox_pred_rpn_bbox_pred_0_split
I0608 21:04:19.343737  7222 net.cpp:157] Top shape: 1 36 9 16 (5184)
I0608 21:04:19.343745  7222 net.cpp:157] Top shape: 1 36 9 16 (5184)
I0608 21:04:19.343755  7222 net.cpp:165] Memory required for data: 87239892
I0608 21:04:19.343762  7222 layer_factory.hpp:77] Creating layer rpn_cls_score_reshape
I0608 21:04:19.343776  7222 net.cpp:106] Creating Layer rpn_cls_score_reshape
I0608 21:04:19.343786  7222 net.cpp:454] rpn_cls_score_reshape <- rpn_cls_score_rpn_cls_score_0_split_0
I0608 21:04:19.343798  7222 net.cpp:411] rpn_cls_score_reshape -> rpn_cls_score_reshape
I0608 21:04:19.343847  7222 net.cpp:150] Setting up rpn_cls_score_reshape
I0608 21:04:19.343866  7222 net.cpp:157] Top shape: 1 2 81 16 (2592)
I0608 21:04:19.343873  7222 net.cpp:165] Memory required for data: 87250260
I0608 21:04:19.343881  7222 layer_factory.hpp:77] Creating layer rpn_cls_score_reshape_rpn_cls_score_reshape_0_split
I0608 21:04:19.343895  7222 net.cpp:106] Creating Layer rpn_cls_score_reshape_rpn_cls_score_reshape_0_split
I0608 21:04:19.343904  7222 net.cpp:454] rpn_cls_score_reshape_rpn_cls_score_reshape_0_split <- rpn_cls_score_reshape
I0608 21:04:19.343914  7222 net.cpp:411] rpn_cls_score_reshape_rpn_cls_score_reshape_0_split -> rpn_cls_score_reshape_rpn_cls_score_reshape_0_split_0
I0608 21:04:19.343928  7222 net.cpp:411] rpn_cls_score_reshape_rpn_cls_score_reshape_0_split -> rpn_cls_score_reshape_rpn_cls_score_reshape_0_split_1
I0608 21:04:19.343991  7222 net.cpp:150] Setting up rpn_cls_score_reshape_rpn_cls_score_reshape_0_split
I0608 21:04:19.344012  7222 net.cpp:157] Top shape: 1 2 81 16 (2592)
I0608 21:04:19.344020  7222 net.cpp:157] Top shape: 1 2 81 16 (2592)
I0608 21:04:19.344048  7222 net.cpp:165] Memory required for data: 87270996
I0608 21:04:19.344058  7222 layer_factory.hpp:77] Creating layer rpn-data
I0608 21:04:19.376237  7222 net.cpp:106] Creating Layer rpn-data
I0608 21:04:19.376291  7222 net.cpp:454] rpn-data <- rpn_cls_score_rpn_cls_score_0_split_1
I0608 21:04:19.376309  7222 net.cpp:454] rpn-data <- gt_boxes_input-data_2_split_0
I0608 21:04:19.376319  7222 net.cpp:454] rpn-data <- im_info_input-data_1_split_0
I0608 21:04:19.376338  7222 net.cpp:454] rpn-data <- data_input-data_0_split_1
I0608 21:04:19.376359  7222 net.cpp:411] rpn-data -> rpn_labels
I0608 21:04:19.376379  7222 net.cpp:411] rpn-data -> rpn_bbox_targets
I0608 21:04:19.376392  7222 net.cpp:411] rpn-data -> rpn_bbox_inside_weights
I0608 21:04:19.376418  7222 net.cpp:411] rpn-data -> rpn_bbox_outside_weights
I0608 21:04:19.377419  7222 net.cpp:150] Setting up rpn-data
I0608 21:04:19.377459  7222 net.cpp:157] Top shape: 1 1 81 16 (1296)
I0608 21:04:19.377470  7222 net.cpp:157] Top shape: 1 36 9 16 (5184)
I0608 21:04:19.377478  7222 net.cpp:157] Top shape: 1 36 9 16 (5184)
I0608 21:04:19.377517  7222 net.cpp:157] Top shape: 1 36 9 16 (5184)
I0608 21:04:19.377526  7222 net.cpp:165] Memory required for data: 87338388
I0608 21:04:19.377535  7222 layer_factory.hpp:77] Creating layer rpn_loss_cls
I0608 21:04:19.377552  7222 net.cpp:106] Creating Layer rpn_loss_cls
I0608 21:04:19.377573  7222 net.cpp:454] rpn_loss_cls <- rpn_cls_score_reshape_rpn_cls_score_reshape_0_split_0
I0608 21:04:19.377584  7222 net.cpp:454] rpn_loss_cls <- rpn_labels
…
I0608 21:04:19.378111  7222 net.cpp:157] Top shape: (1)
I0608 21:04:19.378119  7222 net.cpp:160]     with loss weight 1
I0608 21:04:19.378130  7222 net.cpp:165] Memory required for data: 87338396
I0608 21:04:19.378139  7222 layer_factory.hpp:77] Creating layer rpn_cls_prob
I0608 21:04:19.378409  7222 net.cpp:106] Creating Layer rpn_cls_prob
I0608 21:04:19.378429  7222 net.cpp:454] rpn_cls_prob <- rpn_cls_score_reshape_rpn_cls_score_reshape_0_split_1
I0608 21:04:19.378443  7222 net.cpp:411] rpn_cls_prob -> rpn_cls_prob
I0608 21:04:19.378557  7222 net.cpp:150] Setting up rpn_cls_prob
I0608 21:04:19.378581  7222 net.cpp:157] Top shape: 1 2 81 16 (2592)
I0608 21:04:19.378588  7222 net.cpp:165] Memory required for data: 87348764
I0608 21:04:19.378597  7222 layer_factory.hpp:77] Creating layer rpn_cls_prob_reshape
I0608 21:04:19.378612  7222 net.cpp:106] Creating Layer rpn_cls_prob_reshape
I0608 21:04:19.378628  7222 net.cpp:454] rpn_cls_prob_reshape <- rpn_cls_prob
I0608 21:04:19.378639  7222 net.cpp:411] rpn_cls_prob_reshape -> rpn_cls_prob_reshape
I0608 21:04:19.378688  7222 net.cpp:150] Setting up rpn_cls_prob_reshape
I0608 21:04:19.378708  7222 net.cpp:157] Top shape: 1 18 9 16 (2592)
I0608 21:04:19.378715  7222 net.cpp:165] Memory required for data: 87359132
I0608 21:04:19.378724  7222 layer_factory.hpp:77] Creating layer proposal
I0608 21:04:19.390041  7222 net.cpp:106] Creating Layer proposal
I0608 21:04:19.390086  7222 net.cpp:454] proposal <- rpn_cls_prob_reshape
I0608 21:04:19.390103  7222 net.cpp:454] proposal <- rpn_bbox_pred_rpn_bbox_pred_0_split_1
I0608 21:04:19.390115  7222 net.cpp:454] proposal <- im_info_input-data_1_split_1
I0608 21:04:19.390136  7222 net.cpp:411] proposal -> rpn_rois
I0608 21:04:19.391315  7222 net.cpp:150] Setting up proposal
I0608 21:04:19.391360  7222 net.cpp:157] Top shape: 1 5 (5)
I0608 21:04:19.391371  7222 net.cpp:165] Memory required for data: 87359152
I0608 21:04:19.391384  7222 layer_factory.hpp:77] Creating layer roi-data
I0608 21:04:19.394668  7222 net.cpp:106] Creating Layer roi-data
I0608 21:04:19.394701  7222 net.cpp:454] roi-data <- rpn_rois
I0608 21:04:19.394716  7222 net.cpp:454] roi-data <- gt_boxes_input-data_2_split_1
I0608 21:04:19.394728  7222 net.cpp:411] roi-data -> rois
I0608 21:04:19.394752  7222 net.cpp:411] roi-data -> labels
I0608 21:04:19.394765  7222 net.cpp:411] roi-data -> bbox_targets
I0608 21:04:19.394785  7222 net.cpp:411] roi-data -> bbox_inside_weights
I0608 21:04:19.394798  7222 net.cpp:411] roi-data -> bbox_outside_weights
I0608 21:04:19.395598  7222 net.cpp:150] Setting up roi-data
I0608 21:04:19.395633  7222 net.cpp:157] Top shape: 1 5 (5)
I0608 21:04:19.395642  7222 net.cpp:157] Top shape: 1 1 (1)
I0608 21:04:19.395651  7222 net.cpp:157] Top shape: 1 32 (32)
I0608 21:04:19.395664  7222 net.cpp:157] Top shape: 1 32 (32)
I0608 21:04:19.395673  7222 net.cpp:157] Top shape: 1 32 (32)
I0608 21:04:19.395679  7222 net.cpp:165] Memory required for data: 87359560
I0608 21:04:19.395690  7222 layer_factory.hpp:77] Creating layer roi_pool5
I0608 21:04:19.395706  7222 net.cpp:106] Creating Layer roi_pool5
I0608 21:04:19.395725  7222 net.cpp:454] roi_pool5 <- conv5_3_relu5_3_0_split_1
I0608 21:04:19.395735  7222 net.cpp:454] roi_pool5 <- rois
I0608 21:04:19.395750  7222 net.cpp:411] roi_pool5 -> pool5
I0608 21:04:19.395771  7222 roi_pooling_layer.cpp:30] Spatial scale: 0.0625
I0608 21:04:19.395858  7222 net.cpp:150] Setting up roi_pool5
I0608 21:04:19.395879  7222 net.cpp:157] Top shape: 1 512 7 7 (25088)
I0608 21:04:19.395887  7222 net.cpp:165] Memory required for data: 87459912
I0608 21:04:19.395895  7222 layer_factory.hpp:77] Creating layer fc6
I0608 21:04:19.395917  7222 net.cpp:106] Creating Layer fc6
I0608 21:04:19.395927  7222 net.cpp:454] fc6 <- pool5
I0608 21:04:19.395941  7222 net.cpp:411] fc6 -> fc6
I0608 21:04:19.760429  7222 net.cpp:150] Setting up fc6
I0608 21:04:19.760501  7222 net.cpp:157] Top shape: 1 4096 (4096)
I0608 21:04:19.760516  7222 net.cpp:165] Memory required for data: 87476296
I0608 21:04:19.760550  7222 layer_factory.hpp:77] Creating layer relu6
I0608 21:04:19.760573  7222 net.cpp:106] Creating Layer relu6
I0608 21:04:19.760593  7222 net.cpp:454] relu6 <- fc6
I0608 21:04:19.760608  7222 net.cpp:397] relu6 -> fc6 (in-place)
I0608 21:04:19.760629  7222 net.cpp:150] Setting up relu6
I0608 21:04:19.760648  7222 net.cpp:157] Top shape: 1 4096 (4096)
I0608 21:04:19.760656  7222 net.cpp:165] Memory required for data: 87492680
I0608 21:04:19.760664  7222 layer_factory.hpp:77] Creating layer drop6
I0608 21:04:19.760680  7222 net.cpp:106] Creating Layer drop6
I0608 21:04:19.760691  7222 net.cpp:454] drop6 <- fc6
I0608 21:04:19.760701  7222 net.cpp:397] drop6 -> fc6 (in-place)
I0608 21:04:19.760754  7222 net.cpp:150] Setting up drop6
I0608 21:04:19.760773  7222 net.cpp:157] Top shape: 1 4096 (4096)
I0608 21:04:19.760782  7222 net.cpp:165] Memory required for data: 87509064
I0608 21:04:19.760789  7222 layer_factory.hpp:77] Creating layer fc7
I0608 21:04:19.760802  7222 net.cpp:106] Creating Layer fc7
I0608 21:04:19.760816  7222 net.cpp:454] fc7 <- fc6
I0608 21:04:19.760828  7222 net.cpp:411] fc7 -> fc7
I0608 21:04:19.827193  7222 net.cpp:150] Setting up fc7
I0608 21:04:19.827257  7222 net.cpp:157] Top shape: 1 4096 (4096)
I0608 21:04:19.827267  7222 net.cpp:165] Memory required for data: 87525448
I0608 21:04:19.827286  7222 layer_factory.hpp:77] Creating layer relu7
I0608 21:04:19.827304  7222 net.cpp:106] Creating Layer relu7
I0608 21:04:19.827314  7222 net.cpp:454] relu7 <- fc7
I0608 21:04:19.827328  7222 net.cpp:397] relu7 -> fc7 (in-place)
I0608 21:04:19.827353  7222 net.cpp:150] Setting up relu7
I0608 21:04:19.827363  7222 net.cpp:157] Top shape: 1 4096 (4096)
I0608 21:04:19.827369  7222 net.cpp:165] Memory required for data: 87541832
I0608 21:04:19.827378  7222 layer_factory.hpp:77] Creating layer drop7
I0608 21:04:19.827389  7222 net.cpp:106] Creating Layer drop7
I0608 21:04:19.827399  7222 net.cpp:454] drop7 <- fc7
I0608 21:04:19.827409  7222 net.cpp:397] drop7 -> fc7 (in-place)
I0608 21:04:19.827472  7222 net.cpp:150] Setting up drop7
I0608 21:04:19.827507  7222 net.cpp:157] Top shape: 1 4096 (4096)
I0608 21:04:19.827519  7222 net.cpp:165] Memory required for data: 87558216
I0608 21:04:19.827527  7222 layer_factory.hpp:77] Creating layer fc7_drop7_0_split
I0608 21:04:19.827540  7222 net.cpp:106] Creating Layer fc7_drop7_0_split
I0608 21:04:19.827586  7222 net.cpp:454] fc7_drop7_0_split <- fc7
I0608 21:04:19.827602  7222 net.cpp:411] fc7_drop7_0_split -> fc7_drop7_0_split_0
I0608 21:04:19.827618  7222 net.cpp:411] fc7_drop7_0_split -> fc7_drop7_0_split_1
I0608 21:04:19.827702  7222 net.cpp:150] Setting up fc7_drop7_0_split
I0608 21:04:19.827745  7222 net.cpp:157] Top shape: 1 4096 (4096)
I0608 21:04:19.827754  7222 net.cpp:157] Top shape: 1 4096 (4096)
I0608 21:04:19.827759  7222 net.cpp:165] Memory required for data: 87590984
I0608 21:04:19.827767  7222 layer_factory.hpp:77] Creating layer cls_score
I0608 21:04:19.827781  7222 net.cpp:106] Creating Layer cls_score
I0608 21:04:19.827805  7222 net.cpp:454] cls_score <- fc7_drop7_0_split_0
I0608 21:04:19.827821  7222 net.cpp:411] cls_score -> cls_score
I0608 21:04:19.828364  7222 net.cpp:150] Setting up cls_score
I0608 21:04:19.828387  7222 net.cpp:157] Top shape: 1 8 (8)
I0608 21:04:19.828394  7222 net.cpp:165] Memory required for data: 87591016
I0608 21:04:19.828405  7222 layer_factory.hpp:77] Creating layer bbox_pred
I0608 21:04:19.828430  7222 net.cpp:106] Creating Layer bbox_pred
I0608 21:04:19.828451  7222 net.cpp:454] bbox_pred <- fc7_drop7_0_split_1
I0608 21:04:19.828464  7222 net.cpp:411] bbox_pred -> bbox_pred
I0608 21:04:19.834790  7222 net.cpp:150] Setting up bbox_pred
I0608 21:04:19.834822  7222 net.cpp:157] Top shape: 1 32 (32)
I0608 21:04:19.834831  7222 net.cpp:165] Memory required for data: 87591144
I0608 21:04:19.834843  7222 layer_factory.hpp:77] Creating layer loss_cls
I0608 21:04:19.834859  7222 net.cpp:106] Creating Layer loss_cls
I0608 21:04:19.834872  7222 net.cpp:454] loss_cls <- cls_score
I0608 21:04:19.834882  7222 net.cpp:454] loss_cls <- labels
I0608 21:04:19.834892  7222 net.cpp:411] loss_cls -> loss_cls
…
           'RPN_POST_NMS_TOP_N': 200,
           'RPN_PRE_NMS_TOP_N': 1200,
           'SCALES': [144],
           'SNAPSHOT_INFIX': '',
           'SNAPSHOT_ITERS': 10000,
           'USE_FLIPPED': True,
           'USE_PREFETCH': False},
 'USE_GPU_NMS': True}
WARNING: Logging before InitGoogleLogging() is written to STDERR
I0608 23:50:05.168656 12066 net.cpp:49] Initializing net from parameters: 
name: "VGG_ILSVRC_16_layers"
input: "data"
input: "im_info"
state {
  phase: TEST
}
input_shape {
  dim: 1
  dim: 3
  dim: 224
  dim: 224
}
input_shape {
  dim: 1
  dim: 3
}
layer {
  name: "conv1_1"
  type: "Convolution"
  bottom: "data"
  top: "conv1_1"
  param {
    lr_mult: 0
    decay_mult: 0
  }
  param {
    lr_mult: 0
    decay_mult: 0
  }
  convolution_param {
    num_output: 64
    pad: 1
    kernel_size: 3
  }
}
layer {
  name: "relu1_1"
  type: "ReLU"
  bottom: "conv1_1"
  top: "conv1_1"
}
layer {
  name: "conv1_2"
  type: "Convolution"
  bottom: "conv1_1"
  top: "conv1_2"
  param {
    lr_mult: 0
    decay_mult: 0
  }
  param {
    lr_mult: 0
    decay_mult: 0
  }
  convolution_param {
    num_output: 64
    pad: 1
    kernel_size: 3
  }
}
layer {
  name: "relu1_2"
  type: "ReLU"
  bottom: "conv1_2"
  top: "conv1_2"
}
layer {
  name: "pool1"
  type: "Pooling"
  bottom: "conv1_2"
  top: "pool1"
  pooling_param {
    pool: MAX
    kernel_size: 2
    stride: 2
  }
}
layer {
  name: "conv2_1"
  type: "Convolution"
  bottom: "pool1"
  top: "conv2_1"
  param {
    lr_mult: 0
    decay_mult: 0
  }
  param {
    lr_mult: 0
    decay_mult: 0
  }
  convolution_param {
    num_output: 128
    pad: 1
    kernel_size: 3
  }
}
layer {
  name: "relu2_1"
  type: "ReLU"
  bottom: "conv2_1"
  top: "conv2_1"
}
layer {
  name: "conv2_2"
  type: "Convolution"
  bottom: "conv2_1"
  top: "conv2_2"
  param {
    lr_mult: 0
    decay_mult: 0
  }
  param {
    lr_mult: 0
    decay_mult: 0
  }
  convolution_param {
    num_output: 128
    pad: 1
    kernel_size: 3
  }
}
layer {
  name: "relu2_2"
  type: "ReLU"
  bottom: "conv2_2"
  top: "conv2_2"
}
layer {
  name: "pool2"
  type: "Pooling"
  bottom: "conv2_2"
  top: "pool2"
  pooling_param {
    pool: MAX
    kernel_size: 2
    stride: 2
  }
}
layer {
  name: "conv3_1"
  type: "Convolution"
  bottom: "pool2"
  top: "conv3_1"
  param {
    lr_mult: 1
    decay_mult: 1
  }
  param {
    lr_mult: 2
    decay_mult: 0
  }
  convolution_param {
    num_output: 256
    pad: 1
    kernel_size: 3
  }
}
layer {
  name: "relu3_1"
  type: "ReLU"
  bottom: "conv3_1"
  top: "conv3_1"
}
layer {
  name: "conv3_2"
  type: "Convolution"
  bottom: "conv3_1"
  top: "conv3_2"
  param {
    lr_mult: 1
    decay_mult: 1
  }
  param {
    lr_mult: 2
    decay_mult: 0
  }
  convolution_param {
    num_output: 256
    pad: 1
    kernel_size: 3
  }
}
layer {
  name: "relu3_2"
  type: "ReLU"
  bottom: "conv3_2"
  top: "conv3_2"
}
layer {
  name: "conv3_3"
  type: "Convolution"
  bottom: "conv3_2"
  top: "conv3_3"
  param {
    lr_mult: 1
    decay_mult: 1
  }
  param {
    lr_mult: 2
    decay_mult: 0
  }
  convolution_param {
    num_output: 256
    pad: 1
    kernel_size: 3
  }
}
layer {
  name: "relu3_3"
  type: "ReLU"
  bottom: "conv3_3"
  top: "conv3_3"
}
layer {
  name: "pool3"
  type: "Pooling"
  bottom: "conv3_3"
  top: "pool3"
  pooling_param {
    pool: MAX
    kernel_size: 2
    stride: 2
  }
}
layer {
  name: "conv4_1"
  type: "Convolution"
  bottom: "pool3"
  top: "conv4_1"
  param {
    lr_mult: 1
    decay_mult: 1
  }
  param {
    lr_mult: 2
    decay_mult: 0
  }
  convolution_param {
    num_output: 512
    pad: 1
    kernel_size: 3
  }
}
layer {
  name: "relu4_1"
  type: "ReLU"
  bottom: "conv4_1"
  top: "conv4_1"
}
layer {
  name: "conv4_2"
  type: "Convolution"
  bottom: "conv4_1"
  top: "conv4_2"
  param {
    lr_mult: 1
    decay_mult: 1
  }
  param {
    lr_mult: 2
    decay_mult: 0
  }
  convolution_param {
    num_output: 512
    pad: 1
    kernel_size: 3
  }
}
layer {
  name: "relu4_2"
  type: "ReLU"
  bottom: "conv4_2"
  top: "conv4_2"
}
layer {
  name: "conv4_3"
  type: "Convolution"
  bottom: "conv4_2"
  top: "conv4_3"
  param {
    lr_mult: 1
    decay_mult: 1
  }
  param {
    lr_mult: 2
    decay_mult: 0
  }
  convolution_param {
    num_output: 512
    pad: 1
    kernel_size: 3
  }
}
layer {
  name: "relu4_3"
  type: "ReLU"
  bottom: "conv4_3"
  top: "conv4_3"
}
layer {
  name: "pool4"
  type: "Pooling"
  bottom: "conv4_3"
  top: "pool4"
  pooling_param {
    pool: MAX
    kernel_size: 2
    stride: 2
  }
}
layer {
  name: "conv5_1"
  type: "Convolution"
  bottom: "pool4"
  top: "conv5_1"
  param {
    lr_mult: 1
    decay_mult: 1
  }
  param {
    lr_mult: 2
    decay_mult: 0
  }
  convolution_param {
    num_output: 512
    pad: 1
    kernel_size: 3
  }
}
layer {
  name: "relu5_1"
  type: "ReLU"
  bottom: "conv5_1"
  top: "conv5_1"
}
layer {
  name: "conv5_2"
  type: "Convolution"
  bottom: "conv5_1"
  top: "conv5_2"
  param {
    lr_mult: 1
    decay_mult: 1
  }
  param {
    lr_mult: 2
    decay_mult: 0
  }
  convolution_param {
    num_output: 512
    pad: 1
    kernel_size: 3
  }
}
layer {
  name: "relu5_2"
  type: "ReLU"
  bottom: "conv5_2"
  top: "conv5_2"
}
layer {
  name: "conv5_3"
  type: "Convolution"
  bottom: "conv5_2"
  top: "conv5_3"
  param {
    lr_mult: 1
    decay_mult: 1
  }
  param {
    lr_mult: 2
    decay_mult: 0
  }
  convolution_param {
    num_output: 512
    pad: 1
    kernel_size: 3
  }
}
layer {
  name: "relu5_3"
  type: "ReLU"
  bottom: "conv5_3"
  top: "conv5_3"
}
layer {
  name: "rpn_conv/3x3"
  type: "Convolution"
  bottom: "conv5_3"
  top: "rpn/output"
  param {
    lr_mult: 1
    decay_mult: 1
  }
  param {
    lr_mult: 2
    decay_mult: 0
  }
  convolution_param {
    num_output: 512
    pad: 1
    kernel_size: 3
    stride: 1
    weight_filler {
      type: "gaussian"
      std: 0.01
    }
    bias_filler {
      type: "constant"
      value: 0
    }
  }
}
layer {
  name: "rpn_relu/3x3"
  type: "ReLU"
  bottom: "rpn/output"
  top: "rpn/output"
}
layer {
  name: "rpn_cls_score"
  type: "Convolution"
  bottom: "rpn/output"
  top: "rpn_cls_score"
  param {
    lr_mult: 1
    decay_mult: 1
  }
  param {
    lr_mult: 2
    decay_mult: 0
  }
  convolution_param {
    num_output: 18
    pad: 0
    kernel_size: 1
    stride: 1
    weight_filler {
      type: "gaussian"
      std: 0.01
    }
    bias_filler {
      type: "constant"
      value: 0
    }
  }
}
layer {
  name: "rpn_bbox_pred"
  type: "Convolution"
  bottom: "rpn/output"
  top: "rpn_bbox_pred"
  param {
    lr_mult: 1
    decay_mult: 1
  }
  param {
    lr_mult: 2
    decay_mult: 0
  }
  convolution_param {
    num_output: 36
    pad: 0
    kernel_size: 1
    stride: 1
    weight_filler {
      type: "gaussian"
      std: 0.01
    }
    bias_filler {
      type: "constant"
      value: 0
    }
  }
}
layer {
  name: "rpn_cls_score_reshape"
  type: "Reshape"
  bottom: "rpn_cls_score"
  top: "rpn_cls_score_reshape"
  reshape_param {
    shape {
      dim: 0
      dim: 2
      dim: -1
      dim: 0
    }
  }
}
layer {
  name: "rpn_cls_prob"
  type: "Softmax"
  bottom: "rpn_cls_score_reshape"
  top: "rpn_cls_prob"
}
layer {
  name: "rpn_cls_prob_reshape"
  type: "Reshape"
  bottom: "rpn_cls_prob"
  top: "rpn_cls_prob_reshape"
  reshape_param {
    shape {
      dim: 0
      dim: 18
      dim: -1
      dim: 0
    }
  }
}
layer {
  name: "proposal"
  type: "Python"
  bottom: "rpn_cls_prob_reshape"
  bottom: "rpn_bbox_pred"
  bottom: "im_info"
  top: "rois"
  python_param {
    module: "rpn.proposal_layer"
    layer: "ProposalLayer"
    param_str: "\'feat_stride\': 16"
  }
}
layer {
  name: "roi_pool5"
  type: "ROIPooling"
  bottom: "conv5_3"
  bottom: "rois"
  top: "pool5"
  roi_pooling_param {
    pooled_h: 7
    pooled_w: 7
    spatial_scale: 0.0625
  }
}
layer {
  name: "fc6"
  type: "InnerProduct"
  bottom: "pool5"
  top: "fc6"
  param {
    lr_mult: 1
    decay_mult: 1
  }
  param {
    lr_mult: 2
    decay_mult: 0
  }
  inner_product_param {
    num_output: 4096
  }
}
layer {
  name: "relu6"
  type: "ReLU"
  bottom: "fc6"
  top: "fc6"
}
layer {
  name: "drop6"
  type: "Dropout"
  bottom: "fc6"
  top: "fc6"
  dropout_param {
    dropout_ratio: 0.5
  }
}
layer {
  name: "fc7"
  type: "InnerProduct"
  bottom: "fc6"
  top: "fc7"
  param {
    lr_mult: 1
    decay_mult: 1
  }
  param {
    lr_mult: 2
    decay_mult: 0
  }
  inner_product_param {
    num_output: 4096
  }
}
layer {
  name: "relu7"
  type: "ReLU"
  bottom: "fc7"
  top: "fc7"
}
layer {
  name: "drop7"
  type: "Dropout"
  bottom: "fc7"
  top: "fc7"
  dropout_param {
    dropout_ratio: 0.5
  }
}
layer {
  name: "cls_score"
  type: "InnerProduct"
  bottom: "fc7"
  top: "cls_score"
  param {
    lr_mult: 1
    decay_mult: 1
  }
  param {
    lr_mult: 2
    decay_mult: 0
  }
  inner_product_param {
    num_output: 8
    weight_filler {
      type: "gaussian"
      std: 0.01
    }
    bias_filler {
      type: "constant"
      value: 0
    }
  }
}
layer {
  name: "bbox_pred"
  type: "InnerProduct"
  bottom: "fc7"
  top: "bbox_pred"
  param {
    lr_mult: 1
    decay_mult: 1
  }
  param {
    lr_mult: 2
    decay_mult: 0
  }
  inner_product_param {
    num_output: 32
    weight_filler {
      type: "gaussian"
      std: 0.001
    }
    bias_filler {
      type: "constant"
      value: 0
    }
  }
}
layer {
  name: "cls_prob"
  type: "Softmax"
  bottom: "cls_score"
  top: "cls_prob"
}
I0608 23:50:05.168982 12066 net.cpp:413] Input 0 -> data
I0608 23:50:05.885444 12066 net.cpp:413] Input 1 -> im_info
I0608 23:50:05.885553 12066 layer_factory.hpp:77] Creating layer conv1_1
I0608 23:50:05.885588 12066 net.cpp:106] Creating Layer conv1_1
I0608 23:50:05.885602 12066 net.cpp:454] conv1_1 <- data
I0608 23:50:05.885618 12066 net.cpp:411] conv1_1 -> conv1_1
I0608 23:50:05.894145 12066 net.cpp:150] Setting up conv1_1
I0608 23:50:05.894429 12066 net.cpp:157] Top shape: 1 64 224 224 (3211264)
I0608 23:50:05.894439 12066 net.cpp:165] Memory required for data: 12845056
I0608 23:50:05.894457 12066 layer_factory.hpp:77] Creating layer relu1_1
I0608 23:50:05.894474 12066 net.cpp:106] Creating Layer relu1_1
I0608 23:50:05.894508 12066 net.cpp:454] relu1_1 <- conv1_1
I0608 23:50:05.894522 12066 net.cpp:397] relu1_1 -> conv1_1 (in-place)
I0608 23:50:05.894539 12066 net.cpp:150] Setting up relu1_1
I0608 23:50:05.894556 12066 net.cpp:157] Top shape: 1 64 224 224 (3211264)
I0608 23:50:05.894564 12066 net.cpp:165] Memory required for data: 25690112
I0608 23:50:05.894572 12066 layer_factory.hpp:77] Creating layer conv1_2
I0608 23:50:05.894585 12066 net.cpp:106] Creating Layer conv1_2
I0608 23:50:05.894595 12066 net.cpp:454] conv1_2 <- conv1_1
I0608 23:50:05.894608 12066 net.cpp:411] conv1_2 -> conv1_2
I0608 23:50:05.895038 12066 net.cpp:150] Setting up conv1_2
I0608 23:50:05.895067 12066 net.cpp:157] Top shape: 1 64 224 224 (3211264)
I0608 23:50:05.895076 12066 net.cpp:165] Memory required for data: 38535168
I0608 23:50:05.895088 12066 layer_factory.hpp:77] Creating layer relu1_2
I0608 23:50:05.895098 12066 net.cpp:106] Creating Layer relu1_2
I0608 23:50:05.895107 12066 net.cpp:454] relu1_2 <- conv1_2
I0608 23:50:05.895120 12066 net.cpp:397] relu1_2 -> conv1_2 (in-place)
I0608 23:50:05.895138 12066 net.cpp:150] Setting up relu1_2
I0608 23:50:05.895146 12066 net.cpp:157] Top shape: 1 64 224 224 (3211264)
I0608 23:50:05.895154 12066 net.cpp:165] Memory required for data: 51380224
I0608 23:50:05.895162 12066 layer_factory.hpp:77] Creating layer pool1
I0608 23:50:05.895180 12066 net.cpp:106] Creating Layer pool1
I0608 23:50:05.895187 12066 net.cpp:454] pool1 <- conv1_2
I0608 23:50:05.895200 12066 net.cpp:411] pool1 -> pool1
I0608 23:50:05.895272 12066 net.cpp:150] Setting up pool1
I0608 23:50:05.895341 12066 net.cpp:157] Top shape: 1 64 112 112 (802816)
I0608 23:50:05.895357 12066 net.cpp:165] Memory required for data: 54591488
I0608 23:50:05.895376 12066 layer_factory.hpp:77] Creating layer conv2_1
I0608 23:50:05.895401 12066 net.cpp:106] Creating Layer conv2_1
I0608 23:50:05.895409 12066 net.cpp:454] conv2_1 <- pool1
I0608 23:50:05.895419 12066 net.cpp:411] conv2_1 -> conv2_1
I0608 23:50:05.905514 12066 net.cpp:150] Setting up conv2_1
I0608 23:50:05.905549 12066 net.cpp:157] Top shape: 1 128 112 112 (1605632)
I0608 23:50:05.905568 12066 net.cpp:165] Memory required for data: 61014016
I0608 23:50:05.905599 12066 layer_factory.hpp:77] Creating layer relu2_1
I0608 23:50:05.905616 12066 net.cpp:106] Creating Layer relu2_1
I0608 23:50:05.905633 12066 net.cpp:454] relu2_1 <- conv2_1
I0608 23:50:05.905650 12066 net.cpp:397] relu2_1 -> conv2_1 (in-place)
I0608 23:50:05.905663 12066 net.cpp:150] Setting up relu2_1
I0608 23:50:05.905673 12066 net.cpp:157] Top shape: 1 128 112 112 (1605632)
I0608 23:50:05.905684 12066 net.cpp:165] Memory required for data: 67436544
I0608 23:50:05.905692 12066 layer_factory.hpp:77] Creating layer conv2_2
I0608 23:50:05.905710 12066 net.cpp:106] Creating Layer conv2_2
I0608 23:50:05.905721 12066 net.cpp:454] conv2_2 <- conv2_1
I0608 23:50:05.905746 12066 net.cpp:411] conv2_2 -> conv2_2
I0608 23:50:05.906402 12066 net.cpp:150] Setting up conv2_2
I0608 23:50:05.906430 12066 net.cpp:157] Top shape: 1 128 112 112 (1605632)
I0608 23:50:05.906445 12066 net.cpp:165] Memory required for data: 73859072
I0608 23:50:05.906466 12066 layer_factory.hpp:77] Creating layer relu2_2
I0608 23:50:05.906493 12066 net.cpp:106] Creating Layer relu2_2
I0608 23:50:05.906524 12066 net.cpp:454] relu2_2 <- conv2_2
I0608 23:50:05.906543 12066 net.cpp:397] relu2_2 -> conv2_2 (in-place)
I0608 23:50:05.906555 12066 net.cpp:150] Setting up relu2_2
I0608 23:50:05.906576 12066 net.cpp:157] Top shape: 1 128 112 112 (1605632)
I0608 23:50:05.906584 12066 net.cpp:165] Memory required for data: 80281600
I0608 23:50:05.906605 12066 layer_factory.hpp:77] Creating layer pool2
I0608 23:50:05.906631 12066 net.cpp:106] Creating Layer pool2
I0608 23:50:05.906641 12066 net.cpp:454] pool2 <- conv2_2
I0608 23:50:05.906661 12066 net.cpp:411] pool2 -> pool2
I0608 23:50:05.906731 12066 net.cpp:150] Setting up pool2
I0608 23:50:05.906754 12066 net.cpp:157] Top shape: 1 128 56 56 (401408)
I0608 23:50:05.906762 12066 net.cpp:165] Memory required for data: 81887232
I0608 23:50:05.906771 12066 layer_factory.hpp:77] Creating layer conv3_1
I0608 23:50:05.906788 12066 net.cpp:106] Creating Layer conv3_1
I0608 23:50:05.906800 12066 net.cpp:454] conv3_1 <- pool2
I0608 23:50:05.906811 12066 net.cpp:411] conv3_1 -> conv3_1
I0608 23:50:05.907356 12066 net.cpp:150] Setting up conv3_1
I0608 23:50:05.907382 12066 net.cpp:157] Top shape: 1 256 56 56 (802816)
I0608 23:50:05.907389 12066 net.cpp:165] Memory required for data: 85098496
I0608 23:50:05.907407 12066 layer_factory.hpp:77] Creating layer relu3_1
I0608 23:50:05.907416 12066 net.cpp:106] Creating Layer relu3_1
I0608 23:50:05.907425 12066 net.cpp:454] relu3_1 <- conv3_1
I0608 23:50:05.907438 12066 net.cpp:397] relu3_1 -> conv3_1 (in-place)
I0608 23:50:05.907454 12066 net.cpp:150] Setting up relu3_1
I0608 23:50:05.907476 12066 net.cpp:157] Top shape: 1 256 56 56 (802816)
I0608 23:50:05.907490 12066 net.cpp:165] Memory required for data: 88309760
I0608 23:50:05.907500 12066 layer_factory.hpp:77] Creating layer conv3_2
I0608 23:50:05.907511 12066 net.cpp:106] Creating Layer conv3_2
I0608 23:50:05.907518 12066 net.cpp:454] conv3_2 <- conv3_1
I0608 23:50:05.907533 12066 net.cpp:411] conv3_2 -> conv3_2
I0608 23:50:05.912050 12066 net.cpp:150] Setting up conv3_2
I0608 23:50:05.912084 12066 net.cpp:157] Top shape: 1 256 56 56 (802816)
I0608 23:50:05.912093 12066 net.cpp:165] Memory required for data: 91521024
I0608 23:50:05.912106 12066 layer_factory.hpp:77] Creating layer relu3_2
I0608 23:50:05.912117 12066 net.cpp:106] Creating Layer relu3_2
I0608 23:50:05.912125 12066 net.cpp:454] relu3_2 <- conv3_2
I0608 23:50:05.912144 12066 net.cpp:397] relu3_2 -> conv3_2 (in-place)
I0608 23:50:05.912158 12066 net.cpp:150] Setting up relu3_2
I0608 23:50:05.912168 12066 net.cpp:157] Top shape: 1 256 56 56 (802816)
I0608 23:50:05.912173 12066 net.cpp:165] Memory required for data: 94732288
I0608 23:50:05.912180 12066 layer_factory.hpp:77] Creating layer conv3_3
I0608 23:50:05.912192 12066 net.cpp:106] Creating Layer conv3_3
I0608 23:50:05.912200 12066 net.cpp:454] conv3_3 <- conv3_2
I0608 23:50:05.912215 12066 net.cpp:411] conv3_3 -> conv3_3
I0608 23:50:05.916693 12066 net.cpp:150] Setting up conv3_3
I0608 23:50:05.916728 12066 net.cpp:157] Top shape: 1 256 56 56 (802816)
I0608 23:50:05.916738 12066 net.cpp:165] Memory required for data: 97943552
I0608 23:50:05.916749 12066 layer_factory.hpp:77] Creating layer relu3_3
I0608 23:50:05.916761 12066 net.cpp:106] Creating Layer relu3_3
I0608 23:50:05.916775 12066 net.cpp:454] relu3_3 <- conv3_3
I0608 23:50:05.916793 12066 net.cpp:397] relu3_3 -> conv3_3 (in-place)
I0608 23:50:05.916821 12066 net.cpp:150] Setting up relu3_3
I0608 23:50:05.916863 12066 net.cpp:157] Top shape: 1 256 56 56 (802816)
I0608 23:50:05.916874 12066 net.cpp:165] Memory required for data: 101154816
I0608 23:50:05.916882 12066 layer_factory.hpp:77] Creating layer pool3
I0608 23:50:05.916898 12066 net.cpp:106] Creating Layer pool3
I0608 23:50:05.916906 12066 net.cpp:454] pool3 <- conv3_3
I0608 23:50:05.916915 12066 net.cpp:411] pool3 -> pool3
I0608 23:50:05.916988 12066 net.cpp:150] Setting up pool3
I0608 23:50:05.917006 12066 net.cpp:157] Top shape: 1 256 28 28 (200704)
I0608 23:50:05.917012 12066 net.cpp:165] Memory required for data: 101957632
I0608 23:50:05.917021 12066 layer_factory.hpp:77] Creating layer conv4_1
I0608 23:50:05.917037 12066 net.cpp:106] Creating Layer conv4_1
I0608 23:50:05.917045 12066 net.cpp:454] conv4_1 <- pool3
I0608 23:50:05.917057 12066 net.cpp:411] conv4_1 -> conv4_1
I0608 23:50:05.933804 12066 net.cpp:150] Setting up conv4_1
I0608 23:50:05.933892 12066 net.cpp:157] Top shape: 1 512 28 28 (401408)
I0608 23:50:05.933912 12066 net.cpp:165] Memory required for data: 103563264
I0608 23:50:05.933938 12066 layer_factory.hpp:77] Creating layer relu4_1
I0608 23:50:05.933979 12066 net.cpp:106] Creating Layer relu4_1
I0608 23:50:05.933996 12066 net.cpp:454] relu4_1 <- conv4_1
I0608 23:50:05.934018 12066 net.cpp:397] relu4_1 -> conv4_1 (in-place)
I0608 23:50:05.934044 12066 net.cpp:150] Setting up relu4_1
I0608 23:50:05.934068 12066 net.cpp:157] Top shape: 1 512 28 28 (401408)
I0608 23:50:05.934082 12066 net.cpp:165] Memory required for data: 105168896
I0608 23:50:05.934094 12066 layer_factory.hpp:77] Creating layer conv4_2
I0608 23:50:05.934123 12066 net.cpp:106] Creating Layer conv4_2
I0608 23:50:05.934139 12066 net.cpp:454] conv4_2 <- conv4_1
I0608 23:50:05.934517 12066 net.cpp:411] conv4_2 -> conv4_2
I0608 23:50:05.948329 12066 net.cpp:150] Setting up conv4_2
I0608 23:50:05.948364 12066 net.cpp:157] Top shape: 1 512 28 28 (401408)
I0608 23:50:05.948374 12066 net.cpp:165] Memory required for data: 106774528
I0608 23:50:05.948392 12066 layer_factory.hpp:77] Creating layer relu4_2
I0608 23:50:05.948408 12066 net.cpp:106] Creating Layer relu4_2
I0608 23:50:05.948417 12066 net.cpp:454] relu4_2 <- conv4_2
I0608 23:50:05.948428 12066 net.cpp:397] relu4_2 -> conv4_2 (in-place)
I0608 23:50:05.948447 12066 net.cpp:150] Setting up relu4_2
I0608 23:50:05.948457 12066 net.cpp:157] Top shape: 1 512 28 28 (401408)
I0608 23:50:05.948464 12066 net.cpp:165] Memory required for data: 108380160
I0608 23:50:05.948472 12066 layer_factory.hpp:77] Creating layer conv4_3
I0608 23:50:05.948487 12066 net.cpp:106] Creating Layer conv4_3
I0608 23:50:05.948495 12066 net.cpp:454] conv4_3 <- conv4_2
I0608 23:50:05.948504 12066 net.cpp:411] conv4_3 -> conv4_3
I0608 23:50:05.957983 12066 net.cpp:150] Setting up conv4_3
I0608 23:50:05.958019 12066 net.cpp:157] Top shape: 1 512 28 28 (401408)
I0608 23:50:05.958029 12066 net.cpp:165] Memory required for data: 109985792
I0608 23:50:05.958041 12066 layer_factory.hpp:77] Creating layer relu4_3
I0608 23:50:05.958057 12066 net.cpp:106] Creating Layer relu4_3
I0608 23:50:05.958066 12066 net.cpp:454] relu4_3 <- conv4_3
I0608 23:50:05.958077 12066 net.cpp:397] relu4_3 -> conv4_3 (in-place)
I0608 23:50:05.958091 12066 net.cpp:150] Setting up relu4_3
I0608 23:50:05.958099 12066 net.cpp:157] Top shape: 1 512 28 28 (401408)
I0608 23:50:05.958106 12066 net.cpp:165] Memory required for data: 111591424
I0608 23:50:05.958113 12066 layer_factory.hpp:77] Creating layer pool4
I0608 23:50:05.958127 12066 net.cpp:106] Creating Layer pool4
I0608 23:50:05.958137 12066 net.cpp:454] pool4 <- conv4_3
I0608 23:50:05.958148 12066 net.cpp:411] pool4 -> pool4
I0608 23:50:05.958432 12066 net.cpp:150] Setting up pool4
I0608 23:50:05.958474 12066 net.cpp:157] Top shape: 1 512 14 14 (100352)
I0608 23:50:05.958484 12066 net.cpp:165] Memory required for data: 111992832
I0608 23:50:05.958492 12066 layer_factory.hpp:77] Creating layer conv5_1
I0608 23:50:05.958508 12066 net.cpp:106] Creating Layer conv5_1
I0608 23:50:05.958518 12066 net.cpp:454] conv5_1 <- pool4
I0608 23:50:05.958531 12066 net.cpp:411] conv5_1 -> conv5_1
I0608 23:50:05.967528 12066 net.cpp:150] Setting up conv5_1
I0608 23:50:05.967579 12066 net.cpp:157] Top shape: 1 512 14 14 (100352)
I0608 23:50:05.967595 12066 net.cpp:165] Memory required for data: 112394240
I0608 23:50:05.967617 12066 layer_factory.hpp:77] Creating layer relu5_1
I0608 23:50:05.967648 12066 net.cpp:106] Creating Layer relu5_1
I0608 23:50:05.967690 12066 net.cpp:454] relu5_1 <- conv5_1
I0608 23:50:05.967754 12066 net.cpp:397] relu5_1 -> conv5_1 (in-place)
I0608 23:50:05.967790 12066 net.cpp:150] Setting up relu5_1
I0608 23:50:05.967818 12066 net.cpp:157] Top shape: 1 512 14 14 (100352)
I0608 23:50:05.967840 12066 net.cpp:165] Memory required for data: 112795648
I0608 23:50:05.967875 12066 layer_factory.hpp:77] Creating layer conv5_2
I0608 23:50:05.967909 12066 net.cpp:106] Creating Layer conv5_2
I0608 23:50:05.967937 12066 net.cpp:454] conv5_2 <- conv5_1
I0608 23:50:05.967988 12066 net.cpp:411] conv5_2 -> conv5_2
I0608 23:50:05.981446 12066 net.cpp:150] Setting up conv5_2
I0608 23:50:05.981505 12066 net.cpp:157] Top shape: 1 512 14 14 (100352)
I0608 23:50:05.981525 12066 net.cpp:165] Memory required for data: 113197056
I0608 23:50:05.981549 12066 layer_factory.hpp:77] Creating layer relu5_2
I0608 23:50:05.981573 12066 net.cpp:106] Creating Layer relu5_2
I0608 23:50:05.981600 12066 net.cpp:454] relu5_2 <- conv5_2
I0608 23:50:05.981626 12066 net.cpp:397] relu5_2 -> conv5_2 (in-place)
I0608 23:50:05.981650 12066 net.cpp:150] Setting up relu5_2
I0608 23:50:05.981668 12066 net.cpp:157] Top shape: 1 512 14 14 (100352)
I0608 23:50:05.981683 12066 net.cpp:165] Memory required for data: 113598464
I0608 23:50:05.981696 12066 layer_factory.hpp:77] Creating layer conv5_3
I0608 23:50:05.981719 12066 net.cpp:106] Creating Layer conv5_3
I0608 23:50:05.981735 12066 net.cpp:454] conv5_3 <- conv5_2
I0608 23:50:05.981758 12066 net.cpp:411] conv5_3 -> conv5_3
I0608 23:50:05.996004 12066 net.cpp:150] Setting up conv5_3
I0608 23:50:05.996065 12066 net.cpp:157] Top shape: 1 512 14 14 (100352)
I0608 23:50:05.996083 12066 net.cpp:165] Memory required for data: 113999872
I0608 23:50:05.996109 12066 layer_factory.hpp:77] Creating layer relu5_3
I0608 23:50:05.996141 12066 net.cpp:106] Creating Layer relu5_3
I0608 23:50:05.996160 12066 net.cpp:454] relu5_3 <- conv5_3
I0608 23:50:05.996191 12066 net.cpp:397] relu5_3 -> conv5_3 (in-place)
I0608 23:50:05.996218 12066 net.cpp:150] Setting up relu5_3
I0608 23:50:05.996245 12066 net.cpp:157] Top shape: 1 512 14 14 (100352)
I0608 23:50:05.996260 12066 net.cpp:165] Memory required for data: 114401280
I0608 23:50:05.996275 12066 layer_factory.hpp:77] Creating layer conv5_3_relu5_3_0_split
I0608 23:50:05.996295 12066 net.cpp:106] Creating Layer conv5_3_relu5_3_0_split
I0608 23:50:05.996317 12066 net.cpp:454] conv5_3_relu5_3_0_split <- conv5_3
I0608 23:50:05.996342 12066 net.cpp:411] conv5_3_relu5_3_0_split -> conv5_3_relu5_3_0_split_0
I0608 23:50:05.996367 12066 net.cpp:411] conv5_3_relu5_3_0_split -> conv5_3_relu5_3_0_split_1
I0608 23:50:05.996495 12066 net.cpp:150] Setting up conv5_3_relu5_3_0_split
I0608 23:50:05.996526 12066 net.cpp:157] Top shape: 1 512 14 14 (100352)
I0608 23:50:05.996543 12066 net.cpp:157] Top shape: 1 512 14 14 (100352)
I0608 23:50:05.996557 12066 net.cpp:165] Memory required for data: 115204096
I0608 23:50:05.996573 12066 layer_factory.hpp:77] Creating layer rpn_conv/3x3
I0608 23:50:05.996613 12066 net.cpp:106] Creating Layer rpn_conv/3x3
I0608 23:50:05.996637 12066 net.cpp:454] rpn_conv/3x3 <- conv5_3_relu5_3_0_split_0
I0608 23:50:05.996673 12066 net.cpp:411] rpn_conv/3x3 -> rpn/output
I0608 23:50:06.048357 12066 net.cpp:150] Setting up rpn_conv/3x3
I0608 23:50:06.048434 12066 net.cpp:157] Top shape: 1 512 14 14 (100352)
I0608 23:50:06.048458 12066 net.cpp:165] Memory required for data: 115605504
I0608 23:50:06.048485 12066 layer_factory.hpp:77] Creating layer rpn_relu/3x3
I0608 23:50:06.048529 12066 net.cpp:106] Creating Layer rpn_relu/3x3
I0608 23:50:06.048558 12066 net.cpp:454] rpn_relu/3x3 <- rpn/output
I0608 23:50:06.048584 12066 net.cpp:397] rpn_relu/3x3 -> rpn/output (in-place)
I0608 23:50:06.048610 12066 net.cpp:150] Setting up rpn_relu/3x3
I0608 23:50:06.048629 12066 net.cpp:157] Top shape: 1 512 14 14 (100352)
I0608 23:50:06.048642 12066 net.cpp:165] Memory required for data: 116006912
I0608 23:50:06.048656 12066 layer_factory.hpp:77] Creating layer rpn/output_rpn_relu/3x3_0_split
I0608 23:50:06.048676 12066 net.cpp:106] Creating Layer rpn/output_rpn_relu/3x3_0_split
I0608 23:50:06.048691 12066 net.cpp:454] rpn/output_rpn_relu/3x3_0_split <- rpn/output
I0608 23:50:06.048708 12066 net.cpp:411] rpn/output_rpn_relu/3x3_0_split -> rpn/output_rpn_relu/3x3_0_split_0
I0608 23:50:06.048730 12066 net.cpp:411] rpn/output_rpn_relu/3x3_0_split -> rpn/output_rpn_relu/3x3_0_split_1
I0608 23:50:06.048878 12066 net.cpp:150] Setting up rpn/output_rpn_relu/3x3_0_split
I0608 23:50:06.048914 12066 net.cpp:157] Top shape: 1 512 14 14 (100352)
I0608 23:50:06.048934 12066 net.cpp:157] Top shape: 1 512 14 14 (100352)
I0608 23:50:06.048950 12066 net.cpp:165] Memory required for data: 116809728
I0608 23:50:06.048965 12066 layer_factory.hpp:77] Creating layer rpn_cls_score
I0608 23:50:06.048998 12066 net.cpp:106] Creating Layer rpn_cls_score
I0608 23:50:06.049015 12066 net.cpp:454] rpn_cls_score <- rpn/output_rpn_relu/3x3_0_split_0
I0608 23:50:06.049037 12066 net.cpp:411] rpn_cls_score -> rpn_cls_score
I0608 23:50:06.049835 12066 net.cpp:150] Setting up rpn_cls_score
I0608 23:50:06.049888 12066 net.cpp:157] Top shape: 1 18 14 14 (3528)
I0608 23:50:06.049906 12066 net.cpp:165] Memory required for data: 116823840
I0608 23:50:06.049926 12066 layer_factory.hpp:77] Creating layer rpn_bbox_pred
I0608 23:50:06.049954 12066 net.cpp:106] Creating Layer rpn_bbox_pred
I0608 23:50:06.050034 12066 net.cpp:454] rpn_bbox_pred <- rpn/output_rpn_relu/3x3_0_split_1
I0608 23:50:06.050088 12066 net.cpp:411] rpn_bbox_pred -> rpn_bbox_pred
I0608 23:50:06.051355 12066 net.cpp:150] Setting up rpn_bbox_pred
I0608 23:50:06.051422 12066 net.cpp:157] Top shape: 1 36 14 14 (7056)
I0608 23:50:06.051470 12066 net.cpp:165] Memory required for data: 116852064
I0608 23:50:06.051519 12066 layer_factory.hpp:77] Creating layer rpn_cls_score_reshape
I0608 23:50:06.051573 12066 net.cpp:106] Creating Layer rpn_cls_score_reshape
I0608 23:50:06.051617 12066 net.cpp:454] rpn_cls_score_reshape <- rpn_cls_score
I0608 23:50:06.051671 12066 net.cpp:411] rpn_cls_score_reshape -> rpn_cls_score_reshape
I0608 23:50:06.051790 12066 net.cpp:150] Setting up rpn_cls_score_reshape
I0608 23:50:06.051844 12066 net.cpp:157] Top shape: 1 2 126 14 (3528)
I0608 23:50:06.051898 12066 net.cpp:165] Memory required for data: 116866176
I0608 23:50:06.051940 12066 layer_factory.hpp:77] Creating layer rpn_cls_prob
I0608 23:50:06.051986 12066 net.cpp:106] Creating Layer rpn_cls_prob
I0608 23:50:06.052031 12066 net.cpp:454] rpn_cls_prob <- rpn_cls_score_reshape
I0608 23:50:06.052105 12066 net.cpp:411] rpn_cls_prob -> rpn_cls_prob
I0608 23:50:06.052323 12066 net.cpp:150] Setting up rpn_cls_prob
I0608 23:50:06.052381 12066 net.cpp:157] Top shape: 1 2 126 14 (3528)
I0608 23:50:06.052423 12066 net.cpp:165] Memory required for data: 116880288
I0608 23:50:06.052474 12066 layer_factory.hpp:77] Creating layer rpn_cls_prob_reshape
I0608 23:50:06.052523 12066 net.cpp:106] Creating Layer rpn_cls_prob_reshape
I0608 23:50:06.052567 12066 net.cpp:454] rpn_cls_prob_reshape <- rpn_cls_prob
I0608 23:50:06.052618 12066 net.cpp:411] rpn_cls_prob_reshape -> rpn_cls_prob_reshape
I0608 23:50:06.052731 12066 net.cpp:150] Setting up rpn_cls_prob_reshape
I0608 23:50:06.052788 12066 net.cpp:157] Top shape: 1 18 14 14 (3528)
I0608 23:50:06.052832 12066 net.cpp:165] Memory required for data: 116894400
I0608 23:50:06.052887 12066 layer_factory.hpp:77] Creating layer proposal
I0608 23:50:06.057809 12066 net.cpp:106] Creating Layer proposal
I0608 23:50:06.057885 12066 net.cpp:454] proposal <- rpn_cls_prob_reshape
I0608 23:50:06.057940 12066 net.cpp:454] proposal <- rpn_bbox_pred
I0608 23:50:06.057986 12066 net.cpp:454] proposal <- im_info
I0608 23:50:06.058037 12066 net.cpp:411] proposal -> rois
I0608 23:50:06.059759 12066 net.cpp:150] Setting up proposal
I0608 23:50:06.059835 12066 net.cpp:157] Top shape: 1 5 (5)
I0608 23:50:06.059895 12066 net.cpp:165] Memory required for data: 116894420
I0608 23:50:06.059942 12066 layer_factory.hpp:77] Creating layer roi_pool5
I0608 23:50:06.059995 12066 net.cpp:106] Creating Layer roi_pool5
I0608 23:50:06.060039 12066 net.cpp:454] roi_pool5 <- conv5_3_relu5_3_0_split_1
I0608 23:50:06.060084 12066 net.cpp:454] roi_pool5 <- rois
I0608 23:50:06.060132 12066 net.cpp:411] roi_pool5 -> pool5
I0608 23:50:06.060194 12066 roi_pooling_layer.cpp:30] Spatial scale: 0.0625
I0608 23:50:06.060350 12066 net.cpp:150] Setting up roi_pool5
I0608 23:50:06.060402 12066 net.cpp:157] Top shape: 1 512 7 7 (25088)
I0608 23:50:06.060444 12066 net.cpp:165] Memory required for data: 116994772
I0608 23:50:06.060487 12066 layer_factory.hpp:77] Creating layer fc6
I0608 23:50:06.060535 12066 net.cpp:106] Creating Layer fc6
I0608 23:50:06.060577 12066 net.cpp:454] fc6 <- pool5
I0608 23:50:06.060622 12066 net.cpp:411] fc6 -> fc6
I0608 23:50:06.540613 12066 net.cpp:150] Setting up fc6
I0608 23:50:06.540869 12066 net.cpp:157] Top shape: 1 4096 (4096)
I0608 23:50:06.540895 12066 net.cpp:165] Memory required for data: 117011156
I0608 23:50:06.541082 12066 layer_factory.hpp:77] Creating layer relu6
I0608 23:50:06.541149 12066 net.cpp:106] Creating Layer relu6
I0608 23:50:06.541198 12066 net.cpp:454] relu6 <- fc6
I0608 23:50:06.541263 12066 net.cpp:397] relu6 -> fc6 (in-place)
I0608 23:50:06.541327 12066 net.cpp:150] Setting up relu6
I0608 23:50:06.541383 12066 net.cpp:157] Top shape: 1 4096 (4096)
I0608 23:50:06.541429 12066 net.cpp:165] Memory required for data: 117027540
I0608 23:50:06.541481 12066 layer_factory.hpp:77] Creating layer drop6
I0608 23:50:06.541532 12066 net.cpp:106] Creating Layer drop6
I0608 23:50:06.541579 12066 net.cpp:454] drop6 <- fc6
I0608 23:50:06.541631 12066 net.cpp:397] drop6 -> fc6 (in-place)
I0608 23:50:06.541748 12066 net.cpp:150] Setting up drop6
I0608 23:50:06.541822 12066 net.cpp:157] Top shape: 1 4096 (4096)
I0608 23:50:06.541893 12066 net.cpp:165] Memory required for data: 117043924
I0608 23:50:06.541940 12066 layer_factory.hpp:77] Creating layer fc7
I0608 23:50:06.541999 12066 net.cpp:106] Creating Layer fc7
I0608 23:50:06.542047 12066 net.cpp:454] fc7 <- fc6
I0608 23:50:06.542104 12066 net.cpp:411] fc7 -> fc7
I0608 23:50:06.615149 12066 net.cpp:150] Setting up fc7
I0608 23:50:06.615216 12066 net.cpp:157] Top shape: 1 4096 (4096)
I0608 23:50:06.615281 12066 net.cpp:165] Memory required for data: 117060308
I0608 23:50:06.615304 12066 layer_factory.hpp:77] Creating layer relu7
I0608 23:50:06.615325 12066 net.cpp:106] Creating Layer relu7
I0608 23:50:06.615334 12066 net.cpp:454] relu7 <- fc7
I0608 23:50:06.615348 12066 net.cpp:397] relu7 -> fc7 (in-place)
I0608 23:50:06.615376 12066 net.cpp:150] Setting up relu7
I0608 23:50:06.615386 12066 net.cpp:157] Top shape: 1 4096 (4096)
I0608 23:50:06.615392 12066 net.cpp:165] Memory required for data: 117076692
I0608 23:50:06.615401 12066 layer_factory.hpp:77] Creating layer drop7
I0608 23:50:06.615417 12066 net.cpp:106] Creating Layer drop7
I0608 23:50:06.615428 12066 net.cpp:454] drop7 <- fc7
I0608 23:50:06.615439 12066 net.cpp:397] drop7 -> fc7 (in-place)
I0608 23:50:06.615489 12066 net.cpp:150] Setting up drop7
I0608 23:50:06.615521 12066 net.cpp:157] Top shape: 1 4096 (4096)
I0608 23:50:06.615530 12066 net.cpp:165] Memory required for data: 117093076
I0608 23:50:06.615537 12066 layer_factory.hpp:77] Creating layer fc7_drop7_0_split
I0608 23:50:06.615557 12066 net.cpp:106] Creating Layer fc7_drop7_0_split
I0608 23:50:06.615569 12066 net.cpp:454] fc7_drop7_0_split <- fc7
I0608 23:50:06.615582 12066 net.cpp:411] fc7_drop7_0_split -> fc7_drop7_0_split_0
I0608 23:50:06.615597 12066 net.cpp:411] fc7_drop7_0_split -> fc7_drop7_0_split_1
I0608 23:50:06.615676 12066 net.cpp:150] Setting up fc7_drop7_0_split
I0608 23:50:06.615696 12066 net.cpp:157] Top shape: 1 4096 (4096)
I0608 23:50:06.615705 12066 net.cpp:157] Top shape: 1 4096 (4096)
I0608 23:50:06.615711 12066 net.cpp:165] Memory required for data: 117125844
I0608 23:50:06.615720 12066 layer_factory.hpp:77] Creating layer cls_score
I0608 23:50:06.615736 12066 net.cpp:106] Creating Layer cls_score
I0608 23:50:06.615748 12066 net.cpp:454] cls_score <- fc7_drop7_0_split_0
I0608 23:50:06.615763 12066 net.cpp:411] cls_score -> cls_score
I0608 23:50:06.616289 12066 net.cpp:150] Setting up cls_score
I0608 23:50:06.616312 12066 net.cpp:157] Top shape: 1 8 (8)
I0608 23:50:06.616320 12066 net.cpp:165] Memory required for data: 117125876
I0608 23:50:06.616385 12066 layer_factory.hpp:77] Creating layer bbox_pred
I0608 23:50:06.616402 12066 net.cpp:106] Creating Layer bbox_pred
I0608 23:50:06.616416 12066 net.cpp:454] bbox_pred <- fc7_drop7_0_split_1
I0608 23:50:06.616430 12066 net.cpp:411] bbox_pred -> bbox_pred
I0608 23:50:06.621889 12066 net.cpp:150] Setting up bbox_pred
I0608 23:50:06.621922 12066 net.cpp:157] Top shape: 1 32 (32)
I0608 23:50:06.621932 12066 net.cpp:165] Memory required for data: 117126004
I0608 23:50:06.621944 12066 layer_factory.hpp:77] Creating layer cls_prob
I0608 23:50:06.621956 12066 net.cpp:106] Creating Layer cls_prob
I0608 23:50:06.621965 12066 net.cpp:454] cls_prob <- cls_score
I0608 23:50:06.621976 12066 net.cpp:411] cls_prob -> cls_prob
I0608 23:50:06.622099 12066 net.cpp:150] Setting up cls_prob
I0608 23:50:06.622122 12066 net.cpp:157] Top shape: 1 8 (8)
I0608 23:50:06.622129 12066 net.cpp:165] Memory required for data: 117126036
I0608 23:50:06.622452 12066 net.cpp:228] cls_prob does not need backward computation.
I0608 23:50:06.622531 12066 net.cpp:228] bbox_pred does not need backward computation.
I0608 23:50:06.622560 12066 net.cpp:228] cls_score does not need backward computation.
I0608 23:50:06.622567 12066 net.cpp:228] fc7_drop7_0_split does not need backward computation.
…
