…
snapshot_prefix: "vgg16_faster_rcnn"
average_loss: 100
iter_size: 2
I0610 10:15:25.825067 31846 solver.cpp:81] Creating training net from train_net file: models/pascal_voc/VGG16/faster_rcnn_end2end/train.prototxt
I0610 10:15:25.826449 31846 net.cpp:49] Initializing net from parameters: 
name: "VGG_ILSVRC_16_layers"
state {
  phase: TRAIN
}
layer {
  name: "input-data"
  type: "Python"
  top: "data"
  top: "im_info"
  top: "gt_boxes"
  python_param {
    module: "roi_data_layer.layer"
    layer: "RoIDataLayer"
    param_str: "\'num_classes\': 8"
  }
}
layer {
  name: "conv1_1"
  type: "Convolution"
  bottom: "data"
  top: "conv1_1"
  param {
    lr_mult: 0
    decay_mult: 0
  }
  param {
    lr_mult: 0
    decay_mult: 0
  }
  convolution_param {
    num_output: 64
    pad: 1
    kernel_size: 3
  }
}
layer {
  name: "relu1_1"
  type: "ReLU"
  bottom: "conv1_1"
  top: "conv1_1"
}
layer {
  name: "conv1_2"
  type: "Convolution"
  bottom: "conv1_1"
  top: "conv1_2"
  param {
    lr_mult: 0
    decay_mult: 0
  }
  param {
    lr_mult: 0
    decay_mult: 0
  }
  convolution_param {
    num_output: 64
    pad: 1
    kernel_size: 3
  }
}
layer {
  name: "relu1_2"
  type: "ReLU"
  bottom: "conv1_2"
  top: "conv1_2"
}
layer {
  name: "pool1"
  type: "Pooling"
  bottom: "conv1_2"
  top: "pool1"
  pooling_param {
    pool: MAX
    kernel_size: 2
    stride: 2
  }
}
layer {
  name: "conv2_1"
  type: "Convolution"
  bottom: "pool1"
  top: "conv2_1"
  param {
    lr_mult: 0
    decay_mult: 0
  }
  param {
    lr_mult: 0
    decay_mult: 0
  }
  convolution_param {
    num_output: 128
    pad: 1
    kernel_size: 3
  }
}
layer {
  name: "relu2_1"
  type: "ReLU"
  bottom: "conv2_1"
  top: "conv2_1"
}
layer {
  name: "conv2_2"
  type: "Convolution"
  bottom: "conv2_1"
  top: "conv2_2"
  param {
    lr_mult: 0
    decay_mult: 0
  }
  param {
    lr_mult: 0
    decay_mult: 0
  }
  convolution_param {
    num_output: 128
    pad: 1
    kernel_size: 3
  }
}
layer {
  name: "relu2_2"
  type: "ReLU"
  bottom: "conv2_2"
  top: "conv2_2"
}
layer {
  name: "pool2"
  type: "Pooling"
  bottom: "conv2_2"
  top: "pool2"
  pooling_param {
    pool: MAX
    kernel_size: 2
    stride: 2
  }
}
layer {
  name: "conv3_1"
  type: "Convolution"
  bottom: "pool2"
  top: "conv3_1"
  param {
    lr_mult: 1
  }
  param {
    lr_mult: 2
  }
  convolution_param {
    num_output: 256
    pad: 1
    kernel_size: 3
  }
}
layer {
  name: "relu3_1"
  type: "ReLU"
  bottom: "conv3_1"
  top: "conv3_1"
}
layer {
  name: "conv3_2"
  type: "Convolution"
  bottom: "conv3_1"
  top: "conv3_2"
  param {
    lr_mult: 1
  }
  param {
    lr_mult: 2
  }
  convolution_param {
    num_output: 256
    pad: 1
    kernel_size: 3
  }
}
layer {
  name: "relu3_2"
  type: "ReLU"
  bottom: "conv3_2"
  top: "conv3_2"
}
layer {
  name: "conv3_3"
  type: "Convolution"
  bottom: "conv3_2"
  top: "conv3_3"
  param {
    lr_mult: 1
  }
  param {
    lr_mult: 2
  }
  convolution_param {
    num_output: 256
    pad: 1
    kernel_size: 3
  }
}
layer {
  name: "relu3_3"
  type: "ReLU"
  bottom: "conv3_3"
  top: "conv3_3"
}
layer {
  name: "pool3"
  type: "Pooling"
  bottom: "conv3_3"
  top: "pool3"
  pooling_param {
    pool: MAX
    kernel_size: 2
    stride: 2
  }
}
layer {
  name: "conv4_1"
  type: "Convolution"
  bottom: "pool3"
  top: "conv4_1"
  param {
    lr_mult: 1
  }
  param {
    lr_mult: 2
  }
  convolution_param {
    num_output: 512
    pad: 1
    kernel_size: 3
  }
}
layer {
  name: "relu4_1"
  type: "ReLU"
  bottom: "conv4_1"
  top: "conv4_1"
}
layer {
  name: "conv4_2"
  type: "Convolution"
  bottom: "conv4_1"
  top: "conv4_2"
  param {
    lr_mult: 1
  }
  param {
    lr_mult: 2
  }
  convolution_param {
    num_output: 512
    pad: 1
    kernel_size: 3
  }
}
layer {
  name: "relu4_2"
  type: "ReLU"
  bottom: "conv4_2"
  top: "conv4_2"
}
layer {
  name: "conv4_3"
  type: "Convolution"
  bottom: "conv4_2"
  top: "conv4_3"
  param {
    lr_mult: 1
  }
  param {
    lr_mult: 2
  }
  convolution_param {
    num_output: 512
    pad: 1
    kernel_size: 3
  }
}
layer {
  name: "relu4_3"
  type: "ReLU"
  bottom: "conv4_3"
  top: "conv4_3"
}
layer {
  name: "pool4"
  type: "Pooling"
  bottom: "conv4_3"
  top: "pool4"
  pooling_param {
    pool: MAX
    kernel_size: 2
    stride: 2
  }
}
layer {
  name: "conv5_1"
  type: "Convolution"
  bottom: "pool4"
  top: "conv5_1"
  param {
    lr_mult: 1
  }
  param {
    lr_mult: 2
  }
  convolution_param {
    num_output: 512
    pad: 1
    kernel_size: 3
  }
}
layer {
  name: "relu5_1"
  type: "ReLU"
  bottom: "conv5_1"
  top: "conv5_1"
}
layer {
  name: "conv5_2"
  type: "Convolution"
  bottom: "conv5_1"
  top: "conv5_2"
  param {
    lr_mult: 1
  }
  param {
    lr_mult: 2
  }
  convolution_param {
    num_output: 512
    pad: 1
    kernel_size: 3
  }
}
layer {
  name: "relu5_2"
  type: "ReLU"
  bottom: "conv5_2"
  top: "conv5_2"
}
layer {
  name: "conv5_3"
  type: "Convolution"
  bottom: "conv5_2"
  top: "conv5_3"
  param {
    lr_mult: 1
  }
  param {
    lr_mult: 2
  }
  convolution_param {
    num_output: 512
    pad: 1
    kernel_size: 3
  }
}
layer {
  name: "relu5_3"
  type: "ReLU"
  bottom: "conv5_3"
  top: "conv5_3"
}
layer {
  name: "rpn_conv/3x3"
  type: "Convolution"
  bottom: "conv5_3"
  top: "rpn/output"
  param {
    lr_mult: 1
  }
  param {
    lr_mult: 2
  }
  convolution_param {
    num_output: 512
    pad: 1
    kernel_size: 3
    stride: 1
    weight_filler {
      type: "gaussian"
      std: 0.01
    }
    bias_filler {
      type: "constant"
      value: 0
    }
  }
}
layer {
  name: "rpn_relu/3x3"
  type: "ReLU"
  bottom: "rpn/output"
  top: "rpn/output"
}
layer {
  name: "rpn_cls_score"
  type: "Convolution"
  bottom: "rpn/output"
  top: "rpn_cls_score"
  param {
    lr_mult: 1
  }
  param {
    lr_mult: 2
  }
  convolution_param {
    num_output: 18
    pad: 0
    kernel_size: 1
    stride: 1
    weight_filler {
      type: "gaussian"
      std: 0.01
    }
    bias_filler {
      type: "constant"
      value: 0
    }
  }
}
layer {
  name: "rpn_bbox_pred"
  type: "Convolution"
  bottom: "rpn/output"
  top: "rpn_bbox_pred"
  param {
    lr_mult: 1
  }
  param {
    lr_mult: 2
  }
  convolution_param {
    num_output: 36
    pad: 0
    kernel_size: 1
    stride: 1
    weight_filler {
      type: "gaussian"
      std: 0.01
    }
    bias_filler {
      type: "constant"
      value: 0
    }
  }
}
layer {
  name: "rpn_cls_score_reshape"
  type: "Reshape"
  bottom: "rpn_cls_score"
  top: "rpn_cls_score_reshape"
  reshape_param {
    shape {
      dim: 0
      dim: 2
      dim: -1
      dim: 0
    }
  }
}
layer {
  name: "rpn-data"
  type: "Python"
  bottom: "rpn_cls_score"
  bottom: "gt_boxes"
  bottom: "im_info"
  bottom: "data"
  top: "rpn_labels"
  top: "rpn_bbox_targets"
  top: "rpn_bbox_inside_weights"
  top: "rpn_bbox_outside_weights"
  python_param {
    module: "rpn.anchor_target_layer"
    layer: "AnchorTargetLayer"
    param_str: "\'feat_stride\': 16"
  }
}
layer {
  name: "rpn_loss_cls"
  type: "SoftmaxWithLoss"
  bottom: "rpn_cls_score_reshape"
  bottom: "rpn_labels"
  top: "rpn_cls_loss"
  loss_weight: 1
  propagate_down: true
  propagate_down: false
  loss_param {
    ignore_label: -1
    normalize: true
  }
}
layer {
  name: "rpn_loss_bbox"
  type: "SmoothL1Loss"
  bottom: "rpn_bbox_pred"
  bottom: "rpn_bbox_targets"
  bottom: "rpn_bbox_inside_weights"
  bottom: "rpn_bbox_outside_weights"
  top: "rpn_loss_bbox"
  loss_weight: 1
  smooth_l1_loss_param {
    sigma: 3
  }
}
layer {
  name: "rpn_cls_prob"
  type: "Softmax"
  bottom: "rpn_cls_score_reshape"
  top: "rpn_cls_prob"
}
layer {
  name: "rpn_cls_prob_reshape"
  type: "Reshape"
  bottom: "rpn_cls_prob"
  top: "rpn_cls_prob_reshape"
  reshape_param {
    shape {
      dim: 0
      dim: 18
      dim: -1
      dim: 0
    }
  }
}
layer {
  name: "proposal"
  type: "Python"
  bottom: "rpn_cls_prob_reshape"
  bottom: "rpn_bbox_pred"
  bottom: "im_info"
  top: "rpn_rois"
  python_param {
    module: "rpn.proposal_layer"
    layer: "ProposalLayer"
    param_str: "\'feat_stride\': 16"
  }
}
layer {
  name: "roi-data"
  type: "Python"
  bottom: "rpn_rois"
  bottom: "gt_boxes"
  top: "rois"
  top: "labels"
  top: "bbox_targets"
  top: "bbox_inside_weights"
  top: "bbox_outside_weights"
  python_param {
    module: "rpn.proposal_target_layer"
    layer: "ProposalTargetLayer"
    param_str: "\'num_classes\': 8"
  }
}
layer {
  name: "roi_pool5"
  type: "ROIPooling"
  bottom: "conv5_3"
  bottom: "rois"
  top: "pool5"
  roi_pooling_param {
    pooled_h: 7
    pooled_w: 7
    spatial_scale: 0.0625
  }
}
layer {
  name: "fc6"
  type: "InnerProduct"
  bottom: "pool5"
  top: "fc6"
  param {
    lr_mult: 1
  }
  param {
    lr_mult: 2
  }
  inner_product_param {
    num_output: 4096
  }
}
layer {
  name: "relu6"
  type: "ReLU"
  bottom: "fc6"
  top: "fc6"
}
layer {
  name: "drop6"
  type: "Dropout"
  bottom: "fc6"
  top: "fc6"
  dropout_param {
    dropout_ratio: 0.5
  }
}
layer {
  name: "fc7"
  type: "InnerProduct"
  bottom: "fc6"
  top: "fc7"
  param {
    lr_mult: 1
  }
  param {
    lr_mult: 2
  }
  inner_product_param {
    num_output: 4096
  }
}
layer {
  name: "relu7"
  type: "ReLU"
  bottom: "fc7"
  top: "fc7"
}
layer {
  name: "drop7"
  type: "Dropout"
  bottom: "fc7"
  top: "fc7"
  dropout_param {
    dropout_ratio: 0.5
  }
}
layer {
  name: "cls_score"
  type: "InnerProduct"
  bottom: "fc7"
  top: "cls_score"
  param {
    lr_mult: 1
  }
  param {
    lr_mult: 2
  }
  inner_product_param {
    num_output: 8
    weight_filler {
      type: "gaussian"
      std: 0.01
    }
    bias_filler {
      type: "constant"
      value: 0
    }
  }
}
layer {
  name: "bbox_pred"
  type: "InnerProduct"
  bottom: "fc7"
  top: "bbox_pred"
  param {
    lr_mult: 1
  }
  param {
    lr_mult: 2
  }
  inner_product_param {
    num_output: 32
    weight_filler {
      type: "gaussian"
      std: 0.001
    }
    bias_filler {
      type: "constant"
      value: 0
    }
  }
}
layer {
  name: "loss_cls"
  type: "SoftmaxWithLoss"
  bottom: "cls_score"
  bottom: "labels"
  top: "loss_cls"
  loss_weight: 1
  propagate_down: true
  propagate_down: false
}
layer {
  name: "loss_bbox"
  type: "SmoothL1Loss"
  bottom: "bbox_pred"
  bottom: "bbox_targets"
  bottom: "bbox_inside_weights"
  bottom: "bbox_outside_weights"
  top: "loss_bbox"
  loss_weight: 1
}
I0610 10:15:25.826783 31846 layer_factory.hpp:77] Creating layer input-data
I0610 10:15:25.861405 31846 net.cpp:106] Creating Layer input-data
I0610 10:15:25.861450 31846 net.cpp:411] input-data -> data
I0610 10:15:25.861472 31846 net.cpp:411] input-data -> im_info
I0610 10:15:25.861486 31846 net.cpp:411] input-data -> gt_boxes
RoiDataLayer: name_to_top: {'gt_boxes': 2, 'data': 0, 'im_info': 1}
I0610 10:15:26.379056 31846 net.cpp:150] Setting up input-data
I0610 10:15:26.379096 31846 net.cpp:157] Top shape: 1 3 144 256 (110592)
I0610 10:15:26.379106 31846 net.cpp:157] Top shape: 1 3 (3)
I0610 10:15:26.379114 31846 net.cpp:157] Top shape: 1 4 (4)
I0610 10:15:26.379122 31846 net.cpp:165] Memory required for data: 442396
I0610 10:15:26.379134 31846 layer_factory.hpp:77] Creating layer data_input-data_0_split
I0610 10:15:26.379156 31846 net.cpp:106] Creating Layer data_input-data_0_split
I0610 10:15:26.379166 31846 net.cpp:454] data_input-data_0_split <- data
I0610 10:15:26.379184 31846 net.cpp:411] data_input-data_0_split -> data_input-data_0_split_0
I0610 10:15:26.379200 31846 net.cpp:411] data_input-data_0_split -> data_input-data_0_split_1
I0610 10:15:26.379262 31846 net.cpp:150] Setting up data_input-data_0_split
I0610 10:15:26.379283 31846 net.cpp:157] Top shape: 1 3 144 256 (110592)
I0610 10:15:26.379292 31846 net.cpp:157] Top shape: 1 3 144 256 (110592)
I0610 10:15:26.379300 31846 net.cpp:165] Memory required for data: 1327132
I0610 10:15:26.379308 31846 layer_factory.hpp:77] Creating layer im_info_input-data_1_split
I0610 10:15:26.379356 31846 net.cpp:106] Creating Layer im_info_input-data_1_split
I0610 10:15:26.379365 31846 net.cpp:454] im_info_input-data_1_split <- im_info
I0610 10:15:26.379376 31846 net.cpp:411] im_info_input-data_1_split -> im_info_input-data_1_split_0
I0610 10:15:26.379389 31846 net.cpp:411] im_info_input-data_1_split -> im_info_input-data_1_split_1
I0610 10:15:26.379446 31846 net.cpp:150] Setting up im_info_input-data_1_split
I0610 10:15:26.379465 31846 net.cpp:157] Top shape: 1 3 (3)
I0610 10:15:26.379473 31846 net.cpp:157] Top shape: 1 3 (3)
I0610 10:15:26.379482 31846 net.cpp:165] Memory required for data: 1327156
I0610 10:15:26.379498 31846 layer_factory.hpp:77] Creating layer gt_boxes_input-data_2_split
I0610 10:15:26.379508 31846 net.cpp:106] Creating Layer gt_boxes_input-data_2_split
I0610 10:15:26.379518 31846 net.cpp:454] gt_boxes_input-data_2_split <- gt_boxes
I0610 10:15:26.379528 31846 net.cpp:411] gt_boxes_input-data_2_split -> gt_boxes_input-data_2_split_0
I0610 10:15:26.379539 31846 net.cpp:411] gt_boxes_input-data_2_split -> gt_boxes_input-data_2_split_1
I0610 10:15:26.379596 31846 net.cpp:150] Setting up gt_boxes_input-data_2_split
I0610 10:15:26.379614 31846 net.cpp:157] Top shape: 1 4 (4)
I0610 10:15:26.379623 31846 net.cpp:157] Top shape: 1 4 (4)
I0610 10:15:26.379631 31846 net.cpp:165] Memory required for data: 1327188
I0610 10:15:26.379638 31846 layer_factory.hpp:77] Creating layer conv1_1
I0610 10:15:26.379657 31846 net.cpp:106] Creating Layer conv1_1
I0610 10:15:26.379688 31846 net.cpp:454] conv1_1 <- data_input-data_0_split_0
I0610 10:15:26.379699 31846 net.cpp:411] conv1_1 -> conv1_1
I0610 10:15:26.388258 31846 net.cpp:150] Setting up conv1_1
I0610 10:15:26.388290 31846 net.cpp:157] Top shape: 1 64 144 256 (2359296)
I0610 10:15:26.388300 31846 net.cpp:165] Memory required for data: 10764372
I0610 10:15:26.388317 31846 layer_factory.hpp:77] Creating layer relu1_1
I0610 10:15:26.388334 31846 net.cpp:106] Creating Layer relu1_1
I0610 10:15:26.388347 31846 net.cpp:454] relu1_1 <- conv1_1
I0610 10:15:26.388358 31846 net.cpp:397] relu1_1 -> conv1_1 (in-place)
I0610 10:15:26.388372 31846 net.cpp:150] Setting up relu1_1
I0610 10:15:26.388381 31846 net.cpp:157] Top shape: 1 64 144 256 (2359296)
I0610 10:15:26.388392 31846 net.cpp:165] Memory required for data: 20201556
I0610 10:15:26.388401 31846 layer_factory.hpp:77] Creating layer conv1_2
I0610 10:15:26.388415 31846 net.cpp:106] Creating Layer conv1_2
I0610 10:15:26.388438 31846 net.cpp:454] conv1_2 <- conv1_1
I0610 10:15:26.388448 31846 net.cpp:411] conv1_2 -> conv1_2
I0610 10:15:26.388837 31846 net.cpp:150] Setting up conv1_2
I0610 10:15:26.388861 31846 net.cpp:157] Top shape: 1 64 144 256 (2359296)
I0610 10:15:26.388870 31846 net.cpp:165] Memory required for data: 29638740
I0610 10:15:26.388881 31846 layer_factory.hpp:77] Creating layer relu1_2
I0610 10:15:26.388900 31846 net.cpp:106] Creating Layer relu1_2
I0610 10:15:26.388908 31846 net.cpp:454] relu1_2 <- conv1_2
I0610 10:15:26.388921 31846 net.cpp:397] relu1_2 -> conv1_2 (in-place)
I0610 10:15:26.388932 31846 net.cpp:150] Setting up relu1_2
I0610 10:15:26.388942 31846 net.cpp:157] Top shape: 1 64 144 256 (2359296)
I0610 10:15:26.388952 31846 net.cpp:165] Memory required for data: 39075924
I0610 10:15:26.388976 31846 layer_factory.hpp:77] Creating layer pool1
I0610 10:15:26.388993 31846 net.cpp:106] Creating Layer pool1
I0610 10:15:26.389001 31846 net.cpp:454] pool1 <- conv1_2
I0610 10:15:26.389011 31846 net.cpp:411] pool1 -> pool1
I0610 10:15:26.389075 31846 net.cpp:150] Setting up pool1
I0610 10:15:26.389093 31846 net.cpp:157] Top shape: 1 64 72 128 (589824)
I0610 10:15:26.389101 31846 net.cpp:165] Memory required for data: 41435220
I0610 10:15:26.389109 31846 layer_factory.hpp:77] Creating layer conv2_1
I0610 10:15:26.389125 31846 net.cpp:106] Creating Layer conv2_1
I0610 10:15:26.389137 31846 net.cpp:454] conv2_1 <- pool1
I0610 10:15:26.389150 31846 net.cpp:411] conv2_1 -> conv2_1
I0610 10:15:26.395845 31846 net.cpp:150] Setting up conv2_1
I0610 10:15:26.395875 31846 net.cpp:157] Top shape: 1 128 72 128 (1179648)
I0610 10:15:26.395884 31846 net.cpp:165] Memory required for data: 46153812
I0610 10:15:26.395900 31846 layer_factory.hpp:77] Creating layer relu2_1
I0610 10:15:26.395911 31846 net.cpp:106] Creating Layer relu2_1
I0610 10:15:26.395923 31846 net.cpp:454] relu2_1 <- conv2_1
I0610 10:15:26.395936 31846 net.cpp:397] relu2_1 -> conv2_1 (in-place)
I0610 10:15:26.395949 31846 net.cpp:150] Setting up relu2_1
I0610 10:15:26.395961 31846 net.cpp:157] Top shape: 1 128 72 128 (1179648)
I0610 10:15:26.395972 31846 net.cpp:165] Memory required for data: 50872404
I0610 10:15:26.395979 31846 layer_factory.hpp:77] Creating layer conv2_2
I0610 10:15:26.395992 31846 net.cpp:106] Creating Layer conv2_2
I0610 10:15:26.395998 31846 net.cpp:454] conv2_2 <- conv2_1
I0610 10:15:26.396010 31846 net.cpp:411] conv2_2 -> conv2_2
I0610 10:15:26.396443 31846 net.cpp:150] Setting up conv2_2
I0610 10:15:26.396466 31846 net.cpp:157] Top shape: 1 128 72 128 (1179648)
I0610 10:15:26.396474 31846 net.cpp:165] Memory required for data: 55590996
I0610 10:15:26.396486 31846 layer_factory.hpp:77] Creating layer relu2_2
I0610 10:15:26.396507 31846 net.cpp:106] Creating Layer relu2_2
I0610 10:15:26.396515 31846 net.cpp:454] relu2_2 <- conv2_2
I0610 10:15:26.396554 31846 net.cpp:397] relu2_2 -> conv2_2 (in-place)
I0610 10:15:26.396571 31846 net.cpp:150] Setting up relu2_2
I0610 10:15:26.396584 31846 net.cpp:157] Top shape: 1 128 72 128 (1179648)
I0610 10:15:26.396592 31846 net.cpp:165] Memory required for data: 60309588
I0610 10:15:26.396600 31846 layer_factory.hpp:77] Creating layer pool2
I0610 10:15:26.396616 31846 net.cpp:106] Creating Layer pool2
I0610 10:15:26.396625 31846 net.cpp:454] pool2 <- conv2_2
I0610 10:15:26.396638 31846 net.cpp:411] pool2 -> pool2
I0610 10:15:26.396699 31846 net.cpp:150] Setting up pool2
I0610 10:15:26.396719 31846 net.cpp:157] Top shape: 1 128 36 64 (294912)
I0610 10:15:26.396728 31846 net.cpp:165] Memory required for data: 61489236
I0610 10:15:26.396735 31846 layer_factory.hpp:77] Creating layer conv3_1
I0610 10:15:26.396751 31846 net.cpp:106] Creating Layer conv3_1
I0610 10:15:26.396764 31846 net.cpp:454] conv3_1 <- pool2
I0610 10:15:26.396786 31846 net.cpp:411] conv3_1 -> conv3_1
I0610 10:15:26.397285 31846 net.cpp:150] Setting up conv3_1
I0610 10:15:26.397308 31846 net.cpp:157] Top shape: 1 256 36 64 (589824)
I0610 10:15:26.397316 31846 net.cpp:165] Memory required for data: 63848532
I0610 10:15:26.397332 31846 layer_factory.hpp:77] Creating layer relu3_1
I0610 10:15:26.397343 31846 net.cpp:106] Creating Layer relu3_1
I0610 10:15:26.397356 31846 net.cpp:454] relu3_1 <- conv3_1
I0610 10:15:26.397368 31846 net.cpp:397] relu3_1 -> conv3_1 (in-place)
I0610 10:15:26.397380 31846 net.cpp:150] Setting up relu3_1
I0610 10:15:26.397389 31846 net.cpp:157] Top shape: 1 256 36 64 (589824)
I0610 10:15:26.397399 31846 net.cpp:165] Memory required for data: 66207828
I0610 10:15:26.397408 31846 layer_factory.hpp:77] Creating layer conv3_2
I0610 10:15:26.397425 31846 net.cpp:106] Creating Layer conv3_2
I0610 10:15:26.397438 31846 net.cpp:454] conv3_2 <- conv3_1
I0610 10:15:26.397449 31846 net.cpp:411] conv3_2 -> conv3_2
I0610 10:15:26.401515 31846 net.cpp:150] Setting up conv3_2
I0610 10:15:26.401546 31846 net.cpp:157] Top shape: 1 256 36 64 (589824)
I0610 10:15:26.401556 31846 net.cpp:165] Memory required for data: 68567124
I0610 10:15:26.401567 31846 layer_factory.hpp:77] Creating layer relu3_2
I0610 10:15:26.401582 31846 net.cpp:106] Creating Layer relu3_2
I0610 10:15:26.401619 31846 net.cpp:454] relu3_2 <- conv3_2
I0610 10:15:26.401630 31846 net.cpp:397] relu3_2 -> conv3_2 (in-place)
I0610 10:15:26.401648 31846 net.cpp:150] Setting up relu3_2
I0610 10:15:26.401656 31846 net.cpp:157] Top shape: 1 256 36 64 (589824)
I0610 10:15:26.401664 31846 net.cpp:165] Memory required for data: 70926420
I0610 10:15:26.401684 31846 layer_factory.hpp:77] Creating layer conv3_3
I0610 10:15:26.401721 31846 net.cpp:106] Creating Layer conv3_3
I0610 10:15:26.401729 31846 net.cpp:454] conv3_3 <- conv3_2
I0610 10:15:26.401739 31846 net.cpp:411] conv3_3 -> conv3_3
I0610 10:15:26.405869 31846 net.cpp:150] Setting up conv3_3
I0610 10:15:26.405899 31846 net.cpp:157] Top shape: 1 256 36 64 (589824)
I0610 10:15:26.405907 31846 net.cpp:165] Memory required for data: 73285716
I0610 10:15:26.405918 31846 layer_factory.hpp:77] Creating layer relu3_3
I0610 10:15:26.405930 31846 net.cpp:106] Creating Layer relu3_3
I0610 10:15:26.405938 31846 net.cpp:454] relu3_3 <- conv3_3
I0610 10:15:26.405952 31846 net.cpp:397] relu3_3 -> conv3_3 (in-place)
I0610 10:15:26.405969 31846 net.cpp:150] Setting up relu3_3
I0610 10:15:26.405979 31846 net.cpp:157] Top shape: 1 256 36 64 (589824)
I0610 10:15:26.405987 31846 net.cpp:165] Memory required for data: 75645012
I0610 10:15:26.405994 31846 layer_factory.hpp:77] Creating layer pool3
I0610 10:15:26.406008 31846 net.cpp:106] Creating Layer pool3
I0610 10:15:26.406024 31846 net.cpp:454] pool3 <- conv3_3
I0610 10:15:26.406035 31846 net.cpp:411] pool3 -> pool3
I0610 10:15:26.406103 31846 net.cpp:150] Setting up pool3
I0610 10:15:26.406124 31846 net.cpp:157] Top shape: 1 256 18 32 (147456)
I0610 10:15:26.406133 31846 net.cpp:165] Memory required for data: 76234836
I0610 10:15:26.406141 31846 layer_factory.hpp:77] Creating layer conv4_1
I0610 10:15:26.406215 31846 net.cpp:106] Creating Layer conv4_1
I0610 10:15:26.406226 31846 net.cpp:454] conv4_1 <- pool3
I0610 10:15:26.406240 31846 net.cpp:411] conv4_1 -> conv4_1
I0610 10:15:26.414862 31846 net.cpp:150] Setting up conv4_1
I0610 10:15:26.414893 31846 net.cpp:157] Top shape: 1 512 18 32 (294912)
I0610 10:15:26.414901 31846 net.cpp:165] Memory required for data: 77414484
I0610 10:15:26.414913 31846 layer_factory.hpp:77] Creating layer relu4_1
I0610 10:15:26.414925 31846 net.cpp:106] Creating Layer relu4_1
I0610 10:15:26.414937 31846 net.cpp:454] relu4_1 <- conv4_1
I0610 10:15:26.414952 31846 net.cpp:397] relu4_1 -> conv4_1 (in-place)
I0610 10:15:26.414969 31846 net.cpp:150] Setting up relu4_1
I0610 10:15:26.414979 31846 net.cpp:157] Top shape: 1 512 18 32 (294912)
I0610 10:15:26.414986 31846 net.cpp:165] Memory required for data: 78594132
I0610 10:15:26.414994 31846 layer_factory.hpp:77] Creating layer conv4_2
I0610 10:15:26.415009 31846 net.cpp:106] Creating Layer conv4_2
I0610 10:15:26.415017 31846 net.cpp:454] conv4_2 <- conv4_1
I0610 10:15:26.415030 31846 net.cpp:411] conv4_2 -> conv4_2
I0610 10:15:26.423526 31846 net.cpp:150] Setting up conv4_2
I0610 10:15:26.423557 31846 net.cpp:157] Top shape: 1 512 18 32 (294912)
I0610 10:15:26.423566 31846 net.cpp:165] Memory required for data: 79773780
I0610 10:15:26.423583 31846 layer_factory.hpp:77] Creating layer relu4_2
I0610 10:15:26.423600 31846 net.cpp:106] Creating Layer relu4_2
I0610 10:15:26.423624 31846 net.cpp:454] relu4_2 <- conv4_2
I0610 10:15:26.423636 31846 net.cpp:397] relu4_2 -> conv4_2 (in-place)
I0610 10:15:26.423655 31846 net.cpp:150] Setting up relu4_2
I0610 10:15:26.423665 31846 net.cpp:157] Top shape: 1 512 18 32 (294912)
I0610 10:15:26.423671 31846 net.cpp:165] Memory required for data: 80953428
I0610 10:15:26.423682 31846 layer_factory.hpp:77] Creating layer conv4_3
I0610 10:15:26.423694 31846 net.cpp:106] Creating Layer conv4_3
I0610 10:15:26.423705 31846 net.cpp:454] conv4_3 <- conv4_2
I0610 10:15:26.423719 31846 net.cpp:411] conv4_3 -> conv4_3
I0610 10:15:26.432190 31846 net.cpp:150] Setting up conv4_3
I0610 10:15:26.432227 31846 net.cpp:157] Top shape: 1 512 18 32 (294912)
I0610 10:15:26.432236 31846 net.cpp:165] Memory required for data: 82133076
I0610 10:15:26.432248 31846 layer_factory.hpp:77] Creating layer relu4_3
I0610 10:15:26.432273 31846 net.cpp:106] Creating Layer relu4_3
I0610 10:15:26.432303 31846 net.cpp:454] relu4_3 <- conv4_3
I0610 10:15:26.432328 31846 net.cpp:397] relu4_3 -> conv4_3 (in-place)
I0610 10:15:26.432343 31846 net.cpp:150] Setting up relu4_3
I0610 10:15:26.432353 31846 net.cpp:157] Top shape: 1 512 18 32 (294912)
I0610 10:15:26.432359 31846 net.cpp:165] Memory required for data: 83312724
I0610 10:15:26.432375 31846 layer_factory.hpp:77] Creating layer pool4
I0610 10:15:26.432417 31846 net.cpp:106] Creating Layer pool4
I0610 10:15:26.432425 31846 net.cpp:454] pool4 <- conv4_3
I0610 10:15:26.432438 31846 net.cpp:411] pool4 -> pool4
I0610 10:15:26.432514 31846 net.cpp:150] Setting up pool4
I0610 10:15:26.432535 31846 net.cpp:157] Top shape: 1 512 9 16 (73728)
I0610 10:15:26.432543 31846 net.cpp:165] Memory required for data: 83607636
I0610 10:15:26.432550 31846 layer_factory.hpp:77] Creating layer conv5_1
I0610 10:15:26.432567 31846 net.cpp:106] Creating Layer conv5_1
I0610 10:15:26.432579 31846 net.cpp:454] conv5_1 <- pool4
I0610 10:15:26.432590 31846 net.cpp:411] conv5_1 -> conv5_1
I0610 10:15:26.441737 31846 net.cpp:150] Setting up conv5_1
I0610 10:15:26.441771 31846 net.cpp:157] Top shape: 1 512 9 16 (73728)
I0610 10:15:26.441779 31846 net.cpp:165] Memory required for data: 83902548
I0610 10:15:26.441790 31846 layer_factory.hpp:77] Creating layer relu5_1
I0610 10:15:26.441802 31846 net.cpp:106] Creating Layer relu5_1
I0610 10:15:26.441813 31846 net.cpp:454] relu5_1 <- conv5_1
I0610 10:15:26.441826 31846 net.cpp:397] relu5_1 -> conv5_1 (in-place)
I0610 10:15:26.441838 31846 net.cpp:150] Setting up relu5_1
I0610 10:15:26.441848 31846 net.cpp:157] Top shape: 1 512 9 16 (73728)
I0610 10:15:26.441854 31846 net.cpp:165] Memory required for data: 84197460
I0610 10:15:26.441861 31846 layer_factory.hpp:77] Creating layer conv5_2
I0610 10:15:26.441875 31846 net.cpp:106] Creating Layer conv5_2
I0610 10:15:26.441884 31846 net.cpp:454] conv5_2 <- conv5_1
I0610 10:15:26.441896 31846 net.cpp:411] conv5_2 -> conv5_2
I0610 10:15:26.450295 31846 net.cpp:150] Setting up conv5_2
I0610 10:15:26.450328 31846 net.cpp:157] Top shape: 1 512 9 16 (73728)
I0610 10:15:26.450337 31846 net.cpp:165] Memory required for data: 84492372
I0610 10:15:26.450350 31846 layer_factory.hpp:77] Creating layer relu5_2
I0610 10:15:26.450361 31846 net.cpp:106] Creating Layer relu5_2
I0610 10:15:26.450372 31846 net.cpp:454] relu5_2 <- conv5_2
I0610 10:15:26.450387 31846 net.cpp:397] relu5_2 -> conv5_2 (in-place)
I0610 10:15:26.450399 31846 net.cpp:150] Setting up relu5_2
I0610 10:15:26.450412 31846 net.cpp:157] Top shape: 1 512 9 16 (73728)
I0610 10:15:26.450418 31846 net.cpp:165] Memory required for data: 84787284
I0610 10:15:26.450425 31846 layer_factory.hpp:77] Creating layer conv5_3
I0610 10:15:26.450448 31846 net.cpp:106] Creating Layer conv5_3
I0610 10:15:26.450459 31846 net.cpp:454] conv5_3 <- conv5_2
I0610 10:15:26.450470 31846 net.cpp:411] conv5_3 -> conv5_3
I0610 10:15:26.458803 31846 net.cpp:150] Setting up conv5_3
I0610 10:15:26.458835 31846 net.cpp:157] Top shape: 1 512 9 16 (73728)
I0610 10:15:26.458844 31846 net.cpp:165] Memory required for data: 85082196
I0610 10:15:26.458855 31846 layer_factory.hpp:77] Creating layer relu5_3
I0610 10:15:26.458868 31846 net.cpp:106] Creating Layer relu5_3
I0610 10:15:26.458878 31846 net.cpp:454] relu5_3 <- conv5_3
I0610 10:15:26.458892 31846 net.cpp:397] relu5_3 -> conv5_3 (in-place)
I0610 10:15:26.458904 31846 net.cpp:150] Setting up relu5_3
I0610 10:15:26.458914 31846 net.cpp:157] Top shape: 1 512 9 16 (73728)
I0610 10:15:26.458921 31846 net.cpp:165] Memory required for data: 85377108
I0610 10:15:26.458928 31846 layer_factory.hpp:77] Creating layer conv5_3_relu5_3_0_split
I0610 10:15:26.458962 31846 net.cpp:106] Creating Layer conv5_3_relu5_3_0_split
I0610 10:15:26.458976 31846 net.cpp:454] conv5_3_relu5_3_0_split <- conv5_3
I0610 10:15:26.458990 31846 net.cpp:411] conv5_3_relu5_3_0_split -> conv5_3_relu5_3_0_split_0
I0610 10:15:26.459002 31846 net.cpp:411] conv5_3_relu5_3_0_split -> conv5_3_relu5_3_0_split_1
I0610 10:15:26.459072 31846 net.cpp:150] Setting up conv5_3_relu5_3_0_split
I0610 10:15:26.459092 31846 net.cpp:157] Top shape: 1 512 9 16 (73728)
I0610 10:15:26.459101 31846 net.cpp:157] Top shape: 1 512 9 16 (73728)
I0610 10:15:26.459108 31846 net.cpp:165] Memory required for data: 85966932
I0610 10:15:26.459116 31846 layer_factory.hpp:77] Creating layer rpn_conv/3x3
I0610 10:15:26.459133 31846 net.cpp:106] Creating Layer rpn_conv/3x3
I0610 10:15:26.459156 31846 net.cpp:454] rpn_conv/3x3 <- conv5_3_relu5_3_0_split_0
I0610 10:15:26.459168 31846 net.cpp:411] rpn_conv/3x3 -> rpn/output
I0610 10:15:26.487431 31846 net.cpp:150] Setting up rpn_conv/3x3
I0610 10:15:26.487463 31846 net.cpp:157] Top shape: 1 512 9 16 (73728)
I0610 10:15:26.487473 31846 net.cpp:165] Memory required for data: 86261844
I0610 10:15:26.487483 31846 layer_factory.hpp:77] Creating layer rpn_relu/3x3
I0610 10:15:26.487504 31846 net.cpp:106] Creating Layer rpn_relu/3x3
I0610 10:15:26.487516 31846 net.cpp:454] rpn_relu/3x3 <- rpn/output
I0610 10:15:26.487545 31846 net.cpp:397] rpn_relu/3x3 -> rpn/output (in-place)
I0610 10:15:26.487561 31846 net.cpp:150] Setting up rpn_relu/3x3
I0610 10:15:26.487571 31846 net.cpp:157] Top shape: 1 512 9 16 (73728)
I0610 10:15:26.487578 31846 net.cpp:165] Memory required for data: 86556756
I0610 10:15:26.487586 31846 layer_factory.hpp:77] Creating layer rpn/output_rpn_relu/3x3_0_split
I0610 10:15:26.487599 31846 net.cpp:106] Creating Layer rpn/output_rpn_relu/3x3_0_split
I0610 10:15:26.487609 31846 net.cpp:454] rpn/output_rpn_relu/3x3_0_split <- rpn/output
I0610 10:15:26.487619 31846 net.cpp:411] rpn/output_rpn_relu/3x3_0_split -> rpn/output_rpn_relu/3x3_0_split_0
I0610 10:15:26.487630 31846 net.cpp:411] rpn/output_rpn_relu/3x3_0_split -> rpn/output_rpn_relu/3x3_0_split_1
I0610 10:15:26.487699 31846 net.cpp:150] Setting up rpn/output_rpn_relu/3x3_0_split
I0610 10:15:26.487720 31846 net.cpp:157] Top shape: 1 512 9 16 (73728)
I0610 10:15:26.487728 31846 net.cpp:157] Top shape: 1 512 9 16 (73728)
I0610 10:15:26.487735 31846 net.cpp:165] Memory required for data: 87146580
I0610 10:15:26.487742 31846 layer_factory.hpp:77] Creating layer rpn_cls_score
I0610 10:15:26.487759 31846 net.cpp:106] Creating Layer rpn_cls_score
I0610 10:15:26.487782 31846 net.cpp:454] rpn_cls_score <- rpn/output_rpn_relu/3x3_0_split_0
I0610 10:15:26.487797 31846 net.cpp:411] rpn_cls_score -> rpn_cls_score
I0610 10:15:26.488270 31846 net.cpp:150] Setting up rpn_cls_score
I0610 10:15:26.488296 31846 net.cpp:157] Top shape: 1 18 9 16 (2592)
I0610 10:15:26.488304 31846 net.cpp:165] Memory required for data: 87156948
I0610 10:15:26.488314 31846 layer_factory.hpp:77] Creating layer rpn_cls_score_rpn_cls_score_0_split
I0610 10:15:26.488324 31846 net.cpp:106] Creating Layer rpn_cls_score_rpn_cls_score_0_split
I0610 10:15:26.488335 31846 net.cpp:454] rpn_cls_score_rpn_cls_score_0_split <- rpn_cls_score
I0610 10:15:26.488345 31846 net.cpp:411] rpn_cls_score_rpn_cls_score_0_split -> rpn_cls_score_rpn_cls_score_0_split_0
I0610 10:15:26.488366 31846 net.cpp:411] rpn_cls_score_rpn_cls_score_0_split -> rpn_cls_score_rpn_cls_score_0_split_1
I0610 10:15:26.488442 31846 net.cpp:150] Setting up rpn_cls_score_rpn_cls_score_0_split
I0610 10:15:26.488462 31846 net.cpp:157] Top shape: 1 18 9 16 (2592)
I0610 10:15:26.488472 31846 net.cpp:157] Top shape: 1 18 9 16 (2592)
I0610 10:15:26.488479 31846 net.cpp:165] Memory required for data: 87177684
I0610 10:15:26.488550 31846 layer_factory.hpp:77] Creating layer rpn_bbox_pred
I0610 10:15:26.488577 31846 net.cpp:106] Creating Layer rpn_bbox_pred
I0610 10:15:26.488605 31846 net.cpp:454] rpn_bbox_pred <- rpn/output_rpn_relu/3x3_0_split_1
I0610 10:15:26.488625 31846 net.cpp:411] rpn_bbox_pred -> rpn_bbox_pred
I0610 10:15:26.489173 31846 net.cpp:150] Setting up rpn_bbox_pred
I0610 10:15:26.489197 31846 net.cpp:157] Top shape: 1 36 9 16 (5184)
I0610 10:15:26.489205 31846 net.cpp:165] Memory required for data: 87198420
I0610 10:15:26.489215 31846 layer_factory.hpp:77] Creating layer rpn_bbox_pred_rpn_bbox_pred_0_split
I0610 10:15:26.489228 31846 net.cpp:106] Creating Layer rpn_bbox_pred_rpn_bbox_pred_0_split
I0610 10:15:26.489238 31846 net.cpp:454] rpn_bbox_pred_rpn_bbox_pred_0_split <- rpn_bbox_pred
I0610 10:15:26.489249 31846 net.cpp:411] rpn_bbox_pred_rpn_bbox_pred_0_split -> rpn_bbox_pred_rpn_bbox_pred_0_split_0
I0610 10:15:26.489264 31846 net.cpp:411] rpn_bbox_pred_rpn_bbox_pred_0_split -> rpn_bbox_pred_rpn_bbox_pred_0_split_1
I0610 10:15:26.489327 31846 net.cpp:150] Setting up rpn_bbox_pred_rpn_bbox_pred_0_split
I0610 10:15:26.489346 31846 net.cpp:157] Top shape: 1 36 9 16 (5184)
I0610 10:15:26.489356 31846 net.cpp:157] Top shape: 1 36 9 16 (5184)
I0610 10:15:26.489362 31846 net.cpp:165] Memory required for data: 87239892
I0610 10:15:26.489369 31846 layer_factory.hpp:77] Creating layer rpn_cls_score_reshape
I0610 10:15:26.489384 31846 net.cpp:106] Creating Layer rpn_cls_score_reshape
I0610 10:15:26.489403 31846 net.cpp:454] rpn_cls_score_reshape <- rpn_cls_score_rpn_cls_score_0_split_0
I0610 10:15:26.489416 31846 net.cpp:411] rpn_cls_score_reshape -> rpn_cls_score_reshape
I0610 10:15:26.489462 31846 net.cpp:150] Setting up rpn_cls_score_reshape
I0610 10:15:26.489481 31846 net.cpp:157] Top shape: 1 2 81 16 (2592)
I0610 10:15:26.489495 31846 net.cpp:165] Memory required for data: 87250260
I0610 10:15:26.489502 31846 layer_factory.hpp:77] Creating layer rpn_cls_score_reshape_rpn_cls_score_reshape_0_split
I0610 10:15:26.489536 31846 net.cpp:106] Creating Layer rpn_cls_score_reshape_rpn_cls_score_reshape_0_split
I0610 10:15:26.489583 31846 net.cpp:454] rpn_cls_score_reshape_rpn_cls_score_reshape_0_split <- rpn_cls_score_reshape
I0610 10:15:26.489599 31846 net.cpp:411] rpn_cls_score_reshape_rpn_cls_score_reshape_0_split -> rpn_cls_score_reshape_rpn_cls_score_reshape_0_split_0
I0610 10:15:26.489612 31846 net.cpp:411] rpn_cls_score_reshape_rpn_cls_score_reshape_0_split -> rpn_cls_score_reshape_rpn_cls_score_reshape_0_split_1
I0610 10:15:26.489675 31846 net.cpp:150] Setting up rpn_cls_score_reshape_rpn_cls_score_reshape_0_split
I0610 10:15:26.489697 31846 net.cpp:157] Top shape: 1 2 81 16 (2592)
I0610 10:15:26.489706 31846 net.cpp:157] Top shape: 1 2 81 16 (2592)
I0610 10:15:26.489712 31846 net.cpp:165] Memory required for data: 87270996
I0610 10:15:26.489720 31846 layer_factory.hpp:77] Creating layer rpn-data
I0610 10:15:26.520074 31846 net.cpp:106] Creating Layer rpn-data
I0610 10:15:26.520107 31846 net.cpp:454] rpn-data <- rpn_cls_score_rpn_cls_score_0_split_1
I0610 10:15:26.520123 31846 net.cpp:454] rpn-data <- gt_boxes_input-data_2_split_0
I0610 10:15:26.520133 31846 net.cpp:454] rpn-data <- im_info_input-data_1_split_0
I0610 10:15:26.520144 31846 net.cpp:454] rpn-data <- data_input-data_0_split_1
I0610 10:15:26.520156 31846 net.cpp:411] rpn-data -> rpn_labels
I0610 10:15:26.520174 31846 net.cpp:411] rpn-data -> rpn_bbox_targets
I0610 10:15:26.520189 31846 net.cpp:411] rpn-data -> rpn_bbox_inside_weights
I0610 10:15:26.520208 31846 net.cpp:411] rpn-data -> rpn_bbox_outside_weights
I0610 10:15:26.521164 31846 net.cpp:150] Setting up rpn-data
I0610 10:15:26.521203 31846 net.cpp:157] Top shape: 1 1 81 16 (1296)
I0610 10:15:26.521215 31846 net.cpp:157] Top shape: 1 36 9 16 (5184)
I0610 10:15:26.521239 31846 net.cpp:157] Top shape: 1 36 9 16 (5184)
I0610 10:15:26.521250 31846 net.cpp:157] Top shape: 1 36 9 16 (5184)
I0610 10:15:26.521258 31846 net.cpp:165] Memory required for data: 87338388
I0610 10:15:26.521270 31846 layer_factory.hpp:77] Creating layer rpn_loss_cls
I0610 10:15:26.521287 31846 net.cpp:106] Creating Layer rpn_loss_cls
I0610 10:15:26.521304 31846 net.cpp:454] rpn_loss_cls <- rpn_cls_score_reshape_rpn_cls_score_reshape_0_split_0
I0610 10:15:26.521317 31846 net.cpp:454] rpn_loss_cls <- rpn_labels
…
I0610 10:15:26.521886 31846 net.cpp:157] Top shape: (1)
I0610 10:15:26.521895 31846 net.cpp:160]     with loss weight 1
I0610 10:15:26.521908 31846 net.cpp:165] Memory required for data: 87338396
I0610 10:15:26.521924 31846 layer_factory.hpp:77] Creating layer rpn_cls_prob
I0610 10:15:26.521936 31846 net.cpp:106] Creating Layer rpn_cls_prob
I0610 10:15:26.521945 31846 net.cpp:454] rpn_cls_prob <- rpn_cls_score_reshape_rpn_cls_score_reshape_0_split_1
I0610 10:15:26.521958 31846 net.cpp:411] rpn_cls_prob -> rpn_cls_prob
I0610 10:15:26.522063 31846 net.cpp:150] Setting up rpn_cls_prob
I0610 10:15:26.522083 31846 net.cpp:157] Top shape: 1 2 81 16 (2592)
I0610 10:15:26.522092 31846 net.cpp:165] Memory required for data: 87348764
I0610 10:15:26.522100 31846 layer_factory.hpp:77] Creating layer rpn_cls_prob_reshape
I0610 10:15:26.522123 31846 net.cpp:106] Creating Layer rpn_cls_prob_reshape
I0610 10:15:26.522133 31846 net.cpp:454] rpn_cls_prob_reshape <- rpn_cls_prob
I0610 10:15:26.522145 31846 net.cpp:411] rpn_cls_prob_reshape -> rpn_cls_prob_reshape
I0610 10:15:26.522238 31846 net.cpp:150] Setting up rpn_cls_prob_reshape
I0610 10:15:26.522264 31846 net.cpp:157] Top shape: 1 18 9 16 (2592)
I0610 10:15:26.522279 31846 net.cpp:165] Memory required for data: 87359132
I0610 10:15:26.522289 31846 layer_factory.hpp:77] Creating layer proposal
I0610 10:15:26.534128 31846 net.cpp:106] Creating Layer proposal
I0610 10:15:26.534297 31846 net.cpp:454] proposal <- rpn_cls_prob_reshape
I0610 10:15:26.534322 31846 net.cpp:454] proposal <- rpn_bbox_pred_rpn_bbox_pred_0_split_1
I0610 10:15:26.534332 31846 net.cpp:454] proposal <- im_info_input-data_1_split_1
I0610 10:15:26.534346 31846 net.cpp:411] proposal -> rpn_rois
I0610 10:15:26.535184 31846 net.cpp:150] Setting up proposal
I0610 10:15:26.535215 31846 net.cpp:157] Top shape: 1 5 (5)
I0610 10:15:26.535224 31846 net.cpp:165] Memory required for data: 87359152
I0610 10:15:26.535233 31846 layer_factory.hpp:77] Creating layer roi-data
I0610 10:15:26.537808 31846 net.cpp:106] Creating Layer roi-data
I0610 10:15:26.537842 31846 net.cpp:454] roi-data <- rpn_rois
I0610 10:15:26.537858 31846 net.cpp:454] roi-data <- gt_boxes_input-data_2_split_1
I0610 10:15:26.537873 31846 net.cpp:411] roi-data -> rois
I0610 10:15:26.537901 31846 net.cpp:411] roi-data -> labels
I0610 10:15:26.537919 31846 net.cpp:411] roi-data -> bbox_targets
I0610 10:15:26.537936 31846 net.cpp:411] roi-data -> bbox_inside_weights
I0610 10:15:26.537950 31846 net.cpp:411] roi-data -> bbox_outside_weights
I0610 10:15:26.553791 31846 net.cpp:150] Setting up roi-data
I0610 10:15:26.553838 31846 net.cpp:157] Top shape: 1 5 (5)
I0610 10:15:26.553851 31846 net.cpp:157] Top shape: 1 1 (1)
I0610 10:15:26.553859 31846 net.cpp:157] Top shape: 1 32 (32)
I0610 10:15:26.553869 31846 net.cpp:157] Top shape: 1 32 (32)
I0610 10:15:26.553880 31846 net.cpp:157] Top shape: 1 32 (32)
I0610 10:15:26.553887 31846 net.cpp:165] Memory required for data: 87359560
I0610 10:15:26.553899 31846 layer_factory.hpp:77] Creating layer roi_pool5
I0610 10:15:26.553915 31846 net.cpp:106] Creating Layer roi_pool5
I0610 10:15:26.553933 31846 net.cpp:454] roi_pool5 <- conv5_3_relu5_3_0_split_1
I0610 10:15:26.553946 31846 net.cpp:454] roi_pool5 <- rois
I0610 10:15:26.553957 31846 net.cpp:411] roi_pool5 -> pool5
I0610 10:15:26.553978 31846 roi_pooling_layer.cpp:30] Spatial scale: 0.0625
I0610 10:15:26.554075 31846 net.cpp:150] Setting up roi_pool5
I0610 10:15:26.554097 31846 net.cpp:157] Top shape: 1 512 7 7 (25088)
I0610 10:15:26.554106 31846 net.cpp:165] Memory required for data: 87459912
I0610 10:15:26.554116 31846 layer_factory.hpp:77] Creating layer fc6
I0610 10:15:26.554184 31846 net.cpp:106] Creating Layer fc6
I0610 10:15:26.554257 31846 net.cpp:454] fc6 <- pool5
I0610 10:15:26.554282 31846 net.cpp:411] fc6 -> fc6
I0610 10:15:26.898509 31846 net.cpp:150] Setting up fc6
I0610 10:15:26.898581 31846 net.cpp:157] Top shape: 1 4096 (4096)
I0610 10:15:26.898589 31846 net.cpp:165] Memory required for data: 87476296
I0610 10:15:26.898623 31846 layer_factory.hpp:77] Creating layer relu6
I0610 10:15:26.898645 31846 net.cpp:106] Creating Layer relu6
I0610 10:15:26.898659 31846 net.cpp:454] relu6 <- fc6
I0610 10:15:26.898674 31846 net.cpp:397] relu6 -> fc6 (in-place)
I0610 10:15:26.898694 31846 net.cpp:150] Setting up relu6
I0610 10:15:26.898715 31846 net.cpp:157] Top shape: 1 4096 (4096)
I0610 10:15:26.898722 31846 net.cpp:165] Memory required for data: 87492680
I0610 10:15:26.898730 31846 layer_factory.hpp:77] Creating layer drop6
I0610 10:15:26.898746 31846 net.cpp:106] Creating Layer drop6
I0610 10:15:26.898754 31846 net.cpp:454] drop6 <- fc6
I0610 10:15:26.898764 31846 net.cpp:397] drop6 -> fc6 (in-place)
I0610 10:15:26.898841 31846 net.cpp:150] Setting up drop6
I0610 10:15:26.898865 31846 net.cpp:157] Top shape: 1 4096 (4096)
I0610 10:15:26.898874 31846 net.cpp:165] Memory required for data: 87509064
I0610 10:15:26.898881 31846 layer_factory.hpp:77] Creating layer fc7
I0610 10:15:26.898907 31846 net.cpp:106] Creating Layer fc7
I0610 10:15:26.898936 31846 net.cpp:454] fc7 <- fc6
I0610 10:15:26.898947 31846 net.cpp:411] fc7 -> fc7
I0610 10:15:26.956689 31846 net.cpp:150] Setting up fc7
I0610 10:15:26.956763 31846 net.cpp:157] Top shape: 1 4096 (4096)
I0610 10:15:26.956773 31846 net.cpp:165] Memory required for data: 87525448
I0610 10:15:26.956794 31846 layer_factory.hpp:77] Creating layer relu7
I0610 10:15:26.956820 31846 net.cpp:106] Creating Layer relu7
I0610 10:15:26.956833 31846 net.cpp:454] relu7 <- fc7
I0610 10:15:26.956847 31846 net.cpp:397] relu7 -> fc7 (in-place)
I0610 10:15:26.956866 31846 net.cpp:150] Setting up relu7
I0610 10:15:26.956877 31846 net.cpp:157] Top shape: 1 4096 (4096)
I0610 10:15:26.956884 31846 net.cpp:165] Memory required for data: 87541832
I0610 10:15:26.956892 31846 layer_factory.hpp:77] Creating layer drop7
I0610 10:15:26.956909 31846 net.cpp:106] Creating Layer drop7
I0610 10:15:26.956920 31846 net.cpp:454] drop7 <- fc7
I0610 10:15:26.956930 31846 net.cpp:397] drop7 -> fc7 (in-place)
I0610 10:15:26.956979 31846 net.cpp:150] Setting up drop7
I0610 10:15:26.956998 31846 net.cpp:157] Top shape: 1 4096 (4096)
I0610 10:15:26.957006 31846 net.cpp:165] Memory required for data: 87558216
I0610 10:15:26.957013 31846 layer_factory.hpp:77] Creating layer fc7_drop7_0_split
I0610 10:15:26.957029 31846 net.cpp:106] Creating Layer fc7_drop7_0_split
I0610 10:15:26.957041 31846 net.cpp:454] fc7_drop7_0_split <- fc7
I0610 10:15:26.957051 31846 net.cpp:411] fc7_drop7_0_split -> fc7_drop7_0_split_0
I0610 10:15:26.957072 31846 net.cpp:411] fc7_drop7_0_split -> fc7_drop7_0_split_1
I0610 10:15:26.957182 31846 net.cpp:150] Setting up fc7_drop7_0_split
I0610 10:15:26.957206 31846 net.cpp:157] Top shape: 1 4096 (4096)
I0610 10:15:26.957216 31846 net.cpp:157] Top shape: 1 4096 (4096)
I0610 10:15:26.957222 31846 net.cpp:165] Memory required for data: 87590984
I0610 10:15:26.957231 31846 layer_factory.hpp:77] Creating layer cls_score
I0610 10:15:26.957247 31846 net.cpp:106] Creating Layer cls_score
I0610 10:15:26.957275 31846 net.cpp:454] cls_score <- fc7_drop7_0_split_0
I0610 10:15:26.957306 31846 net.cpp:411] cls_score -> cls_score
I0610 10:15:26.957850 31846 net.cpp:150] Setting up cls_score
I0610 10:15:26.957881 31846 net.cpp:157] Top shape: 1 8 (8)
I0610 10:15:26.957890 31846 net.cpp:165] Memory required for data: 87591016
I0610 10:15:26.957901 31846 layer_factory.hpp:77] Creating layer bbox_pred
I0610 10:15:26.957913 31846 net.cpp:106] Creating Layer bbox_pred
I0610 10:15:26.957926 31846 net.cpp:454] bbox_pred <- fc7_drop7_0_split_1
I0610 10:15:26.957940 31846 net.cpp:411] bbox_pred -> bbox_pred
I0610 10:15:26.963049 31846 net.cpp:150] Setting up bbox_pred
I0610 10:15:26.963080 31846 net.cpp:157] Top shape: 1 32 (32)
I0610 10:15:26.963088 31846 net.cpp:165] Memory required for data: 87591144
I0610 10:15:26.963100 31846 layer_factory.hpp:77] Creating layer loss_cls
I0610 10:15:26.963119 31846 net.cpp:106] Creating Layer loss_cls
I0610 10:15:26.963131 31846 net.cpp:454] loss_cls <- cls_score
I0610 10:15:26.963143 31846 net.cpp:454] loss_cls <- labels
I0610 10:15:26.963155 31846 net.cpp:411] loss_cls -> loss_cls
…
           'RPN_POST_NMS_TOP_N': 800,
           'RPN_PRE_NMS_TOP_N': 1200,
           'SCALES': [144],
           'SNAPSHOT_INFIX': '',
           'SNAPSHOT_ITERS': 10000,
           'USE_FLIPPED': True,
           'USE_PREFETCH': False},
 'USE_GPU_NMS': True}
WARNING: Logging before InitGoogleLogging() is written to STDERR
I0610 12:28:37.982589 33379 net.cpp:49] Initializing net from parameters: 
name: "VGG_ILSVRC_16_layers"
input: "data"
input: "im_info"
state {
  phase: TEST
}
input_shape {
  dim: 1
  dim: 3
  dim: 224
  dim: 224
}
input_shape {
  dim: 1
  dim: 3
}
layer {
  name: "conv1_1"
  type: "Convolution"
  bottom: "data"
  top: "conv1_1"
  param {
    lr_mult: 0
    decay_mult: 0
  }
  param {
    lr_mult: 0
    decay_mult: 0
  }
  convolution_param {
    num_output: 64
    pad: 1
    kernel_size: 3
  }
}
layer {
  name: "relu1_1"
  type: "ReLU"
  bottom: "conv1_1"
  top: "conv1_1"
}
layer {
  name: "conv1_2"
  type: "Convolution"
  bottom: "conv1_1"
  top: "conv1_2"
  param {
    lr_mult: 0
    decay_mult: 0
  }
  param {
    lr_mult: 0
    decay_mult: 0
  }
  convolution_param {
    num_output: 64
    pad: 1
    kernel_size: 3
  }
}
layer {
  name: "relu1_2"
  type: "ReLU"
  bottom: "conv1_2"
  top: "conv1_2"
}
layer {
  name: "pool1"
  type: "Pooling"
  bottom: "conv1_2"
  top: "pool1"
  pooling_param {
    pool: MAX
    kernel_size: 2
    stride: 2
  }
}
layer {
  name: "conv2_1"
  type: "Convolution"
  bottom: "pool1"
  top: "conv2_1"
  param {
    lr_mult: 0
    decay_mult: 0
  }
  param {
    lr_mult: 0
    decay_mult: 0
  }
  convolution_param {
    num_output: 128
    pad: 1
    kernel_size: 3
  }
}
layer {
  name: "relu2_1"
  type: "ReLU"
  bottom: "conv2_1"
  top: "conv2_1"
}
layer {
  name: "conv2_2"
  type: "Convolution"
  bottom: "conv2_1"
  top: "conv2_2"
  param {
    lr_mult: 0
    decay_mult: 0
  }
  param {
    lr_mult: 0
    decay_mult: 0
  }
  convolution_param {
    num_output: 128
    pad: 1
    kernel_size: 3
  }
}
layer {
  name: "relu2_2"
  type: "ReLU"
  bottom: "conv2_2"
  top: "conv2_2"
}
layer {
  name: "pool2"
  type: "Pooling"
  bottom: "conv2_2"
  top: "pool2"
  pooling_param {
    pool: MAX
    kernel_size: 2
    stride: 2
  }
}
layer {
  name: "conv3_1"
  type: "Convolution"
  bottom: "pool2"
  top: "conv3_1"
  param {
    lr_mult: 1
    decay_mult: 1
  }
  param {
    lr_mult: 2
    decay_mult: 0
  }
  convolution_param {
    num_output: 256
    pad: 1
    kernel_size: 3
  }
}
layer {
  name: "relu3_1"
  type: "ReLU"
  bottom: "conv3_1"
  top: "conv3_1"
}
layer {
  name: "conv3_2"
  type: "Convolution"
  bottom: "conv3_1"
  top: "conv3_2"
  param {
    lr_mult: 1
    decay_mult: 1
  }
  param {
    lr_mult: 2
    decay_mult: 0
  }
  convolution_param {
    num_output: 256
    pad: 1
    kernel_size: 3
  }
}
layer {
  name: "relu3_2"
  type: "ReLU"
  bottom: "conv3_2"
  top: "conv3_2"
}
layer {
  name: "conv3_3"
  type: "Convolution"
  bottom: "conv3_2"
  top: "conv3_3"
  param {
    lr_mult: 1
    decay_mult: 1
  }
  param {
    lr_mult: 2
    decay_mult: 0
  }
  convolution_param {
    num_output: 256
    pad: 1
    kernel_size: 3
  }
}
layer {
  name: "relu3_3"
  type: "ReLU"
  bottom: "conv3_3"
  top: "conv3_3"
}
layer {
  name: "pool3"
  type: "Pooling"
  bottom: "conv3_3"
  top: "pool3"
  pooling_param {
    pool: MAX
    kernel_size: 2
    stride: 2
  }
}
layer {
  name: "conv4_1"
  type: "Convolution"
  bottom: "pool3"
  top: "conv4_1"
  param {
    lr_mult: 1
    decay_mult: 1
  }
  param {
    lr_mult: 2
    decay_mult: 0
  }
  convolution_param {
    num_output: 512
    pad: 1
    kernel_size: 3
  }
}
layer {
  name: "relu4_1"
  type: "ReLU"
  bottom: "conv4_1"
  top: "conv4_1"
}
layer {
  name: "conv4_2"
  type: "Convolution"
  bottom: "conv4_1"
  top: "conv4_2"
  param {
    lr_mult: 1
    decay_mult: 1
  }
  param {
    lr_mult: 2
    decay_mult: 0
  }
  convolution_param {
    num_output: 512
    pad: 1
    kernel_size: 3
  }
}
layer {
  name: "relu4_2"
  type: "ReLU"
  bottom: "conv4_2"
  top: "conv4_2"
}
layer {
  name: "conv4_3"
  type: "Convolution"
  bottom: "conv4_2"
  top: "conv4_3"
  param {
    lr_mult: 1
    decay_mult: 1
  }
  param {
    lr_mult: 2
    decay_mult: 0
  }
  convolution_param {
    num_output: 512
    pad: 1
    kernel_size: 3
  }
}
layer {
  name: "relu4_3"
  type: "ReLU"
  bottom: "conv4_3"
  top: "conv4_3"
}
layer {
  name: "pool4"
  type: "Pooling"
  bottom: "conv4_3"
  top: "pool4"
  pooling_param {
    pool: MAX
    kernel_size: 2
    stride: 2
  }
}
layer {
  name: "conv5_1"
  type: "Convolution"
  bottom: "pool4"
  top: "conv5_1"
  param {
    lr_mult: 1
    decay_mult: 1
  }
  param {
    lr_mult: 2
    decay_mult: 0
  }
  convolution_param {
    num_output: 512
    pad: 1
    kernel_size: 3
  }
}
layer {
  name: "relu5_1"
  type: "ReLU"
  bottom: "conv5_1"
  top: "conv5_1"
}
layer {
  name: "conv5_2"
  type: "Convolution"
  bottom: "conv5_1"
  top: "conv5_2"
  param {
    lr_mult: 1
    decay_mult: 1
  }
  param {
    lr_mult: 2
    decay_mult: 0
  }
  convolution_param {
    num_output: 512
    pad: 1
    kernel_size: 3
  }
}
layer {
  name: "relu5_2"
  type: "ReLU"
  bottom: "conv5_2"
  top: "conv5_2"
}
layer {
  name: "conv5_3"
  type: "Convolution"
  bottom: "conv5_2"
  top: "conv5_3"
  param {
    lr_mult: 1
    decay_mult: 1
  }
  param {
    lr_mult: 2
    decay_mult: 0
  }
  convolution_param {
    num_output: 512
    pad: 1
    kernel_size: 3
  }
}
layer {
  name: "relu5_3"
  type: "ReLU"
  bottom: "conv5_3"
  top: "conv5_3"
}
layer {
  name: "rpn_conv/3x3"
  type: "Convolution"
  bottom: "conv5_3"
  top: "rpn/output"
  param {
    lr_mult: 1
    decay_mult: 1
  }
  param {
    lr_mult: 2
    decay_mult: 0
  }
  convolution_param {
    num_output: 512
    pad: 1
    kernel_size: 3
    stride: 1
    weight_filler {
      type: "gaussian"
      std: 0.01
    }
    bias_filler {
      type: "constant"
      value: 0
    }
  }
}
layer {
  name: "rpn_relu/3x3"
  type: "ReLU"
  bottom: "rpn/output"
  top: "rpn/output"
}
layer {
  name: "rpn_cls_score"
  type: "Convolution"
  bottom: "rpn/output"
  top: "rpn_cls_score"
  param {
    lr_mult: 1
    decay_mult: 1
  }
  param {
    lr_mult: 2
    decay_mult: 0
  }
  convolution_param {
    num_output: 18
    pad: 0
    kernel_size: 1
    stride: 1
    weight_filler {
      type: "gaussian"
      std: 0.01
    }
    bias_filler {
      type: "constant"
      value: 0
    }
  }
}
layer {
  name: "rpn_bbox_pred"
  type: "Convolution"
  bottom: "rpn/output"
  top: "rpn_bbox_pred"
  param {
    lr_mult: 1
    decay_mult: 1
  }
  param {
    lr_mult: 2
    decay_mult: 0
  }
  convolution_param {
    num_output: 36
    pad: 0
    kernel_size: 1
    stride: 1
    weight_filler {
      type: "gaussian"
      std: 0.01
    }
    bias_filler {
      type: "constant"
      value: 0
    }
  }
}
layer {
  name: "rpn_cls_score_reshape"
  type: "Reshape"
  bottom: "rpn_cls_score"
  top: "rpn_cls_score_reshape"
  reshape_param {
    shape {
      dim: 0
      dim: 2
      dim: -1
      dim: 0
    }
  }
}
layer {
  name: "rpn_cls_prob"
  type: "Softmax"
  bottom: "rpn_cls_score_reshape"
  top: "rpn_cls_prob"
}
layer {
  name: "rpn_cls_prob_reshape"
  type: "Reshape"
  bottom: "rpn_cls_prob"
  top: "rpn_cls_prob_reshape"
  reshape_param {
    shape {
      dim: 0
      dim: 18
      dim: -1
      dim: 0
    }
  }
}
layer {
  name: "proposal"
  type: "Python"
  bottom: "rpn_cls_prob_reshape"
  bottom: "rpn_bbox_pred"
  bottom: "im_info"
  top: "rois"
  python_param {
    module: "rpn.proposal_layer"
    layer: "ProposalLayer"
    param_str: "\'feat_stride\': 16"
  }
}
layer {
  name: "roi_pool5"
  type: "ROIPooling"
  bottom: "conv5_3"
  bottom: "rois"
  top: "pool5"
  roi_pooling_param {
    pooled_h: 7
    pooled_w: 7
    spatial_scale: 0.0625
  }
}
layer {
  name: "fc6"
  type: "InnerProduct"
  bottom: "pool5"
  top: "fc6"
  param {
    lr_mult: 1
    decay_mult: 1
  }
  param {
    lr_mult: 2
    decay_mult: 0
  }
  inner_product_param {
    num_output: 4096
  }
}
layer {
  name: "relu6"
  type: "ReLU"
  bottom: "fc6"
  top: "fc6"
}
layer {
  name: "drop6"
  type: "Dropout"
  bottom: "fc6"
  top: "fc6"
  dropout_param {
    dropout_ratio: 0.5
  }
}
layer {
  name: "fc7"
  type: "InnerProduct"
  bottom: "fc6"
  top: "fc7"
  param {
    lr_mult: 1
    decay_mult: 1
  }
  param {
    lr_mult: 2
    decay_mult: 0
  }
  inner_product_param {
    num_output: 4096
  }
}
layer {
  name: "relu7"
  type: "ReLU"
  bottom: "fc7"
  top: "fc7"
}
layer {
  name: "drop7"
  type: "Dropout"
  bottom: "fc7"
  top: "fc7"
  dropout_param {
    dropout_ratio: 0.5
  }
}
layer {
  name: "cls_score"
  type: "InnerProduct"
  bottom: "fc7"
  top: "cls_score"
  param {
    lr_mult: 1
    decay_mult: 1
  }
  param {
    lr_mult: 2
    decay_mult: 0
  }
  inner_product_param {
    num_output: 8
    weight_filler {
      type: "gaussian"
      std: 0.01
    }
    bias_filler {
      type: "constant"
      value: 0
    }
  }
}
layer {
  name: "bbox_pred"
  type: "InnerProduct"
  bottom: "fc7"
  top: "bbox_pred"
  param {
    lr_mult: 1
    decay_mult: 1
  }
  param {
    lr_mult: 2
    decay_mult: 0
  }
  inner_product_param {
    num_output: 32
    weight_filler {
      type: "gaussian"
      std: 0.001
    }
    bias_filler {
      type: "constant"
      value: 0
    }
  }
}
layer {
  name: "cls_prob"
  type: "Softmax"
  bottom: "cls_score"
  top: "cls_prob"
}
I0610 12:28:37.982820 33379 net.cpp:413] Input 0 -> data
I0610 12:28:38.528810 33379 net.cpp:413] Input 1 -> im_info
I0610 12:28:38.528918 33379 layer_factory.hpp:77] Creating layer conv1_1
I0610 12:28:38.528969 33379 net.cpp:106] Creating Layer conv1_1
I0610 12:28:38.528995 33379 net.cpp:454] conv1_1 <- data
I0610 12:28:38.529009 33379 net.cpp:411] conv1_1 -> conv1_1
I0610 12:28:38.538271 33379 net.cpp:150] Setting up conv1_1
I0610 12:28:38.538309 33379 net.cpp:157] Top shape: 1 64 224 224 (3211264)
I0610 12:28:38.538318 33379 net.cpp:165] Memory required for data: 12845056
I0610 12:28:38.538338 33379 layer_factory.hpp:77] Creating layer relu1_1
I0610 12:28:38.538373 33379 net.cpp:106] Creating Layer relu1_1
I0610 12:28:38.538388 33379 net.cpp:454] relu1_1 <- conv1_1
I0610 12:28:38.538398 33379 net.cpp:397] relu1_1 -> conv1_1 (in-place)
I0610 12:28:38.538429 33379 net.cpp:150] Setting up relu1_1
I0610 12:28:38.538439 33379 net.cpp:157] Top shape: 1 64 224 224 (3211264)
I0610 12:28:38.538446 33379 net.cpp:165] Memory required for data: 25690112
I0610 12:28:38.538460 33379 layer_factory.hpp:77] Creating layer conv1_2
I0610 12:28:38.538475 33379 net.cpp:106] Creating Layer conv1_2
I0610 12:28:38.538496 33379 net.cpp:454] conv1_2 <- conv1_1
I0610 12:28:38.538507 33379 net.cpp:411] conv1_2 -> conv1_2
I0610 12:28:38.538926 33379 net.cpp:150] Setting up conv1_2
I0610 12:28:38.538951 33379 net.cpp:157] Top shape: 1 64 224 224 (3211264)
I0610 12:28:38.538959 33379 net.cpp:165] Memory required for data: 38535168
I0610 12:28:38.538971 33379 layer_factory.hpp:77] Creating layer relu1_2
I0610 12:28:38.538985 33379 net.cpp:106] Creating Layer relu1_2
I0610 12:28:38.538995 33379 net.cpp:454] relu1_2 <- conv1_2
I0610 12:28:38.539003 33379 net.cpp:397] relu1_2 -> conv1_2 (in-place)
I0610 12:28:38.539014 33379 net.cpp:150] Setting up relu1_2
I0610 12:28:38.539023 33379 net.cpp:157] Top shape: 1 64 224 224 (3211264)
I0610 12:28:38.539041 33379 net.cpp:165] Memory required for data: 51380224
I0610 12:28:38.539048 33379 layer_factory.hpp:77] Creating layer pool1
I0610 12:28:38.539064 33379 net.cpp:106] Creating Layer pool1
I0610 12:28:38.539075 33379 net.cpp:454] pool1 <- conv1_2
I0610 12:28:38.539086 33379 net.cpp:411] pool1 -> pool1
I0610 12:28:38.539165 33379 net.cpp:150] Setting up pool1
I0610 12:28:38.539186 33379 net.cpp:157] Top shape: 1 64 112 112 (802816)
I0610 12:28:38.539196 33379 net.cpp:165] Memory required for data: 54591488
I0610 12:28:38.539203 33379 layer_factory.hpp:77] Creating layer conv2_1
I0610 12:28:38.539218 33379 net.cpp:106] Creating Layer conv2_1
I0610 12:28:38.539229 33379 net.cpp:454] conv2_1 <- pool1
I0610 12:28:38.539242 33379 net.cpp:411] conv2_1 -> conv2_1
I0610 12:28:38.546124 33379 net.cpp:150] Setting up conv2_1
I0610 12:28:38.546190 33379 net.cpp:157] Top shape: 1 128 112 112 (1605632)
I0610 12:28:38.546201 33379 net.cpp:165] Memory required for data: 61014016
I0610 12:28:38.546217 33379 layer_factory.hpp:77] Creating layer relu2_1
I0610 12:28:38.546234 33379 net.cpp:106] Creating Layer relu2_1
I0610 12:28:38.546243 33379 net.cpp:454] relu2_1 <- conv2_1
I0610 12:28:38.546259 33379 net.cpp:397] relu2_1 -> conv2_1 (in-place)
I0610 12:28:38.546275 33379 net.cpp:150] Setting up relu2_1
I0610 12:28:38.546284 33379 net.cpp:157] Top shape: 1 128 112 112 (1605632)
I0610 12:28:38.546293 33379 net.cpp:165] Memory required for data: 67436544
I0610 12:28:38.546303 33379 layer_factory.hpp:77] Creating layer conv2_2
I0610 12:28:38.546319 33379 net.cpp:106] Creating Layer conv2_2
I0610 12:28:38.546329 33379 net.cpp:454] conv2_2 <- conv2_1
I0610 12:28:38.546340 33379 net.cpp:411] conv2_2 -> conv2_2
I0610 12:28:38.546814 33379 net.cpp:150] Setting up conv2_2
I0610 12:28:38.546838 33379 net.cpp:157] Top shape: 1 128 112 112 (1605632)
I0610 12:28:38.546846 33379 net.cpp:165] Memory required for data: 73859072
I0610 12:28:38.546857 33379 layer_factory.hpp:77] Creating layer relu2_2
I0610 12:28:38.546869 33379 net.cpp:106] Creating Layer relu2_2
I0610 12:28:38.546878 33379 net.cpp:454] relu2_2 <- conv2_2
I0610 12:28:38.546895 33379 net.cpp:397] relu2_2 -> conv2_2 (in-place)
I0610 12:28:38.546907 33379 net.cpp:150] Setting up relu2_2
I0610 12:28:38.546916 33379 net.cpp:157] Top shape: 1 128 112 112 (1605632)
I0610 12:28:38.546922 33379 net.cpp:165] Memory required for data: 80281600
I0610 12:28:38.546931 33379 layer_factory.hpp:77] Creating layer pool2
I0610 12:28:38.546941 33379 net.cpp:106] Creating Layer pool2
I0610 12:28:38.546947 33379 net.cpp:454] pool2 <- conv2_2
I0610 12:28:38.546957 33379 net.cpp:411] pool2 -> pool2
I0610 12:28:38.547021 33379 net.cpp:150] Setting up pool2
I0610 12:28:38.547041 33379 net.cpp:157] Top shape: 1 128 56 56 (401408)
I0610 12:28:38.547049 33379 net.cpp:165] Memory required for data: 81887232
I0610 12:28:38.547057 33379 layer_factory.hpp:77] Creating layer conv3_1
I0610 12:28:38.547073 33379 net.cpp:106] Creating Layer conv3_1
I0610 12:28:38.547085 33379 net.cpp:454] conv3_1 <- pool2
I0610 12:28:38.547096 33379 net.cpp:411] conv3_1 -> conv3_1
I0610 12:28:38.547644 33379 net.cpp:150] Setting up conv3_1
I0610 12:28:38.547691 33379 net.cpp:157] Top shape: 1 256 56 56 (802816)
I0610 12:28:38.547699 33379 net.cpp:165] Memory required for data: 85098496
I0610 12:28:38.547713 33379 layer_factory.hpp:77] Creating layer relu3_1
I0610 12:28:38.547732 33379 net.cpp:106] Creating Layer relu3_1
I0610 12:28:38.547740 33379 net.cpp:454] relu3_1 <- conv3_1
I0610 12:28:38.547750 33379 net.cpp:397] relu3_1 -> conv3_1 (in-place)
I0610 12:28:38.547765 33379 net.cpp:150] Setting up relu3_1
I0610 12:28:38.547775 33379 net.cpp:157] Top shape: 1 256 56 56 (802816)
I0610 12:28:38.547785 33379 net.cpp:165] Memory required for data: 88309760
I0610 12:28:38.547793 33379 layer_factory.hpp:77] Creating layer conv3_2
I0610 12:28:38.547807 33379 net.cpp:106] Creating Layer conv3_2
I0610 12:28:38.547816 33379 net.cpp:454] conv3_2 <- conv3_1
I0610 12:28:38.547825 33379 net.cpp:411] conv3_2 -> conv3_2
I0610 12:28:38.552026 33379 net.cpp:150] Setting up conv3_2
I0610 12:28:38.552057 33379 net.cpp:157] Top shape: 1 256 56 56 (802816)
I0610 12:28:38.552067 33379 net.cpp:165] Memory required for data: 91521024
I0610 12:28:38.552079 33379 layer_factory.hpp:77] Creating layer relu3_2
I0610 12:28:38.552094 33379 net.cpp:106] Creating Layer relu3_2
I0610 12:28:38.552109 33379 net.cpp:454] relu3_2 <- conv3_2
I0610 12:28:38.552121 33379 net.cpp:397] relu3_2 -> conv3_2 (in-place)
I0610 12:28:38.552141 33379 net.cpp:150] Setting up relu3_2
I0610 12:28:38.552155 33379 net.cpp:157] Top shape: 1 256 56 56 (802816)
I0610 12:28:38.552162 33379 net.cpp:165] Memory required for data: 94732288
I0610 12:28:38.552170 33379 layer_factory.hpp:77] Creating layer conv3_3
I0610 12:28:38.552227 33379 net.cpp:106] Creating Layer conv3_3
I0610 12:28:38.552254 33379 net.cpp:454] conv3_3 <- conv3_2
I0610 12:28:38.552270 33379 net.cpp:411] conv3_3 -> conv3_3
I0610 12:28:38.556478 33379 net.cpp:150] Setting up conv3_3
I0610 12:28:38.556509 33379 net.cpp:157] Top shape: 1 256 56 56 (802816)
I0610 12:28:38.556519 33379 net.cpp:165] Memory required for data: 97943552
I0610 12:28:38.556529 33379 layer_factory.hpp:77] Creating layer relu3_3
I0610 12:28:38.556541 33379 net.cpp:106] Creating Layer relu3_3
I0610 12:28:38.556550 33379 net.cpp:454] relu3_3 <- conv3_3
I0610 12:28:38.556562 33379 net.cpp:397] relu3_3 -> conv3_3 (in-place)
I0610 12:28:38.556574 33379 net.cpp:150] Setting up relu3_3
I0610 12:28:38.556583 33379 net.cpp:157] Top shape: 1 256 56 56 (802816)
I0610 12:28:38.556591 33379 net.cpp:165] Memory required for data: 101154816
I0610 12:28:38.556598 33379 layer_factory.hpp:77] Creating layer pool3
I0610 12:28:38.556612 33379 net.cpp:106] Creating Layer pool3
I0610 12:28:38.556620 33379 net.cpp:454] pool3 <- conv3_3
I0610 12:28:38.556630 33379 net.cpp:411] pool3 -> pool3
I0610 12:28:38.556699 33379 net.cpp:150] Setting up pool3
I0610 12:28:38.556710 33379 net.cpp:157] Top shape: 1 256 28 28 (200704)
I0610 12:28:38.556716 33379 net.cpp:165] Memory required for data: 101957632
I0610 12:28:38.556725 33379 layer_factory.hpp:77] Creating layer conv4_1
I0610 12:28:38.556736 33379 net.cpp:106] Creating Layer conv4_1
I0610 12:28:38.556743 33379 net.cpp:454] conv4_1 <- pool3
I0610 12:28:38.556756 33379 net.cpp:411] conv4_1 -> conv4_1
I0610 12:28:38.565570 33379 net.cpp:150] Setting up conv4_1
I0610 12:28:38.565603 33379 net.cpp:157] Top shape: 1 512 28 28 (401408)
I0610 12:28:38.565613 33379 net.cpp:165] Memory required for data: 103563264
I0610 12:28:38.565625 33379 layer_factory.hpp:77] Creating layer relu4_1
I0610 12:28:38.565642 33379 net.cpp:106] Creating Layer relu4_1
I0610 12:28:38.565663 33379 net.cpp:454] relu4_1 <- conv4_1
I0610 12:28:38.565675 33379 net.cpp:397] relu4_1 -> conv4_1 (in-place)
I0610 12:28:38.565686 33379 net.cpp:150] Setting up relu4_1
I0610 12:28:38.565728 33379 net.cpp:157] Top shape: 1 512 28 28 (401408)
I0610 12:28:38.565735 33379 net.cpp:165] Memory required for data: 105168896
I0610 12:28:38.565743 33379 layer_factory.hpp:77] Creating layer conv4_2
I0610 12:28:38.565758 33379 net.cpp:106] Creating Layer conv4_2
I0610 12:28:38.565769 33379 net.cpp:454] conv4_2 <- conv4_1
I0610 12:28:38.565779 33379 net.cpp:411] conv4_2 -> conv4_2
I0610 12:28:38.575768 33379 net.cpp:150] Setting up conv4_2
I0610 12:28:38.575819 33379 net.cpp:157] Top shape: 1 512 28 28 (401408)
I0610 12:28:38.575829 33379 net.cpp:165] Memory required for data: 106774528
I0610 12:28:38.575848 33379 layer_factory.hpp:77] Creating layer relu4_2
I0610 12:28:38.575912 33379 net.cpp:106] Creating Layer relu4_2
I0610 12:28:38.575927 33379 net.cpp:454] relu4_2 <- conv4_2
I0610 12:28:38.575940 33379 net.cpp:397] relu4_2 -> conv4_2 (in-place)
I0610 12:28:38.575968 33379 net.cpp:150] Setting up relu4_2
I0610 12:28:38.575978 33379 net.cpp:157] Top shape: 1 512 28 28 (401408)
I0610 12:28:38.575986 33379 net.cpp:165] Memory required for data: 108380160
I0610 12:28:38.575994 33379 layer_factory.hpp:77] Creating layer conv4_3
I0610 12:28:38.576011 33379 net.cpp:106] Creating Layer conv4_3
I0610 12:28:38.576025 33379 net.cpp:454] conv4_3 <- conv4_2
I0610 12:28:38.576086 33379 net.cpp:411] conv4_3 -> conv4_3
I0610 12:28:38.585021 33379 net.cpp:150] Setting up conv4_3
I0610 12:28:38.585067 33379 net.cpp:157] Top shape: 1 512 28 28 (401408)
I0610 12:28:38.585077 33379 net.cpp:165] Memory required for data: 109985792
I0610 12:28:38.585090 33379 layer_factory.hpp:77] Creating layer relu4_3
I0610 12:28:38.585121 33379 net.cpp:106] Creating Layer relu4_3
I0610 12:28:38.585145 33379 net.cpp:454] relu4_3 <- conv4_3
I0610 12:28:38.585161 33379 net.cpp:397] relu4_3 -> conv4_3 (in-place)
I0610 12:28:38.585184 33379 net.cpp:150] Setting up relu4_3
I0610 12:28:38.585196 33379 net.cpp:157] Top shape: 1 512 28 28 (401408)
I0610 12:28:38.585206 33379 net.cpp:165] Memory required for data: 111591424
I0610 12:28:38.585214 33379 layer_factory.hpp:77] Creating layer pool4
I0610 12:28:38.585260 33379 net.cpp:106] Creating Layer pool4
I0610 12:28:38.585279 33379 net.cpp:454] pool4 <- conv4_3
I0610 12:28:38.585294 33379 net.cpp:411] pool4 -> pool4
I0610 12:28:38.585367 33379 net.cpp:150] Setting up pool4
I0610 12:28:38.585386 33379 net.cpp:157] Top shape: 1 512 14 14 (100352)
I0610 12:28:38.585394 33379 net.cpp:165] Memory required for data: 111992832
I0610 12:28:38.585403 33379 layer_factory.hpp:77] Creating layer conv5_1
I0610 12:28:38.585419 33379 net.cpp:106] Creating Layer conv5_1
I0610 12:28:38.585434 33379 net.cpp:454] conv5_1 <- pool4
I0610 12:28:38.585445 33379 net.cpp:411] conv5_1 -> conv5_1
I0610 12:28:38.595820 33379 net.cpp:150] Setting up conv5_1
I0610 12:28:38.595875 33379 net.cpp:157] Top shape: 1 512 14 14 (100352)
I0610 12:28:38.595885 33379 net.cpp:165] Memory required for data: 112394240
I0610 12:28:38.595901 33379 layer_factory.hpp:77] Creating layer relu5_1
I0610 12:28:38.595945 33379 net.cpp:106] Creating Layer relu5_1
I0610 12:28:38.595957 33379 net.cpp:454] relu5_1 <- conv5_1
I0610 12:28:38.595970 33379 net.cpp:397] relu5_1 -> conv5_1 (in-place)
I0610 12:28:38.595988 33379 net.cpp:150] Setting up relu5_1
I0610 12:28:38.595998 33379 net.cpp:157] Top shape: 1 512 14 14 (100352)
I0610 12:28:38.596004 33379 net.cpp:165] Memory required for data: 112795648
I0610 12:28:38.596011 33379 layer_factory.hpp:77] Creating layer conv5_2
I0610 12:28:38.596029 33379 net.cpp:106] Creating Layer conv5_2
I0610 12:28:38.596052 33379 net.cpp:454] conv5_2 <- conv5_1
I0610 12:28:38.596063 33379 net.cpp:411] conv5_2 -> conv5_2
I0610 12:28:38.605332 33379 net.cpp:150] Setting up conv5_2
I0610 12:28:38.605386 33379 net.cpp:157] Top shape: 1 512 14 14 (100352)
I0610 12:28:38.605396 33379 net.cpp:165] Memory required for data: 113197056
I0610 12:28:38.605412 33379 layer_factory.hpp:77] Creating layer relu5_2
I0610 12:28:38.605438 33379 net.cpp:106] Creating Layer relu5_2
I0610 12:28:38.605449 33379 net.cpp:454] relu5_2 <- conv5_2
I0610 12:28:38.605468 33379 net.cpp:397] relu5_2 -> conv5_2 (in-place)
I0610 12:28:38.605482 33379 net.cpp:150] Setting up relu5_2
I0610 12:28:38.605501 33379 net.cpp:157] Top shape: 1 512 14 14 (100352)
I0610 12:28:38.605509 33379 net.cpp:165] Memory required for data: 113598464
I0610 12:28:38.605516 33379 layer_factory.hpp:77] Creating layer conv5_3
I0610 12:28:38.605530 33379 net.cpp:106] Creating Layer conv5_3
I0610 12:28:38.605548 33379 net.cpp:454] conv5_3 <- conv5_2
I0610 12:28:38.605563 33379 net.cpp:411] conv5_3 -> conv5_3
I0610 12:28:38.615243 33379 net.cpp:150] Setting up conv5_3
I0610 12:28:38.615304 33379 net.cpp:157] Top shape: 1 512 14 14 (100352)
I0610 12:28:38.615314 33379 net.cpp:165] Memory required for data: 113999872
I0610 12:28:38.615330 33379 layer_factory.hpp:77] Creating layer relu5_3
I0610 12:28:38.615360 33379 net.cpp:106] Creating Layer relu5_3
I0610 12:28:38.615370 33379 net.cpp:454] relu5_3 <- conv5_3
I0610 12:28:38.615383 33379 net.cpp:397] relu5_3 -> conv5_3 (in-place)
I0610 12:28:38.615401 33379 net.cpp:150] Setting up relu5_3
I0610 12:28:38.615422 33379 net.cpp:157] Top shape: 1 512 14 14 (100352)
I0610 12:28:38.615437 33379 net.cpp:165] Memory required for data: 114401280
I0610 12:28:38.615445 33379 layer_factory.hpp:77] Creating layer conv5_3_relu5_3_0_split
I0610 12:28:38.615478 33379 net.cpp:106] Creating Layer conv5_3_relu5_3_0_split
I0610 12:28:38.615489 33379 net.cpp:454] conv5_3_relu5_3_0_split <- conv5_3
I0610 12:28:38.615499 33379 net.cpp:411] conv5_3_relu5_3_0_split -> conv5_3_relu5_3_0_split_0
I0610 12:28:38.615548 33379 net.cpp:411] conv5_3_relu5_3_0_split -> conv5_3_relu5_3_0_split_1
I0610 12:28:38.615641 33379 net.cpp:150] Setting up conv5_3_relu5_3_0_split
I0610 12:28:38.615661 33379 net.cpp:157] Top shape: 1 512 14 14 (100352)
I0610 12:28:38.615670 33379 net.cpp:157] Top shape: 1 512 14 14 (100352)
I0610 12:28:38.615679 33379 net.cpp:165] Memory required for data: 115204096
I0610 12:28:38.615686 33379 layer_factory.hpp:77] Creating layer rpn_conv/3x3
I0610 12:28:38.615710 33379 net.cpp:106] Creating Layer rpn_conv/3x3
I0610 12:28:38.615726 33379 net.cpp:454] rpn_conv/3x3 <- conv5_3_relu5_3_0_split_0
I0610 12:28:38.615738 33379 net.cpp:411] rpn_conv/3x3 -> rpn/output
I0610 12:28:38.645889 33379 net.cpp:150] Setting up rpn_conv/3x3
I0610 12:28:38.645956 33379 net.cpp:157] Top shape: 1 512 14 14 (100352)
I0610 12:28:38.645965 33379 net.cpp:165] Memory required for data: 115605504
I0610 12:28:38.645982 33379 layer_factory.hpp:77] Creating layer rpn_relu/3x3
I0610 12:28:38.646031 33379 net.cpp:106] Creating Layer rpn_relu/3x3
I0610 12:28:38.646045 33379 net.cpp:454] rpn_relu/3x3 <- rpn/output
I0610 12:28:38.646059 33379 net.cpp:397] rpn_relu/3x3 -> rpn/output (in-place)
I0610 12:28:38.646093 33379 net.cpp:150] Setting up rpn_relu/3x3
I0610 12:28:38.646104 33379 net.cpp:157] Top shape: 1 512 14 14 (100352)
I0610 12:28:38.646114 33379 net.cpp:165] Memory required for data: 116006912
I0610 12:28:38.646123 33379 layer_factory.hpp:77] Creating layer rpn/output_rpn_relu/3x3_0_split
I0610 12:28:38.646142 33379 net.cpp:106] Creating Layer rpn/output_rpn_relu/3x3_0_split
I0610 12:28:38.646215 33379 net.cpp:454] rpn/output_rpn_relu/3x3_0_split <- rpn/output
I0610 12:28:38.646227 33379 net.cpp:411] rpn/output_rpn_relu/3x3_0_split -> rpn/output_rpn_relu/3x3_0_split_0
I0610 12:28:38.646240 33379 net.cpp:411] rpn/output_rpn_relu/3x3_0_split -> rpn/output_rpn_relu/3x3_0_split_1
I0610 12:28:38.646339 33379 net.cpp:150] Setting up rpn/output_rpn_relu/3x3_0_split
I0610 12:28:38.646360 33379 net.cpp:157] Top shape: 1 512 14 14 (100352)
I0610 12:28:38.646369 33379 net.cpp:157] Top shape: 1 512 14 14 (100352)
I0610 12:28:38.646376 33379 net.cpp:165] Memory required for data: 116809728
I0610 12:28:38.646390 33379 layer_factory.hpp:77] Creating layer rpn_cls_score
I0610 12:28:38.646410 33379 net.cpp:106] Creating Layer rpn_cls_score
I0610 12:28:38.646425 33379 net.cpp:454] rpn_cls_score <- rpn/output_rpn_relu/3x3_0_split_0
I0610 12:28:38.646447 33379 net.cpp:411] rpn_cls_score -> rpn_cls_score
I0610 12:28:38.646934 33379 net.cpp:150] Setting up rpn_cls_score
I0610 12:28:38.646975 33379 net.cpp:157] Top shape: 1 18 14 14 (3528)
I0610 12:28:38.646982 33379 net.cpp:165] Memory required for data: 116823840
I0610 12:28:38.646993 33379 layer_factory.hpp:77] Creating layer rpn_bbox_pred
I0610 12:28:38.647014 33379 net.cpp:106] Creating Layer rpn_bbox_pred
I0610 12:28:38.647024 33379 net.cpp:454] rpn_bbox_pred <- rpn/output_rpn_relu/3x3_0_split_1
I0610 12:28:38.647038 33379 net.cpp:411] rpn_bbox_pred -> rpn_bbox_pred
I0610 12:28:38.647619 33379 net.cpp:150] Setting up rpn_bbox_pred
I0610 12:28:38.647647 33379 net.cpp:157] Top shape: 1 36 14 14 (7056)
I0610 12:28:38.647655 33379 net.cpp:165] Memory required for data: 116852064
I0610 12:28:38.647666 33379 layer_factory.hpp:77] Creating layer rpn_cls_score_reshape
I0610 12:28:38.647683 33379 net.cpp:106] Creating Layer rpn_cls_score_reshape
I0610 12:28:38.647696 33379 net.cpp:454] rpn_cls_score_reshape <- rpn_cls_score
I0610 12:28:38.647707 33379 net.cpp:411] rpn_cls_score_reshape -> rpn_cls_score_reshape
I0610 12:28:38.647759 33379 net.cpp:150] Setting up rpn_cls_score_reshape
I0610 12:28:38.647778 33379 net.cpp:157] Top shape: 1 2 126 14 (3528)
I0610 12:28:38.647786 33379 net.cpp:165] Memory required for data: 116866176
I0610 12:28:38.647794 33379 layer_factory.hpp:77] Creating layer rpn_cls_prob
I0610 12:28:38.647806 33379 net.cpp:106] Creating Layer rpn_cls_prob
I0610 12:28:38.647816 33379 net.cpp:454] rpn_cls_prob <- rpn_cls_score_reshape
I0610 12:28:38.647830 33379 net.cpp:411] rpn_cls_prob -> rpn_cls_prob
I0610 12:28:38.647940 33379 net.cpp:150] Setting up rpn_cls_prob
I0610 12:28:38.647961 33379 net.cpp:157] Top shape: 1 2 126 14 (3528)
I0610 12:28:38.647969 33379 net.cpp:165] Memory required for data: 116880288
I0610 12:28:38.647977 33379 layer_factory.hpp:77] Creating layer rpn_cls_prob_reshape
I0610 12:28:38.647989 33379 net.cpp:106] Creating Layer rpn_cls_prob_reshape
I0610 12:28:38.648008 33379 net.cpp:454] rpn_cls_prob_reshape <- rpn_cls_prob
I0610 12:28:38.648022 33379 net.cpp:411] rpn_cls_prob_reshape -> rpn_cls_prob_reshape
I0610 12:28:38.648066 33379 net.cpp:150] Setting up rpn_cls_prob_reshape
I0610 12:28:38.648084 33379 net.cpp:157] Top shape: 1 18 14 14 (3528)
I0610 12:28:38.648092 33379 net.cpp:165] Memory required for data: 116894400
I0610 12:28:38.648099 33379 layer_factory.hpp:77] Creating layer proposal
I0610 12:28:38.653676 33379 net.cpp:106] Creating Layer proposal
I0610 12:28:38.653729 33379 net.cpp:454] proposal <- rpn_cls_prob_reshape
I0610 12:28:38.653781 33379 net.cpp:454] proposal <- rpn_bbox_pred
I0610 12:28:38.653791 33379 net.cpp:454] proposal <- im_info
I0610 12:28:38.653810 33379 net.cpp:411] proposal -> rois
I0610 12:28:38.654870 33379 net.cpp:150] Setting up proposal
I0610 12:28:38.654911 33379 net.cpp:157] Top shape: 1 5 (5)
I0610 12:28:38.654922 33379 net.cpp:165] Memory required for data: 116894420
I0610 12:28:38.654932 33379 layer_factory.hpp:77] Creating layer roi_pool5
I0610 12:28:38.654959 33379 net.cpp:106] Creating Layer roi_pool5
I0610 12:28:38.654973 33379 net.cpp:454] roi_pool5 <- conv5_3_relu5_3_0_split_1
I0610 12:28:38.654987 33379 net.cpp:454] roi_pool5 <- rois
I0610 12:28:38.654999 33379 net.cpp:411] roi_pool5 -> pool5
I0610 12:28:38.655019 33379 roi_pooling_layer.cpp:30] Spatial scale: 0.0625
I0610 12:28:38.655120 33379 net.cpp:150] Setting up roi_pool5
I0610 12:28:38.655171 33379 net.cpp:157] Top shape: 1 512 7 7 (25088)
I0610 12:28:38.655185 33379 net.cpp:165] Memory required for data: 116994772
I0610 12:28:38.655194 33379 layer_factory.hpp:77] Creating layer fc6
I0610 12:28:38.655212 33379 net.cpp:106] Creating Layer fc6
I0610 12:28:38.655277 33379 net.cpp:454] fc6 <- pool5
I0610 12:28:38.655310 33379 net.cpp:411] fc6 -> fc6
I0610 12:28:39.004760 33379 net.cpp:150] Setting up fc6
I0610 12:28:39.004837 33379 net.cpp:157] Top shape: 1 4096 (4096)
I0610 12:28:39.004848 33379 net.cpp:165] Memory required for data: 117011156
I0610 12:28:39.004884 33379 layer_factory.hpp:77] Creating layer relu6
I0610 12:28:39.004907 33379 net.cpp:106] Creating Layer relu6
I0610 12:28:39.004922 33379 net.cpp:454] relu6 <- fc6
I0610 12:28:39.004938 33379 net.cpp:397] relu6 -> fc6 (in-place)
I0610 12:28:39.004979 33379 net.cpp:150] Setting up relu6
I0610 12:28:39.004992 33379 net.cpp:157] Top shape: 1 4096 (4096)
I0610 12:28:39.004999 33379 net.cpp:165] Memory required for data: 117027540
I0610 12:28:39.005007 33379 layer_factory.hpp:77] Creating layer drop6
I0610 12:28:39.005026 33379 net.cpp:106] Creating Layer drop6
I0610 12:28:39.005051 33379 net.cpp:454] drop6 <- fc6
I0610 12:28:39.005064 33379 net.cpp:397] drop6 -> fc6 (in-place)
I0610 12:28:39.005121 33379 net.cpp:150] Setting up drop6
I0610 12:28:39.005154 33379 net.cpp:157] Top shape: 1 4096 (4096)
I0610 12:28:39.005164 33379 net.cpp:165] Memory required for data: 117043924
I0610 12:28:39.005174 33379 layer_factory.hpp:77] Creating layer fc7
I0610 12:28:39.005192 33379 net.cpp:106] Creating Layer fc7
I0610 12:28:39.005221 33379 net.cpp:454] fc7 <- fc6
I0610 12:28:39.005234 33379 net.cpp:411] fc7 -> fc7
I0610 12:28:39.067121 33379 net.cpp:150] Setting up fc7
I0610 12:28:39.067198 33379 net.cpp:157] Top shape: 1 4096 (4096)
I0610 12:28:39.067209 33379 net.cpp:165] Memory required for data: 117060308
I0610 12:28:39.067229 33379 layer_factory.hpp:77] Creating layer relu7
I0610 12:28:39.067252 33379 net.cpp:106] Creating Layer relu7
I0610 12:28:39.067263 33379 net.cpp:454] relu7 <- fc7
I0610 12:28:39.067281 33379 net.cpp:397] relu7 -> fc7 (in-place)
I0610 12:28:39.067301 33379 net.cpp:150] Setting up relu7
I0610 12:28:39.067311 33379 net.cpp:157] Top shape: 1 4096 (4096)
I0610 12:28:39.067318 33379 net.cpp:165] Memory required for data: 117076692
I0610 12:28:39.067329 33379 layer_factory.hpp:77] Creating layer drop7
I0610 12:28:39.067348 33379 net.cpp:106] Creating Layer drop7
I0610 12:28:39.067369 33379 net.cpp:454] drop7 <- fc7
I0610 12:28:39.067384 33379 net.cpp:397] drop7 -> fc7 (in-place)
I0610 12:28:39.067457 33379 net.cpp:150] Setting up drop7
I0610 12:28:39.067482 33379 net.cpp:157] Top shape: 1 4096 (4096)
I0610 12:28:39.067497 33379 net.cpp:165] Memory required for data: 117093076
I0610 12:28:39.067507 33379 layer_factory.hpp:77] Creating layer fc7_drop7_0_split
I0610 12:28:39.067520 33379 net.cpp:106] Creating Layer fc7_drop7_0_split
I0610 12:28:39.067531 33379 net.cpp:454] fc7_drop7_0_split <- fc7
I0610 12:28:39.067548 33379 net.cpp:411] fc7_drop7_0_split -> fc7_drop7_0_split_0
I0610 12:28:39.067564 33379 net.cpp:411] fc7_drop7_0_split -> fc7_drop7_0_split_1
I0610 12:28:39.067664 33379 net.cpp:150] Setting up fc7_drop7_0_split
I0610 12:28:39.067685 33379 net.cpp:157] Top shape: 1 4096 (4096)
I0610 12:28:39.067697 33379 net.cpp:157] Top shape: 1 4096 (4096)
I0610 12:28:39.067704 33379 net.cpp:165] Memory required for data: 117125844
I0610 12:28:39.067713 33379 layer_factory.hpp:77] Creating layer cls_score
I0610 12:28:39.067734 33379 net.cpp:106] Creating Layer cls_score
I0610 12:28:39.067744 33379 net.cpp:454] cls_score <- fc7_drop7_0_split_0
I0610 12:28:39.067761 33379 net.cpp:411] cls_score -> cls_score
I0610 12:28:39.068434 33379 net.cpp:150] Setting up cls_score
I0610 12:28:39.068513 33379 net.cpp:157] Top shape: 1 8 (8)
I0610 12:28:39.068563 33379 net.cpp:165] Memory required for data: 117125876
I0610 12:28:39.068611 33379 layer_factory.hpp:77] Creating layer bbox_pred
I0610 12:28:39.068634 33379 net.cpp:106] Creating Layer bbox_pred
I0610 12:28:39.068691 33379 net.cpp:454] bbox_pred <- fc7_drop7_0_split_1
I0610 12:28:39.068717 33379 net.cpp:411] bbox_pred -> bbox_pred
I0610 12:28:39.073889 33379 net.cpp:150] Setting up bbox_pred
I0610 12:28:39.073927 33379 net.cpp:157] Top shape: 1 32 (32)
I0610 12:28:39.073943 33379 net.cpp:165] Memory required for data: 117126004
I0610 12:28:39.073966 33379 layer_factory.hpp:77] Creating layer cls_prob
I0610 12:28:39.073992 33379 net.cpp:106] Creating Layer cls_prob
I0610 12:28:39.074038 33379 net.cpp:454] cls_prob <- cls_score
I0610 12:28:39.074065 33379 net.cpp:411] cls_prob -> cls_prob
I0610 12:28:39.074339 33379 net.cpp:150] Setting up cls_prob
I0610 12:28:39.074371 33379 net.cpp:157] Top shape: 1 8 (8)
I0610 12:28:39.074401 33379 net.cpp:165] Memory required for data: 117126036
I0610 12:28:39.074419 33379 net.cpp:228] cls_prob does not need backward computation.
I0610 12:28:39.074453 33379 net.cpp:228] bbox_pred does not need backward computation.
I0610 12:28:39.074478 33379 net.cpp:228] cls_score does not need backward computation.
I0610 12:28:39.074496 33379 net.cpp:228] fc7_drop7_0_split does not need backward computation.
…
