…
snapshot_prefix: "vgg16_faster_rcnn"
average_loss: 100
iter_size: 2
I0605 08:22:10.420845  6672 solver.cpp:81] Creating training net from train_net file: models/pascal_voc/VGG16/faster_rcnn_end2end/train.prototxt
I0605 08:22:10.422291  6672 net.cpp:49] Initializing net from parameters: 
name: "VGG_ILSVRC_16_layers"
state {
  phase: TRAIN
}
layer {
  name: "input-data"
  type: "Python"
  top: "data"
  top: "im_info"
  top: "gt_boxes"
  python_param {
    module: "roi_data_layer.layer"
    layer: "RoIDataLayer"
    param_str: "\'num_classes\': 8"
  }
}
layer {
  name: "conv1_1"
  type: "Convolution"
  bottom: "data"
  top: "conv1_1"
  param {
    lr_mult: 0
    decay_mult: 0
  }
  param {
    lr_mult: 0
    decay_mult: 0
  }
  convolution_param {
    num_output: 64
    pad: 1
    kernel_size: 3
  }
}
layer {
  name: "relu1_1"
  type: "ReLU"
  bottom: "conv1_1"
  top: "conv1_1"
}
layer {
  name: "conv1_2"
  type: "Convolution"
  bottom: "conv1_1"
  top: "conv1_2"
  param {
    lr_mult: 0
    decay_mult: 0
  }
  param {
    lr_mult: 0
    decay_mult: 0
  }
  convolution_param {
    num_output: 64
    pad: 1
    kernel_size: 3
  }
}
layer {
  name: "relu1_2"
  type: "ReLU"
  bottom: "conv1_2"
  top: "conv1_2"
}
layer {
  name: "pool1"
  type: "Pooling"
  bottom: "conv1_2"
  top: "pool1"
  pooling_param {
    pool: MAX
    kernel_size: 2
    stride: 2
  }
}
layer {
  name: "conv2_1"
  type: "Convolution"
  bottom: "pool1"
  top: "conv2_1"
  param {
    lr_mult: 0
    decay_mult: 0
  }
  param {
    lr_mult: 0
    decay_mult: 0
  }
  convolution_param {
    num_output: 128
    pad: 1
    kernel_size: 3
  }
}
layer {
  name: "relu2_1"
  type: "ReLU"
  bottom: "conv2_1"
  top: "conv2_1"
}
layer {
  name: "conv2_2"
  type: "Convolution"
  bottom: "conv2_1"
  top: "conv2_2"
  param {
    lr_mult: 0
    decay_mult: 0
  }
  param {
    lr_mult: 0
    decay_mult: 0
  }
  convolution_param {
    num_output: 128
    pad: 1
    kernel_size: 3
  }
}
layer {
  name: "relu2_2"
  type: "ReLU"
  bottom: "conv2_2"
  top: "conv2_2"
}
layer {
  name: "pool2"
  type: "Pooling"
  bottom: "conv2_2"
  top: "pool2"
  pooling_param {
    pool: MAX
    kernel_size: 2
    stride: 2
  }
}
layer {
  name: "conv3_1"
  type: "Convolution"
  bottom: "pool2"
  top: "conv3_1"
  param {
    lr_mult: 1
  }
  param {
    lr_mult: 2
  }
  convolution_param {
    num_output: 256
    pad: 1
    kernel_size: 3
  }
}
layer {
  name: "relu3_1"
  type: "ReLU"
  bottom: "conv3_1"
  top: "conv3_1"
}
layer {
  name: "conv3_2"
  type: "Convolution"
  bottom: "conv3_1"
  top: "conv3_2"
  param {
    lr_mult: 1
  }
  param {
    lr_mult: 2
  }
  convolution_param {
    num_output: 256
    pad: 1
    kernel_size: 3
  }
}
layer {
  name: "relu3_2"
  type: "ReLU"
  bottom: "conv3_2"
  top: "conv3_2"
}
layer {
  name: "conv3_3"
  type: "Convolution"
  bottom: "conv3_2"
  top: "conv3_3"
  param {
    lr_mult: 1
  }
  param {
    lr_mult: 2
  }
  convolution_param {
    num_output: 256
    pad: 1
    kernel_size: 3
  }
}
layer {
  name: "relu3_3"
  type: "ReLU"
  bottom: "conv3_3"
  top: "conv3_3"
}
layer {
  name: "pool3"
  type: "Pooling"
  bottom: "conv3_3"
  top: "pool3"
  pooling_param {
    pool: MAX
    kernel_size: 2
    stride: 2
  }
}
layer {
  name: "conv4_1"
  type: "Convolution"
  bottom: "pool3"
  top: "conv4_1"
  param {
    lr_mult: 1
  }
  param {
    lr_mult: 2
  }
  convolution_param {
    num_output: 512
    pad: 1
    kernel_size: 3
  }
}
layer {
  name: "relu4_1"
  type: "ReLU"
  bottom: "conv4_1"
  top: "conv4_1"
}
layer {
  name: "conv4_2"
  type: "Convolution"
  bottom: "conv4_1"
  top: "conv4_2"
  param {
    lr_mult: 1
  }
  param {
    lr_mult: 2
  }
  convolution_param {
    num_output: 512
    pad: 1
    kernel_size: 3
  }
}
layer {
  name: "relu4_2"
  type: "ReLU"
  bottom: "conv4_2"
  top: "conv4_2"
}
layer {
  name: "conv4_3"
  type: "Convolution"
  bottom: "conv4_2"
  top: "conv4_3"
  param {
    lr_mult: 1
  }
  param {
    lr_mult: 2
  }
  convolution_param {
    num_output: 512
    pad: 1
    kernel_size: 3
  }
}
layer {
  name: "relu4_3"
  type: "ReLU"
  bottom: "conv4_3"
  top: "conv4_3"
}
layer {
  name: "pool4"
  type: "Pooling"
  bottom: "conv4_3"
  top: "pool4"
  pooling_param {
    pool: MAX
    kernel_size: 2
    stride: 2
  }
}
layer {
  name: "conv5_1"
  type: "Convolution"
  bottom: "pool4"
  top: "conv5_1"
  param {
    lr_mult: 1
  }
  param {
    lr_mult: 2
  }
  convolution_param {
    num_output: 512
    pad: 1
    kernel_size: 3
  }
}
layer {
  name: "relu5_1"
  type: "ReLU"
  bottom: "conv5_1"
  top: "conv5_1"
}
layer {
  name: "conv5_2"
  type: "Convolution"
  bottom: "conv5_1"
  top: "conv5_2"
  param {
    lr_mult: 1
  }
  param {
    lr_mult: 2
  }
  convolution_param {
    num_output: 512
    pad: 1
    kernel_size: 3
  }
}
layer {
  name: "relu5_2"
  type: "ReLU"
  bottom: "conv5_2"
  top: "conv5_2"
}
layer {
  name: "conv5_3"
  type: "Convolution"
  bottom: "conv5_2"
  top: "conv5_3"
  param {
    lr_mult: 1
  }
  param {
    lr_mult: 2
  }
  convolution_param {
    num_output: 512
    pad: 1
    kernel_size: 3
  }
}
layer {
  name: "relu5_3"
  type: "ReLU"
  bottom: "conv5_3"
  top: "conv5_3"
}
layer {
  name: "rpn_conv/3x3"
  type: "Convolution"
  bottom: "conv5_3"
  top: "rpn/output"
  param {
    lr_mult: 1
  }
  param {
    lr_mult: 2
  }
  convolution_param {
    num_output: 512
    pad: 1
    kernel_size: 3
    stride: 1
    weight_filler {
      type: "gaussian"
      std: 0.01
    }
    bias_filler {
      type: "constant"
      value: 0
    }
  }
}
layer {
  name: "rpn_relu/3x3"
  type: "ReLU"
  bottom: "rpn/output"
  top: "rpn/output"
}
layer {
  name: "rpn_cls_score"
  type: "Convolution"
  bottom: "rpn/output"
  top: "rpn_cls_score"
  param {
    lr_mult: 1
  }
  param {
    lr_mult: 2
  }
  convolution_param {
    num_output: 18
    pad: 0
    kernel_size: 1
    stride: 1
    weight_filler {
      type: "gaussian"
      std: 0.01
    }
    bias_filler {
      type: "constant"
      value: 0
    }
  }
}
layer {
  name: "rpn_bbox_pred"
  type: "Convolution"
  bottom: "rpn/output"
  top: "rpn_bbox_pred"
  param {
    lr_mult: 1
  }
  param {
    lr_mult: 2
  }
  convolution_param {
    num_output: 36
    pad: 0
    kernel_size: 1
    stride: 1
    weight_filler {
      type: "gaussian"
      std: 0.01
    }
    bias_filler {
      type: "constant"
      value: 0
    }
  }
}
layer {
  name: "rpn_cls_score_reshape"
  type: "Reshape"
  bottom: "rpn_cls_score"
  top: "rpn_cls_score_reshape"
  reshape_param {
    shape {
      dim: 0
      dim: 2
      dim: -1
      dim: 0
    }
  }
}
layer {
  name: "rpn-data"
  type: "Python"
  bottom: "rpn_cls_score"
  bottom: "gt_boxes"
  bottom: "im_info"
  bottom: "data"
  top: "rpn_labels"
  top: "rpn_bbox_targets"
  top: "rpn_bbox_inside_weights"
  top: "rpn_bbox_outside_weights"
  python_param {
    module: "rpn.anchor_target_layer"
    layer: "AnchorTargetLayer"
    param_str: "\'feat_stride\': 16"
  }
}
layer {
  name: "rpn_loss_cls"
  type: "SoftmaxWithLoss"
  bottom: "rpn_cls_score_reshape"
  bottom: "rpn_labels"
  top: "rpn_cls_loss"
  loss_weight: 1
  propagate_down: true
  propagate_down: false
  loss_param {
    ignore_label: -1
    normalize: true
  }
}
layer {
  name: "rpn_loss_bbox"
  type: "SmoothL1Loss"
  bottom: "rpn_bbox_pred"
  bottom: "rpn_bbox_targets"
  bottom: "rpn_bbox_inside_weights"
  bottom: "rpn_bbox_outside_weights"
  top: "rpn_loss_bbox"
  loss_weight: 1
  smooth_l1_loss_param {
    sigma: 3
  }
}
layer {
  name: "rpn_cls_prob"
  type: "Softmax"
  bottom: "rpn_cls_score_reshape"
  top: "rpn_cls_prob"
}
layer {
  name: "rpn_cls_prob_reshape"
  type: "Reshape"
  bottom: "rpn_cls_prob"
  top: "rpn_cls_prob_reshape"
  reshape_param {
    shape {
      dim: 0
      dim: 18
      dim: -1
      dim: 0
    }
  }
}
layer {
  name: "proposal"
  type: "Python"
  bottom: "rpn_cls_prob_reshape"
  bottom: "rpn_bbox_pred"
  bottom: "im_info"
  top: "rpn_rois"
  python_param {
    module: "rpn.proposal_layer"
    layer: "ProposalLayer"
    param_str: "\'feat_stride\': 16"
  }
}
layer {
  name: "roi-data"
  type: "Python"
  bottom: "rpn_rois"
  bottom: "gt_boxes"
  top: "rois"
  top: "labels"
  top: "bbox_targets"
  top: "bbox_inside_weights"
  top: "bbox_outside_weights"
  python_param {
    module: "rpn.proposal_target_layer"
    layer: "ProposalTargetLayer"
    param_str: "\'num_classes\': 8"
  }
}
layer {
  name: "roi_pool5"
  type: "ROIPooling"
  bottom: "conv5_3"
  bottom: "rois"
  top: "pool5"
  roi_pooling_param {
    pooled_h: 7
    pooled_w: 7
    spatial_scale: 0.0625
  }
}
layer {
  name: "fc6"
  type: "InnerProduct"
  bottom: "pool5"
  top: "fc6"
  param {
    lr_mult: 1
  }
  param {
    lr_mult: 2
  }
  inner_product_param {
    num_output: 4096
  }
}
layer {
  name: "relu6"
  type: "ReLU"
  bottom: "fc6"
  top: "fc6"
}
layer {
  name: "drop6"
  type: "Dropout"
  bottom: "fc6"
  top: "fc6"
  dropout_param {
    dropout_ratio: 0.5
  }
}
layer {
  name: "fc7"
  type: "InnerProduct"
  bottom: "fc6"
  top: "fc7"
  param {
    lr_mult: 1
  }
  param {
    lr_mult: 2
  }
  inner_product_param {
    num_output: 4096
  }
}
layer {
  name: "relu7"
  type: "ReLU"
  bottom: "fc7"
  top: "fc7"
}
layer {
  name: "drop7"
  type: "Dropout"
  bottom: "fc7"
  top: "fc7"
  dropout_param {
    dropout_ratio: 0.5
  }
}
layer {
  name: "cls_score"
  type: "InnerProduct"
  bottom: "fc7"
  top: "cls_score"
  param {
    lr_mult: 1
  }
  param {
    lr_mult: 2
  }
  inner_product_param {
    num_output: 8
    weight_filler {
      type: "gaussian"
      std: 0.01
    }
    bias_filler {
      type: "constant"
      value: 0
    }
  }
}
layer {
  name: "bbox_pred"
  type: "InnerProduct"
  bottom: "fc7"
  top: "bbox_pred"
  param {
    lr_mult: 1
  }
  param {
    lr_mult: 2
  }
  inner_product_param {
    num_output: 32
    weight_filler {
      type: "gaussian"
      std: 0.001
    }
    bias_filler {
      type: "constant"
      value: 0
    }
  }
}
layer {
  name: "loss_cls"
  type: "SoftmaxWithLoss"
  bottom: "cls_score"
  bottom: "labels"
  top: "loss_cls"
  loss_weight: 1
  propagate_down: true
  propagate_down: false
}
layer {
  name: "loss_bbox"
  type: "SmoothL1Loss"
  bottom: "bbox_pred"
  bottom: "bbox_targets"
  bottom: "bbox_inside_weights"
  bottom: "bbox_outside_weights"
  top: "loss_bbox"
  loss_weight: 1
}
I0605 08:22:10.422616  6672 layer_factory.hpp:77] Creating layer input-data
I0605 08:22:10.442715  6672 net.cpp:106] Creating Layer input-data
I0605 08:22:10.442754  6672 net.cpp:411] input-data -> data
I0605 08:22:10.442778  6672 net.cpp:411] input-data -> im_info
I0605 08:22:10.442796  6672 net.cpp:411] input-data -> gt_boxes
RoiDataLayer: name_to_top: {'gt_boxes': 2, 'data': 0, 'im_info': 1}
I0605 08:22:10.991873  6672 net.cpp:150] Setting up input-data
I0605 08:22:10.991920  6672 net.cpp:157] Top shape: 1 3 600 1000 (1800000)
I0605 08:22:10.991940  6672 net.cpp:157] Top shape: 1 3 (3)
I0605 08:22:10.991966  6672 net.cpp:157] Top shape: 1 4 (4)
I0605 08:22:10.991986  6672 net.cpp:165] Memory required for data: 7200028
I0605 08:22:10.992004  6672 layer_factory.hpp:77] Creating layer data_input-data_0_split
I0605 08:22:10.992034  6672 net.cpp:106] Creating Layer data_input-data_0_split
I0605 08:22:10.992046  6672 net.cpp:454] data_input-data_0_split <- data
I0605 08:22:10.992060  6672 net.cpp:411] data_input-data_0_split -> data_input-data_0_split_0
I0605 08:22:10.992079  6672 net.cpp:411] data_input-data_0_split -> data_input-data_0_split_1
I0605 08:22:10.992171  6672 net.cpp:150] Setting up data_input-data_0_split
I0605 08:22:10.992190  6672 net.cpp:157] Top shape: 1 3 600 1000 (1800000)
I0605 08:22:10.992200  6672 net.cpp:157] Top shape: 1 3 600 1000 (1800000)
I0605 08:22:10.992208  6672 net.cpp:165] Memory required for data: 21600028
I0605 08:22:10.992216  6672 layer_factory.hpp:77] Creating layer im_info_input-data_1_split
I0605 08:22:10.992231  6672 net.cpp:106] Creating Layer im_info_input-data_1_split
I0605 08:22:10.992262  6672 net.cpp:454] im_info_input-data_1_split <- im_info
I0605 08:22:10.992276  6672 net.cpp:411] im_info_input-data_1_split -> im_info_input-data_1_split_0
I0605 08:22:10.992297  6672 net.cpp:411] im_info_input-data_1_split -> im_info_input-data_1_split_1
I0605 08:22:10.992354  6672 net.cpp:150] Setting up im_info_input-data_1_split
I0605 08:22:10.992379  6672 net.cpp:157] Top shape: 1 3 (3)
I0605 08:22:10.992388  6672 net.cpp:157] Top shape: 1 3 (3)
I0605 08:22:10.992395  6672 net.cpp:165] Memory required for data: 21600052
I0605 08:22:10.992403  6672 layer_factory.hpp:77] Creating layer gt_boxes_input-data_2_split
I0605 08:22:10.992429  6672 net.cpp:106] Creating Layer gt_boxes_input-data_2_split
I0605 08:22:10.992450  6672 net.cpp:454] gt_boxes_input-data_2_split <- gt_boxes
I0605 08:22:10.992461  6672 net.cpp:411] gt_boxes_input-data_2_split -> gt_boxes_input-data_2_split_0
I0605 08:22:10.992473  6672 net.cpp:411] gt_boxes_input-data_2_split -> gt_boxes_input-data_2_split_1
I0605 08:22:10.992535  6672 net.cpp:150] Setting up gt_boxes_input-data_2_split
I0605 08:22:10.992554  6672 net.cpp:157] Top shape: 1 4 (4)
I0605 08:22:10.992563  6672 net.cpp:157] Top shape: 1 4 (4)
I0605 08:22:10.992570  6672 net.cpp:165] Memory required for data: 21600084
I0605 08:22:10.992578  6672 layer_factory.hpp:77] Creating layer conv1_1
I0605 08:22:10.992599  6672 net.cpp:106] Creating Layer conv1_1
I0605 08:22:10.992614  6672 net.cpp:454] conv1_1 <- data_input-data_0_split_0
I0605 08:22:10.992625  6672 net.cpp:411] conv1_1 -> conv1_1
I0605 08:22:11.000401  6672 net.cpp:150] Setting up conv1_1
I0605 08:22:11.000439  6672 net.cpp:157] Top shape: 1 64 600 1000 (38400000)
I0605 08:22:11.000449  6672 net.cpp:165] Memory required for data: 175200084
I0605 08:22:11.000468  6672 layer_factory.hpp:77] Creating layer relu1_1
I0605 08:22:11.000499  6672 net.cpp:106] Creating Layer relu1_1
I0605 08:22:11.000509  6672 net.cpp:454] relu1_1 <- conv1_1
I0605 08:22:11.000519  6672 net.cpp:397] relu1_1 -> conv1_1 (in-place)
I0605 08:22:11.000531  6672 net.cpp:150] Setting up relu1_1
I0605 08:22:11.000545  6672 net.cpp:157] Top shape: 1 64 600 1000 (38400000)
I0605 08:22:11.000553  6672 net.cpp:165] Memory required for data: 328800084
I0605 08:22:11.000562  6672 layer_factory.hpp:77] Creating layer conv1_2
I0605 08:22:11.000579  6672 net.cpp:106] Creating Layer conv1_2
I0605 08:22:11.000587  6672 net.cpp:454] conv1_2 <- conv1_1
I0605 08:22:11.000600  6672 net.cpp:411] conv1_2 -> conv1_2
I0605 08:22:11.008236  6672 net.cpp:150] Setting up conv1_2
I0605 08:22:11.008270  6672 net.cpp:157] Top shape: 1 64 600 1000 (38400000)
I0605 08:22:11.008292  6672 net.cpp:165] Memory required for data: 482400084
I0605 08:22:11.008313  6672 layer_factory.hpp:77] Creating layer relu1_2
I0605 08:22:11.008332  6672 net.cpp:106] Creating Layer relu1_2
I0605 08:22:11.008343  6672 net.cpp:454] relu1_2 <- conv1_2
I0605 08:22:11.008353  6672 net.cpp:397] relu1_2 -> conv1_2 (in-place)
I0605 08:22:11.008368  6672 net.cpp:150] Setting up relu1_2
I0605 08:22:11.008379  6672 net.cpp:157] Top shape: 1 64 600 1000 (38400000)
I0605 08:22:11.008404  6672 net.cpp:165] Memory required for data: 636000084
I0605 08:22:11.008412  6672 layer_factory.hpp:77] Creating layer pool1
I0605 08:22:11.008428  6672 net.cpp:106] Creating Layer pool1
I0605 08:22:11.008440  6672 net.cpp:454] pool1 <- conv1_2
I0605 08:22:11.008450  6672 net.cpp:411] pool1 -> pool1
I0605 08:22:11.008529  6672 net.cpp:150] Setting up pool1
I0605 08:22:11.008550  6672 net.cpp:157] Top shape: 1 64 300 500 (9600000)
I0605 08:22:11.008559  6672 net.cpp:165] Memory required for data: 674400084
I0605 08:22:11.008566  6672 layer_factory.hpp:77] Creating layer conv2_1
I0605 08:22:11.008582  6672 net.cpp:106] Creating Layer conv2_1
I0605 08:22:11.008604  6672 net.cpp:454] conv2_1 <- pool1
I0605 08:22:11.008617  6672 net.cpp:411] conv2_1 -> conv2_1
I0605 08:22:11.012418  6672 net.cpp:150] Setting up conv2_1
I0605 08:22:11.012450  6672 net.cpp:157] Top shape: 1 128 300 500 (19200000)
I0605 08:22:11.012460  6672 net.cpp:165] Memory required for data: 751200084
I0605 08:22:11.012475  6672 layer_factory.hpp:77] Creating layer relu2_1
I0605 08:22:11.012491  6672 net.cpp:106] Creating Layer relu2_1
I0605 08:22:11.012503  6672 net.cpp:454] relu2_1 <- conv2_1
I0605 08:22:11.012513  6672 net.cpp:397] relu2_1 -> conv2_1 (in-place)
I0605 08:22:11.012526  6672 net.cpp:150] Setting up relu2_1
I0605 08:22:11.012536  6672 net.cpp:157] Top shape: 1 128 300 500 (19200000)
I0605 08:22:11.012544  6672 net.cpp:165] Memory required for data: 828000084
I0605 08:22:11.012552  6672 layer_factory.hpp:77] Creating layer conv2_2
I0605 08:22:11.012568  6672 net.cpp:106] Creating Layer conv2_2
I0605 08:22:11.012578  6672 net.cpp:454] conv2_2 <- conv2_1
I0605 08:22:11.012591  6672 net.cpp:411] conv2_2 -> conv2_2
I0605 08:22:11.013137  6672 net.cpp:150] Setting up conv2_2
I0605 08:22:11.013162  6672 net.cpp:157] Top shape: 1 128 300 500 (19200000)
I0605 08:22:11.013170  6672 net.cpp:165] Memory required for data: 904800084
I0605 08:22:11.013180  6672 layer_factory.hpp:77] Creating layer relu2_2
I0605 08:22:11.013191  6672 net.cpp:106] Creating Layer relu2_2
I0605 08:22:11.013202  6672 net.cpp:454] relu2_2 <- conv2_2
I0605 08:22:11.013212  6672 net.cpp:397] relu2_2 -> conv2_2 (in-place)
I0605 08:22:11.013224  6672 net.cpp:150] Setting up relu2_2
I0605 08:22:11.013239  6672 net.cpp:157] Top shape: 1 128 300 500 (19200000)
I0605 08:22:11.013247  6672 net.cpp:165] Memory required for data: 981600084
I0605 08:22:11.013255  6672 layer_factory.hpp:77] Creating layer pool2
I0605 08:22:11.013265  6672 net.cpp:106] Creating Layer pool2
I0605 08:22:11.013275  6672 net.cpp:454] pool2 <- conv2_2
I0605 08:22:11.013285  6672 net.cpp:411] pool2 -> pool2
I0605 08:22:11.013351  6672 net.cpp:150] Setting up pool2
I0605 08:22:11.013370  6672 net.cpp:157] Top shape: 1 128 150 250 (4800000)
I0605 08:22:11.013378  6672 net.cpp:165] Memory required for data: 1000800084
I0605 08:22:11.013386  6672 layer_factory.hpp:77] Creating layer conv3_1
I0605 08:22:11.013401  6672 net.cpp:106] Creating Layer conv3_1
I0605 08:22:11.013433  6672 net.cpp:454] conv3_1 <- pool2
I0605 08:22:11.013463  6672 net.cpp:411] conv3_1 -> conv3_1
I0605 08:22:11.017340  6672 net.cpp:150] Setting up conv3_1
I0605 08:22:11.017372  6672 net.cpp:157] Top shape: 1 256 150 250 (9600000)
I0605 08:22:11.017381  6672 net.cpp:165] Memory required for data: 1039200084
I0605 08:22:11.017400  6672 layer_factory.hpp:77] Creating layer relu3_1
I0605 08:22:11.017415  6672 net.cpp:106] Creating Layer relu3_1
I0605 08:22:11.017426  6672 net.cpp:454] relu3_1 <- conv3_1
I0605 08:22:11.017437  6672 net.cpp:397] relu3_1 -> conv3_1 (in-place)
I0605 08:22:11.017453  6672 net.cpp:150] Setting up relu3_1
I0605 08:22:11.017475  6672 net.cpp:157] Top shape: 1 256 150 250 (9600000)
I0605 08:22:11.017482  6672 net.cpp:165] Memory required for data: 1077600084
I0605 08:22:11.017489  6672 layer_factory.hpp:77] Creating layer conv3_2
I0605 08:22:11.017509  6672 net.cpp:106] Creating Layer conv3_2
I0605 08:22:11.017518  6672 net.cpp:454] conv3_2 <- conv3_1
I0605 08:22:11.017557  6672 net.cpp:411] conv3_2 -> conv3_2
I0605 08:22:11.021791  6672 net.cpp:150] Setting up conv3_2
I0605 08:22:11.021824  6672 net.cpp:157] Top shape: 1 256 150 250 (9600000)
I0605 08:22:11.021834  6672 net.cpp:165] Memory required for data: 1116000084
I0605 08:22:11.021845  6672 layer_factory.hpp:77] Creating layer relu3_2
I0605 08:22:11.021860  6672 net.cpp:106] Creating Layer relu3_2
I0605 08:22:11.021869  6672 net.cpp:454] relu3_2 <- conv3_2
I0605 08:22:11.021883  6672 net.cpp:397] relu3_2 -> conv3_2 (in-place)
I0605 08:22:11.021894  6672 net.cpp:150] Setting up relu3_2
I0605 08:22:11.021903  6672 net.cpp:157] Top shape: 1 256 150 250 (9600000)
I0605 08:22:11.021914  6672 net.cpp:165] Memory required for data: 1154400084
I0605 08:22:11.021924  6672 layer_factory.hpp:77] Creating layer conv3_3
I0605 08:22:11.021940  6672 net.cpp:106] Creating Layer conv3_3
I0605 08:22:11.021950  6672 net.cpp:454] conv3_3 <- conv3_2
I0605 08:22:11.021967  6672 net.cpp:411] conv3_3 -> conv3_3
I0605 08:22:11.026258  6672 net.cpp:150] Setting up conv3_3
I0605 08:22:11.026290  6672 net.cpp:157] Top shape: 1 256 150 250 (9600000)
I0605 08:22:11.026299  6672 net.cpp:165] Memory required for data: 1192800084
I0605 08:22:11.026310  6672 layer_factory.hpp:77] Creating layer relu3_3
I0605 08:22:11.026324  6672 net.cpp:106] Creating Layer relu3_3
I0605 08:22:11.026335  6672 net.cpp:454] relu3_3 <- conv3_3
I0605 08:22:11.026348  6672 net.cpp:397] relu3_3 -> conv3_3 (in-place)
I0605 08:22:11.026363  6672 net.cpp:150] Setting up relu3_3
I0605 08:22:11.026374  6672 net.cpp:157] Top shape: 1 256 150 250 (9600000)
I0605 08:22:11.026384  6672 net.cpp:165] Memory required for data: 1231200084
I0605 08:22:11.026391  6672 layer_factory.hpp:77] Creating layer pool3
I0605 08:22:11.026402  6672 net.cpp:106] Creating Layer pool3
I0605 08:22:11.026409  6672 net.cpp:454] pool3 <- conv3_3
I0605 08:22:11.026422  6672 net.cpp:411] pool3 -> pool3
I0605 08:22:11.026510  6672 net.cpp:150] Setting up pool3
I0605 08:22:11.026530  6672 net.cpp:157] Top shape: 1 256 75 125 (2400000)
I0605 08:22:11.026538  6672 net.cpp:165] Memory required for data: 1240800084
I0605 08:22:11.026546  6672 layer_factory.hpp:77] Creating layer conv4_1
I0605 08:22:11.026562  6672 net.cpp:106] Creating Layer conv4_1
I0605 08:22:11.026584  6672 net.cpp:454] conv4_1 <- pool3
I0605 08:22:11.026598  6672 net.cpp:411] conv4_1 -> conv4_1
I0605 08:22:11.040518  6672 net.cpp:150] Setting up conv4_1
I0605 08:22:11.040550  6672 net.cpp:157] Top shape: 1 512 75 125 (4800000)
I0605 08:22:11.040560  6672 net.cpp:165] Memory required for data: 1260000084
I0605 08:22:11.040572  6672 layer_factory.hpp:77] Creating layer relu4_1
I0605 08:22:11.040591  6672 net.cpp:106] Creating Layer relu4_1
I0605 08:22:11.040602  6672 net.cpp:454] relu4_1 <- conv4_1
I0605 08:22:11.040613  6672 net.cpp:397] relu4_1 -> conv4_1 (in-place)
I0605 08:22:11.040628  6672 net.cpp:150] Setting up relu4_1
I0605 08:22:11.040652  6672 net.cpp:157] Top shape: 1 512 75 125 (4800000)
I0605 08:22:11.040659  6672 net.cpp:165] Memory required for data: 1279200084
I0605 08:22:11.040668  6672 layer_factory.hpp:77] Creating layer conv4_2
I0605 08:22:11.040685  6672 net.cpp:106] Creating Layer conv4_2
I0605 08:22:11.040693  6672 net.cpp:454] conv4_2 <- conv4_1
I0605 08:22:11.040704  6672 net.cpp:411] conv4_2 -> conv4_2
I0605 08:22:11.049823  6672 net.cpp:150] Setting up conv4_2
I0605 08:22:11.049855  6672 net.cpp:157] Top shape: 1 512 75 125 (4800000)
I0605 08:22:11.049865  6672 net.cpp:165] Memory required for data: 1298400084
I0605 08:22:11.049885  6672 layer_factory.hpp:77] Creating layer relu4_2
I0605 08:22:11.049913  6672 net.cpp:106] Creating Layer relu4_2
I0605 08:22:11.049932  6672 net.cpp:454] relu4_2 <- conv4_2
I0605 08:22:11.049942  6672 net.cpp:397] relu4_2 -> conv4_2 (in-place)
I0605 08:22:11.049958  6672 net.cpp:150] Setting up relu4_2
I0605 08:22:11.049974  6672 net.cpp:157] Top shape: 1 512 75 125 (4800000)
I0605 08:22:11.049984  6672 net.cpp:165] Memory required for data: 1317600084
I0605 08:22:11.049993  6672 layer_factory.hpp:77] Creating layer conv4_3
I0605 08:22:11.050009  6672 net.cpp:106] Creating Layer conv4_3
I0605 08:22:11.050047  6672 net.cpp:454] conv4_3 <- conv4_2
I0605 08:22:11.050060  6672 net.cpp:411] conv4_3 -> conv4_3
I0605 08:22:11.060423  6672 net.cpp:150] Setting up conv4_3
I0605 08:22:11.060459  6672 net.cpp:157] Top shape: 1 512 75 125 (4800000)
I0605 08:22:11.060469  6672 net.cpp:165] Memory required for data: 1336800084
I0605 08:22:11.060482  6672 layer_factory.hpp:77] Creating layer relu4_3
I0605 08:22:11.060497  6672 net.cpp:106] Creating Layer relu4_3
I0605 08:22:11.060505  6672 net.cpp:454] relu4_3 <- conv4_3
I0605 08:22:11.060516  6672 net.cpp:397] relu4_3 -> conv4_3 (in-place)
I0605 08:22:11.060531  6672 net.cpp:150] Setting up relu4_3
I0605 08:22:11.060540  6672 net.cpp:157] Top shape: 1 512 75 125 (4800000)
I0605 08:22:11.060549  6672 net.cpp:165] Memory required for data: 1356000084
I0605 08:22:11.060557  6672 layer_factory.hpp:77] Creating layer pool4
I0605 08:22:11.060572  6672 net.cpp:106] Creating Layer pool4
I0605 08:22:11.060582  6672 net.cpp:454] pool4 <- conv4_3
I0605 08:22:11.060593  6672 net.cpp:411] pool4 -> pool4
I0605 08:22:11.060669  6672 net.cpp:150] Setting up pool4
I0605 08:22:11.060690  6672 net.cpp:157] Top shape: 1 512 38 63 (1225728)
I0605 08:22:11.060699  6672 net.cpp:165] Memory required for data: 1360902996
I0605 08:22:11.060708  6672 layer_factory.hpp:77] Creating layer conv5_1
I0605 08:22:11.060724  6672 net.cpp:106] Creating Layer conv5_1
I0605 08:22:11.060734  6672 net.cpp:454] conv5_1 <- pool4
I0605 08:22:11.060745  6672 net.cpp:411] conv5_1 -> conv5_1
I0605 08:22:11.069809  6672 net.cpp:150] Setting up conv5_1
I0605 08:22:11.069844  6672 net.cpp:157] Top shape: 1 512 38 63 (1225728)
I0605 08:22:11.069854  6672 net.cpp:165] Memory required for data: 1365805908
I0605 08:22:11.069866  6672 layer_factory.hpp:77] Creating layer relu5_1
I0605 08:22:11.069880  6672 net.cpp:106] Creating Layer relu5_1
I0605 08:22:11.069890  6672 net.cpp:454] relu5_1 <- conv5_1
I0605 08:22:11.069900  6672 net.cpp:397] relu5_1 -> conv5_1 (in-place)
I0605 08:22:11.069914  6672 net.cpp:150] Setting up relu5_1
I0605 08:22:11.069936  6672 net.cpp:157] Top shape: 1 512 38 63 (1225728)
I0605 08:22:11.069947  6672 net.cpp:165] Memory required for data: 1370708820
I0605 08:22:11.069954  6672 layer_factory.hpp:77] Creating layer conv5_2
I0605 08:22:11.069972  6672 net.cpp:106] Creating Layer conv5_2
I0605 08:22:11.069979  6672 net.cpp:454] conv5_2 <- conv5_1
I0605 08:22:11.069994  6672 net.cpp:411] conv5_2 -> conv5_2
I0605 08:22:11.079210  6672 net.cpp:150] Setting up conv5_2
I0605 08:22:11.079242  6672 net.cpp:157] Top shape: 1 512 38 63 (1225728)
I0605 08:22:11.079252  6672 net.cpp:165] Memory required for data: 1375611732
I0605 08:22:11.079262  6672 layer_factory.hpp:77] Creating layer relu5_2
I0605 08:22:11.079277  6672 net.cpp:106] Creating Layer relu5_2
I0605 08:22:11.079289  6672 net.cpp:454] relu5_2 <- conv5_2
I0605 08:22:11.079300  6672 net.cpp:397] relu5_2 -> conv5_2 (in-place)
I0605 08:22:11.079315  6672 net.cpp:150] Setting up relu5_2
I0605 08:22:11.079325  6672 net.cpp:157] Top shape: 1 512 38 63 (1225728)
I0605 08:22:11.079332  6672 net.cpp:165] Memory required for data: 1380514644
I0605 08:22:11.079339  6672 layer_factory.hpp:77] Creating layer conv5_3
I0605 08:22:11.079367  6672 net.cpp:106] Creating Layer conv5_3
I0605 08:22:11.079387  6672 net.cpp:454] conv5_3 <- conv5_2
I0605 08:22:11.079398  6672 net.cpp:411] conv5_3 -> conv5_3
I0605 08:22:11.088498  6672 net.cpp:150] Setting up conv5_3
I0605 08:22:11.088531  6672 net.cpp:157] Top shape: 1 512 38 63 (1225728)
I0605 08:22:11.088541  6672 net.cpp:165] Memory required for data: 1385417556
I0605 08:22:11.088551  6672 layer_factory.hpp:77] Creating layer relu5_3
I0605 08:22:11.088567  6672 net.cpp:106] Creating Layer relu5_3
I0605 08:22:11.088578  6672 net.cpp:454] relu5_3 <- conv5_3
I0605 08:22:11.088593  6672 net.cpp:397] relu5_3 -> conv5_3 (in-place)
I0605 08:22:11.088606  6672 net.cpp:150] Setting up relu5_3
I0605 08:22:11.088618  6672 net.cpp:157] Top shape: 1 512 38 63 (1225728)
I0605 08:22:11.088627  6672 net.cpp:165] Memory required for data: 1390320468
I0605 08:22:11.088635  6672 layer_factory.hpp:77] Creating layer conv5_3_relu5_3_0_split
I0605 08:22:11.088649  6672 net.cpp:106] Creating Layer conv5_3_relu5_3_0_split
I0605 08:22:11.088660  6672 net.cpp:454] conv5_3_relu5_3_0_split <- conv5_3
I0605 08:22:11.088670  6672 net.cpp:411] conv5_3_relu5_3_0_split -> conv5_3_relu5_3_0_split_0
I0605 08:22:11.088682  6672 net.cpp:411] conv5_3_relu5_3_0_split -> conv5_3_relu5_3_0_split_1
I0605 08:22:11.088757  6672 net.cpp:150] Setting up conv5_3_relu5_3_0_split
I0605 08:22:11.088779  6672 net.cpp:157] Top shape: 1 512 38 63 (1225728)
I0605 08:22:11.088789  6672 net.cpp:157] Top shape: 1 512 38 63 (1225728)
I0605 08:22:11.088796  6672 net.cpp:165] Memory required for data: 1400126292
I0605 08:22:11.088804  6672 layer_factory.hpp:77] Creating layer rpn_conv/3x3
I0605 08:22:11.088824  6672 net.cpp:106] Creating Layer rpn_conv/3x3
I0605 08:22:11.088835  6672 net.cpp:454] rpn_conv/3x3 <- conv5_3_relu5_3_0_split_0
I0605 08:22:11.088846  6672 net.cpp:411] rpn_conv/3x3 -> rpn/output
I0605 08:22:11.118255  6672 net.cpp:150] Setting up rpn_conv/3x3
I0605 08:22:11.118289  6672 net.cpp:157] Top shape: 1 512 38 63 (1225728)
I0605 08:22:11.118299  6672 net.cpp:165] Memory required for data: 1405029204
I0605 08:22:11.118310  6672 layer_factory.hpp:77] Creating layer rpn_relu/3x3
I0605 08:22:11.118325  6672 net.cpp:106] Creating Layer rpn_relu/3x3
I0605 08:22:11.118335  6672 net.cpp:454] rpn_relu/3x3 <- rpn/output
I0605 08:22:11.118345  6672 net.cpp:397] rpn_relu/3x3 -> rpn/output (in-place)
I0605 08:22:11.118358  6672 net.cpp:150] Setting up rpn_relu/3x3
I0605 08:22:11.118371  6672 net.cpp:157] Top shape: 1 512 38 63 (1225728)
I0605 08:22:11.118378  6672 net.cpp:165] Memory required for data: 1409932116
I0605 08:22:11.118386  6672 layer_factory.hpp:77] Creating layer rpn/output_rpn_relu/3x3_0_split
I0605 08:22:11.118396  6672 net.cpp:106] Creating Layer rpn/output_rpn_relu/3x3_0_split
I0605 08:22:11.118404  6672 net.cpp:454] rpn/output_rpn_relu/3x3_0_split <- rpn/output
I0605 08:22:11.118418  6672 net.cpp:411] rpn/output_rpn_relu/3x3_0_split -> rpn/output_rpn_relu/3x3_0_split_0
I0605 08:22:11.118433  6672 net.cpp:411] rpn/output_rpn_relu/3x3_0_split -> rpn/output_rpn_relu/3x3_0_split_1
I0605 08:22:11.118505  6672 net.cpp:150] Setting up rpn/output_rpn_relu/3x3_0_split
I0605 08:22:11.118525  6672 net.cpp:157] Top shape: 1 512 38 63 (1225728)
I0605 08:22:11.118535  6672 net.cpp:157] Top shape: 1 512 38 63 (1225728)
I0605 08:22:11.118542  6672 net.cpp:165] Memory required for data: 1419737940
I0605 08:22:11.118549  6672 layer_factory.hpp:77] Creating layer rpn_cls_score
I0605 08:22:11.118568  6672 net.cpp:106] Creating Layer rpn_cls_score
I0605 08:22:11.118577  6672 net.cpp:454] rpn_cls_score <- rpn/output_rpn_relu/3x3_0_split_0
I0605 08:22:11.118611  6672 net.cpp:411] rpn_cls_score -> rpn_cls_score
I0605 08:22:11.119130  6672 net.cpp:150] Setting up rpn_cls_score
I0605 08:22:11.119154  6672 net.cpp:157] Top shape: 1 18 38 63 (43092)
I0605 08:22:11.119163  6672 net.cpp:165] Memory required for data: 1419910308
I0605 08:22:11.119174  6672 layer_factory.hpp:77] Creating layer rpn_cls_score_rpn_cls_score_0_split
I0605 08:22:11.119187  6672 net.cpp:106] Creating Layer rpn_cls_score_rpn_cls_score_0_split
I0605 08:22:11.119196  6672 net.cpp:454] rpn_cls_score_rpn_cls_score_0_split <- rpn_cls_score
I0605 08:22:11.119211  6672 net.cpp:411] rpn_cls_score_rpn_cls_score_0_split -> rpn_cls_score_rpn_cls_score_0_split_0
I0605 08:22:11.119235  6672 net.cpp:411] rpn_cls_score_rpn_cls_score_0_split -> rpn_cls_score_rpn_cls_score_0_split_1
I0605 08:22:11.119307  6672 net.cpp:150] Setting up rpn_cls_score_rpn_cls_score_0_split
I0605 08:22:11.119326  6672 net.cpp:157] Top shape: 1 18 38 63 (43092)
I0605 08:22:11.119341  6672 net.cpp:157] Top shape: 1 18 38 63 (43092)
I0605 08:22:11.119356  6672 net.cpp:165] Memory required for data: 1420255044
I0605 08:22:11.119367  6672 layer_factory.hpp:77] Creating layer rpn_bbox_pred
I0605 08:22:11.119385  6672 net.cpp:106] Creating Layer rpn_bbox_pred
I0605 08:22:11.119400  6672 net.cpp:454] rpn_bbox_pred <- rpn/output_rpn_relu/3x3_0_split_1
I0605 08:22:11.119415  6672 net.cpp:411] rpn_bbox_pred -> rpn_bbox_pred
I0605 08:22:11.119997  6672 net.cpp:150] Setting up rpn_bbox_pred
I0605 08:22:11.120026  6672 net.cpp:157] Top shape: 1 36 38 63 (86184)
I0605 08:22:11.120048  6672 net.cpp:165] Memory required for data: 1420599780
I0605 08:22:11.120057  6672 layer_factory.hpp:77] Creating layer rpn_bbox_pred_rpn_bbox_pred_0_split
I0605 08:22:11.120074  6672 net.cpp:106] Creating Layer rpn_bbox_pred_rpn_bbox_pred_0_split
I0605 08:22:11.120085  6672 net.cpp:454] rpn_bbox_pred_rpn_bbox_pred_0_split <- rpn_bbox_pred
I0605 08:22:11.120097  6672 net.cpp:411] rpn_bbox_pred_rpn_bbox_pred_0_split -> rpn_bbox_pred_rpn_bbox_pred_0_split_0
I0605 08:22:11.120111  6672 net.cpp:411] rpn_bbox_pred_rpn_bbox_pred_0_split -> rpn_bbox_pred_rpn_bbox_pred_0_split_1
I0605 08:22:11.120182  6672 net.cpp:150] Setting up rpn_bbox_pred_rpn_bbox_pred_0_split
I0605 08:22:11.120201  6672 net.cpp:157] Top shape: 1 36 38 63 (86184)
I0605 08:22:11.120210  6672 net.cpp:157] Top shape: 1 36 38 63 (86184)
I0605 08:22:11.120218  6672 net.cpp:165] Memory required for data: 1421289252
I0605 08:22:11.120225  6672 layer_factory.hpp:77] Creating layer rpn_cls_score_reshape
I0605 08:22:11.120241  6672 net.cpp:106] Creating Layer rpn_cls_score_reshape
I0605 08:22:11.120259  6672 net.cpp:454] rpn_cls_score_reshape <- rpn_cls_score_rpn_cls_score_0_split_0
I0605 08:22:11.120272  6672 net.cpp:411] rpn_cls_score_reshape -> rpn_cls_score_reshape
I0605 08:22:11.120322  6672 net.cpp:150] Setting up rpn_cls_score_reshape
I0605 08:22:11.120342  6672 net.cpp:157] Top shape: 1 2 342 63 (43092)
I0605 08:22:11.120349  6672 net.cpp:165] Memory required for data: 1421461620
I0605 08:22:11.120357  6672 layer_factory.hpp:77] Creating layer rpn_cls_score_reshape_rpn_cls_score_reshape_0_split
I0605 08:22:11.120369  6672 net.cpp:106] Creating Layer rpn_cls_score_reshape_rpn_cls_score_reshape_0_split
I0605 08:22:11.120385  6672 net.cpp:454] rpn_cls_score_reshape_rpn_cls_score_reshape_0_split <- rpn_cls_score_reshape
I0605 08:22:11.120399  6672 net.cpp:411] rpn_cls_score_reshape_rpn_cls_score_reshape_0_split -> rpn_cls_score_reshape_rpn_cls_score_reshape_0_split_0
I0605 08:22:11.120414  6672 net.cpp:411] rpn_cls_score_reshape_rpn_cls_score_reshape_0_split -> rpn_cls_score_reshape_rpn_cls_score_reshape_0_split_1
I0605 08:22:11.120476  6672 net.cpp:150] Setting up rpn_cls_score_reshape_rpn_cls_score_reshape_0_split
I0605 08:22:11.120494  6672 net.cpp:157] Top shape: 1 2 342 63 (43092)
I0605 08:22:11.120503  6672 net.cpp:157] Top shape: 1 2 342 63 (43092)
I0605 08:22:11.120510  6672 net.cpp:165] Memory required for data: 1421806356
I0605 08:22:11.120518  6672 layer_factory.hpp:77] Creating layer rpn-data
I0605 08:22:11.125969  6672 net.cpp:106] Creating Layer rpn-data
I0605 08:22:11.126005  6672 net.cpp:454] rpn-data <- rpn_cls_score_rpn_cls_score_0_split_1
I0605 08:22:11.126030  6672 net.cpp:454] rpn-data <- gt_boxes_input-data_2_split_0
I0605 08:22:11.126044  6672 net.cpp:454] rpn-data <- im_info_input-data_1_split_0
I0605 08:22:11.126070  6672 net.cpp:454] rpn-data <- data_input-data_0_split_1
I0605 08:22:11.126083  6672 net.cpp:411] rpn-data -> rpn_labels
I0605 08:22:11.126101  6672 net.cpp:411] rpn-data -> rpn_bbox_targets
I0605 08:22:11.126118  6672 net.cpp:411] rpn-data -> rpn_bbox_inside_weights
I0605 08:22:11.126133  6672 net.cpp:411] rpn-data -> rpn_bbox_outside_weights
I0605 08:22:11.127341  6672 net.cpp:150] Setting up rpn-data
I0605 08:22:11.127382  6672 net.cpp:157] Top shape: 1 1 342 63 (21546)
I0605 08:22:11.127400  6672 net.cpp:157] Top shape: 1 36 38 63 (86184)
I0605 08:22:11.127411  6672 net.cpp:157] Top shape: 1 36 38 63 (86184)
I0605 08:22:11.127430  6672 net.cpp:157] Top shape: 1 36 38 63 (86184)
I0605 08:22:11.127439  6672 net.cpp:165] Memory required for data: 1422926748
I0605 08:22:11.127449  6672 layer_factory.hpp:77] Creating layer rpn_loss_cls
I0605 08:22:11.127468  6672 net.cpp:106] Creating Layer rpn_loss_cls
I0605 08:22:11.127478  6672 net.cpp:454] rpn_loss_cls <- rpn_cls_score_reshape_rpn_cls_score_reshape_0_split_0
I0605 08:22:11.127490  6672 net.cpp:454] rpn_loss_cls <- rpn_labels
…
I0605 08:22:11.128763  6672 net.cpp:157] Top shape: (1)
I0605 08:22:11.128773  6672 net.cpp:160]     with loss weight 1
I0605 08:22:11.128784  6672 net.cpp:165] Memory required for data: 1422926756
I0605 08:22:11.128793  6672 layer_factory.hpp:77] Creating layer rpn_cls_prob
I0605 08:22:11.128841  6672 net.cpp:106] Creating Layer rpn_cls_prob
I0605 08:22:11.128860  6672 net.cpp:454] rpn_cls_prob <- rpn_cls_score_reshape_rpn_cls_score_reshape_0_split_1
I0605 08:22:11.128875  6672 net.cpp:411] rpn_cls_prob -> rpn_cls_prob
I0605 08:22:11.129010  6672 net.cpp:150] Setting up rpn_cls_prob
I0605 08:22:11.129041  6672 net.cpp:157] Top shape: 1 2 342 63 (43092)
I0605 08:22:11.129050  6672 net.cpp:165] Memory required for data: 1423099124
I0605 08:22:11.129060  6672 layer_factory.hpp:77] Creating layer rpn_cls_prob_reshape
I0605 08:22:11.129076  6672 net.cpp:106] Creating Layer rpn_cls_prob_reshape
I0605 08:22:11.129088  6672 net.cpp:454] rpn_cls_prob_reshape <- rpn_cls_prob
I0605 08:22:11.129101  6672 net.cpp:411] rpn_cls_prob_reshape -> rpn_cls_prob_reshape
I0605 08:22:11.129160  6672 net.cpp:150] Setting up rpn_cls_prob_reshape
I0605 08:22:11.129182  6672 net.cpp:157] Top shape: 1 18 38 63 (43092)
I0605 08:22:11.129197  6672 net.cpp:165] Memory required for data: 1423271492
I0605 08:22:11.129206  6672 layer_factory.hpp:77] Creating layer proposal
I0605 08:22:11.135217  6672 net.cpp:106] Creating Layer proposal
I0605 08:22:11.135247  6672 net.cpp:454] proposal <- rpn_cls_prob_reshape
I0605 08:22:11.135260  6672 net.cpp:454] proposal <- rpn_bbox_pred_rpn_bbox_pred_0_split_1
I0605 08:22:11.135270  6672 net.cpp:454] proposal <- im_info_input-data_1_split_1
I0605 08:22:11.135285  6672 net.cpp:411] proposal -> rpn_rois
I0605 08:22:11.136140  6672 net.cpp:150] Setting up proposal
I0605 08:22:11.136173  6672 net.cpp:157] Top shape: 1 5 (5)
I0605 08:22:11.136183  6672 net.cpp:165] Memory required for data: 1423271512
I0605 08:22:11.136191  6672 layer_factory.hpp:77] Creating layer roi-data
I0605 08:22:11.137519  6672 net.cpp:106] Creating Layer roi-data
I0605 08:22:11.137570  6672 net.cpp:454] roi-data <- rpn_rois
I0605 08:22:11.137589  6672 net.cpp:454] roi-data <- gt_boxes_input-data_2_split_1
I0605 08:22:11.137617  6672 net.cpp:411] roi-data -> rois
I0605 08:22:11.137635  6672 net.cpp:411] roi-data -> labels
I0605 08:22:11.137651  6672 net.cpp:411] roi-data -> bbox_targets
I0605 08:22:11.137663  6672 net.cpp:411] roi-data -> bbox_inside_weights
I0605 08:22:11.137682  6672 net.cpp:411] roi-data -> bbox_outside_weights
I0605 08:22:11.138478  6672 net.cpp:150] Setting up roi-data
I0605 08:22:11.138514  6672 net.cpp:157] Top shape: 1 5 (5)
I0605 08:22:11.138528  6672 net.cpp:157] Top shape: 1 1 (1)
I0605 08:22:11.138538  6672 net.cpp:157] Top shape: 1 32 (32)
I0605 08:22:11.138550  6672 net.cpp:157] Top shape: 1 32 (32)
I0605 08:22:11.138561  6672 net.cpp:157] Top shape: 1 32 (32)
I0605 08:22:11.138568  6672 net.cpp:165] Memory required for data: 1423271920
I0605 08:22:11.138583  6672 layer_factory.hpp:77] Creating layer roi_pool5
I0605 08:22:11.138602  6672 net.cpp:106] Creating Layer roi_pool5
I0605 08:22:11.138622  6672 net.cpp:454] roi_pool5 <- conv5_3_relu5_3_0_split_1
I0605 08:22:11.138633  6672 net.cpp:454] roi_pool5 <- rois
I0605 08:22:11.138649  6672 net.cpp:411] roi_pool5 -> pool5
I0605 08:22:11.138674  6672 roi_pooling_layer.cpp:30] Spatial scale: 0.0625
I0605 08:22:11.138772  6672 net.cpp:150] Setting up roi_pool5
I0605 08:22:11.138797  6672 net.cpp:157] Top shape: 1 512 7 7 (25088)
I0605 08:22:11.138808  6672 net.cpp:165] Memory required for data: 1423372272
I0605 08:22:11.138820  6672 layer_factory.hpp:77] Creating layer fc6
I0605 08:22:11.138836  6672 net.cpp:106] Creating Layer fc6
I0605 08:22:11.138854  6672 net.cpp:454] fc6 <- pool5
I0605 08:22:11.138866  6672 net.cpp:411] fc6 -> fc6
I0605 08:22:11.530596  6672 net.cpp:150] Setting up fc6
I0605 08:22:11.530669  6672 net.cpp:157] Top shape: 1 4096 (4096)
I0605 08:22:11.530678  6672 net.cpp:165] Memory required for data: 1423388656
I0605 08:22:11.530711  6672 layer_factory.hpp:77] Creating layer relu6
I0605 08:22:11.530732  6672 net.cpp:106] Creating Layer relu6
I0605 08:22:11.530777  6672 net.cpp:454] relu6 <- fc6
I0605 08:22:11.530839  6672 net.cpp:397] relu6 -> fc6 (in-place)
I0605 08:22:11.530867  6672 net.cpp:150] Setting up relu6
I0605 08:22:11.530879  6672 net.cpp:157] Top shape: 1 4096 (4096)
I0605 08:22:11.530884  6672 net.cpp:165] Memory required for data: 1423405040
I0605 08:22:11.530892  6672 layer_factory.hpp:77] Creating layer drop6
I0605 08:22:11.530910  6672 net.cpp:106] Creating Layer drop6
I0605 08:22:11.530918  6672 net.cpp:454] drop6 <- fc6
I0605 08:22:11.530927  6672 net.cpp:397] drop6 -> fc6 (in-place)
I0605 08:22:11.530987  6672 net.cpp:150] Setting up drop6
I0605 08:22:11.531025  6672 net.cpp:157] Top shape: 1 4096 (4096)
I0605 08:22:11.531034  6672 net.cpp:165] Memory required for data: 1423421424
I0605 08:22:11.531042  6672 layer_factory.hpp:77] Creating layer fc7
I0605 08:22:11.531056  6672 net.cpp:106] Creating Layer fc7
I0605 08:22:11.531110  6672 net.cpp:454] fc7 <- fc6
I0605 08:22:11.531122  6672 net.cpp:411] fc7 -> fc7
I0605 08:22:11.591342  6672 net.cpp:150] Setting up fc7
I0605 08:22:11.591413  6672 net.cpp:157] Top shape: 1 4096 (4096)
I0605 08:22:11.591423  6672 net.cpp:165] Memory required for data: 1423437808
I0605 08:22:11.591442  6672 layer_factory.hpp:77] Creating layer relu7
I0605 08:22:11.591461  6672 net.cpp:106] Creating Layer relu7
I0605 08:22:11.591473  6672 net.cpp:454] relu7 <- fc7
I0605 08:22:11.591493  6672 net.cpp:397] relu7 -> fc7 (in-place)
I0605 08:22:11.591514  6672 net.cpp:150] Setting up relu7
I0605 08:22:11.591523  6672 net.cpp:157] Top shape: 1 4096 (4096)
I0605 08:22:11.591531  6672 net.cpp:165] Memory required for data: 1423454192
I0605 08:22:11.591538  6672 layer_factory.hpp:77] Creating layer drop7
I0605 08:22:11.591550  6672 net.cpp:106] Creating Layer drop7
I0605 08:22:11.591559  6672 net.cpp:454] drop7 <- fc7
I0605 08:22:11.591569  6672 net.cpp:397] drop7 -> fc7 (in-place)
I0605 08:22:11.591624  6672 net.cpp:150] Setting up drop7
I0605 08:22:11.591644  6672 net.cpp:157] Top shape: 1 4096 (4096)
I0605 08:22:11.591650  6672 net.cpp:165] Memory required for data: 1423470576
I0605 08:22:11.591658  6672 layer_factory.hpp:77] Creating layer fc7_drop7_0_split
I0605 08:22:11.591671  6672 net.cpp:106] Creating Layer fc7_drop7_0_split
I0605 08:22:11.591681  6672 net.cpp:454] fc7_drop7_0_split <- fc7
I0605 08:22:11.591692  6672 net.cpp:411] fc7_drop7_0_split -> fc7_drop7_0_split_0
I0605 08:22:11.591708  6672 net.cpp:411] fc7_drop7_0_split -> fc7_drop7_0_split_1
I0605 08:22:11.591790  6672 net.cpp:150] Setting up fc7_drop7_0_split
I0605 08:22:11.591809  6672 net.cpp:157] Top shape: 1 4096 (4096)
I0605 08:22:11.591819  6672 net.cpp:157] Top shape: 1 4096 (4096)
I0605 08:22:11.591825  6672 net.cpp:165] Memory required for data: 1423503344
I0605 08:22:11.591833  6672 layer_factory.hpp:77] Creating layer cls_score
I0605 08:22:11.591852  6672 net.cpp:106] Creating Layer cls_score
I0605 08:22:11.591863  6672 net.cpp:454] cls_score <- fc7_drop7_0_split_0
I0605 08:22:11.591876  6672 net.cpp:411] cls_score -> cls_score
I0605 08:22:11.592428  6672 net.cpp:150] Setting up cls_score
I0605 08:22:11.592452  6672 net.cpp:157] Top shape: 1 8 (8)
I0605 08:22:11.592459  6672 net.cpp:165] Memory required for data: 1423503376
I0605 08:22:11.592470  6672 layer_factory.hpp:77] Creating layer bbox_pred
I0605 08:22:11.592484  6672 net.cpp:106] Creating Layer bbox_pred
I0605 08:22:11.592496  6672 net.cpp:454] bbox_pred <- fc7_drop7_0_split_1
I0605 08:22:11.592506  6672 net.cpp:411] bbox_pred -> bbox_pred
I0605 08:22:11.593981  6672 net.cpp:150] Setting up bbox_pred
I0605 08:22:11.594004  6672 net.cpp:157] Top shape: 1 32 (32)
I0605 08:22:11.594036  6672 net.cpp:165] Memory required for data: 1423503504
I0605 08:22:11.594066  6672 layer_factory.hpp:77] Creating layer loss_cls
I0605 08:22:11.594092  6672 net.cpp:106] Creating Layer loss_cls
I0605 08:22:11.594103  6672 net.cpp:454] loss_cls <- cls_score
I0605 08:22:11.594116  6672 net.cpp:454] loss_cls <- labels
I0605 08:22:11.594126  6672 net.cpp:411] loss_cls -> loss_cls
…
           'RPN_POST_NMS_TOP_N': 2000,
           'RPN_PRE_NMS_TOP_N': 12000,
           'SCALES': [600],
           'SNAPSHOT_INFIX': '',
           'SNAPSHOT_ITERS': 10000,
           'USE_FLIPPED': True,
           'USE_PREFETCH': False},
 'USE_GPU_NMS': True}
WARNING: Logging before InitGoogleLogging() is written to STDERR
I0605 15:25:31.169134 10969 net.cpp:49] Initializing net from parameters: 
name: "VGG_ILSVRC_16_layers"
input: "data"
input: "im_info"
state {
  phase: TEST
}
input_shape {
  dim: 1
  dim: 3
  dim: 224
  dim: 224
}
input_shape {
  dim: 1
  dim: 3
}
layer {
  name: "conv1_1"
  type: "Convolution"
  bottom: "data"
  top: "conv1_1"
  param {
    lr_mult: 0
    decay_mult: 0
  }
  param {
    lr_mult: 0
    decay_mult: 0
  }
  convolution_param {
    num_output: 64
    pad: 1
    kernel_size: 3
  }
}
layer {
  name: "relu1_1"
  type: "ReLU"
  bottom: "conv1_1"
  top: "conv1_1"
}
layer {
  name: "conv1_2"
  type: "Convolution"
  bottom: "conv1_1"
  top: "conv1_2"
  param {
    lr_mult: 0
    decay_mult: 0
  }
  param {
    lr_mult: 0
    decay_mult: 0
  }
  convolution_param {
    num_output: 64
    pad: 1
    kernel_size: 3
  }
}
layer {
  name: "relu1_2"
  type: "ReLU"
  bottom: "conv1_2"
  top: "conv1_2"
}
layer {
  name: "pool1"
  type: "Pooling"
  bottom: "conv1_2"
  top: "pool1"
  pooling_param {
    pool: MAX
    kernel_size: 2
    stride: 2
  }
}
layer {
  name: "conv2_1"
  type: "Convolution"
  bottom: "pool1"
  top: "conv2_1"
  param {
    lr_mult: 0
    decay_mult: 0
  }
  param {
    lr_mult: 0
    decay_mult: 0
  }
  convolution_param {
    num_output: 128
    pad: 1
    kernel_size: 3
  }
}
layer {
  name: "relu2_1"
  type: "ReLU"
  bottom: "conv2_1"
  top: "conv2_1"
}
layer {
  name: "conv2_2"
  type: "Convolution"
  bottom: "conv2_1"
  top: "conv2_2"
  param {
    lr_mult: 0
    decay_mult: 0
  }
  param {
    lr_mult: 0
    decay_mult: 0
  }
  convolution_param {
    num_output: 128
    pad: 1
    kernel_size: 3
  }
}
layer {
  name: "relu2_2"
  type: "ReLU"
  bottom: "conv2_2"
  top: "conv2_2"
}
layer {
  name: "pool2"
  type: "Pooling"
  bottom: "conv2_2"
  top: "pool2"
  pooling_param {
    pool: MAX
    kernel_size: 2
    stride: 2
  }
}
layer {
  name: "conv3_1"
  type: "Convolution"
  bottom: "pool2"
  top: "conv3_1"
  param {
    lr_mult: 1
    decay_mult: 1
  }
  param {
    lr_mult: 2
    decay_mult: 0
  }
  convolution_param {
    num_output: 256
    pad: 1
    kernel_size: 3
  }
}
layer {
  name: "relu3_1"
  type: "ReLU"
  bottom: "conv3_1"
  top: "conv3_1"
}
layer {
  name: "conv3_2"
  type: "Convolution"
  bottom: "conv3_1"
  top: "conv3_2"
  param {
    lr_mult: 1
    decay_mult: 1
  }
  param {
    lr_mult: 2
    decay_mult: 0
  }
  convolution_param {
    num_output: 256
    pad: 1
    kernel_size: 3
  }
}
layer {
  name: "relu3_2"
  type: "ReLU"
  bottom: "conv3_2"
  top: "conv3_2"
}
layer {
  name: "conv3_3"
  type: "Convolution"
  bottom: "conv3_2"
  top: "conv3_3"
  param {
    lr_mult: 1
    decay_mult: 1
  }
  param {
    lr_mult: 2
    decay_mult: 0
  }
  convolution_param {
    num_output: 256
    pad: 1
    kernel_size: 3
  }
}
layer {
  name: "relu3_3"
  type: "ReLU"
  bottom: "conv3_3"
  top: "conv3_3"
}
layer {
  name: "pool3"
  type: "Pooling"
  bottom: "conv3_3"
  top: "pool3"
  pooling_param {
    pool: MAX
    kernel_size: 2
    stride: 2
  }
}
layer {
  name: "conv4_1"
  type: "Convolution"
  bottom: "pool3"
  top: "conv4_1"
  param {
    lr_mult: 1
    decay_mult: 1
  }
  param {
    lr_mult: 2
    decay_mult: 0
  }
  convolution_param {
    num_output: 512
    pad: 1
    kernel_size: 3
  }
}
layer {
  name: "relu4_1"
  type: "ReLU"
  bottom: "conv4_1"
  top: "conv4_1"
}
layer {
  name: "conv4_2"
  type: "Convolution"
  bottom: "conv4_1"
  top: "conv4_2"
  param {
    lr_mult: 1
    decay_mult: 1
  }
  param {
    lr_mult: 2
    decay_mult: 0
  }
  convolution_param {
    num_output: 512
    pad: 1
    kernel_size: 3
  }
}
layer {
  name: "relu4_2"
  type: "ReLU"
  bottom: "conv4_2"
  top: "conv4_2"
}
layer {
  name: "conv4_3"
  type: "Convolution"
  bottom: "conv4_2"
  top: "conv4_3"
  param {
    lr_mult: 1
    decay_mult: 1
  }
  param {
    lr_mult: 2
    decay_mult: 0
  }
  convolution_param {
    num_output: 512
    pad: 1
    kernel_size: 3
  }
}
layer {
  name: "relu4_3"
  type: "ReLU"
  bottom: "conv4_3"
  top: "conv4_3"
}
layer {
  name: "pool4"
  type: "Pooling"
  bottom: "conv4_3"
  top: "pool4"
  pooling_param {
    pool: MAX
    kernel_size: 2
    stride: 2
  }
}
layer {
  name: "conv5_1"
  type: "Convolution"
  bottom: "pool4"
  top: "conv5_1"
  param {
    lr_mult: 1
    decay_mult: 1
  }
  param {
    lr_mult: 2
    decay_mult: 0
  }
  convolution_param {
    num_output: 512
    pad: 1
    kernel_size: 3
  }
}
layer {
  name: "relu5_1"
  type: "ReLU"
  bottom: "conv5_1"
  top: "conv5_1"
}
layer {
  name: "conv5_2"
  type: "Convolution"
  bottom: "conv5_1"
  top: "conv5_2"
  param {
    lr_mult: 1
    decay_mult: 1
  }
  param {
    lr_mult: 2
    decay_mult: 0
  }
  convolution_param {
    num_output: 512
    pad: 1
    kernel_size: 3
  }
}
layer {
  name: "relu5_2"
  type: "ReLU"
  bottom: "conv5_2"
  top: "conv5_2"
}
layer {
  name: "conv5_3"
  type: "Convolution"
  bottom: "conv5_2"
  top: "conv5_3"
  param {
    lr_mult: 1
    decay_mult: 1
  }
  param {
    lr_mult: 2
    decay_mult: 0
  }
  convolution_param {
    num_output: 512
    pad: 1
    kernel_size: 3
  }
}
layer {
  name: "relu5_3"
  type: "ReLU"
  bottom: "conv5_3"
  top: "conv5_3"
}
layer {
  name: "rpn_conv/3x3"
  type: "Convolution"
  bottom: "conv5_3"
  top: "rpn/output"
  param {
    lr_mult: 1
    decay_mult: 1
  }
  param {
    lr_mult: 2
    decay_mult: 0
  }
  convolution_param {
    num_output: 512
    pad: 1
    kernel_size: 3
    stride: 1
    weight_filler {
      type: "gaussian"
      std: 0.01
    }
    bias_filler {
      type: "constant"
      value: 0
    }
  }
}
layer {
  name: "rpn_relu/3x3"
  type: "ReLU"
  bottom: "rpn/output"
  top: "rpn/output"
}
layer {
  name: "rpn_cls_score"
  type: "Convolution"
  bottom: "rpn/output"
  top: "rpn_cls_score"
  param {
    lr_mult: 1
    decay_mult: 1
  }
  param {
    lr_mult: 2
    decay_mult: 0
  }
  convolution_param {
    num_output: 18
    pad: 0
    kernel_size: 1
    stride: 1
    weight_filler {
      type: "gaussian"
      std: 0.01
    }
    bias_filler {
      type: "constant"
      value: 0
    }
  }
}
layer {
  name: "rpn_bbox_pred"
  type: "Convolution"
  bottom: "rpn/output"
  top: "rpn_bbox_pred"
  param {
    lr_mult: 1
    decay_mult: 1
  }
  param {
    lr_mult: 2
    decay_mult: 0
  }
  convolution_param {
    num_output: 36
    pad: 0
    kernel_size: 1
    stride: 1
    weight_filler {
      type: "gaussian"
      std: 0.01
    }
    bias_filler {
      type: "constant"
      value: 0
    }
  }
}
layer {
  name: "rpn_cls_score_reshape"
  type: "Reshape"
  bottom: "rpn_cls_score"
  top: "rpn_cls_score_reshape"
  reshape_param {
    shape {
      dim: 0
      dim: 2
      dim: -1
      dim: 0
    }
  }
}
layer {
  name: "rpn_cls_prob"
  type: "Softmax"
  bottom: "rpn_cls_score_reshape"
  top: "rpn_cls_prob"
}
layer {
  name: "rpn_cls_prob_reshape"
  type: "Reshape"
  bottom: "rpn_cls_prob"
  top: "rpn_cls_prob_reshape"
  reshape_param {
    shape {
      dim: 0
      dim: 18
      dim: -1
      dim: 0
    }
  }
}
layer {
  name: "proposal"
  type: "Python"
  bottom: "rpn_cls_prob_reshape"
  bottom: "rpn_bbox_pred"
  bottom: "im_info"
  top: "rois"
  python_param {
    module: "rpn.proposal_layer"
    layer: "ProposalLayer"
    param_str: "\'feat_stride\': 16"
  }
}
layer {
  name: "roi_pool5"
  type: "ROIPooling"
  bottom: "conv5_3"
  bottom: "rois"
  top: "pool5"
  roi_pooling_param {
    pooled_h: 7
    pooled_w: 7
    spatial_scale: 0.0625
  }
}
layer {
  name: "fc6"
  type: "InnerProduct"
  bottom: "pool5"
  top: "fc6"
  param {
    lr_mult: 1
    decay_mult: 1
  }
  param {
    lr_mult: 2
    decay_mult: 0
  }
  inner_product_param {
    num_output: 4096
  }
}
layer {
  name: "relu6"
  type: "ReLU"
  bottom: "fc6"
  top: "fc6"
}
layer {
  name: "drop6"
  type: "Dropout"
  bottom: "fc6"
  top: "fc6"
  dropout_param {
    dropout_ratio: 0.5
  }
}
layer {
  name: "fc7"
  type: "InnerProduct"
  bottom: "fc6"
  top: "fc7"
  param {
    lr_mult: 1
    decay_mult: 1
  }
  param {
    lr_mult: 2
    decay_mult: 0
  }
  inner_product_param {
    num_output: 4096
  }
}
layer {
  name: "relu7"
  type: "ReLU"
  bottom: "fc7"
  top: "fc7"
}
layer {
  name: "drop7"
  type: "Dropout"
  bottom: "fc7"
  top: "fc7"
  dropout_param {
    dropout_ratio: 0.5
  }
}
layer {
  name: "cls_score"
  type: "InnerProduct"
  bottom: "fc7"
  top: "cls_score"
  param {
    lr_mult: 1
    decay_mult: 1
  }
  param {
    lr_mult: 2
    decay_mult: 0
  }
  inner_product_param {
    num_output: 8
    weight_filler {
      type: "gaussian"
      std: 0.01
    }
    bias_filler {
      type: "constant"
      value: 0
    }
  }
}
layer {
  name: "bbox_pred"
  type: "InnerProduct"
  bottom: "fc7"
  top: "bbox_pred"
  param {
    lr_mult: 1
    decay_mult: 1
  }
  param {
    lr_mult: 2
    decay_mult: 0
  }
  inner_product_param {
    num_output: 32
    weight_filler {
      type: "gaussian"
      std: 0.001
    }
    bias_filler {
      type: "constant"
      value: 0
    }
  }
}
layer {
  name: "cls_prob"
  type: "Softmax"
  bottom: "cls_score"
  top: "cls_prob"
}
I0605 15:25:31.169353 10969 net.cpp:413] Input 0 -> data
I0605 15:25:31.722784 10969 net.cpp:413] Input 1 -> im_info
I0605 15:25:31.722884 10969 layer_factory.hpp:77] Creating layer conv1_1
I0605 15:25:31.722914 10969 net.cpp:106] Creating Layer conv1_1
I0605 15:25:31.722924 10969 net.cpp:454] conv1_1 <- data
I0605 15:25:31.722937 10969 net.cpp:411] conv1_1 -> conv1_1
I0605 15:25:31.731252 10969 net.cpp:150] Setting up conv1_1
I0605 15:25:31.731286 10969 net.cpp:157] Top shape: 1 64 224 224 (3211264)
I0605 15:25:31.731294 10969 net.cpp:165] Memory required for data: 12845056
I0605 15:25:31.731313 10969 layer_factory.hpp:77] Creating layer relu1_1
I0605 15:25:31.731328 10969 net.cpp:106] Creating Layer relu1_1
I0605 15:25:31.731338 10969 net.cpp:454] relu1_1 <- conv1_1
I0605 15:25:31.731360 10969 net.cpp:397] relu1_1 -> conv1_1 (in-place)
I0605 15:25:31.731374 10969 net.cpp:150] Setting up relu1_1
I0605 15:25:31.731382 10969 net.cpp:157] Top shape: 1 64 224 224 (3211264)
I0605 15:25:31.731390 10969 net.cpp:165] Memory required for data: 25690112
I0605 15:25:31.731397 10969 layer_factory.hpp:77] Creating layer conv1_2
I0605 15:25:31.731413 10969 net.cpp:106] Creating Layer conv1_2
I0605 15:25:31.731422 10969 net.cpp:454] conv1_2 <- conv1_1
I0605 15:25:31.731432 10969 net.cpp:411] conv1_2 -> conv1_2
I0605 15:25:31.731850 10969 net.cpp:150] Setting up conv1_2
I0605 15:25:31.731887 10969 net.cpp:157] Top shape: 1 64 224 224 (3211264)
I0605 15:25:31.731914 10969 net.cpp:165] Memory required for data: 38535168
I0605 15:25:31.731925 10969 layer_factory.hpp:77] Creating layer relu1_2
I0605 15:25:31.731940 10969 net.cpp:106] Creating Layer relu1_2
I0605 15:25:31.731951 10969 net.cpp:454] relu1_2 <- conv1_2
I0605 15:25:31.731961 10969 net.cpp:397] relu1_2 -> conv1_2 (in-place)
I0605 15:25:31.731972 10969 net.cpp:150] Setting up relu1_2
I0605 15:25:31.731994 10969 net.cpp:157] Top shape: 1 64 224 224 (3211264)
I0605 15:25:31.732005 10969 net.cpp:165] Memory required for data: 51380224
I0605 15:25:31.732012 10969 layer_factory.hpp:77] Creating layer pool1
I0605 15:25:31.732025 10969 net.cpp:106] Creating Layer pool1
I0605 15:25:31.732034 10969 net.cpp:454] pool1 <- conv1_2
I0605 15:25:31.732046 10969 net.cpp:411] pool1 -> pool1
I0605 15:25:31.732115 10969 net.cpp:150] Setting up pool1
I0605 15:25:31.732136 10969 net.cpp:157] Top shape: 1 64 112 112 (802816)
I0605 15:25:31.732142 10969 net.cpp:165] Memory required for data: 54591488
I0605 15:25:31.732151 10969 layer_factory.hpp:77] Creating layer conv2_1
I0605 15:25:31.732164 10969 net.cpp:106] Creating Layer conv2_1
I0605 15:25:31.732172 10969 net.cpp:454] conv2_1 <- pool1
I0605 15:25:31.732182 10969 net.cpp:411] conv2_1 -> conv2_1
I0605 15:25:31.739091 10969 net.cpp:150] Setting up conv2_1
I0605 15:25:31.739123 10969 net.cpp:157] Top shape: 1 128 112 112 (1605632)
I0605 15:25:31.739132 10969 net.cpp:165] Memory required for data: 61014016
I0605 15:25:31.739147 10969 layer_factory.hpp:77] Creating layer relu2_1
I0605 15:25:31.739159 10969 net.cpp:106] Creating Layer relu2_1
I0605 15:25:31.739171 10969 net.cpp:454] relu2_1 <- conv2_1
I0605 15:25:31.739181 10969 net.cpp:397] relu2_1 -> conv2_1 (in-place)
I0605 15:25:31.739193 10969 net.cpp:150] Setting up relu2_1
I0605 15:25:31.739202 10969 net.cpp:157] Top shape: 1 128 112 112 (1605632)
I0605 15:25:31.739217 10969 net.cpp:165] Memory required for data: 67436544
I0605 15:25:31.739225 10969 layer_factory.hpp:77] Creating layer conv2_2
I0605 15:25:31.739241 10969 net.cpp:106] Creating Layer conv2_2
I0605 15:25:31.739250 10969 net.cpp:454] conv2_2 <- conv2_1
I0605 15:25:31.739264 10969 net.cpp:411] conv2_2 -> conv2_2
I0605 15:25:31.739719 10969 net.cpp:150] Setting up conv2_2
I0605 15:25:31.739742 10969 net.cpp:157] Top shape: 1 128 112 112 (1605632)
I0605 15:25:31.739751 10969 net.cpp:165] Memory required for data: 73859072
I0605 15:25:31.739761 10969 layer_factory.hpp:77] Creating layer relu2_2
I0605 15:25:31.739776 10969 net.cpp:106] Creating Layer relu2_2
I0605 15:25:31.739786 10969 net.cpp:454] relu2_2 <- conv2_2
I0605 15:25:31.739796 10969 net.cpp:397] relu2_2 -> conv2_2 (in-place)
I0605 15:25:31.739806 10969 net.cpp:150] Setting up relu2_2
I0605 15:25:31.739816 10969 net.cpp:157] Top shape: 1 128 112 112 (1605632)
I0605 15:25:31.739825 10969 net.cpp:165] Memory required for data: 80281600
I0605 15:25:31.739833 10969 layer_factory.hpp:77] Creating layer pool2
I0605 15:25:31.739843 10969 net.cpp:106] Creating Layer pool2
I0605 15:25:31.739852 10969 net.cpp:454] pool2 <- conv2_2
I0605 15:25:31.739864 10969 net.cpp:411] pool2 -> pool2
I0605 15:25:31.739933 10969 net.cpp:150] Setting up pool2
I0605 15:25:31.739953 10969 net.cpp:157] Top shape: 1 128 56 56 (401408)
I0605 15:25:31.739959 10969 net.cpp:165] Memory required for data: 81887232
I0605 15:25:31.739967 10969 layer_factory.hpp:77] Creating layer conv3_1
I0605 15:25:31.739981 10969 net.cpp:106] Creating Layer conv3_1
I0605 15:25:31.739989 10969 net.cpp:454] conv3_1 <- pool2
I0605 15:25:31.740001 10969 net.cpp:411] conv3_1 -> conv3_1
I0605 15:25:31.740532 10969 net.cpp:150] Setting up conv3_1
I0605 15:25:31.740556 10969 net.cpp:157] Top shape: 1 256 56 56 (802816)
I0605 15:25:31.740563 10969 net.cpp:165] Memory required for data: 85098496
I0605 15:25:31.740576 10969 layer_factory.hpp:77] Creating layer relu3_1
I0605 15:25:31.740586 10969 net.cpp:106] Creating Layer relu3_1
I0605 15:25:31.740594 10969 net.cpp:454] relu3_1 <- conv3_1
I0605 15:25:31.740609 10969 net.cpp:397] relu3_1 -> conv3_1 (in-place)
I0605 15:25:31.740622 10969 net.cpp:150] Setting up relu3_1
I0605 15:25:31.740639 10969 net.cpp:157] Top shape: 1 256 56 56 (802816)
I0605 15:25:31.740648 10969 net.cpp:165] Memory required for data: 88309760
I0605 15:25:31.740655 10969 layer_factory.hpp:77] Creating layer conv3_2
I0605 15:25:31.740669 10969 net.cpp:106] Creating Layer conv3_2
I0605 15:25:31.740691 10969 net.cpp:454] conv3_2 <- conv3_1
I0605 15:25:31.740705 10969 net.cpp:411] conv3_2 -> conv3_2
I0605 15:25:31.745915 10969 net.cpp:150] Setting up conv3_2
I0605 15:25:31.745949 10969 net.cpp:157] Top shape: 1 256 56 56 (802816)
I0605 15:25:31.745957 10969 net.cpp:165] Memory required for data: 91521024
I0605 15:25:31.745970 10969 layer_factory.hpp:77] Creating layer relu3_2
I0605 15:25:31.745982 10969 net.cpp:106] Creating Layer relu3_2
I0605 15:25:31.745991 10969 net.cpp:454] relu3_2 <- conv3_2
I0605 15:25:31.746003 10969 net.cpp:397] relu3_2 -> conv3_2 (in-place)
I0605 15:25:31.746016 10969 net.cpp:150] Setting up relu3_2
I0605 15:25:31.746026 10969 net.cpp:157] Top shape: 1 256 56 56 (802816)
I0605 15:25:31.746037 10969 net.cpp:165] Memory required for data: 94732288
I0605 15:25:31.746044 10969 layer_factory.hpp:77] Creating layer conv3_3
I0605 15:25:31.746060 10969 net.cpp:106] Creating Layer conv3_3
I0605 15:25:31.746073 10969 net.cpp:454] conv3_3 <- conv3_2
I0605 15:25:31.746084 10969 net.cpp:411] conv3_3 -> conv3_3
I0605 15:25:31.750483 10969 net.cpp:150] Setting up conv3_3
I0605 15:25:31.750514 10969 net.cpp:157] Top shape: 1 256 56 56 (802816)
I0605 15:25:31.750522 10969 net.cpp:165] Memory required for data: 97943552
I0605 15:25:31.750533 10969 layer_factory.hpp:77] Creating layer relu3_3
I0605 15:25:31.750551 10969 net.cpp:106] Creating Layer relu3_3
I0605 15:25:31.750576 10969 net.cpp:454] relu3_3 <- conv3_3
I0605 15:25:31.750587 10969 net.cpp:397] relu3_3 -> conv3_3 (in-place)
I0605 15:25:31.750602 10969 net.cpp:150] Setting up relu3_3
I0605 15:25:31.750612 10969 net.cpp:157] Top shape: 1 256 56 56 (802816)
I0605 15:25:31.750619 10969 net.cpp:165] Memory required for data: 101154816
I0605 15:25:31.750627 10969 layer_factory.hpp:77] Creating layer pool3
I0605 15:25:31.750645 10969 net.cpp:106] Creating Layer pool3
I0605 15:25:31.750715 10969 net.cpp:454] pool3 <- conv3_3
I0605 15:25:31.750736 10969 net.cpp:411] pool3 -> pool3
I0605 15:25:31.750807 10969 net.cpp:150] Setting up pool3
I0605 15:25:31.750826 10969 net.cpp:157] Top shape: 1 256 28 28 (200704)
I0605 15:25:31.750834 10969 net.cpp:165] Memory required for data: 101957632
I0605 15:25:31.750843 10969 layer_factory.hpp:77] Creating layer conv4_1
I0605 15:25:31.750860 10969 net.cpp:106] Creating Layer conv4_1
I0605 15:25:31.750871 10969 net.cpp:454] conv4_1 <- pool3
I0605 15:25:31.750885 10969 net.cpp:411] conv4_1 -> conv4_1
I0605 15:25:31.760139 10969 net.cpp:150] Setting up conv4_1
I0605 15:25:31.760172 10969 net.cpp:157] Top shape: 1 512 28 28 (401408)
I0605 15:25:31.760181 10969 net.cpp:165] Memory required for data: 103563264
I0605 15:25:31.760192 10969 layer_factory.hpp:77] Creating layer relu4_1
I0605 15:25:31.760205 10969 net.cpp:106] Creating Layer relu4_1
I0605 15:25:31.760213 10969 net.cpp:454] relu4_1 <- conv4_1
I0605 15:25:31.760226 10969 net.cpp:397] relu4_1 -> conv4_1 (in-place)
I0605 15:25:31.760244 10969 net.cpp:150] Setting up relu4_1
I0605 15:25:31.760255 10969 net.cpp:157] Top shape: 1 512 28 28 (401408)
I0605 15:25:31.760263 10969 net.cpp:165] Memory required for data: 105168896
I0605 15:25:31.760272 10969 layer_factory.hpp:77] Creating layer conv4_2
I0605 15:25:31.760283 10969 net.cpp:106] Creating Layer conv4_2
I0605 15:25:31.760295 10969 net.cpp:454] conv4_2 <- conv4_1
I0605 15:25:31.760308 10969 net.cpp:411] conv4_2 -> conv4_2
I0605 15:25:31.769227 10969 net.cpp:150] Setting up conv4_2
I0605 15:25:31.769261 10969 net.cpp:157] Top shape: 1 512 28 28 (401408)
I0605 15:25:31.769270 10969 net.cpp:165] Memory required for data: 106774528
I0605 15:25:31.769292 10969 layer_factory.hpp:77] Creating layer relu4_2
I0605 15:25:31.769305 10969 net.cpp:106] Creating Layer relu4_2
I0605 15:25:31.769313 10969 net.cpp:454] relu4_2 <- conv4_2
I0605 15:25:31.769323 10969 net.cpp:397] relu4_2 -> conv4_2 (in-place)
I0605 15:25:31.769336 10969 net.cpp:150] Setting up relu4_2
I0605 15:25:31.769348 10969 net.cpp:157] Top shape: 1 512 28 28 (401408)
I0605 15:25:31.769356 10969 net.cpp:165] Memory required for data: 108380160
I0605 15:25:31.769363 10969 layer_factory.hpp:77] Creating layer conv4_3
I0605 15:25:31.769392 10969 net.cpp:106] Creating Layer conv4_3
I0605 15:25:31.769421 10969 net.cpp:454] conv4_3 <- conv4_2
I0605 15:25:31.769435 10969 net.cpp:411] conv4_3 -> conv4_3
I0605 15:25:31.778108 10969 net.cpp:150] Setting up conv4_3
I0605 15:25:31.778139 10969 net.cpp:157] Top shape: 1 512 28 28 (401408)
I0605 15:25:31.778199 10969 net.cpp:165] Memory required for data: 109985792
I0605 15:25:31.778213 10969 layer_factory.hpp:77] Creating layer relu4_3
I0605 15:25:31.778231 10969 net.cpp:106] Creating Layer relu4_3
I0605 15:25:31.778241 10969 net.cpp:454] relu4_3 <- conv4_3
I0605 15:25:31.778252 10969 net.cpp:397] relu4_3 -> conv4_3 (in-place)
I0605 15:25:31.778275 10969 net.cpp:150] Setting up relu4_3
I0605 15:25:31.778285 10969 net.cpp:157] Top shape: 1 512 28 28 (401408)
I0605 15:25:31.778291 10969 net.cpp:165] Memory required for data: 111591424
I0605 15:25:31.778298 10969 layer_factory.hpp:77] Creating layer pool4
I0605 15:25:31.778312 10969 net.cpp:106] Creating Layer pool4
I0605 15:25:31.778321 10969 net.cpp:454] pool4 <- conv4_3
I0605 15:25:31.778331 10969 net.cpp:411] pool4 -> pool4
I0605 15:25:31.778403 10969 net.cpp:150] Setting up pool4
I0605 15:25:31.778424 10969 net.cpp:157] Top shape: 1 512 14 14 (100352)
I0605 15:25:31.778431 10969 net.cpp:165] Memory required for data: 111992832
I0605 15:25:31.778439 10969 layer_factory.hpp:77] Creating layer conv5_1
I0605 15:25:31.778455 10969 net.cpp:106] Creating Layer conv5_1
I0605 15:25:31.778463 10969 net.cpp:454] conv5_1 <- pool4
I0605 15:25:31.778482 10969 net.cpp:411] conv5_1 -> conv5_1
I0605 15:25:31.787060 10969 net.cpp:150] Setting up conv5_1
I0605 15:25:31.787091 10969 net.cpp:157] Top shape: 1 512 14 14 (100352)
I0605 15:25:31.787101 10969 net.cpp:165] Memory required for data: 112394240
I0605 15:25:31.787113 10969 layer_factory.hpp:77] Creating layer relu5_1
I0605 15:25:31.787125 10969 net.cpp:106] Creating Layer relu5_1
I0605 15:25:31.787133 10969 net.cpp:454] relu5_1 <- conv5_1
I0605 15:25:31.787147 10969 net.cpp:397] relu5_1 -> conv5_1 (in-place)
I0605 15:25:31.787158 10969 net.cpp:150] Setting up relu5_1
I0605 15:25:31.787168 10969 net.cpp:157] Top shape: 1 512 14 14 (100352)
I0605 15:25:31.787174 10969 net.cpp:165] Memory required for data: 112795648
I0605 15:25:31.787181 10969 layer_factory.hpp:77] Creating layer conv5_2
I0605 15:25:31.787194 10969 net.cpp:106] Creating Layer conv5_2
I0605 15:25:31.787200 10969 net.cpp:454] conv5_2 <- conv5_1
I0605 15:25:31.787214 10969 net.cpp:411] conv5_2 -> conv5_2
I0605 15:25:31.796306 10969 net.cpp:150] Setting up conv5_2
I0605 15:25:31.796341 10969 net.cpp:157] Top shape: 1 512 14 14 (100352)
I0605 15:25:31.796350 10969 net.cpp:165] Memory required for data: 113197056
I0605 15:25:31.796362 10969 layer_factory.hpp:77] Creating layer relu5_2
I0605 15:25:31.796373 10969 net.cpp:106] Creating Layer relu5_2
I0605 15:25:31.796385 10969 net.cpp:454] relu5_2 <- conv5_2
I0605 15:25:31.796398 10969 net.cpp:397] relu5_2 -> conv5_2 (in-place)
I0605 15:25:31.796411 10969 net.cpp:150] Setting up relu5_2
I0605 15:25:31.796422 10969 net.cpp:157] Top shape: 1 512 14 14 (100352)
I0605 15:25:31.796432 10969 net.cpp:165] Memory required for data: 113598464
I0605 15:25:31.796439 10969 layer_factory.hpp:77] Creating layer conv5_3
I0605 15:25:31.796452 10969 net.cpp:106] Creating Layer conv5_3
I0605 15:25:31.796461 10969 net.cpp:454] conv5_3 <- conv5_2
I0605 15:25:31.796494 10969 net.cpp:411] conv5_3 -> conv5_3
I0605 15:25:31.806712 10969 net.cpp:150] Setting up conv5_3
I0605 15:25:31.806751 10969 net.cpp:157] Top shape: 1 512 14 14 (100352)
I0605 15:25:31.806759 10969 net.cpp:165] Memory required for data: 113999872
I0605 15:25:31.806771 10969 layer_factory.hpp:77] Creating layer relu5_3
I0605 15:25:31.806787 10969 net.cpp:106] Creating Layer relu5_3
I0605 15:25:31.806798 10969 net.cpp:454] relu5_3 <- conv5_3
I0605 15:25:31.806809 10969 net.cpp:397] relu5_3 -> conv5_3 (in-place)
I0605 15:25:31.806821 10969 net.cpp:150] Setting up relu5_3
I0605 15:25:31.806830 10969 net.cpp:157] Top shape: 1 512 14 14 (100352)
I0605 15:25:31.806839 10969 net.cpp:165] Memory required for data: 114401280
I0605 15:25:31.806846 10969 layer_factory.hpp:77] Creating layer conv5_3_relu5_3_0_split
I0605 15:25:31.806859 10969 net.cpp:106] Creating Layer conv5_3_relu5_3_0_split
I0605 15:25:31.806869 10969 net.cpp:454] conv5_3_relu5_3_0_split <- conv5_3
I0605 15:25:31.806880 10969 net.cpp:411] conv5_3_relu5_3_0_split -> conv5_3_relu5_3_0_split_0
I0605 15:25:31.806893 10969 net.cpp:411] conv5_3_relu5_3_0_split -> conv5_3_relu5_3_0_split_1
I0605 15:25:31.806990 10969 net.cpp:150] Setting up conv5_3_relu5_3_0_split
I0605 15:25:31.807014 10969 net.cpp:157] Top shape: 1 512 14 14 (100352)
I0605 15:25:31.807024 10969 net.cpp:157] Top shape: 1 512 14 14 (100352)
I0605 15:25:31.807030 10969 net.cpp:165] Memory required for data: 115204096
I0605 15:25:31.807039 10969 layer_factory.hpp:77] Creating layer rpn_conv/3x3
I0605 15:25:31.807056 10969 net.cpp:106] Creating Layer rpn_conv/3x3
I0605 15:25:31.807065 10969 net.cpp:454] rpn_conv/3x3 <- conv5_3_relu5_3_0_split_0
I0605 15:25:31.807080 10969 net.cpp:411] rpn_conv/3x3 -> rpn/output
I0605 15:25:31.836382 10969 net.cpp:150] Setting up rpn_conv/3x3
I0605 15:25:31.836424 10969 net.cpp:157] Top shape: 1 512 14 14 (100352)
I0605 15:25:31.836433 10969 net.cpp:165] Memory required for data: 115605504
I0605 15:25:31.836447 10969 layer_factory.hpp:77] Creating layer rpn_relu/3x3
I0605 15:25:31.836477 10969 net.cpp:106] Creating Layer rpn_relu/3x3
I0605 15:25:31.836489 10969 net.cpp:454] rpn_relu/3x3 <- rpn/output
I0605 15:25:31.836501 10969 net.cpp:397] rpn_relu/3x3 -> rpn/output (in-place)
I0605 15:25:31.836516 10969 net.cpp:150] Setting up rpn_relu/3x3
I0605 15:25:31.836525 10969 net.cpp:157] Top shape: 1 512 14 14 (100352)
I0605 15:25:31.836532 10969 net.cpp:165] Memory required for data: 116006912
I0605 15:25:31.836541 10969 layer_factory.hpp:77] Creating layer rpn/output_rpn_relu/3x3_0_split
I0605 15:25:31.836552 10969 net.cpp:106] Creating Layer rpn/output_rpn_relu/3x3_0_split
I0605 15:25:31.836560 10969 net.cpp:454] rpn/output_rpn_relu/3x3_0_split <- rpn/output
I0605 15:25:31.836572 10969 net.cpp:411] rpn/output_rpn_relu/3x3_0_split -> rpn/output_rpn_relu/3x3_0_split_0
I0605 15:25:31.836597 10969 net.cpp:411] rpn/output_rpn_relu/3x3_0_split -> rpn/output_rpn_relu/3x3_0_split_1
I0605 15:25:31.836699 10969 net.cpp:150] Setting up rpn/output_rpn_relu/3x3_0_split
I0605 15:25:31.836726 10969 net.cpp:157] Top shape: 1 512 14 14 (100352)
I0605 15:25:31.836735 10969 net.cpp:157] Top shape: 1 512 14 14 (100352)
I0605 15:25:31.836742 10969 net.cpp:165] Memory required for data: 116809728
I0605 15:25:31.836750 10969 layer_factory.hpp:77] Creating layer rpn_cls_score
I0605 15:25:31.836771 10969 net.cpp:106] Creating Layer rpn_cls_score
I0605 15:25:31.836817 10969 net.cpp:454] rpn_cls_score <- rpn/output_rpn_relu/3x3_0_split_0
I0605 15:25:31.836838 10969 net.cpp:411] rpn_cls_score -> rpn_cls_score
I0605 15:25:31.837318 10969 net.cpp:150] Setting up rpn_cls_score
I0605 15:25:31.837342 10969 net.cpp:157] Top shape: 1 18 14 14 (3528)
I0605 15:25:31.837349 10969 net.cpp:165] Memory required for data: 116823840
I0605 15:25:31.837359 10969 layer_factory.hpp:77] Creating layer rpn_bbox_pred
I0605 15:25:31.837379 10969 net.cpp:106] Creating Layer rpn_bbox_pred
I0605 15:25:31.837389 10969 net.cpp:454] rpn_bbox_pred <- rpn/output_rpn_relu/3x3_0_split_1
I0605 15:25:31.837400 10969 net.cpp:411] rpn_bbox_pred -> rpn_bbox_pred
I0605 15:25:31.837970 10969 net.cpp:150] Setting up rpn_bbox_pred
I0605 15:25:31.838001 10969 net.cpp:157] Top shape: 1 36 14 14 (7056)
I0605 15:25:31.838008 10969 net.cpp:165] Memory required for data: 116852064
I0605 15:25:31.838018 10969 layer_factory.hpp:77] Creating layer rpn_cls_score_reshape
I0605 15:25:31.838032 10969 net.cpp:106] Creating Layer rpn_cls_score_reshape
I0605 15:25:31.838042 10969 net.cpp:454] rpn_cls_score_reshape <- rpn_cls_score
I0605 15:25:31.838057 10969 net.cpp:411] rpn_cls_score_reshape -> rpn_cls_score_reshape
I0605 15:25:31.838120 10969 net.cpp:150] Setting up rpn_cls_score_reshape
I0605 15:25:31.838188 10969 net.cpp:157] Top shape: 1 2 126 14 (3528)
I0605 15:25:31.838198 10969 net.cpp:165] Memory required for data: 116866176
I0605 15:25:31.838207 10969 layer_factory.hpp:77] Creating layer rpn_cls_prob
I0605 15:25:31.838217 10969 net.cpp:106] Creating Layer rpn_cls_prob
I0605 15:25:31.838225 10969 net.cpp:454] rpn_cls_prob <- rpn_cls_score_reshape
I0605 15:25:31.838235 10969 net.cpp:411] rpn_cls_prob -> rpn_cls_prob
I0605 15:25:31.838340 10969 net.cpp:150] Setting up rpn_cls_prob
I0605 15:25:31.838359 10969 net.cpp:157] Top shape: 1 2 126 14 (3528)
I0605 15:25:31.838367 10969 net.cpp:165] Memory required for data: 116880288
I0605 15:25:31.838374 10969 layer_factory.hpp:77] Creating layer rpn_cls_prob_reshape
I0605 15:25:31.838385 10969 net.cpp:106] Creating Layer rpn_cls_prob_reshape
I0605 15:25:31.838392 10969 net.cpp:454] rpn_cls_prob_reshape <- rpn_cls_prob
I0605 15:25:31.838405 10969 net.cpp:411] rpn_cls_prob_reshape -> rpn_cls_prob_reshape
I0605 15:25:31.838450 10969 net.cpp:150] Setting up rpn_cls_prob_reshape
I0605 15:25:31.838480 10969 net.cpp:157] Top shape: 1 18 14 14 (3528)
I0605 15:25:31.838488 10969 net.cpp:165] Memory required for data: 116894400
I0605 15:25:31.838496 10969 layer_factory.hpp:77] Creating layer proposal
I0605 15:25:31.844054 10969 net.cpp:106] Creating Layer proposal
I0605 15:25:31.844080 10969 net.cpp:454] proposal <- rpn_cls_prob_reshape
I0605 15:25:31.844091 10969 net.cpp:454] proposal <- rpn_bbox_pred
I0605 15:25:31.844099 10969 net.cpp:454] proposal <- im_info
I0605 15:25:31.844110 10969 net.cpp:411] proposal -> rois
I0605 15:25:31.844918 10969 net.cpp:150] Setting up proposal
I0605 15:25:31.844950 10969 net.cpp:157] Top shape: 1 5 (5)
I0605 15:25:31.844959 10969 net.cpp:165] Memory required for data: 116894420
I0605 15:25:31.844967 10969 layer_factory.hpp:77] Creating layer roi_pool5
I0605 15:25:31.844981 10969 net.cpp:106] Creating Layer roi_pool5
I0605 15:25:31.844993 10969 net.cpp:454] roi_pool5 <- conv5_3_relu5_3_0_split_1
I0605 15:25:31.845003 10969 net.cpp:454] roi_pool5 <- rois
I0605 15:25:31.845013 10969 net.cpp:411] roi_pool5 -> pool5
I0605 15:25:31.845026 10969 roi_pooling_layer.cpp:30] Spatial scale: 0.0625
I0605 15:25:31.845110 10969 net.cpp:150] Setting up roi_pool5
I0605 15:25:31.845131 10969 net.cpp:157] Top shape: 1 512 7 7 (25088)
I0605 15:25:31.845140 10969 net.cpp:165] Memory required for data: 116994772
I0605 15:25:31.845149 10969 layer_factory.hpp:77] Creating layer fc6
I0605 15:25:31.845166 10969 net.cpp:106] Creating Layer fc6
I0605 15:25:31.845191 10969 net.cpp:454] fc6 <- pool5
I0605 15:25:31.845201 10969 net.cpp:411] fc6 -> fc6
I0605 15:25:32.218688 10969 net.cpp:150] Setting up fc6
I0605 15:25:32.218755 10969 net.cpp:157] Top shape: 1 4096 (4096)
I0605 15:25:32.218763 10969 net.cpp:165] Memory required for data: 117011156
I0605 15:25:32.218797 10969 layer_factory.hpp:77] Creating layer relu6
I0605 15:25:32.218818 10969 net.cpp:106] Creating Layer relu6
I0605 15:25:32.218827 10969 net.cpp:454] relu6 <- fc6
I0605 15:25:32.218845 10969 net.cpp:397] relu6 -> fc6 (in-place)
I0605 15:25:32.218865 10969 net.cpp:150] Setting up relu6
I0605 15:25:32.218874 10969 net.cpp:157] Top shape: 1 4096 (4096)
I0605 15:25:32.218881 10969 net.cpp:165] Memory required for data: 117027540
I0605 15:25:32.218892 10969 layer_factory.hpp:77] Creating layer drop6
I0605 15:25:32.218905 10969 net.cpp:106] Creating Layer drop6
I0605 15:25:32.218916 10969 net.cpp:454] drop6 <- fc6
I0605 15:25:32.218933 10969 net.cpp:397] drop6 -> fc6 (in-place)
I0605 15:25:32.218988 10969 net.cpp:150] Setting up drop6
I0605 15:25:32.219009 10969 net.cpp:157] Top shape: 1 4096 (4096)
I0605 15:25:32.219017 10969 net.cpp:165] Memory required for data: 117043924
I0605 15:25:32.219024 10969 layer_factory.hpp:77] Creating layer fc7
I0605 15:25:32.219038 10969 net.cpp:106] Creating Layer fc7
I0605 15:25:32.219049 10969 net.cpp:454] fc7 <- fc6
I0605 15:25:32.219063 10969 net.cpp:411] fc7 -> fc7
I0605 15:25:32.281303 10969 net.cpp:150] Setting up fc7
I0605 15:25:32.281358 10969 net.cpp:157] Top shape: 1 4096 (4096)
I0605 15:25:32.281368 10969 net.cpp:165] Memory required for data: 117060308
I0605 15:25:32.281388 10969 layer_factory.hpp:77] Creating layer relu7
I0605 15:25:32.281424 10969 net.cpp:106] Creating Layer relu7
I0605 15:25:32.281445 10969 net.cpp:454] relu7 <- fc7
I0605 15:25:32.281458 10969 net.cpp:397] relu7 -> fc7 (in-place)
I0605 15:25:32.281486 10969 net.cpp:150] Setting up relu7
I0605 15:25:32.281494 10969 net.cpp:157] Top shape: 1 4096 (4096)
I0605 15:25:32.281502 10969 net.cpp:165] Memory required for data: 117076692
I0605 15:25:32.281512 10969 layer_factory.hpp:77] Creating layer drop7
I0605 15:25:32.281527 10969 net.cpp:106] Creating Layer drop7
I0605 15:25:32.281548 10969 net.cpp:454] drop7 <- fc7
I0605 15:25:32.281558 10969 net.cpp:397] drop7 -> fc7 (in-place)
I0605 15:25:32.281610 10969 net.cpp:150] Setting up drop7
I0605 15:25:32.281630 10969 net.cpp:157] Top shape: 1 4096 (4096)
I0605 15:25:32.281636 10969 net.cpp:165] Memory required for data: 117093076
I0605 15:25:32.281644 10969 layer_factory.hpp:77] Creating layer fc7_drop7_0_split
I0605 15:25:32.281656 10969 net.cpp:106] Creating Layer fc7_drop7_0_split
I0605 15:25:32.281669 10969 net.cpp:454] fc7_drop7_0_split <- fc7
I0605 15:25:32.281684 10969 net.cpp:411] fc7_drop7_0_split -> fc7_drop7_0_split_0
I0605 15:25:32.281714 10969 net.cpp:411] fc7_drop7_0_split -> fc7_drop7_0_split_1
I0605 15:25:32.281795 10969 net.cpp:150] Setting up fc7_drop7_0_split
I0605 15:25:32.281847 10969 net.cpp:157] Top shape: 1 4096 (4096)
I0605 15:25:32.281873 10969 net.cpp:157] Top shape: 1 4096 (4096)
I0605 15:25:32.281909 10969 net.cpp:165] Memory required for data: 117125844
I0605 15:25:32.281927 10969 layer_factory.hpp:77] Creating layer cls_score
I0605 15:25:32.281956 10969 net.cpp:106] Creating Layer cls_score
I0605 15:25:32.282011 10969 net.cpp:454] cls_score <- fc7_drop7_0_split_0
I0605 15:25:32.282030 10969 net.cpp:411] cls_score -> cls_score
I0605 15:25:32.282783 10969 net.cpp:150] Setting up cls_score
I0605 15:25:32.282809 10969 net.cpp:157] Top shape: 1 8 (8)
I0605 15:25:32.282819 10969 net.cpp:165] Memory required for data: 117125876
I0605 15:25:32.282829 10969 layer_factory.hpp:77] Creating layer bbox_pred
I0605 15:25:32.282841 10969 net.cpp:106] Creating Layer bbox_pred
I0605 15:25:32.282856 10969 net.cpp:454] bbox_pred <- fc7_drop7_0_split_1
I0605 15:25:32.282867 10969 net.cpp:411] bbox_pred -> bbox_pred
I0605 15:25:32.288022 10969 net.cpp:150] Setting up bbox_pred
I0605 15:25:32.288051 10969 net.cpp:157] Top shape: 1 32 (32)
I0605 15:25:32.288060 10969 net.cpp:165] Memory required for data: 117126004
I0605 15:25:32.288074 10969 layer_factory.hpp:77] Creating layer cls_prob
I0605 15:25:32.288085 10969 net.cpp:106] Creating Layer cls_prob
I0605 15:25:32.288103 10969 net.cpp:454] cls_prob <- cls_score
I0605 15:25:32.288116 10969 net.cpp:411] cls_prob -> cls_prob
I0605 15:25:32.288229 10969 net.cpp:150] Setting up cls_prob
I0605 15:25:32.288249 10969 net.cpp:157] Top shape: 1 8 (8)
I0605 15:25:32.288257 10969 net.cpp:165] Memory required for data: 117126036
I0605 15:25:32.288265 10969 net.cpp:228] cls_prob does not need backward computation.
I0605 15:25:32.288275 10969 net.cpp:228] bbox_pred does not need backward computation.
I0605 15:25:32.288296 10969 net.cpp:228] cls_score does not need backward computation.
I0605 15:25:32.288305 10969 net.cpp:228] fc7_drop7_0_split does not need backward computation.
…
