…
snapshot_prefix: "vgg16_faster_rcnn"
average_loss: 100
iter_size: 2
I0608 20:06:11.362584  3668 solver.cpp:81] Creating training net from train_net file: models/pascal_voc/VGG16/faster_rcnn_end2end/train.prototxt
I0608 20:06:11.365075  3668 net.cpp:49] Initializing net from parameters: 
name: "VGG_ILSVRC_16_layers"
state {
  phase: TRAIN
}
layer {
  name: "input-data"
  type: "Python"
  top: "data"
  top: "im_info"
  top: "gt_boxes"
  python_param {
    module: "roi_data_layer.layer"
    layer: "RoIDataLayer"
    param_str: "\'num_classes\': 8"
  }
}
layer {
  name: "conv1_1"
  type: "Convolution"
  bottom: "data"
  top: "conv1_1"
  param {
    lr_mult: 0
    decay_mult: 0
  }
  param {
    lr_mult: 0
    decay_mult: 0
  }
  convolution_param {
    num_output: 64
    pad: 1
    kernel_size: 3
  }
}
layer {
  name: "relu1_1"
  type: "ReLU"
  bottom: "conv1_1"
  top: "conv1_1"
}
layer {
  name: "conv1_2"
  type: "Convolution"
  bottom: "conv1_1"
  top: "conv1_2"
  param {
    lr_mult: 0
    decay_mult: 0
  }
  param {
    lr_mult: 0
    decay_mult: 0
  }
  convolution_param {
    num_output: 64
    pad: 1
    kernel_size: 3
  }
}
layer {
  name: "relu1_2"
  type: "ReLU"
  bottom: "conv1_2"
  top: "conv1_2"
}
layer {
  name: "pool1"
  type: "Pooling"
  bottom: "conv1_2"
  top: "pool1"
  pooling_param {
    pool: MAX
    kernel_size: 2
    stride: 2
  }
}
layer {
  name: "conv2_1"
  type: "Convolution"
  bottom: "pool1"
  top: "conv2_1"
  param {
    lr_mult: 0
    decay_mult: 0
  }
  param {
    lr_mult: 0
    decay_mult: 0
  }
  convolution_param {
    num_output: 128
    pad: 1
    kernel_size: 3
  }
}
layer {
  name: "relu2_1"
  type: "ReLU"
  bottom: "conv2_1"
  top: "conv2_1"
}
layer {
  name: "conv2_2"
  type: "Convolution"
  bottom: "conv2_1"
  top: "conv2_2"
  param {
    lr_mult: 0
    decay_mult: 0
  }
  param {
    lr_mult: 0
    decay_mult: 0
  }
  convolution_param {
    num_output: 128
    pad: 1
    kernel_size: 3
  }
}
layer {
  name: "relu2_2"
  type: "ReLU"
  bottom: "conv2_2"
  top: "conv2_2"
}
layer {
  name: "pool2"
  type: "Pooling"
  bottom: "conv2_2"
  top: "pool2"
  pooling_param {
    pool: MAX
    kernel_size: 2
    stride: 2
  }
}
layer {
  name: "conv3_1"
  type: "Convolution"
  bottom: "pool2"
  top: "conv3_1"
  param {
    lr_mult: 1
  }
  param {
    lr_mult: 2
  }
  convolution_param {
    num_output: 256
    pad: 1
    kernel_size: 3
  }
}
layer {
  name: "relu3_1"
  type: "ReLU"
  bottom: "conv3_1"
  top: "conv3_1"
}
layer {
  name: "conv3_2"
  type: "Convolution"
  bottom: "conv3_1"
  top: "conv3_2"
  param {
    lr_mult: 1
  }
  param {
    lr_mult: 2
  }
  convolution_param {
    num_output: 256
    pad: 1
    kernel_size: 3
  }
}
layer {
  name: "relu3_2"
  type: "ReLU"
  bottom: "conv3_2"
  top: "conv3_2"
}
layer {
  name: "conv3_3"
  type: "Convolution"
  bottom: "conv3_2"
  top: "conv3_3"
  param {
    lr_mult: 1
  }
  param {
    lr_mult: 2
  }
  convolution_param {
    num_output: 256
    pad: 1
    kernel_size: 3
  }
}
layer {
  name: "relu3_3"
  type: "ReLU"
  bottom: "conv3_3"
  top: "conv3_3"
}
layer {
  name: "pool3"
  type: "Pooling"
  bottom: "conv3_3"
  top: "pool3"
  pooling_param {
    pool: MAX
    kernel_size: 2
    stride: 2
  }
}
layer {
  name: "conv4_1"
  type: "Convolution"
  bottom: "pool3"
  top: "conv4_1"
  param {
    lr_mult: 1
  }
  param {
    lr_mult: 2
  }
  convolution_param {
    num_output: 512
    pad: 1
    kernel_size: 3
  }
}
layer {
  name: "relu4_1"
  type: "ReLU"
  bottom: "conv4_1"
  top: "conv4_1"
}
layer {
  name: "conv4_2"
  type: "Convolution"
  bottom: "conv4_1"
  top: "conv4_2"
  param {
    lr_mult: 1
  }
  param {
    lr_mult: 2
  }
  convolution_param {
    num_output: 512
    pad: 1
    kernel_size: 3
  }
}
layer {
  name: "relu4_2"
  type: "ReLU"
  bottom: "conv4_2"
  top: "conv4_2"
}
layer {
  name: "conv4_3"
  type: "Convolution"
  bottom: "conv4_2"
  top: "conv4_3"
  param {
    lr_mult: 1
  }
  param {
    lr_mult: 2
  }
  convolution_param {
    num_output: 512
    pad: 1
    kernel_size: 3
  }
}
layer {
  name: "relu4_3"
  type: "ReLU"
  bottom: "conv4_3"
  top: "conv4_3"
}
layer {
  name: "pool4"
  type: "Pooling"
  bottom: "conv4_3"
  top: "pool4"
  pooling_param {
    pool: MAX
    kernel_size: 2
    stride: 2
  }
}
layer {
  name: "conv5_1"
  type: "Convolution"
  bottom: "pool4"
  top: "conv5_1"
  param {
    lr_mult: 1
  }
  param {
    lr_mult: 2
  }
  convolution_param {
    num_output: 512
    pad: 1
    kernel_size: 3
  }
}
layer {
  name: "relu5_1"
  type: "ReLU"
  bottom: "conv5_1"
  top: "conv5_1"
}
layer {
  name: "conv5_2"
  type: "Convolution"
  bottom: "conv5_1"
  top: "conv5_2"
  param {
    lr_mult: 1
  }
  param {
    lr_mult: 2
  }
  convolution_param {
    num_output: 512
    pad: 1
    kernel_size: 3
  }
}
layer {
  name: "relu5_2"
  type: "ReLU"
  bottom: "conv5_2"
  top: "conv5_2"
}
layer {
  name: "conv5_3"
  type: "Convolution"
  bottom: "conv5_2"
  top: "conv5_3"
  param {
    lr_mult: 1
  }
  param {
    lr_mult: 2
  }
  convolution_param {
    num_output: 512
    pad: 1
    kernel_size: 3
  }
}
layer {
  name: "relu5_3"
  type: "ReLU"
  bottom: "conv5_3"
  top: "conv5_3"
}
layer {
  name: "rpn_conv/3x3"
  type: "Convolution"
  bottom: "conv5_3"
  top: "rpn/output"
  param {
    lr_mult: 1
  }
  param {
    lr_mult: 2
  }
  convolution_param {
    num_output: 512
    pad: 1
    kernel_size: 3
    stride: 1
    weight_filler {
      type: "gaussian"
      std: 0.01
    }
    bias_filler {
      type: "constant"
      value: 0
    }
  }
}
layer {
  name: "rpn_relu/3x3"
  type: "ReLU"
  bottom: "rpn/output"
  top: "rpn/output"
}
layer {
  name: "rpn_cls_score"
  type: "Convolution"
  bottom: "rpn/output"
  top: "rpn_cls_score"
  param {
    lr_mult: 1
  }
  param {
    lr_mult: 2
  }
  convolution_param {
    num_output: 18
    pad: 0
    kernel_size: 1
    stride: 1
    weight_filler {
      type: "gaussian"
      std: 0.01
    }
    bias_filler {
      type: "constant"
      value: 0
    }
  }
}
layer {
  name: "rpn_bbox_pred"
  type: "Convolution"
  bottom: "rpn/output"
  top: "rpn_bbox_pred"
  param {
    lr_mult: 1
  }
  param {
    lr_mult: 2
  }
  convolution_param {
    num_output: 36
    pad: 0
    kernel_size: 1
    stride: 1
    weight_filler {
      type: "gaussian"
      std: 0.01
    }
    bias_filler {
      type: "constant"
      value: 0
    }
  }
}
layer {
  name: "rpn_cls_score_reshape"
  type: "Reshape"
  bottom: "rpn_cls_score"
  top: "rpn_cls_score_reshape"
  reshape_param {
    shape {
      dim: 0
      dim: 2
      dim: -1
      dim: 0
    }
  }
}
layer {
  name: "rpn-data"
  type: "Python"
  bottom: "rpn_cls_score"
  bottom: "gt_boxes"
  bottom: "im_info"
  bottom: "data"
  top: "rpn_labels"
  top: "rpn_bbox_targets"
  top: "rpn_bbox_inside_weights"
  top: "rpn_bbox_outside_weights"
  python_param {
    module: "rpn.anchor_target_layer"
    layer: "AnchorTargetLayer"
    param_str: "\'feat_stride\': 16"
  }
}
layer {
  name: "rpn_loss_cls"
  type: "SoftmaxWithLoss"
  bottom: "rpn_cls_score_reshape"
  bottom: "rpn_labels"
  top: "rpn_cls_loss"
  loss_weight: 1
  propagate_down: true
  propagate_down: false
  loss_param {
    ignore_label: -1
    normalize: true
  }
}
layer {
  name: "rpn_loss_bbox"
  type: "SmoothL1Loss"
  bottom: "rpn_bbox_pred"
  bottom: "rpn_bbox_targets"
  bottom: "rpn_bbox_inside_weights"
  bottom: "rpn_bbox_outside_weights"
  top: "rpn_loss_bbox"
  loss_weight: 1
  smooth_l1_loss_param {
    sigma: 3
  }
}
layer {
  name: "rpn_cls_prob"
  type: "Softmax"
  bottom: "rpn_cls_score_reshape"
  top: "rpn_cls_prob"
}
layer {
  name: "rpn_cls_prob_reshape"
  type: "Reshape"
  bottom: "rpn_cls_prob"
  top: "rpn_cls_prob_reshape"
  reshape_param {
    shape {
      dim: 0
      dim: 18
      dim: -1
      dim: 0
    }
  }
}
layer {
  name: "proposal"
  type: "Python"
  bottom: "rpn_cls_prob_reshape"
  bottom: "rpn_bbox_pred"
  bottom: "im_info"
  top: "rpn_rois"
  python_param {
    module: "rpn.proposal_layer"
    layer: "ProposalLayer"
    param_str: "\'feat_stride\': 16"
  }
}
layer {
  name: "roi-data"
  type: "Python"
  bottom: "rpn_rois"
  bottom: "gt_boxes"
  top: "rois"
  top: "labels"
  top: "bbox_targets"
  top: "bbox_inside_weights"
  top: "bbox_outside_weights"
  python_param {
    module: "rpn.proposal_target_layer"
    layer: "ProposalTargetLayer"
    param_str: "\'num_classes\': 8"
  }
}
layer {
  name: "roi_pool5"
  type: "ROIPooling"
  bottom: "conv5_3"
  bottom: "rois"
  top: "pool5"
  roi_pooling_param {
    pooled_h: 7
    pooled_w: 7
    spatial_scale: 0.0625
  }
}
layer {
  name: "fc6"
  type: "InnerProduct"
  bottom: "pool5"
  top: "fc6"
  param {
    lr_mult: 1
  }
  param {
    lr_mult: 2
  }
  inner_product_param {
    num_output: 4096
  }
}
layer {
  name: "relu6"
  type: "ReLU"
  bottom: "fc6"
  top: "fc6"
}
layer {
  name: "drop6"
  type: "Dropout"
  bottom: "fc6"
  top: "fc6"
  dropout_param {
    dropout_ratio: 0.5
  }
}
layer {
  name: "fc7"
  type: "InnerProduct"
  bottom: "fc6"
  top: "fc7"
  param {
    lr_mult: 1
  }
  param {
    lr_mult: 2
  }
  inner_product_param {
    num_output: 4096
  }
}
layer {
  name: "relu7"
  type: "ReLU"
  bottom: "fc7"
  top: "fc7"
}
layer {
  name: "drop7"
  type: "Dropout"
  bottom: "fc7"
  top: "fc7"
  dropout_param {
    dropout_ratio: 0.5
  }
}
layer {
  name: "cls_score"
  type: "InnerProduct"
  bottom: "fc7"
  top: "cls_score"
  param {
    lr_mult: 1
  }
  param {
    lr_mult: 2
  }
  inner_product_param {
    num_output: 8
    weight_filler {
      type: "gaussian"
      std: 0.01
    }
    bias_filler {
      type: "constant"
      value: 0
    }
  }
}
layer {
  name: "bbox_pred"
  type: "InnerProduct"
  bottom: "fc7"
  top: "bbox_pred"
  param {
    lr_mult: 1
  }
  param {
    lr_mult: 2
  }
  inner_product_param {
    num_output: 32
    weight_filler {
      type: "gaussian"
      std: 0.001
    }
    bias_filler {
      type: "constant"
      value: 0
    }
  }
}
layer {
  name: "loss_cls"
  type: "SoftmaxWithLoss"
  bottom: "cls_score"
  bottom: "labels"
  top: "loss_cls"
  loss_weight: 1
  propagate_down: true
  propagate_down: false
}
layer {
  name: "loss_bbox"
  type: "SmoothL1Loss"
  bottom: "bbox_pred"
  bottom: "bbox_targets"
  bottom: "bbox_inside_weights"
  bottom: "bbox_outside_weights"
  top: "loss_bbox"
  loss_weight: 1
}
I0608 20:06:11.365515  3668 layer_factory.hpp:77] Creating layer input-data
I0608 20:06:11.467483  3668 net.cpp:106] Creating Layer input-data
I0608 20:06:11.467540  3668 net.cpp:411] input-data -> data
I0608 20:06:11.467566  3668 net.cpp:411] input-data -> im_info
I0608 20:06:11.467581  3668 net.cpp:411] input-data -> gt_boxes
RoiDataLayer: name_to_top: {'gt_boxes': 2, 'data': 0, 'im_info': 1}
I0608 20:06:12.057168  3668 net.cpp:150] Setting up input-data
I0608 20:06:12.057206  3668 net.cpp:157] Top shape: 1 3 144 256 (110592)
I0608 20:06:12.057219  3668 net.cpp:157] Top shape: 1 3 (3)
I0608 20:06:12.057227  3668 net.cpp:157] Top shape: 1 4 (4)
I0608 20:06:12.057235  3668 net.cpp:165] Memory required for data: 442396
I0608 20:06:12.057250  3668 layer_factory.hpp:77] Creating layer data_input-data_0_split
I0608 20:06:12.057272  3668 net.cpp:106] Creating Layer data_input-data_0_split
I0608 20:06:12.057283  3668 net.cpp:454] data_input-data_0_split <- data
I0608 20:06:12.057297  3668 net.cpp:411] data_input-data_0_split -> data_input-data_0_split_0
I0608 20:06:12.057315  3668 net.cpp:411] data_input-data_0_split -> data_input-data_0_split_1
I0608 20:06:12.057395  3668 net.cpp:150] Setting up data_input-data_0_split
I0608 20:06:12.057410  3668 net.cpp:157] Top shape: 1 3 144 256 (110592)
I0608 20:06:12.057420  3668 net.cpp:157] Top shape: 1 3 144 256 (110592)
I0608 20:06:12.057428  3668 net.cpp:165] Memory required for data: 1327132
I0608 20:06:12.057437  3668 layer_factory.hpp:77] Creating layer im_info_input-data_1_split
I0608 20:06:12.057451  3668 net.cpp:106] Creating Layer im_info_input-data_1_split
I0608 20:06:12.057459  3668 net.cpp:454] im_info_input-data_1_split <- im_info
I0608 20:06:12.057471  3668 net.cpp:411] im_info_input-data_1_split -> im_info_input-data_1_split_0
I0608 20:06:12.057483  3668 net.cpp:411] im_info_input-data_1_split -> im_info_input-data_1_split_1
I0608 20:06:12.057548  3668 net.cpp:150] Setting up im_info_input-data_1_split
I0608 20:06:12.057560  3668 net.cpp:157] Top shape: 1 3 (3)
I0608 20:06:12.057569  3668 net.cpp:157] Top shape: 1 3 (3)
I0608 20:06:12.057577  3668 net.cpp:165] Memory required for data: 1327156
I0608 20:06:12.057585  3668 layer_factory.hpp:77] Creating layer gt_boxes_input-data_2_split
I0608 20:06:12.057613  3668 net.cpp:106] Creating Layer gt_boxes_input-data_2_split
I0608 20:06:12.057639  3668 net.cpp:454] gt_boxes_input-data_2_split <- gt_boxes
I0608 20:06:12.057656  3668 net.cpp:411] gt_boxes_input-data_2_split -> gt_boxes_input-data_2_split_0
I0608 20:06:12.057669  3668 net.cpp:411] gt_boxes_input-data_2_split -> gt_boxes_input-data_2_split_1
I0608 20:06:12.057734  3668 net.cpp:150] Setting up gt_boxes_input-data_2_split
I0608 20:06:12.057747  3668 net.cpp:157] Top shape: 1 4 (4)
I0608 20:06:12.057757  3668 net.cpp:157] Top shape: 1 4 (4)
I0608 20:06:12.057765  3668 net.cpp:165] Memory required for data: 1327188
I0608 20:06:12.057775  3668 layer_factory.hpp:77] Creating layer conv1_1
I0608 20:06:12.057797  3668 net.cpp:106] Creating Layer conv1_1
I0608 20:06:12.057807  3668 net.cpp:454] conv1_1 <- data_input-data_0_split_0
I0608 20:06:12.057821  3668 net.cpp:411] conv1_1 -> conv1_1
I0608 20:06:12.065704  3668 net.cpp:150] Setting up conv1_1
I0608 20:06:12.065750  3668 net.cpp:157] Top shape: 1 64 144 256 (2359296)
I0608 20:06:12.065764  3668 net.cpp:165] Memory required for data: 10764372
I0608 20:06:12.065791  3668 layer_factory.hpp:77] Creating layer relu1_1
I0608 20:06:12.065812  3668 net.cpp:106] Creating Layer relu1_1
I0608 20:06:12.065829  3668 net.cpp:454] relu1_1 <- conv1_1
I0608 20:06:12.065848  3668 net.cpp:397] relu1_1 -> conv1_1 (in-place)
I0608 20:06:12.065870  3668 net.cpp:150] Setting up relu1_1
I0608 20:06:12.065891  3668 net.cpp:157] Top shape: 1 64 144 256 (2359296)
I0608 20:06:12.065903  3668 net.cpp:165] Memory required for data: 20201556
I0608 20:06:12.065915  3668 layer_factory.hpp:77] Creating layer conv1_2
I0608 20:06:12.065944  3668 net.cpp:106] Creating Layer conv1_2
I0608 20:06:12.065963  3668 net.cpp:454] conv1_2 <- conv1_1
I0608 20:06:12.065982  3668 net.cpp:411] conv1_2 -> conv1_2
I0608 20:06:12.066701  3668 net.cpp:150] Setting up conv1_2
I0608 20:06:12.066742  3668 net.cpp:157] Top shape: 1 64 144 256 (2359296)
I0608 20:06:12.066764  3668 net.cpp:165] Memory required for data: 29638740
I0608 20:06:12.066787  3668 layer_factory.hpp:77] Creating layer relu1_2
I0608 20:06:12.066828  3668 net.cpp:106] Creating Layer relu1_2
I0608 20:06:12.066854  3668 net.cpp:454] relu1_2 <- conv1_2
I0608 20:06:12.066884  3668 net.cpp:397] relu1_2 -> conv1_2 (in-place)
I0608 20:06:12.066911  3668 net.cpp:150] Setting up relu1_2
I0608 20:06:12.066931  3668 net.cpp:157] Top shape: 1 64 144 256 (2359296)
I0608 20:06:12.066943  3668 net.cpp:165] Memory required for data: 39075924
I0608 20:06:12.066961  3668 layer_factory.hpp:77] Creating layer pool1
I0608 20:06:12.066985  3668 net.cpp:106] Creating Layer pool1
I0608 20:06:12.067005  3668 net.cpp:454] pool1 <- conv1_2
I0608 20:06:12.067028  3668 net.cpp:411] pool1 -> pool1
I0608 20:06:12.067147  3668 net.cpp:150] Setting up pool1
I0608 20:06:12.067183  3668 net.cpp:157] Top shape: 1 64 72 128 (589824)
I0608 20:06:12.067201  3668 net.cpp:165] Memory required for data: 41435220
I0608 20:06:12.067216  3668 layer_factory.hpp:77] Creating layer conv2_1
I0608 20:06:12.067255  3668 net.cpp:106] Creating Layer conv2_1
I0608 20:06:12.067271  3668 net.cpp:454] conv2_1 <- pool1
I0608 20:06:12.067294  3668 net.cpp:411] conv2_1 -> conv2_1
I0608 20:06:12.079789  3668 net.cpp:150] Setting up conv2_1
I0608 20:06:12.079850  3668 net.cpp:157] Top shape: 1 128 72 128 (1179648)
I0608 20:06:12.079862  3668 net.cpp:165] Memory required for data: 46153812
I0608 20:06:12.079895  3668 layer_factory.hpp:77] Creating layer relu2_1
I0608 20:06:12.079929  3668 net.cpp:106] Creating Layer relu2_1
I0608 20:06:12.079946  3668 net.cpp:454] relu2_1 <- conv2_1
I0608 20:06:12.079965  3668 net.cpp:397] relu2_1 -> conv2_1 (in-place)
I0608 20:06:12.079987  3668 net.cpp:150] Setting up relu2_1
I0608 20:06:12.080003  3668 net.cpp:157] Top shape: 1 128 72 128 (1179648)
I0608 20:06:12.080011  3668 net.cpp:165] Memory required for data: 50872404
I0608 20:06:12.080021  3668 layer_factory.hpp:77] Creating layer conv2_2
I0608 20:06:12.080046  3668 net.cpp:106] Creating Layer conv2_2
I0608 20:06:12.080072  3668 net.cpp:454] conv2_2 <- conv2_1
I0608 20:06:12.080094  3668 net.cpp:411] conv2_2 -> conv2_2
I0608 20:06:12.080767  3668 net.cpp:150] Setting up conv2_2
I0608 20:06:12.080803  3668 net.cpp:157] Top shape: 1 128 72 128 (1179648)
I0608 20:06:12.080816  3668 net.cpp:165] Memory required for data: 55590996
I0608 20:06:12.080828  3668 layer_factory.hpp:77] Creating layer relu2_2
I0608 20:06:12.080843  3668 net.cpp:106] Creating Layer relu2_2
I0608 20:06:12.080858  3668 net.cpp:454] relu2_2 <- conv2_2
I0608 20:06:12.080874  3668 net.cpp:397] relu2_2 -> conv2_2 (in-place)
I0608 20:06:12.080890  3668 net.cpp:150] Setting up relu2_2
I0608 20:06:12.080919  3668 net.cpp:157] Top shape: 1 128 72 128 (1179648)
I0608 20:06:12.080929  3668 net.cpp:165] Memory required for data: 60309588
I0608 20:06:12.080940  3668 layer_factory.hpp:77] Creating layer pool2
I0608 20:06:12.080955  3668 net.cpp:106] Creating Layer pool2
I0608 20:06:12.080965  3668 net.cpp:454] pool2 <- conv2_2
I0608 20:06:12.080979  3668 net.cpp:411] pool2 -> pool2
I0608 20:06:12.081056  3668 net.cpp:150] Setting up pool2
I0608 20:06:12.081084  3668 net.cpp:157] Top shape: 1 128 36 64 (294912)
I0608 20:06:12.081116  3668 net.cpp:165] Memory required for data: 61489236
I0608 20:06:12.081136  3668 layer_factory.hpp:77] Creating layer conv3_1
I0608 20:06:12.081213  3668 net.cpp:106] Creating Layer conv3_1
I0608 20:06:12.081238  3668 net.cpp:454] conv3_1 <- pool2
I0608 20:06:12.081277  3668 net.cpp:411] conv3_1 -> conv3_1
I0608 20:06:12.082479  3668 net.cpp:150] Setting up conv3_1
I0608 20:06:12.082516  3668 net.cpp:157] Top shape: 1 256 36 64 (589824)
I0608 20:06:12.082528  3668 net.cpp:165] Memory required for data: 63848532
I0608 20:06:12.082547  3668 layer_factory.hpp:77] Creating layer relu3_1
I0608 20:06:12.082584  3668 net.cpp:106] Creating Layer relu3_1
I0608 20:06:12.082608  3668 net.cpp:454] relu3_1 <- conv3_1
I0608 20:06:12.082638  3668 net.cpp:397] relu3_1 -> conv3_1 (in-place)
I0608 20:06:12.082669  3668 net.cpp:150] Setting up relu3_1
I0608 20:06:12.082706  3668 net.cpp:157] Top shape: 1 256 36 64 (589824)
I0608 20:06:12.082721  3668 net.cpp:165] Memory required for data: 66207828
I0608 20:06:12.082736  3668 layer_factory.hpp:77] Creating layer conv3_2
I0608 20:06:12.082805  3668 net.cpp:106] Creating Layer conv3_2
I0608 20:06:12.082826  3668 net.cpp:454] conv3_2 <- conv3_1
I0608 20:06:12.082849  3668 net.cpp:411] conv3_2 -> conv3_2
I0608 20:06:12.088686  3668 net.cpp:150] Setting up conv3_2
I0608 20:06:12.088762  3668 net.cpp:157] Top shape: 1 256 36 64 (589824)
I0608 20:06:12.088775  3668 net.cpp:165] Memory required for data: 68567124
I0608 20:06:12.088798  3668 layer_factory.hpp:77] Creating layer relu3_2
I0608 20:06:12.088826  3668 net.cpp:106] Creating Layer relu3_2
I0608 20:06:12.088852  3668 net.cpp:454] relu3_2 <- conv3_2
I0608 20:06:12.088881  3668 net.cpp:397] relu3_2 -> conv3_2 (in-place)
I0608 20:06:12.088948  3668 net.cpp:150] Setting up relu3_2
I0608 20:06:12.088982  3668 net.cpp:157] Top shape: 1 256 36 64 (589824)
I0608 20:06:12.088995  3668 net.cpp:165] Memory required for data: 70926420
I0608 20:06:12.089010  3668 layer_factory.hpp:77] Creating layer conv3_3
I0608 20:06:12.089051  3668 net.cpp:106] Creating Layer conv3_3
I0608 20:06:12.089071  3668 net.cpp:454] conv3_3 <- conv3_2
I0608 20:06:12.089128  3668 net.cpp:411] conv3_3 -> conv3_3
I0608 20:06:12.101593  3668 net.cpp:150] Setting up conv3_3
I0608 20:06:12.101706  3668 net.cpp:157] Top shape: 1 256 36 64 (589824)
I0608 20:06:12.101717  3668 net.cpp:165] Memory required for data: 73285716
I0608 20:06:12.101739  3668 layer_factory.hpp:77] Creating layer relu3_3
I0608 20:06:12.101768  3668 net.cpp:106] Creating Layer relu3_3
I0608 20:06:12.101780  3668 net.cpp:454] relu3_3 <- conv3_3
I0608 20:06:12.101810  3668 net.cpp:397] relu3_3 -> conv3_3 (in-place)
I0608 20:06:12.101869  3668 net.cpp:150] Setting up relu3_3
I0608 20:06:12.101884  3668 net.cpp:157] Top shape: 1 256 36 64 (589824)
I0608 20:06:12.101896  3668 net.cpp:165] Memory required for data: 75645012
I0608 20:06:12.102017  3668 layer_factory.hpp:77] Creating layer pool3
I0608 20:06:12.102066  3668 net.cpp:106] Creating Layer pool3
I0608 20:06:12.102077  3668 net.cpp:454] pool3 <- conv3_3
I0608 20:06:12.102092  3668 net.cpp:411] pool3 -> pool3
I0608 20:06:12.102452  3668 net.cpp:150] Setting up pool3
I0608 20:06:12.102509  3668 net.cpp:157] Top shape: 1 256 18 32 (147456)
I0608 20:06:12.102527  3668 net.cpp:165] Memory required for data: 76234836
I0608 20:06:12.102540  3668 layer_factory.hpp:77] Creating layer conv4_1
I0608 20:06:12.102562  3668 net.cpp:106] Creating Layer conv4_1
I0608 20:06:12.102596  3668 net.cpp:454] conv4_1 <- pool3
I0608 20:06:12.102612  3668 net.cpp:411] conv4_1 -> conv4_1
I0608 20:06:12.121528  3668 net.cpp:150] Setting up conv4_1
I0608 20:06:12.121662  3668 net.cpp:157] Top shape: 1 512 18 32 (294912)
I0608 20:06:12.121698  3668 net.cpp:165] Memory required for data: 77414484
I0608 20:06:12.121739  3668 layer_factory.hpp:77] Creating layer relu4_1
I0608 20:06:12.121784  3668 net.cpp:106] Creating Layer relu4_1
I0608 20:06:12.121824  3668 net.cpp:454] relu4_1 <- conv4_1
I0608 20:06:12.121860  3668 net.cpp:397] relu4_1 -> conv4_1 (in-place)
I0608 20:06:12.121914  3668 net.cpp:150] Setting up relu4_1
I0608 20:06:12.121959  3668 net.cpp:157] Top shape: 1 512 18 32 (294912)
I0608 20:06:12.122009  3668 net.cpp:165] Memory required for data: 78594132
I0608 20:06:12.122045  3668 layer_factory.hpp:77] Creating layer conv4_2
I0608 20:06:12.122092  3668 net.cpp:106] Creating Layer conv4_2
I0608 20:06:12.122130  3668 net.cpp:454] conv4_2 <- conv4_1
I0608 20:06:12.122604  3668 net.cpp:411] conv4_2 -> conv4_2
I0608 20:06:12.143410  3668 net.cpp:150] Setting up conv4_2
I0608 20:06:12.143573  3668 net.cpp:157] Top shape: 1 512 18 32 (294912)
I0608 20:06:12.143649  3668 net.cpp:165] Memory required for data: 79773780
I0608 20:06:12.143723  3668 layer_factory.hpp:77] Creating layer relu4_2
I0608 20:06:12.143780  3668 net.cpp:106] Creating Layer relu4_2
I0608 20:06:12.143822  3668 net.cpp:454] relu4_2 <- conv4_2
I0608 20:06:12.143879  3668 net.cpp:397] relu4_2 -> conv4_2 (in-place)
I0608 20:06:12.143925  3668 net.cpp:150] Setting up relu4_2
I0608 20:06:12.143980  3668 net.cpp:157] Top shape: 1 512 18 32 (294912)
I0608 20:06:12.144013  3668 net.cpp:165] Memory required for data: 80953428
I0608 20:06:12.144043  3668 layer_factory.hpp:77] Creating layer conv4_3
I0608 20:06:12.144088  3668 net.cpp:106] Creating Layer conv4_3
I0608 20:06:12.144120  3668 net.cpp:454] conv4_3 <- conv4_2
I0608 20:06:12.144158  3668 net.cpp:411] conv4_3 -> conv4_3
I0608 20:06:12.164196  3668 net.cpp:150] Setting up conv4_3
I0608 20:06:12.164290  3668 net.cpp:157] Top shape: 1 512 18 32 (294912)
I0608 20:06:12.164314  3668 net.cpp:165] Memory required for data: 82133076
I0608 20:06:12.164352  3668 layer_factory.hpp:77] Creating layer relu4_3
I0608 20:06:12.164381  3668 net.cpp:106] Creating Layer relu4_3
I0608 20:06:12.164417  3668 net.cpp:454] relu4_3 <- conv4_3
I0608 20:06:12.164438  3668 net.cpp:397] relu4_3 -> conv4_3 (in-place)
I0608 20:06:12.164475  3668 net.cpp:150] Setting up relu4_3
I0608 20:06:12.164494  3668 net.cpp:157] Top shape: 1 512 18 32 (294912)
I0608 20:06:12.164511  3668 net.cpp:165] Memory required for data: 83312724
I0608 20:06:12.164531  3668 layer_factory.hpp:77] Creating layer pool4
I0608 20:06:12.164564  3668 net.cpp:106] Creating Layer pool4
I0608 20:06:12.164578  3668 net.cpp:454] pool4 <- conv4_3
I0608 20:06:12.164597  3668 net.cpp:411] pool4 -> pool4
I0608 20:06:12.164716  3668 net.cpp:150] Setting up pool4
I0608 20:06:12.164747  3668 net.cpp:157] Top shape: 1 512 9 16 (73728)
I0608 20:06:12.164762  3668 net.cpp:165] Memory required for data: 83607636
I0608 20:06:12.164774  3668 layer_factory.hpp:77] Creating layer conv5_1
I0608 20:06:12.164805  3668 net.cpp:106] Creating Layer conv5_1
I0608 20:06:12.164829  3668 net.cpp:454] conv5_1 <- pool4
I0608 20:06:12.164849  3668 net.cpp:411] conv5_1 -> conv5_1
I0608 20:06:12.186054  3668 net.cpp:150] Setting up conv5_1
I0608 20:06:12.186533  3668 net.cpp:157] Top shape: 1 512 9 16 (73728)
I0608 20:06:12.186580  3668 net.cpp:165] Memory required for data: 83902548
I0608 20:06:12.186626  3668 layer_factory.hpp:77] Creating layer relu5_1
I0608 20:06:12.186679  3668 net.cpp:106] Creating Layer relu5_1
I0608 20:06:12.186729  3668 net.cpp:454] relu5_1 <- conv5_1
I0608 20:06:12.186769  3668 net.cpp:397] relu5_1 -> conv5_1 (in-place)
I0608 20:06:12.186830  3668 net.cpp:150] Setting up relu5_1
I0608 20:06:12.186873  3668 net.cpp:157] Top shape: 1 512 9 16 (73728)
I0608 20:06:12.186918  3668 net.cpp:165] Memory required for data: 84197460
I0608 20:06:12.186954  3668 layer_factory.hpp:77] Creating layer conv5_2
I0608 20:06:12.187002  3668 net.cpp:106] Creating Layer conv5_2
I0608 20:06:12.187041  3668 net.cpp:454] conv5_2 <- conv5_1
I0608 20:06:12.187074  3668 net.cpp:411] conv5_2 -> conv5_2
I0608 20:06:12.205957  3668 net.cpp:150] Setting up conv5_2
I0608 20:06:12.206105  3668 net.cpp:157] Top shape: 1 512 9 16 (73728)
I0608 20:06:12.206140  3668 net.cpp:165] Memory required for data: 84492372
I0608 20:06:12.206544  3668 layer_factory.hpp:77] Creating layer relu5_2
I0608 20:06:12.206611  3668 net.cpp:106] Creating Layer relu5_2
I0608 20:06:12.206656  3668 net.cpp:454] relu5_2 <- conv5_2
I0608 20:06:12.206696  3668 net.cpp:397] relu5_2 -> conv5_2 (in-place)
I0608 20:06:12.206774  3668 net.cpp:150] Setting up relu5_2
I0608 20:06:12.206830  3668 net.cpp:157] Top shape: 1 512 9 16 (73728)
I0608 20:06:12.206868  3668 net.cpp:165] Memory required for data: 84787284
I0608 20:06:12.206928  3668 layer_factory.hpp:77] Creating layer conv5_3
I0608 20:06:12.206990  3668 net.cpp:106] Creating Layer conv5_3
I0608 20:06:12.207032  3668 net.cpp:454] conv5_3 <- conv5_2
I0608 20:06:12.207077  3668 net.cpp:411] conv5_3 -> conv5_3
I0608 20:06:12.228657  3668 net.cpp:150] Setting up conv5_3
I0608 20:06:12.228765  3668 net.cpp:157] Top shape: 1 512 9 16 (73728)
I0608 20:06:12.228780  3668 net.cpp:165] Memory required for data: 85082196
I0608 20:06:12.228806  3668 layer_factory.hpp:77] Creating layer relu5_3
I0608 20:06:12.228835  3668 net.cpp:106] Creating Layer relu5_3
I0608 20:06:12.228852  3668 net.cpp:454] relu5_3 <- conv5_3
I0608 20:06:12.228901  3668 net.cpp:397] relu5_3 -> conv5_3 (in-place)
I0608 20:06:12.228931  3668 net.cpp:150] Setting up relu5_3
I0608 20:06:12.228946  3668 net.cpp:157] Top shape: 1 512 9 16 (73728)
I0608 20:06:12.228974  3668 net.cpp:165] Memory required for data: 85377108
I0608 20:06:12.228991  3668 layer_factory.hpp:77] Creating layer conv5_3_relu5_3_0_split
I0608 20:06:12.229022  3668 net.cpp:106] Creating Layer conv5_3_relu5_3_0_split
I0608 20:06:12.229034  3668 net.cpp:454] conv5_3_relu5_3_0_split <- conv5_3
I0608 20:06:12.229051  3668 net.cpp:411] conv5_3_relu5_3_0_split -> conv5_3_relu5_3_0_split_0
I0608 20:06:12.229071  3668 net.cpp:411] conv5_3_relu5_3_0_split -> conv5_3_relu5_3_0_split_1
I0608 20:06:12.229176  3668 net.cpp:150] Setting up conv5_3_relu5_3_0_split
I0608 20:06:12.229197  3668 net.cpp:157] Top shape: 1 512 9 16 (73728)
I0608 20:06:12.229210  3668 net.cpp:157] Top shape: 1 512 9 16 (73728)
I0608 20:06:12.229223  3668 net.cpp:165] Memory required for data: 85966932
I0608 20:06:12.229235  3668 layer_factory.hpp:77] Creating layer rpn_conv/3x3
I0608 20:06:12.229269  3668 net.cpp:106] Creating Layer rpn_conv/3x3
I0608 20:06:12.229281  3668 net.cpp:454] rpn_conv/3x3 <- conv5_3_relu5_3_0_split_0
I0608 20:06:12.229300  3668 net.cpp:411] rpn_conv/3x3 -> rpn/output
I0608 20:06:12.287026  3668 net.cpp:150] Setting up rpn_conv/3x3
I0608 20:06:12.287142  3668 net.cpp:157] Top shape: 1 512 9 16 (73728)
I0608 20:06:12.287183  3668 net.cpp:165] Memory required for data: 86261844
I0608 20:06:12.287206  3668 layer_factory.hpp:77] Creating layer rpn_relu/3x3
I0608 20:06:12.287233  3668 net.cpp:106] Creating Layer rpn_relu/3x3
I0608 20:06:12.287250  3668 net.cpp:454] rpn_relu/3x3 <- rpn/output
I0608 20:06:12.287384  3668 net.cpp:397] rpn_relu/3x3 -> rpn/output (in-place)
I0608 20:06:12.287438  3668 net.cpp:150] Setting up rpn_relu/3x3
I0608 20:06:12.287478  3668 net.cpp:157] Top shape: 1 512 9 16 (73728)
I0608 20:06:12.287513  3668 net.cpp:165] Memory required for data: 86556756
I0608 20:06:12.287545  3668 layer_factory.hpp:77] Creating layer rpn/output_rpn_relu/3x3_0_split
I0608 20:06:12.287600  3668 net.cpp:106] Creating Layer rpn/output_rpn_relu/3x3_0_split
I0608 20:06:12.287643  3668 net.cpp:454] rpn/output_rpn_relu/3x3_0_split <- rpn/output
I0608 20:06:12.287689  3668 net.cpp:411] rpn/output_rpn_relu/3x3_0_split -> rpn/output_rpn_relu/3x3_0_split_0
I0608 20:06:12.287732  3668 net.cpp:411] rpn/output_rpn_relu/3x3_0_split -> rpn/output_rpn_relu/3x3_0_split_1
I0608 20:06:12.287871  3668 net.cpp:150] Setting up rpn/output_rpn_relu/3x3_0_split
I0608 20:06:12.287920  3668 net.cpp:157] Top shape: 1 512 9 16 (73728)
I0608 20:06:12.287956  3668 net.cpp:157] Top shape: 1 512 9 16 (73728)
I0608 20:06:12.287987  3668 net.cpp:165] Memory required for data: 87146580
I0608 20:06:12.288022  3668 layer_factory.hpp:77] Creating layer rpn_cls_score
I0608 20:06:12.288074  3668 net.cpp:106] Creating Layer rpn_cls_score
I0608 20:06:12.288111  3668 net.cpp:454] rpn_cls_score <- rpn/output_rpn_relu/3x3_0_split_0
I0608 20:06:12.288174  3668 net.cpp:411] rpn_cls_score -> rpn_cls_score
I0608 20:06:12.288959  3668 net.cpp:150] Setting up rpn_cls_score
I0608 20:06:12.289017  3668 net.cpp:157] Top shape: 1 18 9 16 (2592)
I0608 20:06:12.289057  3668 net.cpp:165] Memory required for data: 87156948
I0608 20:06:12.289098  3668 layer_factory.hpp:77] Creating layer rpn_cls_score_rpn_cls_score_0_split
I0608 20:06:12.289142  3668 net.cpp:106] Creating Layer rpn_cls_score_rpn_cls_score_0_split
I0608 20:06:12.289178  3668 net.cpp:454] rpn_cls_score_rpn_cls_score_0_split <- rpn_cls_score
I0608 20:06:12.289209  3668 net.cpp:411] rpn_cls_score_rpn_cls_score_0_split -> rpn_cls_score_rpn_cls_score_0_split_0
I0608 20:06:12.289311  3668 net.cpp:411] rpn_cls_score_rpn_cls_score_0_split -> rpn_cls_score_rpn_cls_score_0_split_1
I0608 20:06:12.289461  3668 net.cpp:150] Setting up rpn_cls_score_rpn_cls_score_0_split
I0608 20:06:12.289499  3668 net.cpp:157] Top shape: 1 18 9 16 (2592)
I0608 20:06:12.289515  3668 net.cpp:157] Top shape: 1 18 9 16 (2592)
I0608 20:06:12.289526  3668 net.cpp:165] Memory required for data: 87177684
I0608 20:06:12.289539  3668 layer_factory.hpp:77] Creating layer rpn_bbox_pred
I0608 20:06:12.289569  3668 net.cpp:106] Creating Layer rpn_bbox_pred
I0608 20:06:12.289608  3668 net.cpp:454] rpn_bbox_pred <- rpn/output_rpn_relu/3x3_0_split_1
I0608 20:06:12.289639  3668 net.cpp:411] rpn_bbox_pred -> rpn_bbox_pred
I0608 20:06:12.290781  3668 net.cpp:150] Setting up rpn_bbox_pred
I0608 20:06:12.290848  3668 net.cpp:157] Top shape: 1 36 9 16 (5184)
I0608 20:06:12.290887  3668 net.cpp:165] Memory required for data: 87198420
I0608 20:06:12.290927  3668 layer_factory.hpp:77] Creating layer rpn_bbox_pred_rpn_bbox_pred_0_split
I0608 20:06:12.290971  3668 net.cpp:106] Creating Layer rpn_bbox_pred_rpn_bbox_pred_0_split
I0608 20:06:12.291012  3668 net.cpp:454] rpn_bbox_pred_rpn_bbox_pred_0_split <- rpn_bbox_pred
I0608 20:06:12.291049  3668 net.cpp:411] rpn_bbox_pred_rpn_bbox_pred_0_split -> rpn_bbox_pred_rpn_bbox_pred_0_split_0
I0608 20:06:12.291090  3668 net.cpp:411] rpn_bbox_pred_rpn_bbox_pred_0_split -> rpn_bbox_pred_rpn_bbox_pred_0_split_1
I0608 20:06:12.291221  3668 net.cpp:150] Setting up rpn_bbox_pred_rpn_bbox_pred_0_split
I0608 20:06:12.291256  3668 net.cpp:157] Top shape: 1 36 9 16 (5184)
I0608 20:06:12.291273  3668 net.cpp:157] Top shape: 1 36 9 16 (5184)
I0608 20:06:12.291285  3668 net.cpp:165] Memory required for data: 87239892
I0608 20:06:12.291301  3668 layer_factory.hpp:77] Creating layer rpn_cls_score_reshape
I0608 20:06:12.291342  3668 net.cpp:106] Creating Layer rpn_cls_score_reshape
I0608 20:06:12.291374  3668 net.cpp:454] rpn_cls_score_reshape <- rpn_cls_score_rpn_cls_score_0_split_0
I0608 20:06:12.291393  3668 net.cpp:411] rpn_cls_score_reshape -> rpn_cls_score_reshape
I0608 20:06:12.291468  3668 net.cpp:150] Setting up rpn_cls_score_reshape
I0608 20:06:12.291504  3668 net.cpp:157] Top shape: 1 2 81 16 (2592)
I0608 20:06:12.291523  3668 net.cpp:165] Memory required for data: 87250260
I0608 20:06:12.291537  3668 layer_factory.hpp:77] Creating layer rpn_cls_score_reshape_rpn_cls_score_reshape_0_split
I0608 20:06:12.291555  3668 net.cpp:106] Creating Layer rpn_cls_score_reshape_rpn_cls_score_reshape_0_split
I0608 20:06:12.291571  3668 net.cpp:454] rpn_cls_score_reshape_rpn_cls_score_reshape_0_split <- rpn_cls_score_reshape
I0608 20:06:12.291592  3668 net.cpp:411] rpn_cls_score_reshape_rpn_cls_score_reshape_0_split -> rpn_cls_score_reshape_rpn_cls_score_reshape_0_split_0
I0608 20:06:12.291613  3668 net.cpp:411] rpn_cls_score_reshape_rpn_cls_score_reshape_0_split -> rpn_cls_score_reshape_rpn_cls_score_reshape_0_split_1
I0608 20:06:12.291720  3668 net.cpp:150] Setting up rpn_cls_score_reshape_rpn_cls_score_reshape_0_split
I0608 20:06:12.291756  3668 net.cpp:157] Top shape: 1 2 81 16 (2592)
I0608 20:06:12.291775  3668 net.cpp:157] Top shape: 1 2 81 16 (2592)
I0608 20:06:12.291787  3668 net.cpp:165] Memory required for data: 87270996
I0608 20:06:12.291802  3668 layer_factory.hpp:77] Creating layer rpn-data
I0608 20:06:12.297556  3668 net.cpp:106] Creating Layer rpn-data
I0608 20:06:12.297614  3668 net.cpp:454] rpn-data <- rpn_cls_score_rpn_cls_score_0_split_1
I0608 20:06:12.297636  3668 net.cpp:454] rpn-data <- gt_boxes_input-data_2_split_0
I0608 20:06:12.297647  3668 net.cpp:454] rpn-data <- im_info_input-data_1_split_0
I0608 20:06:12.297659  3668 net.cpp:454] rpn-data <- data_input-data_0_split_1
I0608 20:06:12.297674  3668 net.cpp:411] rpn-data -> rpn_labels
I0608 20:06:12.297698  3668 net.cpp:411] rpn-data -> rpn_bbox_targets
I0608 20:06:12.297716  3668 net.cpp:411] rpn-data -> rpn_bbox_inside_weights
I0608 20:06:12.297735  3668 net.cpp:411] rpn-data -> rpn_bbox_outside_weights
I0608 20:06:12.299098  3668 net.cpp:150] Setting up rpn-data
I0608 20:06:12.299141  3668 net.cpp:157] Top shape: 1 1 81 16 (1296)
I0608 20:06:12.299156  3668 net.cpp:157] Top shape: 1 36 9 16 (5184)
I0608 20:06:12.299166  3668 net.cpp:157] Top shape: 1 36 9 16 (5184)
I0608 20:06:12.299178  3668 net.cpp:157] Top shape: 1 36 9 16 (5184)
I0608 20:06:12.299187  3668 net.cpp:165] Memory required for data: 87338388
I0608 20:06:12.299198  3668 layer_factory.hpp:77] Creating layer rpn_loss_cls
I0608 20:06:12.299216  3668 net.cpp:106] Creating Layer rpn_loss_cls
I0608 20:06:12.299229  3668 net.cpp:454] rpn_loss_cls <- rpn_cls_score_reshape_rpn_cls_score_reshape_0_split_0
I0608 20:06:12.299242  3668 net.cpp:454] rpn_loss_cls <- rpn_labels
…
I0608 20:06:12.299834  3668 net.cpp:157] Top shape: (1)
I0608 20:06:12.299842  3668 net.cpp:160]     with loss weight 1
I0608 20:06:12.299854  3668 net.cpp:165] Memory required for data: 87338396
I0608 20:06:12.299863  3668 layer_factory.hpp:77] Creating layer rpn_cls_prob
I0608 20:06:12.299878  3668 net.cpp:106] Creating Layer rpn_cls_prob
I0608 20:06:12.299888  3668 net.cpp:454] rpn_cls_prob <- rpn_cls_score_reshape_rpn_cls_score_reshape_0_split_1
I0608 20:06:12.299901  3668 net.cpp:411] rpn_cls_prob -> rpn_cls_prob
I0608 20:06:12.300025  3668 net.cpp:150] Setting up rpn_cls_prob
I0608 20:06:12.300053  3668 net.cpp:157] Top shape: 1 2 81 16 (2592)
I0608 20:06:12.300079  3668 net.cpp:165] Memory required for data: 87348764
I0608 20:06:12.300093  3668 layer_factory.hpp:77] Creating layer rpn_cls_prob_reshape
I0608 20:06:12.300110  3668 net.cpp:106] Creating Layer rpn_cls_prob_reshape
I0608 20:06:12.300122  3668 net.cpp:454] rpn_cls_prob_reshape <- rpn_cls_prob
I0608 20:06:12.300134  3668 net.cpp:411] rpn_cls_prob_reshape -> rpn_cls_prob_reshape
I0608 20:06:12.300189  3668 net.cpp:150] Setting up rpn_cls_prob_reshape
I0608 20:06:12.300212  3668 net.cpp:157] Top shape: 1 18 9 16 (2592)
I0608 20:06:12.300222  3668 net.cpp:165] Memory required for data: 87359132
I0608 20:06:12.300231  3668 layer_factory.hpp:77] Creating layer proposal
I0608 20:06:12.309684  3668 net.cpp:106] Creating Layer proposal
I0608 20:06:12.309744  3668 net.cpp:454] proposal <- rpn_cls_prob_reshape
I0608 20:06:12.309767  3668 net.cpp:454] proposal <- rpn_bbox_pred_rpn_bbox_pred_0_split_1
I0608 20:06:12.309782  3668 net.cpp:454] proposal <- im_info_input-data_1_split_1
I0608 20:06:12.309804  3668 net.cpp:411] proposal -> rpn_rois
I0608 20:06:12.311650  3668 net.cpp:150] Setting up proposal
I0608 20:06:12.311697  3668 net.cpp:157] Top shape: 1 5 (5)
I0608 20:06:12.311710  3668 net.cpp:165] Memory required for data: 87359152
I0608 20:06:12.311724  3668 layer_factory.hpp:77] Creating layer roi-data
I0608 20:06:12.313405  3668 net.cpp:106] Creating Layer roi-data
I0608 20:06:12.313437  3668 net.cpp:454] roi-data <- rpn_rois
I0608 20:06:12.313453  3668 net.cpp:454] roi-data <- gt_boxes_input-data_2_split_1
I0608 20:06:12.313467  3668 net.cpp:411] roi-data -> rois
I0608 20:06:12.313486  3668 net.cpp:411] roi-data -> labels
I0608 20:06:12.313501  3668 net.cpp:411] roi-data -> bbox_targets
I0608 20:06:12.313515  3668 net.cpp:411] roi-data -> bbox_inside_weights
I0608 20:06:12.313545  3668 net.cpp:411] roi-data -> bbox_outside_weights
I0608 20:06:12.314079  3668 net.cpp:150] Setting up roi-data
I0608 20:06:12.314112  3668 net.cpp:157] Top shape: 1 5 (5)
I0608 20:06:12.314124  3668 net.cpp:157] Top shape: 1 1 (1)
I0608 20:06:12.314133  3668 net.cpp:157] Top shape: 1 32 (32)
I0608 20:06:12.314148  3668 net.cpp:157] Top shape: 1 32 (32)
I0608 20:06:12.314342  3668 net.cpp:157] Top shape: 1 32 (32)
I0608 20:06:12.314350  3668 net.cpp:165] Memory required for data: 87359560
I0608 20:06:12.314360  3668 layer_factory.hpp:77] Creating layer roi_pool5
I0608 20:06:12.314378  3668 net.cpp:106] Creating Layer roi_pool5
I0608 20:06:12.314489  3668 net.cpp:454] roi_pool5 <- conv5_3_relu5_3_0_split_1
I0608 20:06:12.314532  3668 net.cpp:454] roi_pool5 <- rois
I0608 20:06:12.314556  3668 net.cpp:411] roi_pool5 -> pool5
I0608 20:06:12.314573  3668 roi_pooling_layer.cpp:30] Spatial scale: 0.0625
I0608 20:06:12.314658  3668 net.cpp:150] Setting up roi_pool5
I0608 20:06:12.314697  3668 net.cpp:157] Top shape: 1 512 7 7 (25088)
I0608 20:06:12.314705  3668 net.cpp:165] Memory required for data: 87459912
I0608 20:06:12.314715  3668 layer_factory.hpp:77] Creating layer fc6
I0608 20:06:12.314749  3668 net.cpp:106] Creating Layer fc6
I0608 20:06:12.314772  3668 net.cpp:454] fc6 <- pool5
I0608 20:06:12.314790  3668 net.cpp:411] fc6 -> fc6
I0608 20:06:12.837227  3668 net.cpp:150] Setting up fc6
I0608 20:06:12.837302  3668 net.cpp:157] Top shape: 1 4096 (4096)
I0608 20:06:12.837316  3668 net.cpp:165] Memory required for data: 87476296
I0608 20:06:12.837369  3668 layer_factory.hpp:77] Creating layer relu6
I0608 20:06:12.837407  3668 net.cpp:106] Creating Layer relu6
I0608 20:06:12.837425  3668 net.cpp:454] relu6 <- fc6
I0608 20:06:12.837445  3668 net.cpp:397] relu6 -> fc6 (in-place)
I0608 20:06:12.837481  3668 net.cpp:150] Setting up relu6
I0608 20:06:12.837496  3668 net.cpp:157] Top shape: 1 4096 (4096)
I0608 20:06:12.837510  3668 net.cpp:165] Memory required for data: 87492680
I0608 20:06:12.837522  3668 layer_factory.hpp:77] Creating layer drop6
I0608 20:06:12.837541  3668 net.cpp:106] Creating Layer drop6
I0608 20:06:12.837556  3668 net.cpp:454] drop6 <- fc6
I0608 20:06:12.837575  3668 net.cpp:397] drop6 -> fc6 (in-place)
I0608 20:06:12.837644  3668 net.cpp:150] Setting up drop6
I0608 20:06:12.837672  3668 net.cpp:157] Top shape: 1 4096 (4096)
I0608 20:06:12.837685  3668 net.cpp:165] Memory required for data: 87509064
I0608 20:06:12.837698  3668 layer_factory.hpp:77] Creating layer fc7
I0608 20:06:12.837723  3668 net.cpp:106] Creating Layer fc7
I0608 20:06:12.837738  3668 net.cpp:454] fc7 <- fc6
I0608 20:06:12.837755  3668 net.cpp:411] fc7 -> fc7
I0608 20:06:12.925055  3668 net.cpp:150] Setting up fc7
I0608 20:06:12.925143  3668 net.cpp:157] Top shape: 1 4096 (4096)
I0608 20:06:12.925158  3668 net.cpp:165] Memory required for data: 87525448
I0608 20:06:12.925185  3668 layer_factory.hpp:77] Creating layer relu7
I0608 20:06:12.925213  3668 net.cpp:106] Creating Layer relu7
I0608 20:06:12.925263  3668 net.cpp:454] relu7 <- fc7
I0608 20:06:12.925292  3668 net.cpp:397] relu7 -> fc7 (in-place)
I0608 20:06:12.925348  3668 net.cpp:150] Setting up relu7
I0608 20:06:12.925364  3668 net.cpp:157] Top shape: 1 4096 (4096)
I0608 20:06:12.925385  3668 net.cpp:165] Memory required for data: 87541832
I0608 20:06:12.925400  3668 layer_factory.hpp:77] Creating layer drop7
I0608 20:06:12.925417  3668 net.cpp:106] Creating Layer drop7
I0608 20:06:12.925437  3668 net.cpp:454] drop7 <- fc7
I0608 20:06:12.925453  3668 net.cpp:397] drop7 -> fc7 (in-place)
I0608 20:06:12.925523  3668 net.cpp:150] Setting up drop7
I0608 20:06:12.925552  3668 net.cpp:157] Top shape: 1 4096 (4096)
I0608 20:06:12.925572  3668 net.cpp:165] Memory required for data: 87558216
I0608 20:06:12.925585  3668 layer_factory.hpp:77] Creating layer fc7_drop7_0_split
I0608 20:06:12.925618  3668 net.cpp:106] Creating Layer fc7_drop7_0_split
I0608 20:06:12.925631  3668 net.cpp:454] fc7_drop7_0_split <- fc7
I0608 20:06:12.925648  3668 net.cpp:411] fc7_drop7_0_split -> fc7_drop7_0_split_0
I0608 20:06:12.925678  3668 net.cpp:411] fc7_drop7_0_split -> fc7_drop7_0_split_1
I0608 20:06:12.925794  3668 net.cpp:150] Setting up fc7_drop7_0_split
I0608 20:06:12.925824  3668 net.cpp:157] Top shape: 1 4096 (4096)
I0608 20:06:12.925844  3668 net.cpp:157] Top shape: 1 4096 (4096)
I0608 20:06:12.925856  3668 net.cpp:165] Memory required for data: 87590984
I0608 20:06:12.925878  3668 layer_factory.hpp:77] Creating layer cls_score
I0608 20:06:12.925900  3668 net.cpp:106] Creating Layer cls_score
I0608 20:06:12.925925  3668 net.cpp:454] cls_score <- fc7_drop7_0_split_0
I0608 20:06:12.925947  3668 net.cpp:411] cls_score -> cls_score
I0608 20:06:12.927013  3668 net.cpp:150] Setting up cls_score
I0608 20:06:12.927049  3668 net.cpp:157] Top shape: 1 8 (8)
I0608 20:06:12.927062  3668 net.cpp:165] Memory required for data: 87591016
I0608 20:06:12.927080  3668 layer_factory.hpp:77] Creating layer bbox_pred
I0608 20:06:12.927112  3668 net.cpp:106] Creating Layer bbox_pred
I0608 20:06:12.927129  3668 net.cpp:454] bbox_pred <- fc7_drop7_0_split_1
I0608 20:06:12.927146  3668 net.cpp:411] bbox_pred -> bbox_pred
I0608 20:06:12.937728  3668 net.cpp:150] Setting up bbox_pred
I0608 20:06:12.937799  3668 net.cpp:157] Top shape: 1 32 (32)
I0608 20:06:12.937814  3668 net.cpp:165] Memory required for data: 87591144
I0608 20:06:12.937839  3668 layer_factory.hpp:77] Creating layer loss_cls
I0608 20:06:12.937866  3668 net.cpp:106] Creating Layer loss_cls
I0608 20:06:12.937885  3668 net.cpp:454] loss_cls <- cls_score
I0608 20:06:12.937904  3668 net.cpp:454] loss_cls <- labels
I0608 20:06:12.937924  3668 net.cpp:411] loss_cls -> loss_cls
…
