…
snapshot_prefix: "vgg16_faster_rcnn"
average_loss: 100
iter_size: 2
I0609 14:10:31.915693 18116 solver.cpp:81] Creating training net from train_net file: models/pascal_voc/VGG16/faster_rcnn_end2end/train.prototxt
I0609 14:10:31.917054 18116 net.cpp:49] Initializing net from parameters: 
name: "VGG_ILSVRC_16_layers"
state {
  phase: TRAIN
}
layer {
  name: "input-data"
  type: "Python"
  top: "data"
  top: "im_info"
  top: "gt_boxes"
  python_param {
    module: "roi_data_layer.layer"
    layer: "RoIDataLayer"
    param_str: "\'num_classes\': 8"
  }
}
layer {
  name: "conv1_1"
  type: "Convolution"
  bottom: "data"
  top: "conv1_1"
  param {
    lr_mult: 0
    decay_mult: 0
  }
  param {
    lr_mult: 0
    decay_mult: 0
  }
  convolution_param {
    num_output: 64
    pad: 1
    kernel_size: 3
  }
}
layer {
  name: "relu1_1"
  type: "ReLU"
  bottom: "conv1_1"
  top: "conv1_1"
}
layer {
  name: "conv1_2"
  type: "Convolution"
  bottom: "conv1_1"
  top: "conv1_2"
  param {
    lr_mult: 0
    decay_mult: 0
  }
  param {
    lr_mult: 0
    decay_mult: 0
  }
  convolution_param {
    num_output: 64
    pad: 1
    kernel_size: 3
  }
}
layer {
  name: "relu1_2"
  type: "ReLU"
  bottom: "conv1_2"
  top: "conv1_2"
}
layer {
  name: "pool1"
  type: "Pooling"
  bottom: "conv1_2"
  top: "pool1"
  pooling_param {
    pool: MAX
    kernel_size: 2
    stride: 2
  }
}
layer {
  name: "conv2_1"
  type: "Convolution"
  bottom: "pool1"
  top: "conv2_1"
  param {
    lr_mult: 0
    decay_mult: 0
  }
  param {
    lr_mult: 0
    decay_mult: 0
  }
  convolution_param {
    num_output: 128
    pad: 1
    kernel_size: 3
  }
}
layer {
  name: "relu2_1"
  type: "ReLU"
  bottom: "conv2_1"
  top: "conv2_1"
}
layer {
  name: "conv2_2"
  type: "Convolution"
  bottom: "conv2_1"
  top: "conv2_2"
  param {
    lr_mult: 0
    decay_mult: 0
  }
  param {
    lr_mult: 0
    decay_mult: 0
  }
  convolution_param {
    num_output: 128
    pad: 1
    kernel_size: 3
  }
}
layer {
  name: "relu2_2"
  type: "ReLU"
  bottom: "conv2_2"
  top: "conv2_2"
}
layer {
  name: "pool2"
  type: "Pooling"
  bottom: "conv2_2"
  top: "pool2"
  pooling_param {
    pool: MAX
    kernel_size: 2
    stride: 2
  }
}
layer {
  name: "conv3_1"
  type: "Convolution"
  bottom: "pool2"
  top: "conv3_1"
  param {
    lr_mult: 1
  }
  param {
    lr_mult: 2
  }
  convolution_param {
    num_output: 256
    pad: 1
    kernel_size: 3
  }
}
layer {
  name: "relu3_1"
  type: "ReLU"
  bottom: "conv3_1"
  top: "conv3_1"
}
layer {
  name: "conv3_2"
  type: "Convolution"
  bottom: "conv3_1"
  top: "conv3_2"
  param {
    lr_mult: 1
  }
  param {
    lr_mult: 2
  }
  convolution_param {
    num_output: 256
    pad: 1
    kernel_size: 3
  }
}
layer {
  name: "relu3_2"
  type: "ReLU"
  bottom: "conv3_2"
  top: "conv3_2"
}
layer {
  name: "conv3_3"
  type: "Convolution"
  bottom: "conv3_2"
  top: "conv3_3"
  param {
    lr_mult: 1
  }
  param {
    lr_mult: 2
  }
  convolution_param {
    num_output: 256
    pad: 1
    kernel_size: 3
  }
}
layer {
  name: "relu3_3"
  type: "ReLU"
  bottom: "conv3_3"
  top: "conv3_3"
}
layer {
  name: "pool3"
  type: "Pooling"
  bottom: "conv3_3"
  top: "pool3"
  pooling_param {
    pool: MAX
    kernel_size: 2
    stride: 2
  }
}
layer {
  name: "conv4_1"
  type: "Convolution"
  bottom: "pool3"
  top: "conv4_1"
  param {
    lr_mult: 1
  }
  param {
    lr_mult: 2
  }
  convolution_param {
    num_output: 512
    pad: 1
    kernel_size: 3
  }
}
layer {
  name: "relu4_1"
  type: "ReLU"
  bottom: "conv4_1"
  top: "conv4_1"
}
layer {
  name: "conv4_2"
  type: "Convolution"
  bottom: "conv4_1"
  top: "conv4_2"
  param {
    lr_mult: 1
  }
  param {
    lr_mult: 2
  }
  convolution_param {
    num_output: 512
    pad: 1
    kernel_size: 3
  }
}
layer {
  name: "relu4_2"
  type: "ReLU"
  bottom: "conv4_2"
  top: "conv4_2"
}
layer {
  name: "conv4_3"
  type: "Convolution"
  bottom: "conv4_2"
  top: "conv4_3"
  param {
    lr_mult: 1
  }
  param {
    lr_mult: 2
  }
  convolution_param {
    num_output: 512
    pad: 1
    kernel_size: 3
  }
}
layer {
  name: "relu4_3"
  type: "ReLU"
  bottom: "conv4_3"
  top: "conv4_3"
}
layer {
  name: "pool4"
  type: "Pooling"
  bottom: "conv4_3"
  top: "pool4"
  pooling_param {
    pool: MAX
    kernel_size: 2
    stride: 2
  }
}
layer {
  name: "conv5_1"
  type: "Convolution"
  bottom: "pool4"
  top: "conv5_1"
  param {
    lr_mult: 1
  }
  param {
    lr_mult: 2
  }
  convolution_param {
    num_output: 512
    pad: 1
    kernel_size: 3
  }
}
layer {
  name: "relu5_1"
  type: "ReLU"
  bottom: "conv5_1"
  top: "conv5_1"
}
layer {
  name: "conv5_2"
  type: "Convolution"
  bottom: "conv5_1"
  top: "conv5_2"
  param {
    lr_mult: 1
  }
  param {
    lr_mult: 2
  }
  convolution_param {
    num_output: 512
    pad: 1
    kernel_size: 3
  }
}
layer {
  name: "relu5_2"
  type: "ReLU"
  bottom: "conv5_2"
  top: "conv5_2"
}
layer {
  name: "conv5_3"
  type: "Convolution"
  bottom: "conv5_2"
  top: "conv5_3"
  param {
    lr_mult: 1
  }
  param {
    lr_mult: 2
  }
  convolution_param {
    num_output: 512
    pad: 1
    kernel_size: 3
  }
}
layer {
  name: "relu5_3"
  type: "ReLU"
  bottom: "conv5_3"
  top: "conv5_3"
}
layer {
  name: "rpn_conv/3x3"
  type: "Convolution"
  bottom: "conv5_3"
  top: "rpn/output"
  param {
    lr_mult: 1
  }
  param {
    lr_mult: 2
  }
  convolution_param {
    num_output: 512
    pad: 1
    kernel_size: 3
    stride: 1
    weight_filler {
      type: "gaussian"
      std: 0.01
    }
    bias_filler {
      type: "constant"
      value: 0
    }
  }
}
layer {
  name: "rpn_relu/3x3"
  type: "ReLU"
  bottom: "rpn/output"
  top: "rpn/output"
}
layer {
  name: "rpn_cls_score"
  type: "Convolution"
  bottom: "rpn/output"
  top: "rpn_cls_score"
  param {
    lr_mult: 1
  }
  param {
    lr_mult: 2
  }
  convolution_param {
    num_output: 18
    pad: 0
    kernel_size: 1
    stride: 1
    weight_filler {
      type: "gaussian"
      std: 0.01
    }
    bias_filler {
      type: "constant"
      value: 0
    }
  }
}
layer {
  name: "rpn_bbox_pred"
  type: "Convolution"
  bottom: "rpn/output"
  top: "rpn_bbox_pred"
  param {
    lr_mult: 1
  }
  param {
    lr_mult: 2
  }
  convolution_param {
    num_output: 36
    pad: 0
    kernel_size: 1
    stride: 1
    weight_filler {
      type: "gaussian"
      std: 0.01
    }
    bias_filler {
      type: "constant"
      value: 0
    }
  }
}
layer {
  name: "rpn_cls_score_reshape"
  type: "Reshape"
  bottom: "rpn_cls_score"
  top: "rpn_cls_score_reshape"
  reshape_param {
    shape {
      dim: 0
      dim: 2
      dim: -1
      dim: 0
    }
  }
}
layer {
  name: "rpn-data"
  type: "Python"
  bottom: "rpn_cls_score"
  bottom: "gt_boxes"
  bottom: "im_info"
  bottom: "data"
  top: "rpn_labels"
  top: "rpn_bbox_targets"
  top: "rpn_bbox_inside_weights"
  top: "rpn_bbox_outside_weights"
  python_param {
    module: "rpn.anchor_target_layer"
    layer: "AnchorTargetLayer"
    param_str: "\'feat_stride\': 16"
  }
}
layer {
  name: "rpn_loss_cls"
  type: "SoftmaxWithLoss"
  bottom: "rpn_cls_score_reshape"
  bottom: "rpn_labels"
  top: "rpn_cls_loss"
  loss_weight: 1
  propagate_down: true
  propagate_down: false
  loss_param {
    ignore_label: -1
    normalize: true
  }
}
layer {
  name: "rpn_loss_bbox"
  type: "SmoothL1Loss"
  bottom: "rpn_bbox_pred"
  bottom: "rpn_bbox_targets"
  bottom: "rpn_bbox_inside_weights"
  bottom: "rpn_bbox_outside_weights"
  top: "rpn_loss_bbox"
  loss_weight: 1
  smooth_l1_loss_param {
    sigma: 3
  }
}
layer {
  name: "rpn_cls_prob"
  type: "Softmax"
  bottom: "rpn_cls_score_reshape"
  top: "rpn_cls_prob"
}
layer {
  name: "rpn_cls_prob_reshape"
  type: "Reshape"
  bottom: "rpn_cls_prob"
  top: "rpn_cls_prob_reshape"
  reshape_param {
    shape {
      dim: 0
      dim: 18
      dim: -1
      dim: 0
    }
  }
}
layer {
  name: "proposal"
  type: "Python"
  bottom: "rpn_cls_prob_reshape"
  bottom: "rpn_bbox_pred"
  bottom: "im_info"
  top: "rpn_rois"
  python_param {
    module: "rpn.proposal_layer"
    layer: "ProposalLayer"
    param_str: "\'feat_stride\': 16"
  }
}
layer {
  name: "roi-data"
  type: "Python"
  bottom: "rpn_rois"
  bottom: "gt_boxes"
  top: "rois"
  top: "labels"
  top: "bbox_targets"
  top: "bbox_inside_weights"
  top: "bbox_outside_weights"
  python_param {
    module: "rpn.proposal_target_layer"
    layer: "ProposalTargetLayer"
    param_str: "\'num_classes\': 8"
  }
}
layer {
  name: "roi_pool5"
  type: "ROIPooling"
  bottom: "conv5_3"
  bottom: "rois"
  top: "pool5"
  roi_pooling_param {
    pooled_h: 7
    pooled_w: 7
    spatial_scale: 0.0625
  }
}
layer {
  name: "fc6"
  type: "InnerProduct"
  bottom: "pool5"
  top: "fc6"
  param {
    lr_mult: 1
  }
  param {
    lr_mult: 2
  }
  inner_product_param {
    num_output: 4096
  }
}
layer {
  name: "relu6"
  type: "ReLU"
  bottom: "fc6"
  top: "fc6"
}
layer {
  name: "drop6"
  type: "Dropout"
  bottom: "fc6"
  top: "fc6"
  dropout_param {
    dropout_ratio: 0.5
  }
}
layer {
  name: "fc7"
  type: "InnerProduct"
  bottom: "fc6"
  top: "fc7"
  param {
    lr_mult: 1
  }
  param {
    lr_mult: 2
  }
  inner_product_param {
    num_output: 4096
  }
}
layer {
  name: "relu7"
  type: "ReLU"
  bottom: "fc7"
  top: "fc7"
}
layer {
  name: "drop7"
  type: "Dropout"
  bottom: "fc7"
  top: "fc7"
  dropout_param {
    dropout_ratio: 0.5
  }
}
layer {
  name: "cls_score"
  type: "InnerProduct"
  bottom: "fc7"
  top: "cls_score"
  param {
    lr_mult: 1
  }
  param {
    lr_mult: 2
  }
  inner_product_param {
    num_output: 8
    weight_filler {
      type: "gaussian"
      std: 0.01
    }
    bias_filler {
      type: "constant"
      value: 0
    }
  }
}
layer {
  name: "bbox_pred"
  type: "InnerProduct"
  bottom: "fc7"
  top: "bbox_pred"
  param {
    lr_mult: 1
  }
  param {
    lr_mult: 2
  }
  inner_product_param {
    num_output: 32
    weight_filler {
      type: "gaussian"
      std: 0.001
    }
    bias_filler {
      type: "constant"
      value: 0
    }
  }
}
layer {
  name: "loss_cls"
  type: "SoftmaxWithLoss"
  bottom: "cls_score"
  bottom: "labels"
  top: "loss_cls"
  loss_weight: 1
  propagate_down: true
  propagate_down: false
}
layer {
  name: "loss_bbox"
  type: "SmoothL1Loss"
  bottom: "bbox_pred"
  bottom: "bbox_targets"
  bottom: "bbox_inside_weights"
  bottom: "bbox_outside_weights"
  top: "loss_bbox"
  loss_weight: 1
}
I0609 14:10:31.917412 18116 layer_factory.hpp:77] Creating layer input-data
I0609 14:10:31.979439 18116 net.cpp:106] Creating Layer input-data
I0609 14:10:31.979531 18116 net.cpp:411] input-data -> data
I0609 14:10:31.979575 18116 net.cpp:411] input-data -> im_info
I0609 14:10:31.979612 18116 net.cpp:411] input-data -> gt_boxes
RoiDataLayer: name_to_top: {'gt_boxes': 2, 'data': 0, 'im_info': 1}
I0609 14:10:32.957499 18116 net.cpp:150] Setting up input-data
I0609 14:10:32.957553 18116 net.cpp:157] Top shape: 1 3 600 1000 (1800000)
I0609 14:10:32.957573 18116 net.cpp:157] Top shape: 1 3 (3)
I0609 14:10:32.957607 18116 net.cpp:157] Top shape: 1 4 (4)
I0609 14:10:32.957621 18116 net.cpp:165] Memory required for data: 7200028
I0609 14:10:32.957682 18116 layer_factory.hpp:77] Creating layer data_input-data_0_split
I0609 14:10:32.957718 18116 net.cpp:106] Creating Layer data_input-data_0_split
I0609 14:10:32.957731 18116 net.cpp:454] data_input-data_0_split <- data
I0609 14:10:32.957757 18116 net.cpp:411] data_input-data_0_split -> data_input-data_0_split_0
I0609 14:10:32.957787 18116 net.cpp:411] data_input-data_0_split -> data_input-data_0_split_1
I0609 14:10:32.957888 18116 net.cpp:150] Setting up data_input-data_0_split
I0609 14:10:32.957911 18116 net.cpp:157] Top shape: 1 3 600 1000 (1800000)
I0609 14:10:32.957921 18116 net.cpp:157] Top shape: 1 3 600 1000 (1800000)
I0609 14:10:32.957929 18116 net.cpp:165] Memory required for data: 21600028
I0609 14:10:32.957939 18116 layer_factory.hpp:77] Creating layer im_info_input-data_1_split
I0609 14:10:32.957954 18116 net.cpp:106] Creating Layer im_info_input-data_1_split
I0609 14:10:32.957964 18116 net.cpp:454] im_info_input-data_1_split <- im_info
I0609 14:10:32.957975 18116 net.cpp:411] im_info_input-data_1_split -> im_info_input-data_1_split_0
I0609 14:10:32.957999 18116 net.cpp:411] im_info_input-data_1_split -> im_info_input-data_1_split_1
I0609 14:10:32.958060 18116 net.cpp:150] Setting up im_info_input-data_1_split
I0609 14:10:32.958091 18116 net.cpp:157] Top shape: 1 3 (3)
I0609 14:10:32.958104 18116 net.cpp:157] Top shape: 1 3 (3)
I0609 14:10:32.958112 18116 net.cpp:165] Memory required for data: 21600052
I0609 14:10:32.958122 18116 layer_factory.hpp:77] Creating layer gt_boxes_input-data_2_split
I0609 14:10:32.958137 18116 net.cpp:106] Creating Layer gt_boxes_input-data_2_split
I0609 14:10:32.958150 18116 net.cpp:454] gt_boxes_input-data_2_split <- gt_boxes
I0609 14:10:32.958482 18116 net.cpp:411] gt_boxes_input-data_2_split -> gt_boxes_input-data_2_split_0
I0609 14:10:32.958518 18116 net.cpp:411] gt_boxes_input-data_2_split -> gt_boxes_input-data_2_split_1
I0609 14:10:32.958590 18116 net.cpp:150] Setting up gt_boxes_input-data_2_split
I0609 14:10:32.958611 18116 net.cpp:157] Top shape: 1 4 (4)
I0609 14:10:32.958622 18116 net.cpp:157] Top shape: 1 4 (4)
I0609 14:10:32.958631 18116 net.cpp:165] Memory required for data: 21600084
I0609 14:10:32.958638 18116 layer_factory.hpp:77] Creating layer conv1_1
I0609 14:10:32.958662 18116 net.cpp:106] Creating Layer conv1_1
I0609 14:10:32.958672 18116 net.cpp:454] conv1_1 <- data_input-data_0_split_0
I0609 14:10:32.958686 18116 net.cpp:411] conv1_1 -> conv1_1
I0609 14:10:32.969635 18116 net.cpp:150] Setting up conv1_1
I0609 14:10:32.969679 18116 net.cpp:157] Top shape: 1 64 600 1000 (38400000)
I0609 14:10:32.969724 18116 net.cpp:165] Memory required for data: 175200084
I0609 14:10:32.969765 18116 layer_factory.hpp:77] Creating layer relu1_1
I0609 14:10:32.969789 18116 net.cpp:106] Creating Layer relu1_1
I0609 14:10:32.969808 18116 net.cpp:454] relu1_1 <- conv1_1
I0609 14:10:32.969837 18116 net.cpp:397] relu1_1 -> conv1_1 (in-place)
I0609 14:10:32.969892 18116 net.cpp:150] Setting up relu1_1
I0609 14:10:32.969910 18116 net.cpp:157] Top shape: 1 64 600 1000 (38400000)
I0609 14:10:32.969957 18116 net.cpp:165] Memory required for data: 328800084
I0609 14:10:32.970021 18116 layer_factory.hpp:77] Creating layer conv1_2
I0609 14:10:32.970044 18116 net.cpp:106] Creating Layer conv1_2
I0609 14:10:32.970054 18116 net.cpp:454] conv1_2 <- conv1_1
I0609 14:10:32.970067 18116 net.cpp:411] conv1_2 -> conv1_2
I0609 14:10:32.981950 18116 net.cpp:150] Setting up conv1_2
I0609 14:10:32.982000 18116 net.cpp:157] Top shape: 1 64 600 1000 (38400000)
I0609 14:10:32.982018 18116 net.cpp:165] Memory required for data: 482400084
I0609 14:10:32.982044 18116 layer_factory.hpp:77] Creating layer relu1_2
I0609 14:10:32.982075 18116 net.cpp:106] Creating Layer relu1_2
I0609 14:10:32.982091 18116 net.cpp:454] relu1_2 <- conv1_2
I0609 14:10:32.982112 18116 net.cpp:397] relu1_2 -> conv1_2 (in-place)
I0609 14:10:32.982133 18116 net.cpp:150] Setting up relu1_2
I0609 14:10:32.982547 18116 net.cpp:157] Top shape: 1 64 600 1000 (38400000)
I0609 14:10:32.982589 18116 net.cpp:165] Memory required for data: 636000084
I0609 14:10:32.982604 18116 layer_factory.hpp:77] Creating layer pool1
I0609 14:10:32.982635 18116 net.cpp:106] Creating Layer pool1
I0609 14:10:32.982664 18116 net.cpp:454] pool1 <- conv1_2
I0609 14:10:32.982694 18116 net.cpp:411] pool1 -> pool1
I0609 14:10:32.982813 18116 net.cpp:150] Setting up pool1
I0609 14:10:32.982846 18116 net.cpp:157] Top shape: 1 64 300 500 (9600000)
I0609 14:10:32.982861 18116 net.cpp:165] Memory required for data: 674400084
I0609 14:10:32.982875 18116 layer_factory.hpp:77] Creating layer conv2_1
I0609 14:10:32.982898 18116 net.cpp:106] Creating Layer conv2_1
I0609 14:10:32.982913 18116 net.cpp:454] conv2_1 <- pool1
I0609 14:10:32.982937 18116 net.cpp:411] conv2_1 -> conv2_1
I0609 14:10:32.990845 18116 net.cpp:150] Setting up conv2_1
I0609 14:10:32.990881 18116 net.cpp:157] Top shape: 1 128 300 500 (19200000)
I0609 14:10:32.990921 18116 net.cpp:165] Memory required for data: 751200084
I0609 14:10:32.990945 18116 layer_factory.hpp:77] Creating layer relu2_1
I0609 14:10:32.990977 18116 net.cpp:106] Creating Layer relu2_1
I0609 14:10:32.991006 18116 net.cpp:454] relu2_1 <- conv2_1
I0609 14:10:32.991077 18116 net.cpp:397] relu2_1 -> conv2_1 (in-place)
I0609 14:10:32.991101 18116 net.cpp:150] Setting up relu2_1
I0609 14:10:32.991155 18116 net.cpp:157] Top shape: 1 128 300 500 (19200000)
I0609 14:10:32.991171 18116 net.cpp:165] Memory required for data: 828000084
I0609 14:10:32.991186 18116 layer_factory.hpp:77] Creating layer conv2_2
I0609 14:10:32.991209 18116 net.cpp:106] Creating Layer conv2_2
I0609 14:10:32.991225 18116 net.cpp:454] conv2_2 <- conv2_1
I0609 14:10:32.991276 18116 net.cpp:411] conv2_2 -> conv2_2
I0609 14:10:32.991870 18116 net.cpp:150] Setting up conv2_2
I0609 14:10:32.991904 18116 net.cpp:157] Top shape: 1 128 300 500 (19200000)
I0609 14:10:32.991919 18116 net.cpp:165] Memory required for data: 904800084
I0609 14:10:32.991935 18116 layer_factory.hpp:77] Creating layer relu2_2
I0609 14:10:32.991968 18116 net.cpp:106] Creating Layer relu2_2
I0609 14:10:32.991999 18116 net.cpp:454] relu2_2 <- conv2_2
I0609 14:10:32.992028 18116 net.cpp:397] relu2_2 -> conv2_2 (in-place)
I0609 14:10:32.992048 18116 net.cpp:150] Setting up relu2_2
I0609 14:10:32.992067 18116 net.cpp:157] Top shape: 1 128 300 500 (19200000)
I0609 14:10:32.992079 18116 net.cpp:165] Memory required for data: 981600084
I0609 14:10:32.992100 18116 layer_factory.hpp:77] Creating layer pool2
I0609 14:10:32.992128 18116 net.cpp:106] Creating Layer pool2
I0609 14:10:32.992143 18116 net.cpp:454] pool2 <- conv2_2
I0609 14:10:32.992161 18116 net.cpp:411] pool2 -> pool2
I0609 14:10:32.992262 18116 net.cpp:150] Setting up pool2
I0609 14:10:32.992291 18116 net.cpp:157] Top shape: 1 128 150 250 (4800000)
I0609 14:10:32.992313 18116 net.cpp:165] Memory required for data: 1000800084
I0609 14:10:32.992327 18116 layer_factory.hpp:77] Creating layer conv3_1
I0609 14:10:32.992347 18116 net.cpp:106] Creating Layer conv3_1
I0609 14:10:32.992374 18116 net.cpp:454] conv3_1 <- pool2
I0609 14:10:32.992403 18116 net.cpp:411] conv3_1 -> conv3_1
I0609 14:10:32.997000 18116 net.cpp:150] Setting up conv3_1
I0609 14:10:32.997040 18116 net.cpp:157] Top shape: 1 256 150 250 (9600000)
I0609 14:10:32.997112 18116 net.cpp:165] Memory required for data: 1039200084
I0609 14:10:32.997136 18116 layer_factory.hpp:77] Creating layer relu3_1
I0609 14:10:32.997176 18116 net.cpp:106] Creating Layer relu3_1
I0609 14:10:32.997210 18116 net.cpp:454] relu3_1 <- conv3_1
I0609 14:10:32.997251 18116 net.cpp:397] relu3_1 -> conv3_1 (in-place)
I0609 14:10:32.997272 18116 net.cpp:150] Setting up relu3_1
I0609 14:10:32.997298 18116 net.cpp:157] Top shape: 1 256 150 250 (9600000)
I0609 14:10:32.997311 18116 net.cpp:165] Memory required for data: 1077600084
I0609 14:10:32.997325 18116 layer_factory.hpp:77] Creating layer conv3_2
I0609 14:10:32.997370 18116 net.cpp:106] Creating Layer conv3_2
I0609 14:10:32.997387 18116 net.cpp:454] conv3_2 <- conv3_1
I0609 14:10:32.997421 18116 net.cpp:411] conv3_2 -> conv3_2
I0609 14:10:33.003515 18116 net.cpp:150] Setting up conv3_2
I0609 14:10:33.003554 18116 net.cpp:157] Top shape: 1 256 150 250 (9600000)
I0609 14:10:33.003578 18116 net.cpp:165] Memory required for data: 1116000084
I0609 14:10:33.003598 18116 layer_factory.hpp:77] Creating layer relu3_2
I0609 14:10:33.003634 18116 net.cpp:106] Creating Layer relu3_2
I0609 14:10:33.003649 18116 net.cpp:454] relu3_2 <- conv3_2
I0609 14:10:33.003681 18116 net.cpp:397] relu3_2 -> conv3_2 (in-place)
I0609 14:10:33.003702 18116 net.cpp:150] Setting up relu3_2
I0609 14:10:33.003721 18116 net.cpp:157] Top shape: 1 256 150 250 (9600000)
I0609 14:10:33.003733 18116 net.cpp:165] Memory required for data: 1154400084
I0609 14:10:33.003769 18116 layer_factory.hpp:77] Creating layer conv3_3
I0609 14:10:33.003790 18116 net.cpp:106] Creating Layer conv3_3
I0609 14:10:33.003811 18116 net.cpp:454] conv3_3 <- conv3_2
I0609 14:10:33.003830 18116 net.cpp:411] conv3_3 -> conv3_3
I0609 14:10:33.008707 18116 net.cpp:150] Setting up conv3_3
I0609 14:10:33.008754 18116 net.cpp:157] Top shape: 1 256 150 250 (9600000)
I0609 14:10:33.008831 18116 net.cpp:165] Memory required for data: 1192800084
I0609 14:10:33.008852 18116 layer_factory.hpp:77] Creating layer relu3_3
I0609 14:10:33.008888 18116 net.cpp:106] Creating Layer relu3_3
I0609 14:10:33.008905 18116 net.cpp:454] relu3_3 <- conv3_3
I0609 14:10:33.008929 18116 net.cpp:397] relu3_3 -> conv3_3 (in-place)
I0609 14:10:33.008960 18116 net.cpp:150] Setting up relu3_3
I0609 14:10:33.008976 18116 net.cpp:157] Top shape: 1 256 150 250 (9600000)
I0609 14:10:33.008997 18116 net.cpp:165] Memory required for data: 1231200084
I0609 14:10:33.009009 18116 layer_factory.hpp:77] Creating layer pool3
I0609 14:10:33.009037 18116 net.cpp:106] Creating Layer pool3
I0609 14:10:33.009055 18116 net.cpp:454] pool3 <- conv3_3
I0609 14:10:33.009079 18116 net.cpp:411] pool3 -> pool3
I0609 14:10:33.009176 18116 net.cpp:150] Setting up pool3
I0609 14:10:33.009204 18116 net.cpp:157] Top shape: 1 256 75 125 (2400000)
I0609 14:10:33.009243 18116 net.cpp:165] Memory required for data: 1240800084
I0609 14:10:33.009258 18116 layer_factory.hpp:77] Creating layer conv4_1
I0609 14:10:33.009282 18116 net.cpp:106] Creating Layer conv4_1
I0609 14:10:33.009297 18116 net.cpp:454] conv4_1 <- pool3
I0609 14:10:33.009325 18116 net.cpp:411] conv4_1 -> conv4_1
I0609 14:10:33.025964 18116 net.cpp:150] Setting up conv4_1
I0609 14:10:33.026016 18116 net.cpp:157] Top shape: 1 512 75 125 (4800000)
I0609 14:10:33.026036 18116 net.cpp:165] Memory required for data: 1260000084
I0609 14:10:33.026058 18116 layer_factory.hpp:77] Creating layer relu4_1
I0609 14:10:33.026087 18116 net.cpp:106] Creating Layer relu4_1
I0609 14:10:33.026111 18116 net.cpp:454] relu4_1 <- conv4_1
I0609 14:10:33.026129 18116 net.cpp:397] relu4_1 -> conv4_1 (in-place)
I0609 14:10:33.026551 18116 net.cpp:150] Setting up relu4_1
I0609 14:10:33.026581 18116 net.cpp:157] Top shape: 1 512 75 125 (4800000)
I0609 14:10:33.026602 18116 net.cpp:165] Memory required for data: 1279200084
I0609 14:10:33.026615 18116 layer_factory.hpp:77] Creating layer conv4_2
I0609 14:10:33.026643 18116 net.cpp:106] Creating Layer conv4_2
I0609 14:10:33.026669 18116 net.cpp:454] conv4_2 <- conv4_1
I0609 14:10:33.026691 18116 net.cpp:411] conv4_2 -> conv4_2
I0609 14:10:33.037113 18116 net.cpp:150] Setting up conv4_2
I0609 14:10:33.037155 18116 net.cpp:157] Top shape: 1 512 75 125 (4800000)
I0609 14:10:33.037171 18116 net.cpp:165] Memory required for data: 1298400084
I0609 14:10:33.037199 18116 layer_factory.hpp:77] Creating layer relu4_2
I0609 14:10:33.037246 18116 net.cpp:106] Creating Layer relu4_2
I0609 14:10:33.037263 18116 net.cpp:454] relu4_2 <- conv4_2
I0609 14:10:33.037283 18116 net.cpp:397] relu4_2 -> conv4_2 (in-place)
I0609 14:10:33.037320 18116 net.cpp:150] Setting up relu4_2
I0609 14:10:33.037345 18116 net.cpp:157] Top shape: 1 512 75 125 (4800000)
I0609 14:10:33.037358 18116 net.cpp:165] Memory required for data: 1317600084
I0609 14:10:33.037371 18116 layer_factory.hpp:77] Creating layer conv4_3
I0609 14:10:33.037396 18116 net.cpp:106] Creating Layer conv4_3
I0609 14:10:33.037415 18116 net.cpp:454] conv4_3 <- conv4_2
I0609 14:10:33.037454 18116 net.cpp:411] conv4_3 -> conv4_3
I0609 14:10:33.048954 18116 net.cpp:150] Setting up conv4_3
I0609 14:10:33.049000 18116 net.cpp:157] Top shape: 1 512 75 125 (4800000)
I0609 14:10:33.049046 18116 net.cpp:165] Memory required for data: 1336800084
I0609 14:10:33.049067 18116 layer_factory.hpp:77] Creating layer relu4_3
I0609 14:10:33.049089 18116 net.cpp:106] Creating Layer relu4_3
I0609 14:10:33.049108 18116 net.cpp:454] relu4_3 <- conv4_3
I0609 14:10:33.049125 18116 net.cpp:397] relu4_3 -> conv4_3 (in-place)
I0609 14:10:33.049146 18116 net.cpp:150] Setting up relu4_3
I0609 14:10:33.049165 18116 net.cpp:157] Top shape: 1 512 75 125 (4800000)
I0609 14:10:33.049197 18116 net.cpp:165] Memory required for data: 1356000084
I0609 14:10:33.049212 18116 layer_factory.hpp:77] Creating layer pool4
I0609 14:10:33.049237 18116 net.cpp:106] Creating Layer pool4
I0609 14:10:33.049257 18116 net.cpp:454] pool4 <- conv4_3
I0609 14:10:33.049274 18116 net.cpp:411] pool4 -> pool4
I0609 14:10:33.049407 18116 net.cpp:150] Setting up pool4
I0609 14:10:33.049432 18116 net.cpp:157] Top shape: 1 512 38 63 (1225728)
I0609 14:10:33.049441 18116 net.cpp:165] Memory required for data: 1360902996
I0609 14:10:33.049451 18116 layer_factory.hpp:77] Creating layer conv5_1
I0609 14:10:33.049477 18116 net.cpp:106] Creating Layer conv5_1
I0609 14:10:33.049495 18116 net.cpp:454] conv5_1 <- pool4
I0609 14:10:33.049517 18116 net.cpp:411] conv5_1 -> conv5_1
I0609 14:10:33.059962 18116 net.cpp:150] Setting up conv5_1
I0609 14:10:33.059999 18116 net.cpp:157] Top shape: 1 512 38 63 (1225728)
I0609 14:10:33.060010 18116 net.cpp:165] Memory required for data: 1365805908
I0609 14:10:33.060024 18116 layer_factory.hpp:77] Creating layer relu5_1
I0609 14:10:33.060037 18116 net.cpp:106] Creating Layer relu5_1
I0609 14:10:33.060047 18116 net.cpp:454] relu5_1 <- conv5_1
I0609 14:10:33.060058 18116 net.cpp:397] relu5_1 -> conv5_1 (in-place)
I0609 14:10:33.060081 18116 net.cpp:150] Setting up relu5_1
I0609 14:10:33.060091 18116 net.cpp:157] Top shape: 1 512 38 63 (1225728)
I0609 14:10:33.060099 18116 net.cpp:165] Memory required for data: 1370708820
I0609 14:10:33.060108 18116 layer_factory.hpp:77] Creating layer conv5_2
I0609 14:10:33.060129 18116 net.cpp:106] Creating Layer conv5_2
I0609 14:10:33.060149 18116 net.cpp:454] conv5_2 <- conv5_1
I0609 14:10:33.060171 18116 net.cpp:411] conv5_2 -> conv5_2
I0609 14:10:33.070782 18116 net.cpp:150] Setting up conv5_2
I0609 14:10:33.070822 18116 net.cpp:157] Top shape: 1 512 38 63 (1225728)
I0609 14:10:33.070832 18116 net.cpp:165] Memory required for data: 1375611732
I0609 14:10:33.070845 18116 layer_factory.hpp:77] Creating layer relu5_2
I0609 14:10:33.070859 18116 net.cpp:106] Creating Layer relu5_2
I0609 14:10:33.070868 18116 net.cpp:454] relu5_2 <- conv5_2
I0609 14:10:33.070883 18116 net.cpp:397] relu5_2 -> conv5_2 (in-place)
I0609 14:10:33.070897 18116 net.cpp:150] Setting up relu5_2
I0609 14:10:33.070909 18116 net.cpp:157] Top shape: 1 512 38 63 (1225728)
I0609 14:10:33.070916 18116 net.cpp:165] Memory required for data: 1380514644
I0609 14:10:33.070924 18116 layer_factory.hpp:77] Creating layer conv5_3
I0609 14:10:33.070948 18116 net.cpp:106] Creating Layer conv5_3
I0609 14:10:33.070958 18116 net.cpp:454] conv5_3 <- conv5_2
I0609 14:10:33.070969 18116 net.cpp:411] conv5_3 -> conv5_3
I0609 14:10:33.081394 18116 net.cpp:150] Setting up conv5_3
I0609 14:10:33.081434 18116 net.cpp:157] Top shape: 1 512 38 63 (1225728)
I0609 14:10:33.081444 18116 net.cpp:165] Memory required for data: 1385417556
I0609 14:10:33.081459 18116 layer_factory.hpp:77] Creating layer relu5_3
I0609 14:10:33.081471 18116 net.cpp:106] Creating Layer relu5_3
I0609 14:10:33.081485 18116 net.cpp:454] relu5_3 <- conv5_3
I0609 14:10:33.081501 18116 net.cpp:397] relu5_3 -> conv5_3 (in-place)
I0609 14:10:33.081547 18116 net.cpp:150] Setting up relu5_3
I0609 14:10:33.081578 18116 net.cpp:157] Top shape: 1 512 38 63 (1225728)
I0609 14:10:33.081588 18116 net.cpp:165] Memory required for data: 1390320468
I0609 14:10:33.081612 18116 layer_factory.hpp:77] Creating layer conv5_3_relu5_3_0_split
I0609 14:10:33.081632 18116 net.cpp:106] Creating Layer conv5_3_relu5_3_0_split
I0609 14:10:33.081641 18116 net.cpp:454] conv5_3_relu5_3_0_split <- conv5_3
I0609 14:10:33.081667 18116 net.cpp:411] conv5_3_relu5_3_0_split -> conv5_3_relu5_3_0_split_0
I0609 14:10:33.081686 18116 net.cpp:411] conv5_3_relu5_3_0_split -> conv5_3_relu5_3_0_split_1
I0609 14:10:33.081786 18116 net.cpp:150] Setting up conv5_3_relu5_3_0_split
I0609 14:10:33.081816 18116 net.cpp:157] Top shape: 1 512 38 63 (1225728)
I0609 14:10:33.081832 18116 net.cpp:157] Top shape: 1 512 38 63 (1225728)
I0609 14:10:33.081842 18116 net.cpp:165] Memory required for data: 1400126292
I0609 14:10:33.081885 18116 layer_factory.hpp:77] Creating layer rpn_conv/3x3
I0609 14:10:33.081913 18116 net.cpp:106] Creating Layer rpn_conv/3x3
I0609 14:10:33.081943 18116 net.cpp:454] rpn_conv/3x3 <- conv5_3_relu5_3_0_split_0
I0609 14:10:33.081966 18116 net.cpp:411] rpn_conv/3x3 -> rpn/output
I0609 14:10:33.115753 18116 net.cpp:150] Setting up rpn_conv/3x3
I0609 14:10:33.115813 18116 net.cpp:157] Top shape: 1 512 38 63 (1225728)
I0609 14:10:33.115823 18116 net.cpp:165] Memory required for data: 1405029204
I0609 14:10:33.115840 18116 layer_factory.hpp:77] Creating layer rpn_relu/3x3
I0609 14:10:33.115859 18116 net.cpp:106] Creating Layer rpn_relu/3x3
I0609 14:10:33.115880 18116 net.cpp:454] rpn_relu/3x3 <- rpn/output
I0609 14:10:33.115929 18116 net.cpp:397] rpn_relu/3x3 -> rpn/output (in-place)
I0609 14:10:33.115985 18116 net.cpp:150] Setting up rpn_relu/3x3
I0609 14:10:33.116009 18116 net.cpp:157] Top shape: 1 512 38 63 (1225728)
I0609 14:10:33.116019 18116 net.cpp:165] Memory required for data: 1409932116
I0609 14:10:33.116027 18116 layer_factory.hpp:77] Creating layer rpn/output_rpn_relu/3x3_0_split
I0609 14:10:33.116044 18116 net.cpp:106] Creating Layer rpn/output_rpn_relu/3x3_0_split
I0609 14:10:33.116053 18116 net.cpp:454] rpn/output_rpn_relu/3x3_0_split <- rpn/output
I0609 14:10:33.116065 18116 net.cpp:411] rpn/output_rpn_relu/3x3_0_split -> rpn/output_rpn_relu/3x3_0_split_0
I0609 14:10:33.116078 18116 net.cpp:411] rpn/output_rpn_relu/3x3_0_split -> rpn/output_rpn_relu/3x3_0_split_1
I0609 14:10:33.116169 18116 net.cpp:150] Setting up rpn/output_rpn_relu/3x3_0_split
I0609 14:10:33.116191 18116 net.cpp:157] Top shape: 1 512 38 63 (1225728)
I0609 14:10:33.116201 18116 net.cpp:157] Top shape: 1 512 38 63 (1225728)
I0609 14:10:33.116210 18116 net.cpp:165] Memory required for data: 1419737940
I0609 14:10:33.116219 18116 layer_factory.hpp:77] Creating layer rpn_cls_score
I0609 14:10:33.116245 18116 net.cpp:106] Creating Layer rpn_cls_score
I0609 14:10:33.116258 18116 net.cpp:454] rpn_cls_score <- rpn/output_rpn_relu/3x3_0_split_0
I0609 14:10:33.116271 18116 net.cpp:411] rpn_cls_score -> rpn_cls_score
I0609 14:10:33.116799 18116 net.cpp:150] Setting up rpn_cls_score
I0609 14:10:33.116825 18116 net.cpp:157] Top shape: 1 18 38 63 (43092)
I0609 14:10:33.116833 18116 net.cpp:165] Memory required for data: 1419910308
I0609 14:10:33.116847 18116 layer_factory.hpp:77] Creating layer rpn_cls_score_rpn_cls_score_0_split
I0609 14:10:33.116859 18116 net.cpp:106] Creating Layer rpn_cls_score_rpn_cls_score_0_split
I0609 14:10:33.116871 18116 net.cpp:454] rpn_cls_score_rpn_cls_score_0_split <- rpn_cls_score
I0609 14:10:33.116895 18116 net.cpp:411] rpn_cls_score_rpn_cls_score_0_split -> rpn_cls_score_rpn_cls_score_0_split_0
I0609 14:10:33.116921 18116 net.cpp:411] rpn_cls_score_rpn_cls_score_0_split -> rpn_cls_score_rpn_cls_score_0_split_1
I0609 14:10:33.116997 18116 net.cpp:150] Setting up rpn_cls_score_rpn_cls_score_0_split
I0609 14:10:33.117107 18116 net.cpp:157] Top shape: 1 18 38 63 (43092)
I0609 14:10:33.117125 18116 net.cpp:157] Top shape: 1 18 38 63 (43092)
I0609 14:10:33.117132 18116 net.cpp:165] Memory required for data: 1420255044
I0609 14:10:33.117144 18116 layer_factory.hpp:77] Creating layer rpn_bbox_pred
I0609 14:10:33.117163 18116 net.cpp:106] Creating Layer rpn_bbox_pred
I0609 14:10:33.117183 18116 net.cpp:454] rpn_bbox_pred <- rpn/output_rpn_relu/3x3_0_split_1
I0609 14:10:33.117199 18116 net.cpp:411] rpn_bbox_pred -> rpn_bbox_pred
I0609 14:10:33.117789 18116 net.cpp:150] Setting up rpn_bbox_pred
I0609 14:10:33.117812 18116 net.cpp:157] Top shape: 1 36 38 63 (86184)
I0609 14:10:33.117820 18116 net.cpp:165] Memory required for data: 1420599780
I0609 14:10:33.117833 18116 layer_factory.hpp:77] Creating layer rpn_bbox_pred_rpn_bbox_pred_0_split
I0609 14:10:33.117848 18116 net.cpp:106] Creating Layer rpn_bbox_pred_rpn_bbox_pred_0_split
I0609 14:10:33.117861 18116 net.cpp:454] rpn_bbox_pred_rpn_bbox_pred_0_split <- rpn_bbox_pred
I0609 14:10:33.117877 18116 net.cpp:411] rpn_bbox_pred_rpn_bbox_pred_0_split -> rpn_bbox_pred_rpn_bbox_pred_0_split_0
I0609 14:10:33.117890 18116 net.cpp:411] rpn_bbox_pred_rpn_bbox_pred_0_split -> rpn_bbox_pred_rpn_bbox_pred_0_split_1
I0609 14:10:33.117969 18116 net.cpp:150] Setting up rpn_bbox_pred_rpn_bbox_pred_0_split
I0609 14:10:33.118050 18116 net.cpp:157] Top shape: 1 36 38 63 (86184)
I0609 14:10:33.118067 18116 net.cpp:157] Top shape: 1 36 38 63 (86184)
I0609 14:10:33.118074 18116 net.cpp:165] Memory required for data: 1421289252
I0609 14:10:33.118083 18116 layer_factory.hpp:77] Creating layer rpn_cls_score_reshape
I0609 14:10:33.118516 18116 net.cpp:106] Creating Layer rpn_cls_score_reshape
I0609 14:10:33.118541 18116 net.cpp:454] rpn_cls_score_reshape <- rpn_cls_score_rpn_cls_score_0_split_0
I0609 14:10:33.118615 18116 net.cpp:411] rpn_cls_score_reshape -> rpn_cls_score_reshape
I0609 14:10:33.118674 18116 net.cpp:150] Setting up rpn_cls_score_reshape
I0609 14:10:33.118696 18116 net.cpp:157] Top shape: 1 2 342 63 (43092)
I0609 14:10:33.118705 18116 net.cpp:165] Memory required for data: 1421461620
I0609 14:10:33.118713 18116 layer_factory.hpp:77] Creating layer rpn_cls_score_reshape_rpn_cls_score_reshape_0_split
I0609 14:10:33.118729 18116 net.cpp:106] Creating Layer rpn_cls_score_reshape_rpn_cls_score_reshape_0_split
I0609 14:10:33.118767 18116 net.cpp:454] rpn_cls_score_reshape_rpn_cls_score_reshape_0_split <- rpn_cls_score_reshape
I0609 14:10:33.118782 18116 net.cpp:411] rpn_cls_score_reshape_rpn_cls_score_reshape_0_split -> rpn_cls_score_reshape_rpn_cls_score_reshape_0_split_0
I0609 14:10:33.118795 18116 net.cpp:411] rpn_cls_score_reshape_rpn_cls_score_reshape_0_split -> rpn_cls_score_reshape_rpn_cls_score_reshape_0_split_1
I0609 14:10:33.118863 18116 net.cpp:150] Setting up rpn_cls_score_reshape_rpn_cls_score_reshape_0_split
I0609 14:10:33.118892 18116 net.cpp:157] Top shape: 1 2 342 63 (43092)
I0609 14:10:33.118902 18116 net.cpp:157] Top shape: 1 2 342 63 (43092)
I0609 14:10:33.118913 18116 net.cpp:165] Memory required for data: 1421806356
I0609 14:10:33.118923 18116 layer_factory.hpp:77] Creating layer rpn-data
I0609 14:10:33.141346 18116 net.cpp:106] Creating Layer rpn-data
I0609 14:10:33.141450 18116 net.cpp:454] rpn-data <- rpn_cls_score_rpn_cls_score_0_split_1
I0609 14:10:33.141501 18116 net.cpp:454] rpn-data <- gt_boxes_input-data_2_split_0
I0609 14:10:33.141571 18116 net.cpp:454] rpn-data <- im_info_input-data_1_split_0
I0609 14:10:33.141607 18116 net.cpp:454] rpn-data <- data_input-data_0_split_1
I0609 14:10:33.141649 18116 net.cpp:411] rpn-data -> rpn_labels
I0609 14:10:33.141700 18116 net.cpp:411] rpn-data -> rpn_bbox_targets
I0609 14:10:33.141839 18116 net.cpp:411] rpn-data -> rpn_bbox_inside_weights
I0609 14:10:33.141887 18116 net.cpp:411] rpn-data -> rpn_bbox_outside_weights
I0609 14:10:33.143652 18116 net.cpp:150] Setting up rpn-data
I0609 14:10:33.143735 18116 net.cpp:157] Top shape: 1 1 342 63 (21546)
I0609 14:10:33.143805 18116 net.cpp:157] Top shape: 1 36 38 63 (86184)
I0609 14:10:33.143853 18116 net.cpp:157] Top shape: 1 36 38 63 (86184)
I0609 14:10:33.143893 18116 net.cpp:157] Top shape: 1 36 38 63 (86184)
I0609 14:10:33.143929 18116 net.cpp:165] Memory required for data: 1422926748
I0609 14:10:33.144006 18116 layer_factory.hpp:77] Creating layer rpn_loss_cls
I0609 14:10:33.144064 18116 net.cpp:106] Creating Layer rpn_loss_cls
I0609 14:10:33.144104 18116 net.cpp:454] rpn_loss_cls <- rpn_cls_score_reshape_rpn_cls_score_reshape_0_split_0
I0609 14:10:33.144142 18116 net.cpp:454] rpn_loss_cls <- rpn_labels
…
I0609 14:10:33.146898 18116 net.cpp:157] Top shape: (1)
I0609 14:10:33.146912 18116 net.cpp:160]     with loss weight 1
I0609 14:10:33.146955 18116 net.cpp:165] Memory required for data: 1422926756
I0609 14:10:33.146972 18116 layer_factory.hpp:77] Creating layer rpn_cls_prob
I0609 14:10:33.146994 18116 net.cpp:106] Creating Layer rpn_cls_prob
I0609 14:10:33.147045 18116 net.cpp:454] rpn_cls_prob <- rpn_cls_score_reshape_rpn_cls_score_reshape_0_split_1
I0609 14:10:33.147085 18116 net.cpp:411] rpn_cls_prob -> rpn_cls_prob
I0609 14:10:33.147258 18116 net.cpp:150] Setting up rpn_cls_prob
I0609 14:10:33.147295 18116 net.cpp:157] Top shape: 1 2 342 63 (43092)
I0609 14:10:33.147308 18116 net.cpp:165] Memory required for data: 1423099124
I0609 14:10:33.147332 18116 layer_factory.hpp:77] Creating layer rpn_cls_prob_reshape
I0609 14:10:33.147361 18116 net.cpp:106] Creating Layer rpn_cls_prob_reshape
I0609 14:10:33.147375 18116 net.cpp:454] rpn_cls_prob_reshape <- rpn_cls_prob
I0609 14:10:33.147403 18116 net.cpp:411] rpn_cls_prob_reshape -> rpn_cls_prob_reshape
I0609 14:10:33.147480 18116 net.cpp:150] Setting up rpn_cls_prob_reshape
I0609 14:10:33.147516 18116 net.cpp:157] Top shape: 1 18 38 63 (43092)
I0609 14:10:33.147536 18116 net.cpp:165] Memory required for data: 1423271492
I0609 14:10:33.147558 18116 layer_factory.hpp:77] Creating layer proposal
I0609 14:10:33.155500 18116 net.cpp:106] Creating Layer proposal
I0609 14:10:33.155544 18116 net.cpp:454] proposal <- rpn_cls_prob_reshape
I0609 14:10:33.155599 18116 net.cpp:454] proposal <- rpn_bbox_pred_rpn_bbox_pred_0_split_1
I0609 14:10:33.155627 18116 net.cpp:454] proposal <- im_info_input-data_1_split_1
I0609 14:10:33.155644 18116 net.cpp:411] proposal -> rpn_rois
I0609 14:10:33.156846 18116 net.cpp:150] Setting up proposal
I0609 14:10:33.156883 18116 net.cpp:157] Top shape: 1 5 (5)
I0609 14:10:33.156891 18116 net.cpp:165] Memory required for data: 1423271512
I0609 14:10:33.156901 18116 layer_factory.hpp:77] Creating layer roi-data
I0609 14:10:33.159585 18116 net.cpp:106] Creating Layer roi-data
I0609 14:10:33.159616 18116 net.cpp:454] roi-data <- rpn_rois
I0609 14:10:33.159631 18116 net.cpp:454] roi-data <- gt_boxes_input-data_2_split_1
I0609 14:10:33.159643 18116 net.cpp:411] roi-data -> rois
I0609 14:10:33.159659 18116 net.cpp:411] roi-data -> labels
I0609 14:10:33.159672 18116 net.cpp:411] roi-data -> bbox_targets
I0609 14:10:33.159735 18116 net.cpp:411] roi-data -> bbox_inside_weights
I0609 14:10:33.159773 18116 net.cpp:411] roi-data -> bbox_outside_weights
I0609 14:10:33.160228 18116 net.cpp:150] Setting up roi-data
I0609 14:10:33.160259 18116 net.cpp:157] Top shape: 1 5 (5)
I0609 14:10:33.160269 18116 net.cpp:157] Top shape: 1 1 (1)
I0609 14:10:33.160279 18116 net.cpp:157] Top shape: 1 32 (32)
I0609 14:10:33.160285 18116 net.cpp:157] Top shape: 1 32 (32)
I0609 14:10:33.160293 18116 net.cpp:157] Top shape: 1 32 (32)
I0609 14:10:33.160301 18116 net.cpp:165] Memory required for data: 1423271920
I0609 14:10:33.160320 18116 layer_factory.hpp:77] Creating layer roi_pool5
I0609 14:10:33.160339 18116 net.cpp:106] Creating Layer roi_pool5
I0609 14:10:33.160351 18116 net.cpp:454] roi_pool5 <- conv5_3_relu5_3_0_split_1
I0609 14:10:33.160362 18116 net.cpp:454] roi_pool5 <- rois
I0609 14:10:33.160429 18116 net.cpp:411] roi_pool5 -> pool5
I0609 14:10:33.160468 18116 roi_pooling_layer.cpp:30] Spatial scale: 0.0625
I0609 14:10:33.160571 18116 net.cpp:150] Setting up roi_pool5
I0609 14:10:33.160593 18116 net.cpp:157] Top shape: 1 512 7 7 (25088)
I0609 14:10:33.160603 18116 net.cpp:165] Memory required for data: 1423372272
I0609 14:10:33.160611 18116 layer_factory.hpp:77] Creating layer fc6
I0609 14:10:33.160626 18116 net.cpp:106] Creating Layer fc6
I0609 14:10:33.160641 18116 net.cpp:454] fc6 <- pool5
I0609 14:10:33.160655 18116 net.cpp:411] fc6 -> fc6
I0609 14:10:33.662540 18116 net.cpp:150] Setting up fc6
I0609 14:10:33.662631 18116 net.cpp:157] Top shape: 1 4096 (4096)
I0609 14:10:33.662648 18116 net.cpp:165] Memory required for data: 1423388656
I0609 14:10:33.662695 18116 layer_factory.hpp:77] Creating layer relu6
I0609 14:10:33.662725 18116 net.cpp:106] Creating Layer relu6
I0609 14:10:33.662742 18116 net.cpp:454] relu6 <- fc6
I0609 14:10:33.662781 18116 net.cpp:397] relu6 -> fc6 (in-place)
I0609 14:10:33.662808 18116 net.cpp:150] Setting up relu6
I0609 14:10:33.662823 18116 net.cpp:157] Top shape: 1 4096 (4096)
I0609 14:10:33.662839 18116 net.cpp:165] Memory required for data: 1423405040
I0609 14:10:33.662853 18116 layer_factory.hpp:77] Creating layer drop6
I0609 14:10:33.662874 18116 net.cpp:106] Creating Layer drop6
I0609 14:10:33.662889 18116 net.cpp:454] drop6 <- fc6
I0609 14:10:33.662909 18116 net.cpp:397] drop6 -> fc6 (in-place)
I0609 14:10:33.662986 18116 net.cpp:150] Setting up drop6
I0609 14:10:33.663005 18116 net.cpp:157] Top shape: 1 4096 (4096)
I0609 14:10:33.663019 18116 net.cpp:165] Memory required for data: 1423421424
I0609 14:10:33.663033 18116 layer_factory.hpp:77] Creating layer fc7
I0609 14:10:33.663053 18116 net.cpp:106] Creating Layer fc7
I0609 14:10:33.663067 18116 net.cpp:454] fc7 <- fc6
I0609 14:10:33.663089 18116 net.cpp:411] fc7 -> fc7
I0609 14:10:33.760967 18116 net.cpp:150] Setting up fc7
I0609 14:10:33.761036 18116 net.cpp:157] Top shape: 1 4096 (4096)
I0609 14:10:33.761054 18116 net.cpp:165] Memory required for data: 1423437808
I0609 14:10:33.761082 18116 layer_factory.hpp:77] Creating layer relu7
I0609 14:10:33.761111 18116 net.cpp:106] Creating Layer relu7
I0609 14:10:33.761131 18116 net.cpp:454] relu7 <- fc7
I0609 14:10:33.761158 18116 net.cpp:397] relu7 -> fc7 (in-place)
I0609 14:10:33.761184 18116 net.cpp:150] Setting up relu7
I0609 14:10:33.761200 18116 net.cpp:157] Top shape: 1 4096 (4096)
I0609 14:10:33.761214 18116 net.cpp:165] Memory required for data: 1423454192
I0609 14:10:33.761229 18116 layer_factory.hpp:77] Creating layer drop7
I0609 14:10:33.761248 18116 net.cpp:106] Creating Layer drop7
I0609 14:10:33.761262 18116 net.cpp:454] drop7 <- fc7
I0609 14:10:33.761279 18116 net.cpp:397] drop7 -> fc7 (in-place)
I0609 14:10:33.761355 18116 net.cpp:150] Setting up drop7
I0609 14:10:33.761375 18116 net.cpp:157] Top shape: 1 4096 (4096)
I0609 14:10:33.761389 18116 net.cpp:165] Memory required for data: 1423470576
I0609 14:10:33.761404 18116 layer_factory.hpp:77] Creating layer fc7_drop7_0_split
I0609 14:10:33.761425 18116 net.cpp:106] Creating Layer fc7_drop7_0_split
I0609 14:10:33.761440 18116 net.cpp:454] fc7_drop7_0_split <- fc7
I0609 14:10:33.761457 18116 net.cpp:411] fc7_drop7_0_split -> fc7_drop7_0_split_0
I0609 14:10:33.761479 18116 net.cpp:411] fc7_drop7_0_split -> fc7_drop7_0_split_1
I0609 14:10:33.761600 18116 net.cpp:150] Setting up fc7_drop7_0_split
I0609 14:10:33.761621 18116 net.cpp:157] Top shape: 1 4096 (4096)
I0609 14:10:33.761636 18116 net.cpp:157] Top shape: 1 4096 (4096)
I0609 14:10:33.761649 18116 net.cpp:165] Memory required for data: 1423503344
I0609 14:10:33.761664 18116 layer_factory.hpp:77] Creating layer cls_score
I0609 14:10:33.761690 18116 net.cpp:106] Creating Layer cls_score
I0609 14:10:33.761705 18116 net.cpp:454] cls_score <- fc7_drop7_0_split_0
I0609 14:10:33.761725 18116 net.cpp:411] cls_score -> cls_score
I0609 14:10:33.762900 18116 net.cpp:150] Setting up cls_score
I0609 14:10:33.762982 18116 net.cpp:157] Top shape: 1 8 (8)
I0609 14:10:33.763005 18116 net.cpp:165] Memory required for data: 1423503376
I0609 14:10:33.763026 18116 layer_factory.hpp:77] Creating layer bbox_pred
I0609 14:10:33.763052 18116 net.cpp:106] Creating Layer bbox_pred
I0609 14:10:33.763077 18116 net.cpp:454] bbox_pred <- fc7_drop7_0_split_1
I0609 14:10:33.763098 18116 net.cpp:411] bbox_pred -> bbox_pred
I0609 14:10:33.765558 18116 net.cpp:150] Setting up bbox_pred
I0609 14:10:33.765583 18116 net.cpp:157] Top shape: 1 32 (32)
I0609 14:10:33.765596 18116 net.cpp:165] Memory required for data: 1423503504
I0609 14:10:33.765615 18116 layer_factory.hpp:77] Creating layer loss_cls
I0609 14:10:33.765640 18116 net.cpp:106] Creating Layer loss_cls
I0609 14:10:33.765655 18116 net.cpp:454] loss_cls <- cls_score
I0609 14:10:33.765672 18116 net.cpp:454] loss_cls <- labels
I0609 14:10:33.765691 18116 net.cpp:411] loss_cls -> loss_cls
…
