…
snapshot_prefix: "vgg16_faster_rcnn"
average_loss: 100
iter_size: 2
I0604 23:21:50.323112  3078 solver.cpp:81] Creating training net from train_net file: models/pascal_voc/VGG16/faster_rcnn_end2end/train.prototxt
I0604 23:21:50.324640  3078 net.cpp:49] Initializing net from parameters: 
name: "VGG_ILSVRC_16_layers"
state {
  phase: TRAIN
}
layer {
  name: "input-data"
  type: "Python"
  top: "data"
  top: "im_info"
  top: "gt_boxes"
  python_param {
    module: "roi_data_layer.layer"
    layer: "RoIDataLayer"
    param_str: "\'num_classes\': 8"
  }
}
layer {
  name: "conv1_1"
  type: "Convolution"
  bottom: "data"
  top: "conv1_1"
  param {
    lr_mult: 0
    decay_mult: 0
  }
  param {
    lr_mult: 0
    decay_mult: 0
  }
  convolution_param {
    num_output: 64
    pad: 1
    kernel_size: 3
  }
}
layer {
  name: "relu1_1"
  type: "ReLU"
  bottom: "conv1_1"
  top: "conv1_1"
}
layer {
  name: "conv1_2"
  type: "Convolution"
  bottom: "conv1_1"
  top: "conv1_2"
  param {
    lr_mult: 0
    decay_mult: 0
  }
  param {
    lr_mult: 0
    decay_mult: 0
  }
  convolution_param {
    num_output: 64
    pad: 1
    kernel_size: 3
  }
}
layer {
  name: "relu1_2"
  type: "ReLU"
  bottom: "conv1_2"
  top: "conv1_2"
}
layer {
  name: "pool1"
  type: "Pooling"
  bottom: "conv1_2"
  top: "pool1"
  pooling_param {
    pool: MAX
    kernel_size: 2
    stride: 2
  }
}
layer {
  name: "conv2_1"
  type: "Convolution"
  bottom: "pool1"
  top: "conv2_1"
  param {
    lr_mult: 0
    decay_mult: 0
  }
  param {
    lr_mult: 0
    decay_mult: 0
  }
  convolution_param {
    num_output: 128
    pad: 1
    kernel_size: 3
  }
}
layer {
  name: "relu2_1"
  type: "ReLU"
  bottom: "conv2_1"
  top: "conv2_1"
}
layer {
  name: "conv2_2"
  type: "Convolution"
  bottom: "conv2_1"
  top: "conv2_2"
  param {
    lr_mult: 0
    decay_mult: 0
  }
  param {
    lr_mult: 0
    decay_mult: 0
  }
  convolution_param {
    num_output: 128
    pad: 1
    kernel_size: 3
  }
}
layer {
  name: "relu2_2"
  type: "ReLU"
  bottom: "conv2_2"
  top: "conv2_2"
}
layer {
  name: "pool2"
  type: "Pooling"
  bottom: "conv2_2"
  top: "pool2"
  pooling_param {
    pool: MAX
    kernel_size: 2
    stride: 2
  }
}
layer {
  name: "conv3_1"
  type: "Convolution"
  bottom: "pool2"
  top: "conv3_1"
  param {
    lr_mult: 1
  }
  param {
    lr_mult: 2
  }
  convolution_param {
    num_output: 256
    pad: 1
    kernel_size: 3
  }
}
layer {
  name: "relu3_1"
  type: "ReLU"
  bottom: "conv3_1"
  top: "conv3_1"
}
layer {
  name: "conv3_2"
  type: "Convolution"
  bottom: "conv3_1"
  top: "conv3_2"
  param {
    lr_mult: 1
  }
  param {
    lr_mult: 2
  }
  convolution_param {
    num_output: 256
    pad: 1
    kernel_size: 3
  }
}
layer {
  name: "relu3_2"
  type: "ReLU"
  bottom: "conv3_2"
  top: "conv3_2"
}
layer {
  name: "conv3_3"
  type: "Convolution"
  bottom: "conv3_2"
  top: "conv3_3"
  param {
    lr_mult: 1
  }
  param {
    lr_mult: 2
  }
  convolution_param {
    num_output: 256
    pad: 1
    kernel_size: 3
  }
}
layer {
  name: "relu3_3"
  type: "ReLU"
  bottom: "conv3_3"
  top: "conv3_3"
}
layer {
  name: "pool3"
  type: "Pooling"
  bottom: "conv3_3"
  top: "pool3"
  pooling_param {
    pool: MAX
    kernel_size: 2
    stride: 2
  }
}
layer {
  name: "conv4_1"
  type: "Convolution"
  bottom: "pool3"
  top: "conv4_1"
  param {
    lr_mult: 1
  }
  param {
    lr_mult: 2
  }
  convolution_param {
    num_output: 512
    pad: 1
    kernel_size: 3
  }
}
layer {
  name: "relu4_1"
  type: "ReLU"
  bottom: "conv4_1"
  top: "conv4_1"
}
layer {
  name: "conv4_2"
  type: "Convolution"
  bottom: "conv4_1"
  top: "conv4_2"
  param {
    lr_mult: 1
  }
  param {
    lr_mult: 2
  }
  convolution_param {
    num_output: 512
    pad: 1
    kernel_size: 3
  }
}
layer {
  name: "relu4_2"
  type: "ReLU"
  bottom: "conv4_2"
  top: "conv4_2"
}
layer {
  name: "conv4_3"
  type: "Convolution"
  bottom: "conv4_2"
  top: "conv4_3"
  param {
    lr_mult: 1
  }
  param {
    lr_mult: 2
  }
  convolution_param {
    num_output: 512
    pad: 1
    kernel_size: 3
  }
}
layer {
  name: "relu4_3"
  type: "ReLU"
  bottom: "conv4_3"
  top: "conv4_3"
}
layer {
  name: "pool4"
  type: "Pooling"
  bottom: "conv4_3"
  top: "pool4"
  pooling_param {
    pool: MAX
    kernel_size: 2
    stride: 2
  }
}
layer {
  name: "conv5_1"
  type: "Convolution"
  bottom: "pool4"
  top: "conv5_1"
  param {
    lr_mult: 1
  }
  param {
    lr_mult: 2
  }
  convolution_param {
    num_output: 512
    pad: 1
    kernel_size: 3
  }
}
layer {
  name: "relu5_1"
  type: "ReLU"
  bottom: "conv5_1"
  top: "conv5_1"
}
layer {
  name: "conv5_2"
  type: "Convolution"
  bottom: "conv5_1"
  top: "conv5_2"
  param {
    lr_mult: 1
  }
  param {
    lr_mult: 2
  }
  convolution_param {
    num_output: 512
    pad: 1
    kernel_size: 3
  }
}
layer {
  name: "relu5_2"
  type: "ReLU"
  bottom: "conv5_2"
  top: "conv5_2"
}
layer {
  name: "conv5_3"
  type: "Convolution"
  bottom: "conv5_2"
  top: "conv5_3"
  param {
    lr_mult: 1
  }
  param {
    lr_mult: 2
  }
  convolution_param {
    num_output: 512
    pad: 1
    kernel_size: 3
  }
}
layer {
  name: "relu5_3"
  type: "ReLU"
  bottom: "conv5_3"
  top: "conv5_3"
}
layer {
  name: "rpn_conv/3x3"
  type: "Convolution"
  bottom: "conv5_3"
  top: "rpn/output"
  param {
    lr_mult: 1
  }
  param {
    lr_mult: 2
  }
  convolution_param {
    num_output: 512
    pad: 1
    kernel_size: 3
    stride: 1
    weight_filler {
      type: "gaussian"
      std: 0.01
    }
    bias_filler {
      type: "constant"
      value: 0
    }
  }
}
layer {
  name: "rpn_relu/3x3"
  type: "ReLU"
  bottom: "rpn/output"
  top: "rpn/output"
}
layer {
  name: "rpn_cls_score"
  type: "Convolution"
  bottom: "rpn/output"
  top: "rpn_cls_score"
  param {
    lr_mult: 1
  }
  param {
    lr_mult: 2
  }
  convolution_param {
    num_output: 18
    pad: 0
    kernel_size: 1
    stride: 1
    weight_filler {
      type: "gaussian"
      std: 0.01
    }
    bias_filler {
      type: "constant"
      value: 0
    }
  }
}
layer {
  name: "rpn_bbox_pred"
  type: "Convolution"
  bottom: "rpn/output"
  top: "rpn_bbox_pred"
  param {
    lr_mult: 1
  }
  param {
    lr_mult: 2
  }
  convolution_param {
    num_output: 36
    pad: 0
    kernel_size: 1
    stride: 1
    weight_filler {
      type: "gaussian"
      std: 0.01
    }
    bias_filler {
      type: "constant"
      value: 0
    }
  }
}
layer {
  name: "rpn_cls_score_reshape"
  type: "Reshape"
  bottom: "rpn_cls_score"
  top: "rpn_cls_score_reshape"
  reshape_param {
    shape {
      dim: 0
      dim: 2
      dim: -1
      dim: 0
    }
  }
}
layer {
  name: "rpn-data"
  type: "Python"
  bottom: "rpn_cls_score"
  bottom: "gt_boxes"
  bottom: "im_info"
  bottom: "data"
  top: "rpn_labels"
  top: "rpn_bbox_targets"
  top: "rpn_bbox_inside_weights"
  top: "rpn_bbox_outside_weights"
  python_param {
    module: "rpn.anchor_target_layer"
    layer: "AnchorTargetLayer"
    param_str: "\'feat_stride\': 16"
  }
}
layer {
  name: "rpn_loss_cls"
  type: "SoftmaxWithLoss"
  bottom: "rpn_cls_score_reshape"
  bottom: "rpn_labels"
  top: "rpn_cls_loss"
  loss_weight: 1
  propagate_down: true
  propagate_down: false
  loss_param {
    ignore_label: -1
    normalize: true
  }
}
layer {
  name: "rpn_loss_bbox"
  type: "SmoothL1Loss"
  bottom: "rpn_bbox_pred"
  bottom: "rpn_bbox_targets"
  bottom: "rpn_bbox_inside_weights"
  bottom: "rpn_bbox_outside_weights"
  top: "rpn_loss_bbox"
  loss_weight: 1
  smooth_l1_loss_param {
    sigma: 3
  }
}
layer {
  name: "rpn_cls_prob"
  type: "Softmax"
  bottom: "rpn_cls_score_reshape"
  top: "rpn_cls_prob"
}
layer {
  name: "rpn_cls_prob_reshape"
  type: "Reshape"
  bottom: "rpn_cls_prob"
  top: "rpn_cls_prob_reshape"
  reshape_param {
    shape {
      dim: 0
      dim: 18
      dim: -1
      dim: 0
    }
  }
}
layer {
  name: "proposal"
  type: "Python"
  bottom: "rpn_cls_prob_reshape"
  bottom: "rpn_bbox_pred"
  bottom: "im_info"
  top: "rpn_rois"
  python_param {
    module: "rpn.proposal_layer"
    layer: "ProposalLayer"
    param_str: "\'feat_stride\': 16"
  }
}
layer {
  name: "roi-data"
  type: "Python"
  bottom: "rpn_rois"
  bottom: "gt_boxes"
  top: "rois"
  top: "labels"
  top: "bbox_targets"
  top: "bbox_inside_weights"
  top: "bbox_outside_weights"
  python_param {
    module: "rpn.proposal_target_layer"
    layer: "ProposalTargetLayer"
    param_str: "\'num_classes\': 8"
  }
}
layer {
  name: "roi_pool5"
  type: "ROIPooling"
  bottom: "conv5_3"
  bottom: "rois"
  top: "pool5"
  roi_pooling_param {
    pooled_h: 7
    pooled_w: 7
    spatial_scale: 0.0625
  }
}
layer {
  name: "fc6"
  type: "InnerProduct"
  bottom: "pool5"
  top: "fc6"
  param {
    lr_mult: 1
  }
  param {
    lr_mult: 2
  }
  inner_product_param {
    num_output: 4096
  }
}
layer {
  name: "relu6"
  type: "ReLU"
  bottom: "fc6"
  top: "fc6"
}
layer {
  name: "drop6"
  type: "Dropout"
  bottom: "fc6"
  top: "fc6"
  dropout_param {
    dropout_ratio: 0.5
  }
}
layer {
  name: "fc7"
  type: "InnerProduct"
  bottom: "fc6"
  top: "fc7"
  param {
    lr_mult: 1
  }
  param {
    lr_mult: 2
  }
  inner_product_param {
    num_output: 4096
  }
}
layer {
  name: "relu7"
  type: "ReLU"
  bottom: "fc7"
  top: "fc7"
}
layer {
  name: "drop7"
  type: "Dropout"
  bottom: "fc7"
  top: "fc7"
  dropout_param {
    dropout_ratio: 0.5
  }
}
layer {
  name: "cls_score"
  type: "InnerProduct"
  bottom: "fc7"
  top: "cls_score"
  param {
    lr_mult: 1
  }
  param {
    lr_mult: 2
  }
  inner_product_param {
    num_output: 8
    weight_filler {
      type: "gaussian"
      std: 0.01
    }
    bias_filler {
      type: "constant"
      value: 0
    }
  }
}
layer {
  name: "bbox_pred"
  type: "InnerProduct"
  bottom: "fc7"
  top: "bbox_pred"
  param {
    lr_mult: 1
  }
  param {
    lr_mult: 2
  }
  inner_product_param {
    num_output: 32
    weight_filler {
      type: "gaussian"
      std: 0.001
    }
    bias_filler {
      type: "constant"
      value: 0
    }
  }
}
layer {
  name: "loss_cls"
  type: "SoftmaxWithLoss"
  bottom: "cls_score"
  bottom: "labels"
  top: "loss_cls"
  loss_weight: 1
  propagate_down: true
  propagate_down: false
}
layer {
  name: "loss_bbox"
  type: "SmoothL1Loss"
  bottom: "bbox_pred"
  bottom: "bbox_targets"
  bottom: "bbox_inside_weights"
  bottom: "bbox_outside_weights"
  top: "loss_bbox"
  loss_weight: 1
}
I0604 23:21:50.324980  3078 layer_factory.hpp:77] Creating layer input-data
I0604 23:21:50.344904  3078 net.cpp:106] Creating Layer input-data
I0604 23:21:50.344941  3078 net.cpp:411] input-data -> data
I0604 23:21:50.344964  3078 net.cpp:411] input-data -> im_info
I0604 23:21:50.344977  3078 net.cpp:411] input-data -> gt_boxes
RoiDataLayer: name_to_top: {'gt_boxes': 2, 'data': 0, 'im_info': 1}
I0604 23:21:50.919250  3078 net.cpp:150] Setting up input-data
I0604 23:21:50.919301  3078 net.cpp:157] Top shape: 1 3 600 1000 (1800000)
I0604 23:21:50.919312  3078 net.cpp:157] Top shape: 1 3 (3)
I0604 23:21:50.919320  3078 net.cpp:157] Top shape: 1 4 (4)
I0604 23:21:50.919328  3078 net.cpp:165] Memory required for data: 7200028
I0604 23:21:50.919345  3078 layer_factory.hpp:77] Creating layer data_input-data_0_split
I0604 23:21:50.919369  3078 net.cpp:106] Creating Layer data_input-data_0_split
I0604 23:21:50.919379  3078 net.cpp:454] data_input-data_0_split <- data
I0604 23:21:50.919397  3078 net.cpp:411] data_input-data_0_split -> data_input-data_0_split_0
I0604 23:21:50.919415  3078 net.cpp:411] data_input-data_0_split -> data_input-data_0_split_1
I0604 23:21:50.919482  3078 net.cpp:150] Setting up data_input-data_0_split
I0604 23:21:50.919504  3078 net.cpp:157] Top shape: 1 3 600 1000 (1800000)
I0604 23:21:50.919514  3078 net.cpp:157] Top shape: 1 3 600 1000 (1800000)
I0604 23:21:50.919523  3078 net.cpp:165] Memory required for data: 21600028
I0604 23:21:50.919531  3078 layer_factory.hpp:77] Creating layer im_info_input-data_1_split
I0604 23:21:50.919543  3078 net.cpp:106] Creating Layer im_info_input-data_1_split
I0604 23:21:50.919554  3078 net.cpp:454] im_info_input-data_1_split <- im_info
I0604 23:21:50.919565  3078 net.cpp:411] im_info_input-data_1_split -> im_info_input-data_1_split_0
I0604 23:21:50.919577  3078 net.cpp:411] im_info_input-data_1_split -> im_info_input-data_1_split_1
I0604 23:21:50.919641  3078 net.cpp:150] Setting up im_info_input-data_1_split
I0604 23:21:50.919661  3078 net.cpp:157] Top shape: 1 3 (3)
I0604 23:21:50.919672  3078 net.cpp:157] Top shape: 1 3 (3)
I0604 23:21:50.919679  3078 net.cpp:165] Memory required for data: 21600052
I0604 23:21:50.919687  3078 layer_factory.hpp:77] Creating layer gt_boxes_input-data_2_split
I0604 23:21:50.919698  3078 net.cpp:106] Creating Layer gt_boxes_input-data_2_split
I0604 23:21:50.919708  3078 net.cpp:454] gt_boxes_input-data_2_split <- gt_boxes
I0604 23:21:50.919718  3078 net.cpp:411] gt_boxes_input-data_2_split -> gt_boxes_input-data_2_split_0
I0604 23:21:50.919739  3078 net.cpp:411] gt_boxes_input-data_2_split -> gt_boxes_input-data_2_split_1
I0604 23:21:50.919821  3078 net.cpp:150] Setting up gt_boxes_input-data_2_split
I0604 23:21:50.919836  3078 net.cpp:157] Top shape: 1 4 (4)
I0604 23:21:50.919844  3078 net.cpp:157] Top shape: 1 4 (4)
I0604 23:21:50.919852  3078 net.cpp:165] Memory required for data: 21600084
I0604 23:21:50.919859  3078 layer_factory.hpp:77] Creating layer conv1_1
I0604 23:21:50.919883  3078 net.cpp:106] Creating Layer conv1_1
I0604 23:21:50.919896  3078 net.cpp:454] conv1_1 <- data_input-data_0_split_0
I0604 23:21:50.919908  3078 net.cpp:411] conv1_1 -> conv1_1
I0604 23:21:50.928287  3078 net.cpp:150] Setting up conv1_1
I0604 23:21:50.928359  3078 net.cpp:157] Top shape: 1 64 600 1000 (38400000)
I0604 23:21:50.928370  3078 net.cpp:165] Memory required for data: 175200084
I0604 23:21:50.928396  3078 layer_factory.hpp:77] Creating layer relu1_1
I0604 23:21:50.928426  3078 net.cpp:106] Creating Layer relu1_1
I0604 23:21:50.928436  3078 net.cpp:454] relu1_1 <- conv1_1
I0604 23:21:50.928462  3078 net.cpp:397] relu1_1 -> conv1_1 (in-place)
I0604 23:21:50.928488  3078 net.cpp:150] Setting up relu1_1
I0604 23:21:50.928498  3078 net.cpp:157] Top shape: 1 64 600 1000 (38400000)
I0604 23:21:50.928508  3078 net.cpp:165] Memory required for data: 328800084
I0604 23:21:50.928516  3078 layer_factory.hpp:77] Creating layer conv1_2
I0604 23:21:50.928539  3078 net.cpp:106] Creating Layer conv1_2
I0604 23:21:50.928586  3078 net.cpp:454] conv1_2 <- conv1_1
I0604 23:21:50.928614  3078 net.cpp:411] conv1_2 -> conv1_2
I0604 23:21:50.940080  3078 net.cpp:150] Setting up conv1_2
I0604 23:21:50.940115  3078 net.cpp:157] Top shape: 1 64 600 1000 (38400000)
I0604 23:21:50.940126  3078 net.cpp:165] Memory required for data: 482400084
I0604 23:21:50.940141  3078 layer_factory.hpp:77] Creating layer relu1_2
I0604 23:21:50.940165  3078 net.cpp:106] Creating Layer relu1_2
I0604 23:21:50.940172  3078 net.cpp:454] relu1_2 <- conv1_2
I0604 23:21:50.940184  3078 net.cpp:397] relu1_2 -> conv1_2 (in-place)
I0604 23:21:50.940198  3078 net.cpp:150] Setting up relu1_2
I0604 23:21:50.940210  3078 net.cpp:157] Top shape: 1 64 600 1000 (38400000)
I0604 23:21:50.940218  3078 net.cpp:165] Memory required for data: 636000084
I0604 23:21:50.940225  3078 layer_factory.hpp:77] Creating layer pool1
I0604 23:21:50.940243  3078 net.cpp:106] Creating Layer pool1
I0604 23:21:50.940251  3078 net.cpp:454] pool1 <- conv1_2
I0604 23:21:50.940265  3078 net.cpp:411] pool1 -> pool1
I0604 23:21:50.940348  3078 net.cpp:150] Setting up pool1
I0604 23:21:50.940371  3078 net.cpp:157] Top shape: 1 64 300 500 (9600000)
I0604 23:21:50.940379  3078 net.cpp:165] Memory required for data: 674400084
I0604 23:21:50.940387  3078 layer_factory.hpp:77] Creating layer conv2_1
I0604 23:21:50.940403  3078 net.cpp:106] Creating Layer conv2_1
I0604 23:21:50.940414  3078 net.cpp:454] conv2_1 <- pool1
I0604 23:21:50.940428  3078 net.cpp:411] conv2_1 -> conv2_1
I0604 23:21:50.944319  3078 net.cpp:150] Setting up conv2_1
I0604 23:21:50.944352  3078 net.cpp:157] Top shape: 1 128 300 500 (19200000)
I0604 23:21:50.944362  3078 net.cpp:165] Memory required for data: 751200084
I0604 23:21:50.944376  3078 layer_factory.hpp:77] Creating layer relu2_1
I0604 23:21:50.944392  3078 net.cpp:106] Creating Layer relu2_1
I0604 23:21:50.944404  3078 net.cpp:454] relu2_1 <- conv2_1
I0604 23:21:50.944416  3078 net.cpp:397] relu2_1 -> conv2_1 (in-place)
I0604 23:21:50.944427  3078 net.cpp:150] Setting up relu2_1
I0604 23:21:50.944437  3078 net.cpp:157] Top shape: 1 128 300 500 (19200000)
I0604 23:21:50.944448  3078 net.cpp:165] Memory required for data: 828000084
I0604 23:21:50.944456  3078 layer_factory.hpp:77] Creating layer conv2_2
I0604 23:21:50.944473  3078 net.cpp:106] Creating Layer conv2_2
I0604 23:21:50.944480  3078 net.cpp:454] conv2_2 <- conv2_1
I0604 23:21:50.944497  3078 net.cpp:411] conv2_2 -> conv2_2
I0604 23:21:50.945055  3078 net.cpp:150] Setting up conv2_2
I0604 23:21:50.945081  3078 net.cpp:157] Top shape: 1 128 300 500 (19200000)
I0604 23:21:50.945089  3078 net.cpp:165] Memory required for data: 904800084
I0604 23:21:50.945101  3078 layer_factory.hpp:77] Creating layer relu2_2
I0604 23:21:50.945114  3078 net.cpp:106] Creating Layer relu2_2
I0604 23:21:50.945127  3078 net.cpp:454] relu2_2 <- conv2_2
I0604 23:21:50.945154  3078 net.cpp:397] relu2_2 -> conv2_2 (in-place)
I0604 23:21:50.945164  3078 net.cpp:150] Setting up relu2_2
I0604 23:21:50.945174  3078 net.cpp:157] Top shape: 1 128 300 500 (19200000)
I0604 23:21:50.945181  3078 net.cpp:165] Memory required for data: 981600084
I0604 23:21:50.945189  3078 layer_factory.hpp:77] Creating layer pool2
I0604 23:21:50.945206  3078 net.cpp:106] Creating Layer pool2
I0604 23:21:50.945215  3078 net.cpp:454] pool2 <- conv2_2
I0604 23:21:50.945225  3078 net.cpp:411] pool2 -> pool2
I0604 23:21:50.945289  3078 net.cpp:150] Setting up pool2
I0604 23:21:50.945309  3078 net.cpp:157] Top shape: 1 128 150 250 (4800000)
I0604 23:21:50.945353  3078 net.cpp:165] Memory required for data: 1000800084
I0604 23:21:50.945366  3078 layer_factory.hpp:77] Creating layer conv3_1
I0604 23:21:50.945382  3078 net.cpp:106] Creating Layer conv3_1
I0604 23:21:50.945395  3078 net.cpp:454] conv3_1 <- pool2
I0604 23:21:50.945410  3078 net.cpp:411] conv3_1 -> conv3_1
I0604 23:21:50.949725  3078 net.cpp:150] Setting up conv3_1
I0604 23:21:50.949764  3078 net.cpp:157] Top shape: 1 256 150 250 (9600000)
I0604 23:21:50.949805  3078 net.cpp:165] Memory required for data: 1039200084
I0604 23:21:50.949825  3078 layer_factory.hpp:77] Creating layer relu3_1
I0604 23:21:50.949837  3078 net.cpp:106] Creating Layer relu3_1
I0604 23:21:50.949849  3078 net.cpp:454] relu3_1 <- conv3_1
I0604 23:21:50.949863  3078 net.cpp:397] relu3_1 -> conv3_1 (in-place)
I0604 23:21:50.949877  3078 net.cpp:150] Setting up relu3_1
I0604 23:21:50.949890  3078 net.cpp:157] Top shape: 1 256 150 250 (9600000)
I0604 23:21:50.949898  3078 net.cpp:165] Memory required for data: 1077600084
I0604 23:21:50.949905  3078 layer_factory.hpp:77] Creating layer conv3_2
I0604 23:21:50.949925  3078 net.cpp:106] Creating Layer conv3_2
I0604 23:21:50.949936  3078 net.cpp:454] conv3_2 <- conv3_1
I0604 23:21:50.949947  3078 net.cpp:411] conv3_2 -> conv3_2
I0604 23:21:50.955555  3078 net.cpp:150] Setting up conv3_2
I0604 23:21:50.955592  3078 net.cpp:157] Top shape: 1 256 150 250 (9600000)
I0604 23:21:50.955610  3078 net.cpp:165] Memory required for data: 1116000084
I0604 23:21:50.955622  3078 layer_factory.hpp:77] Creating layer relu3_2
I0604 23:21:50.955636  3078 net.cpp:106] Creating Layer relu3_2
I0604 23:21:50.955649  3078 net.cpp:454] relu3_2 <- conv3_2
I0604 23:21:50.955660  3078 net.cpp:397] relu3_2 -> conv3_2 (in-place)
I0604 23:21:50.955672  3078 net.cpp:150] Setting up relu3_2
I0604 23:21:50.955685  3078 net.cpp:157] Top shape: 1 256 150 250 (9600000)
I0604 23:21:50.955693  3078 net.cpp:165] Memory required for data: 1154400084
I0604 23:21:50.955701  3078 layer_factory.hpp:77] Creating layer conv3_3
I0604 23:21:50.955718  3078 net.cpp:106] Creating Layer conv3_3
I0604 23:21:50.955725  3078 net.cpp:454] conv3_3 <- conv3_2
I0604 23:21:50.955742  3078 net.cpp:411] conv3_3 -> conv3_3
I0604 23:21:50.960377  3078 net.cpp:150] Setting up conv3_3
I0604 23:21:50.960412  3078 net.cpp:157] Top shape: 1 256 150 250 (9600000)
I0604 23:21:50.960422  3078 net.cpp:165] Memory required for data: 1192800084
I0604 23:21:50.960434  3078 layer_factory.hpp:77] Creating layer relu3_3
I0604 23:21:50.960448  3078 net.cpp:106] Creating Layer relu3_3
I0604 23:21:50.960459  3078 net.cpp:454] relu3_3 <- conv3_3
I0604 23:21:50.960474  3078 net.cpp:397] relu3_3 -> conv3_3 (in-place)
I0604 23:21:50.960492  3078 net.cpp:150] Setting up relu3_3
I0604 23:21:50.960502  3078 net.cpp:157] Top shape: 1 256 150 250 (9600000)
I0604 23:21:50.960510  3078 net.cpp:165] Memory required for data: 1231200084
I0604 23:21:50.960516  3078 layer_factory.hpp:77] Creating layer pool3
I0604 23:21:50.960528  3078 net.cpp:106] Creating Layer pool3
I0604 23:21:50.960536  3078 net.cpp:454] pool3 <- conv3_3
I0604 23:21:50.960547  3078 net.cpp:411] pool3 -> pool3
I0604 23:21:50.960635  3078 net.cpp:150] Setting up pool3
I0604 23:21:50.960657  3078 net.cpp:157] Top shape: 1 256 75 125 (2400000)
I0604 23:21:50.960665  3078 net.cpp:165] Memory required for data: 1240800084
I0604 23:21:50.960674  3078 layer_factory.hpp:77] Creating layer conv4_1
I0604 23:21:50.960690  3078 net.cpp:106] Creating Layer conv4_1
I0604 23:21:50.960700  3078 net.cpp:454] conv4_1 <- pool3
I0604 23:21:50.960716  3078 net.cpp:411] conv4_1 -> conv4_1
I0604 23:21:50.977489  3078 net.cpp:150] Setting up conv4_1
I0604 23:21:50.977538  3078 net.cpp:157] Top shape: 1 512 75 125 (4800000)
I0604 23:21:50.977548  3078 net.cpp:165] Memory required for data: 1260000084
I0604 23:21:50.977566  3078 layer_factory.hpp:77] Creating layer relu4_1
I0604 23:21:50.977589  3078 net.cpp:106] Creating Layer relu4_1
I0604 23:21:50.977643  3078 net.cpp:454] relu4_1 <- conv4_1
I0604 23:21:50.977659  3078 net.cpp:397] relu4_1 -> conv4_1 (in-place)
I0604 23:21:50.977675  3078 net.cpp:150] Setting up relu4_1
I0604 23:21:50.977689  3078 net.cpp:157] Top shape: 1 512 75 125 (4800000)
I0604 23:21:50.977697  3078 net.cpp:165] Memory required for data: 1279200084
I0604 23:21:50.977705  3078 layer_factory.hpp:77] Creating layer conv4_2
I0604 23:21:50.977735  3078 net.cpp:106] Creating Layer conv4_2
I0604 23:21:50.977746  3078 net.cpp:454] conv4_2 <- conv4_1
I0604 23:21:50.977758  3078 net.cpp:411] conv4_2 -> conv4_2
I0604 23:21:50.988032  3078 net.cpp:150] Setting up conv4_2
I0604 23:21:50.988093  3078 net.cpp:157] Top shape: 1 512 75 125 (4800000)
I0604 23:21:50.988103  3078 net.cpp:165] Memory required for data: 1298400084
I0604 23:21:50.988131  3078 layer_factory.hpp:77] Creating layer relu4_2
I0604 23:21:50.988162  3078 net.cpp:106] Creating Layer relu4_2
I0604 23:21:50.988184  3078 net.cpp:454] relu4_2 <- conv4_2
I0604 23:21:50.988198  3078 net.cpp:397] relu4_2 -> conv4_2 (in-place)
I0604 23:21:50.988211  3078 net.cpp:150] Setting up relu4_2
I0604 23:21:50.988221  3078 net.cpp:157] Top shape: 1 512 75 125 (4800000)
I0604 23:21:50.988229  3078 net.cpp:165] Memory required for data: 1317600084
I0604 23:21:50.988235  3078 layer_factory.hpp:77] Creating layer conv4_3
I0604 23:21:50.988251  3078 net.cpp:106] Creating Layer conv4_3
I0604 23:21:50.988263  3078 net.cpp:454] conv4_3 <- conv4_2
I0604 23:21:50.988279  3078 net.cpp:411] conv4_3 -> conv4_3
I0604 23:21:50.999449  3078 net.cpp:150] Setting up conv4_3
I0604 23:21:50.999487  3078 net.cpp:157] Top shape: 1 512 75 125 (4800000)
I0604 23:21:50.999501  3078 net.cpp:165] Memory required for data: 1336800084
I0604 23:21:50.999514  3078 layer_factory.hpp:77] Creating layer relu4_3
I0604 23:21:50.999531  3078 net.cpp:106] Creating Layer relu4_3
I0604 23:21:50.999544  3078 net.cpp:454] relu4_3 <- conv4_3
I0604 23:21:50.999557  3078 net.cpp:397] relu4_3 -> conv4_3 (in-place)
I0604 23:21:50.999570  3078 net.cpp:150] Setting up relu4_3
I0604 23:21:50.999583  3078 net.cpp:157] Top shape: 1 512 75 125 (4800000)
I0604 23:21:50.999591  3078 net.cpp:165] Memory required for data: 1356000084
I0604 23:21:50.999599  3078 layer_factory.hpp:77] Creating layer pool4
I0604 23:21:50.999619  3078 net.cpp:106] Creating Layer pool4
I0604 23:21:50.999626  3078 net.cpp:454] pool4 <- conv4_3
I0604 23:21:50.999644  3078 net.cpp:411] pool4 -> pool4
I0604 23:21:50.999725  3078 net.cpp:150] Setting up pool4
I0604 23:21:50.999747  3078 net.cpp:157] Top shape: 1 512 38 63 (1225728)
I0604 23:21:50.999754  3078 net.cpp:165] Memory required for data: 1360902996
I0604 23:21:50.999763  3078 layer_factory.hpp:77] Creating layer conv5_1
I0604 23:21:50.999778  3078 net.cpp:106] Creating Layer conv5_1
I0604 23:21:50.999788  3078 net.cpp:454] conv5_1 <- pool4
I0604 23:21:50.999801  3078 net.cpp:411] conv5_1 -> conv5_1
I0604 23:21:51.009979  3078 net.cpp:150] Setting up conv5_1
I0604 23:21:51.010037  3078 net.cpp:157] Top shape: 1 512 38 63 (1225728)
I0604 23:21:51.010048  3078 net.cpp:165] Memory required for data: 1365805908
I0604 23:21:51.010063  3078 layer_factory.hpp:77] Creating layer relu5_1
I0604 23:21:51.010085  3078 net.cpp:106] Creating Layer relu5_1
I0604 23:21:51.010095  3078 net.cpp:454] relu5_1 <- conv5_1
I0604 23:21:51.010108  3078 net.cpp:397] relu5_1 -> conv5_1 (in-place)
I0604 23:21:51.010128  3078 net.cpp:150] Setting up relu5_1
I0604 23:21:51.010136  3078 net.cpp:157] Top shape: 1 512 38 63 (1225728)
I0604 23:21:51.010218  3078 net.cpp:165] Memory required for data: 1370708820
I0604 23:21:51.010229  3078 layer_factory.hpp:77] Creating layer conv5_2
I0604 23:21:51.010247  3078 net.cpp:106] Creating Layer conv5_2
I0604 23:21:51.010258  3078 net.cpp:454] conv5_2 <- conv5_1
I0604 23:21:51.010272  3078 net.cpp:411] conv5_2 -> conv5_2
I0604 23:21:51.020462  3078 net.cpp:150] Setting up conv5_2
I0604 23:21:51.020509  3078 net.cpp:157] Top shape: 1 512 38 63 (1225728)
I0604 23:21:51.020517  3078 net.cpp:165] Memory required for data: 1375611732
I0604 23:21:51.020532  3078 layer_factory.hpp:77] Creating layer relu5_2
I0604 23:21:51.020552  3078 net.cpp:106] Creating Layer relu5_2
I0604 23:21:51.020565  3078 net.cpp:454] relu5_2 <- conv5_2
I0604 23:21:51.020577  3078 net.cpp:397] relu5_2 -> conv5_2 (in-place)
I0604 23:21:51.020591  3078 net.cpp:150] Setting up relu5_2
I0604 23:21:51.020601  3078 net.cpp:157] Top shape: 1 512 38 63 (1225728)
I0604 23:21:51.020613  3078 net.cpp:165] Memory required for data: 1380514644
I0604 23:21:51.020624  3078 layer_factory.hpp:77] Creating layer conv5_3
I0604 23:21:51.020660  3078 net.cpp:106] Creating Layer conv5_3
I0604 23:21:51.020671  3078 net.cpp:454] conv5_3 <- conv5_2
I0604 23:21:51.020682  3078 net.cpp:411] conv5_3 -> conv5_3
I0604 23:21:51.030936  3078 net.cpp:150] Setting up conv5_3
I0604 23:21:51.030982  3078 net.cpp:157] Top shape: 1 512 38 63 (1225728)
I0604 23:21:51.030992  3078 net.cpp:165] Memory required for data: 1385417556
I0604 23:21:51.031006  3078 layer_factory.hpp:77] Creating layer relu5_3
I0604 23:21:51.031026  3078 net.cpp:106] Creating Layer relu5_3
I0604 23:21:51.031040  3078 net.cpp:454] relu5_3 <- conv5_3
I0604 23:21:51.031054  3078 net.cpp:397] relu5_3 -> conv5_3 (in-place)
I0604 23:21:51.031071  3078 net.cpp:150] Setting up relu5_3
I0604 23:21:51.031080  3078 net.cpp:157] Top shape: 1 512 38 63 (1225728)
I0604 23:21:51.031088  3078 net.cpp:165] Memory required for data: 1390320468
I0604 23:21:51.031096  3078 layer_factory.hpp:77] Creating layer conv5_3_relu5_3_0_split
I0604 23:21:51.031107  3078 net.cpp:106] Creating Layer conv5_3_relu5_3_0_split
I0604 23:21:51.031118  3078 net.cpp:454] conv5_3_relu5_3_0_split <- conv5_3
I0604 23:21:51.031129  3078 net.cpp:411] conv5_3_relu5_3_0_split -> conv5_3_relu5_3_0_split_0
I0604 23:21:51.031141  3078 net.cpp:411] conv5_3_relu5_3_0_split -> conv5_3_relu5_3_0_split_1
I0604 23:21:51.031219  3078 net.cpp:150] Setting up conv5_3_relu5_3_0_split
I0604 23:21:51.031244  3078 net.cpp:157] Top shape: 1 512 38 63 (1225728)
I0604 23:21:51.031265  3078 net.cpp:157] Top shape: 1 512 38 63 (1225728)
I0604 23:21:51.031272  3078 net.cpp:165] Memory required for data: 1400126292
I0604 23:21:51.031280  3078 layer_factory.hpp:77] Creating layer rpn_conv/3x3
I0604 23:21:51.031301  3078 net.cpp:106] Creating Layer rpn_conv/3x3
I0604 23:21:51.031313  3078 net.cpp:454] rpn_conv/3x3 <- conv5_3_relu5_3_0_split_0
I0604 23:21:51.031325  3078 net.cpp:411] rpn_conv/3x3 -> rpn/output
I0604 23:21:51.061686  3078 net.cpp:150] Setting up rpn_conv/3x3
I0604 23:21:51.061739  3078 net.cpp:157] Top shape: 1 512 38 63 (1225728)
I0604 23:21:51.061749  3078 net.cpp:165] Memory required for data: 1405029204
I0604 23:21:51.061765  3078 layer_factory.hpp:77] Creating layer rpn_relu/3x3
I0604 23:21:51.061787  3078 net.cpp:106] Creating Layer rpn_relu/3x3
I0604 23:21:51.061802  3078 net.cpp:454] rpn_relu/3x3 <- rpn/output
I0604 23:21:51.061816  3078 net.cpp:397] rpn_relu/3x3 -> rpn/output (in-place)
I0604 23:21:51.061833  3078 net.cpp:150] Setting up rpn_relu/3x3
I0604 23:21:51.061846  3078 net.cpp:157] Top shape: 1 512 38 63 (1225728)
I0604 23:21:51.061853  3078 net.cpp:165] Memory required for data: 1409932116
I0604 23:21:51.061863  3078 layer_factory.hpp:77] Creating layer rpn/output_rpn_relu/3x3_0_split
I0604 23:21:51.061875  3078 net.cpp:106] Creating Layer rpn/output_rpn_relu/3x3_0_split
I0604 23:21:51.061883  3078 net.cpp:454] rpn/output_rpn_relu/3x3_0_split <- rpn/output
I0604 23:21:51.061897  3078 net.cpp:411] rpn/output_rpn_relu/3x3_0_split -> rpn/output_rpn_relu/3x3_0_split_0
I0604 23:21:51.061913  3078 net.cpp:411] rpn/output_rpn_relu/3x3_0_split -> rpn/output_rpn_relu/3x3_0_split_1
I0604 23:21:51.061990  3078 net.cpp:150] Setting up rpn/output_rpn_relu/3x3_0_split
I0604 23:21:51.062011  3078 net.cpp:157] Top shape: 1 512 38 63 (1225728)
I0604 23:21:51.062021  3078 net.cpp:157] Top shape: 1 512 38 63 (1225728)
I0604 23:21:51.062028  3078 net.cpp:165] Memory required for data: 1419737940
I0604 23:21:51.062036  3078 layer_factory.hpp:77] Creating layer rpn_cls_score
I0604 23:21:51.062057  3078 net.cpp:106] Creating Layer rpn_cls_score
I0604 23:21:51.062081  3078 net.cpp:454] rpn_cls_score <- rpn/output_rpn_relu/3x3_0_split_0
I0604 23:21:51.062095  3078 net.cpp:411] rpn_cls_score -> rpn_cls_score
I0604 23:21:51.062700  3078 net.cpp:150] Setting up rpn_cls_score
I0604 23:21:51.062762  3078 net.cpp:157] Top shape: 1 18 38 63 (43092)
I0604 23:21:51.062793  3078 net.cpp:165] Memory required for data: 1419910308
I0604 23:21:51.062803  3078 layer_factory.hpp:77] Creating layer rpn_cls_score_rpn_cls_score_0_split
I0604 23:21:51.062835  3078 net.cpp:106] Creating Layer rpn_cls_score_rpn_cls_score_0_split
I0604 23:21:51.062862  3078 net.cpp:454] rpn_cls_score_rpn_cls_score_0_split <- rpn_cls_score
I0604 23:21:51.062877  3078 net.cpp:411] rpn_cls_score_rpn_cls_score_0_split -> rpn_cls_score_rpn_cls_score_0_split_0
I0604 23:21:51.062901  3078 net.cpp:411] rpn_cls_score_rpn_cls_score_0_split -> rpn_cls_score_rpn_cls_score_0_split_1
I0604 23:21:51.062984  3078 net.cpp:150] Setting up rpn_cls_score_rpn_cls_score_0_split
I0604 23:21:51.063015  3078 net.cpp:157] Top shape: 1 18 38 63 (43092)
I0604 23:21:51.063024  3078 net.cpp:157] Top shape: 1 18 38 63 (43092)
I0604 23:21:51.063031  3078 net.cpp:165] Memory required for data: 1420255044
I0604 23:21:51.063040  3078 layer_factory.hpp:77] Creating layer rpn_bbox_pred
I0604 23:21:51.063055  3078 net.cpp:106] Creating Layer rpn_bbox_pred
I0604 23:21:51.063067  3078 net.cpp:454] rpn_bbox_pred <- rpn/output_rpn_relu/3x3_0_split_1
I0604 23:21:51.063081  3078 net.cpp:411] rpn_bbox_pred -> rpn_bbox_pred
I0604 23:21:51.063678  3078 net.cpp:150] Setting up rpn_bbox_pred
I0604 23:21:51.063702  3078 net.cpp:157] Top shape: 1 36 38 63 (86184)
I0604 23:21:51.063710  3078 net.cpp:165] Memory required for data: 1420599780
I0604 23:21:51.063722  3078 layer_factory.hpp:77] Creating layer rpn_bbox_pred_rpn_bbox_pred_0_split
I0604 23:21:51.063736  3078 net.cpp:106] Creating Layer rpn_bbox_pred_rpn_bbox_pred_0_split
I0604 23:21:51.063748  3078 net.cpp:454] rpn_bbox_pred_rpn_bbox_pred_0_split <- rpn_bbox_pred
I0604 23:21:51.063760  3078 net.cpp:411] rpn_bbox_pred_rpn_bbox_pred_0_split -> rpn_bbox_pred_rpn_bbox_pred_0_split_0
I0604 23:21:51.063772  3078 net.cpp:411] rpn_bbox_pred_rpn_bbox_pred_0_split -> rpn_bbox_pred_rpn_bbox_pred_0_split_1
I0604 23:21:51.063843  3078 net.cpp:150] Setting up rpn_bbox_pred_rpn_bbox_pred_0_split
I0604 23:21:51.063863  3078 net.cpp:157] Top shape: 1 36 38 63 (86184)
I0604 23:21:51.063872  3078 net.cpp:157] Top shape: 1 36 38 63 (86184)
I0604 23:21:51.063880  3078 net.cpp:165] Memory required for data: 1421289252
I0604 23:21:51.063889  3078 layer_factory.hpp:77] Creating layer rpn_cls_score_reshape
I0604 23:21:51.063922  3078 net.cpp:106] Creating Layer rpn_cls_score_reshape
I0604 23:21:51.063948  3078 net.cpp:454] rpn_cls_score_reshape <- rpn_cls_score_rpn_cls_score_0_split_0
I0604 23:21:51.063966  3078 net.cpp:411] rpn_cls_score_reshape -> rpn_cls_score_reshape
I0604 23:21:51.064019  3078 net.cpp:150] Setting up rpn_cls_score_reshape
I0604 23:21:51.064040  3078 net.cpp:157] Top shape: 1 2 342 63 (43092)
I0604 23:21:51.064049  3078 net.cpp:165] Memory required for data: 1421461620
I0604 23:21:51.064056  3078 layer_factory.hpp:77] Creating layer rpn_cls_score_reshape_rpn_cls_score_reshape_0_split
I0604 23:21:51.064071  3078 net.cpp:106] Creating Layer rpn_cls_score_reshape_rpn_cls_score_reshape_0_split
I0604 23:21:51.064080  3078 net.cpp:454] rpn_cls_score_reshape_rpn_cls_score_reshape_0_split <- rpn_cls_score_reshape
I0604 23:21:51.064095  3078 net.cpp:411] rpn_cls_score_reshape_rpn_cls_score_reshape_0_split -> rpn_cls_score_reshape_rpn_cls_score_reshape_0_split_0
I0604 23:21:51.064111  3078 net.cpp:411] rpn_cls_score_reshape_rpn_cls_score_reshape_0_split -> rpn_cls_score_reshape_rpn_cls_score_reshape_0_split_1
I0604 23:21:51.064175  3078 net.cpp:150] Setting up rpn_cls_score_reshape_rpn_cls_score_reshape_0_split
I0604 23:21:51.064194  3078 net.cpp:157] Top shape: 1 2 342 63 (43092)
I0604 23:21:51.064203  3078 net.cpp:157] Top shape: 1 2 342 63 (43092)
I0604 23:21:51.064211  3078 net.cpp:165] Memory required for data: 1421806356
I0604 23:21:51.064220  3078 layer_factory.hpp:77] Creating layer rpn-data
I0604 23:21:51.068897  3078 net.cpp:106] Creating Layer rpn-data
I0604 23:21:51.068929  3078 net.cpp:454] rpn-data <- rpn_cls_score_rpn_cls_score_0_split_1
I0604 23:21:51.068960  3078 net.cpp:454] rpn-data <- gt_boxes_input-data_2_split_0
I0604 23:21:51.068982  3078 net.cpp:454] rpn-data <- im_info_input-data_1_split_0
I0604 23:21:51.069018  3078 net.cpp:454] rpn-data <- data_input-data_0_split_1
I0604 23:21:51.069033  3078 net.cpp:411] rpn-data -> rpn_labels
I0604 23:21:51.069057  3078 net.cpp:411] rpn-data -> rpn_bbox_targets
I0604 23:21:51.069072  3078 net.cpp:411] rpn-data -> rpn_bbox_inside_weights
I0604 23:21:51.069087  3078 net.cpp:411] rpn-data -> rpn_bbox_outside_weights
I0604 23:21:51.070030  3078 net.cpp:150] Setting up rpn-data
I0604 23:21:51.070070  3078 net.cpp:157] Top shape: 1 1 342 63 (21546)
I0604 23:21:51.070080  3078 net.cpp:157] Top shape: 1 36 38 63 (86184)
I0604 23:21:51.070088  3078 net.cpp:157] Top shape: 1 36 38 63 (86184)
I0604 23:21:51.070101  3078 net.cpp:157] Top shape: 1 36 38 63 (86184)
I0604 23:21:51.070109  3078 net.cpp:165] Memory required for data: 1422926748
I0604 23:21:51.070118  3078 layer_factory.hpp:77] Creating layer rpn_loss_cls
I0604 23:21:51.070271  3078 net.cpp:106] Creating Layer rpn_loss_cls
I0604 23:21:51.070294  3078 net.cpp:454] rpn_loss_cls <- rpn_cls_score_reshape_rpn_cls_score_reshape_0_split_0
I0604 23:21:51.070307  3078 net.cpp:454] rpn_loss_cls <- rpn_labels
…
I0604 23:21:51.071460  3078 net.cpp:157] Top shape: (1)
I0604 23:21:51.071467  3078 net.cpp:160]     with loss weight 1
I0604 23:21:51.071477  3078 net.cpp:165] Memory required for data: 1422926756
I0604 23:21:51.071485  3078 layer_factory.hpp:77] Creating layer rpn_cls_prob
I0604 23:21:51.071503  3078 net.cpp:106] Creating Layer rpn_cls_prob
I0604 23:21:51.071513  3078 net.cpp:454] rpn_cls_prob <- rpn_cls_score_reshape_rpn_cls_score_reshape_0_split_1
I0604 23:21:51.071524  3078 net.cpp:411] rpn_cls_prob -> rpn_cls_prob
I0604 23:21:51.071650  3078 net.cpp:150] Setting up rpn_cls_prob
I0604 23:21:51.071669  3078 net.cpp:157] Top shape: 1 2 342 63 (43092)
I0604 23:21:51.071678  3078 net.cpp:165] Memory required for data: 1423099124
I0604 23:21:51.071686  3078 layer_factory.hpp:77] Creating layer rpn_cls_prob_reshape
I0604 23:21:51.071698  3078 net.cpp:106] Creating Layer rpn_cls_prob_reshape
I0604 23:21:51.071713  3078 net.cpp:454] rpn_cls_prob_reshape <- rpn_cls_prob
I0604 23:21:51.071725  3078 net.cpp:411] rpn_cls_prob_reshape -> rpn_cls_prob_reshape
I0604 23:21:51.071774  3078 net.cpp:150] Setting up rpn_cls_prob_reshape
I0604 23:21:51.071794  3078 net.cpp:157] Top shape: 1 18 38 63 (43092)
I0604 23:21:51.071801  3078 net.cpp:165] Memory required for data: 1423271492
I0604 23:21:51.071810  3078 layer_factory.hpp:77] Creating layer proposal
I0604 23:21:51.078081  3078 net.cpp:106] Creating Layer proposal
I0604 23:21:51.078126  3078 net.cpp:454] proposal <- rpn_cls_prob_reshape
I0604 23:21:51.078145  3078 net.cpp:454] proposal <- rpn_bbox_pred_rpn_bbox_pred_0_split_1
I0604 23:21:51.078188  3078 net.cpp:454] proposal <- im_info_input-data_1_split_1
I0604 23:21:51.078203  3078 net.cpp:411] proposal -> rpn_rois
I0604 23:21:51.079452  3078 net.cpp:150] Setting up proposal
I0604 23:21:51.079491  3078 net.cpp:157] Top shape: 1 5 (5)
I0604 23:21:51.079504  3078 net.cpp:165] Memory required for data: 1423271512
I0604 23:21:51.079524  3078 layer_factory.hpp:77] Creating layer roi-data
I0604 23:21:51.080842  3078 net.cpp:106] Creating Layer roi-data
I0604 23:21:51.080878  3078 net.cpp:454] roi-data <- rpn_rois
I0604 23:21:51.080891  3078 net.cpp:454] roi-data <- gt_boxes_input-data_2_split_1
I0604 23:21:51.080904  3078 net.cpp:411] roi-data -> rois
I0604 23:21:51.080929  3078 net.cpp:411] roi-data -> labels
I0604 23:21:51.080945  3078 net.cpp:411] roi-data -> bbox_targets
I0604 23:21:51.080962  3078 net.cpp:411] roi-data -> bbox_inside_weights
I0604 23:21:51.080976  3078 net.cpp:411] roi-data -> bbox_outside_weights
I0604 23:21:51.081521  3078 net.cpp:150] Setting up roi-data
I0604 23:21:51.081552  3078 net.cpp:157] Top shape: 1 5 (5)
I0604 23:21:51.081563  3078 net.cpp:157] Top shape: 1 1 (1)
I0604 23:21:51.081570  3078 net.cpp:157] Top shape: 1 32 (32)
I0604 23:21:51.081583  3078 net.cpp:157] Top shape: 1 32 (32)
I0604 23:21:51.081589  3078 net.cpp:157] Top shape: 1 32 (32)
I0604 23:21:51.081598  3078 net.cpp:165] Memory required for data: 1423271920
I0604 23:21:51.081614  3078 layer_factory.hpp:77] Creating layer roi_pool5
I0604 23:21:51.081640  3078 net.cpp:106] Creating Layer roi_pool5
I0604 23:21:51.081650  3078 net.cpp:454] roi_pool5 <- conv5_3_relu5_3_0_split_1
I0604 23:21:51.081661  3078 net.cpp:454] roi_pool5 <- rois
I0604 23:21:51.081683  3078 net.cpp:411] roi_pool5 -> pool5
I0604 23:21:51.081698  3078 roi_pooling_layer.cpp:30] Spatial scale: 0.0625
I0604 23:21:51.081795  3078 net.cpp:150] Setting up roi_pool5
I0604 23:21:51.081817  3078 net.cpp:157] Top shape: 1 512 7 7 (25088)
I0604 23:21:51.081826  3078 net.cpp:165] Memory required for data: 1423372272
I0604 23:21:51.081835  3078 layer_factory.hpp:77] Creating layer fc6
I0604 23:21:51.081847  3078 net.cpp:106] Creating Layer fc6
I0604 23:21:51.081862  3078 net.cpp:454] fc6 <- pool5
I0604 23:21:51.081874  3078 net.cpp:411] fc6 -> fc6
I0604 23:21:51.476873  3078 net.cpp:150] Setting up fc6
I0604 23:21:51.476954  3078 net.cpp:157] Top shape: 1 4096 (4096)
I0604 23:21:51.476964  3078 net.cpp:165] Memory required for data: 1423388656
I0604 23:21:51.476996  3078 layer_factory.hpp:77] Creating layer relu6
I0604 23:21:51.477021  3078 net.cpp:106] Creating Layer relu6
I0604 23:21:51.477032  3078 net.cpp:454] relu6 <- fc6
I0604 23:21:51.477051  3078 net.cpp:397] relu6 -> fc6 (in-place)
I0604 23:21:51.477071  3078 net.cpp:150] Setting up relu6
I0604 23:21:51.477082  3078 net.cpp:157] Top shape: 1 4096 (4096)
I0604 23:21:51.477090  3078 net.cpp:165] Memory required for data: 1423405040
I0604 23:21:51.477102  3078 layer_factory.hpp:77] Creating layer drop6
I0604 23:21:51.477116  3078 net.cpp:106] Creating Layer drop6
I0604 23:21:51.477124  3078 net.cpp:454] drop6 <- fc6
I0604 23:21:51.477134  3078 net.cpp:397] drop6 -> fc6 (in-place)
I0604 23:21:51.477192  3078 net.cpp:150] Setting up drop6
I0604 23:21:51.477212  3078 net.cpp:157] Top shape: 1 4096 (4096)
I0604 23:21:51.477221  3078 net.cpp:165] Memory required for data: 1423421424
I0604 23:21:51.477227  3078 layer_factory.hpp:77] Creating layer fc7
I0604 23:21:51.477241  3078 net.cpp:106] Creating Layer fc7
I0604 23:21:51.477250  3078 net.cpp:454] fc7 <- fc6
I0604 23:21:51.477268  3078 net.cpp:411] fc7 -> fc7
I0604 23:21:51.541499  3078 net.cpp:150] Setting up fc7
I0604 23:21:51.541561  3078 net.cpp:157] Top shape: 1 4096 (4096)
I0604 23:21:51.541571  3078 net.cpp:165] Memory required for data: 1423437808
I0604 23:21:51.541590  3078 layer_factory.hpp:77] Creating layer relu7
I0604 23:21:51.541635  3078 net.cpp:106] Creating Layer relu7
I0604 23:21:51.541659  3078 net.cpp:454] relu7 <- fc7
I0604 23:21:51.541679  3078 net.cpp:397] relu7 -> fc7 (in-place)
I0604 23:21:51.541697  3078 net.cpp:150] Setting up relu7
I0604 23:21:51.541709  3078 net.cpp:157] Top shape: 1 4096 (4096)
I0604 23:21:51.541718  3078 net.cpp:165] Memory required for data: 1423454192
I0604 23:21:51.541725  3078 layer_factory.hpp:77] Creating layer drop7
I0604 23:21:51.541740  3078 net.cpp:106] Creating Layer drop7
I0604 23:21:51.541749  3078 net.cpp:454] drop7 <- fc7
I0604 23:21:51.541759  3078 net.cpp:397] drop7 -> fc7 (in-place)
I0604 23:21:51.541815  3078 net.cpp:150] Setting up drop7
I0604 23:21:51.541834  3078 net.cpp:157] Top shape: 1 4096 (4096)
I0604 23:21:51.541842  3078 net.cpp:165] Memory required for data: 1423470576
I0604 23:21:51.541851  3078 layer_factory.hpp:77] Creating layer fc7_drop7_0_split
I0604 23:21:51.541863  3078 net.cpp:106] Creating Layer fc7_drop7_0_split
I0604 23:21:51.541877  3078 net.cpp:454] fc7_drop7_0_split <- fc7
I0604 23:21:51.541888  3078 net.cpp:411] fc7_drop7_0_split -> fc7_drop7_0_split_0
I0604 23:21:51.541904  3078 net.cpp:411] fc7_drop7_0_split -> fc7_drop7_0_split_1
I0604 23:21:51.541987  3078 net.cpp:150] Setting up fc7_drop7_0_split
I0604 23:21:51.542006  3078 net.cpp:157] Top shape: 1 4096 (4096)
I0604 23:21:51.542016  3078 net.cpp:157] Top shape: 1 4096 (4096)
I0604 23:21:51.542022  3078 net.cpp:165] Memory required for data: 1423503344
I0604 23:21:51.542029  3078 layer_factory.hpp:77] Creating layer cls_score
I0604 23:21:51.542047  3078 net.cpp:106] Creating Layer cls_score
I0604 23:21:51.542059  3078 net.cpp:454] cls_score <- fc7_drop7_0_split_0
I0604 23:21:51.542071  3078 net.cpp:411] cls_score -> cls_score
I0604 23:21:51.542697  3078 net.cpp:150] Setting up cls_score
I0604 23:21:51.542721  3078 net.cpp:157] Top shape: 1 8 (8)
I0604 23:21:51.542731  3078 net.cpp:165] Memory required for data: 1423503376
I0604 23:21:51.542742  3078 layer_factory.hpp:77] Creating layer bbox_pred
I0604 23:21:51.542757  3078 net.cpp:106] Creating Layer bbox_pred
I0604 23:21:51.542767  3078 net.cpp:454] bbox_pred <- fc7_drop7_0_split_1
I0604 23:21:51.542796  3078 net.cpp:411] bbox_pred -> bbox_pred
I0604 23:21:51.544278  3078 net.cpp:150] Setting up bbox_pred
I0604 23:21:51.544301  3078 net.cpp:157] Top shape: 1 32 (32)
I0604 23:21:51.544309  3078 net.cpp:165] Memory required for data: 1423503504
I0604 23:21:51.544322  3078 layer_factory.hpp:77] Creating layer loss_cls
I0604 23:21:51.544338  3078 net.cpp:106] Creating Layer loss_cls
I0604 23:21:51.544354  3078 net.cpp:454] loss_cls <- cls_score
I0604 23:21:51.544365  3078 net.cpp:454] loss_cls <- labels
I0604 23:21:51.544375  3078 net.cpp:411] loss_cls -> loss_cls
…
